mnist/model.onnx (onnx, 212007 bytes, 6 tensors)

layer_stack.1.weight f4 [64, 784]
0.032931875 -0.0032289966 0.020633902 0.02272181 0.01822493 -0.019026507 -0.025147315 0.004479962
-0.0054199146 0.02479119 -0.023265265 -0.0063098245 2.3854083e-05 -0.0109780375 0.010199857 -0.0014684389
-0.029017378 0.0054836404 0.028414655 -0.012306018 0.009520655 0.0036359772 -0.035435814 0.021344598
-0.035536744 -0.013581158 -0.002185217 -0.021315716 -0.034237534 0.01910799 0.011502313 -0.022795375
-0.017973293 -5.677538e-05 0.021790016 0.03331619 0.02533582 -0.0156968 0.0016658443 0.028565144
0.031899642 -0.024364557 0.0025039592 0.02064562 -0.022396233 0.034811966 0.015330774 0.030761847
0.0026407633 -0.01421767 -0.023505835 -0.011665736 -0.0030148712 0.009146405 0.008739272 0.013421379
-0.013881024 0.035375405 -0.020564172 0.0223613 0.0025655578 0.032138623 -0.004716936 0.006599461
0.030672282 -0.03071142 0.021588612 0.006442595 -0.0018151691 0.017264962 -0.01831927 -0.04133374
-0.04595443 -0.04527423 -0.06194361 -0.00735129 -0.041916486 0.0018217348 -0.022375334 0.027774943
-6.136638e-05 0.02352371 -0.016385263 -0.03507291 -0.023879541 -0.03463764 0.0060814437 0.01119876
0.02780878 -0.0019701412 0.023737209 0.018658087 -0.012451174 0.01517434 0.020270504 -0.0031893929
-0.015739823 0.010483852 -0.01624113 0.0025831475 0.023175232 -0.0151429875 -0.038275357 -0.06088673
-0.069719136 -0.011360274 -0.029694334 -0.029567042 0.013462918 0.03214336 0.03381489 0.0009989653
-0.0017616494 -0.024222706 -0.0014147997 0.02267087 0.018396996 -0.02239738 0.017964346 0.016077686
-0.0042305714 -0.026781358 0.024003627 0.013239077 0.0561823 0.05679778 0.09378923 0.06865923
0.11260821 0.07687499 0.038124505 -0.04482965 -0.047664005 -0.049578246 -0.01674278 -0.0022657616
-0.0069644433 3.3300206e-05 0.031437896 -0.008719978 0.033345427 0.026022129 0.020804161 0.02368837
0.01467173 -0.06695777 -0.045690417 -0.007663776 -0.07432333 0.0062170075 0.027156249 0.056768566
0.08479081 0.05174434 0.049415458 0.07591856 0.11677136 0.124993585 0.053411476 0.011311176
0.035311453 0.07332997 0.028261995 -0.012224412 0.020698546 -0.012108706 -0.013948689 0.024358975
0.0037328007 0.022204055 -0.03152716 -0.0030966168 0.008023981 -0.028649343 -0.060711972 -0.03348377
-0.052012656 -0.0015116411 0.040786527 0.05469893 0.05952523 0.0844359 0.048309993 0.03786765
0.0037263813 0.012056517 0.009210236 0.030345632 0.015009255 0.058850057 0.106834814 0.04037102
0.07190011 0.03616322 0.019378273 -0.022707343 0.034005903 -0.012620065 -0.009978179 -0.040601324
-0.03876246 -0.03565382 -0.0066889855 -0.011064262 0.008474686 0.0072380495 0.047621798 0.061523214
0.013912359 0.08202049 -0.008405937 -0.04451399 -0.0607164 -0.044719703 0.053520933 0.05199546
-0.008416645 0.053395752 0.04763511 0.069485866 0.064445384 0.06844138 -0.027090276 -0.00036517598
-0.009509734 -0.0061878115 0.029402684 0.018852454 0.001667603 -0.015916532 0.010391738 -0.022763873
0.0007066117 0.047166836 0.076977625 0.008669681 0.063849345 0.0137945535 -0.022551505 -0.056616545
0.004291297 0.043073673 0.070805214 0.06241354 0.032159254 -0.0038729745 0.04541805 0.1262589
0.09244991 0.04591639 -0.018538373 0.035009105 0.018273665 -0.023491621 0.003778333 0.011008118
00000000: 93e3 063d 939d 53bb 6e08 a93c 1723 ba3c
00000010: 734c 953c 7add 9bbc be01 cebc a5cc 923b
00000020: 8a99 b1bb e516 cb3c cc96 bebc a5c2 cebb
00000030: 411a c837 3add 33bc 4d1d 273c a278 c0ba
00000040: dab5 edbc 1cb0 b33b dac5 e83c 2e9f 49bc
00000050: 85fc 1b3c 9349 6e3b 2525 11bd deda ae3c
00000060: fa8e 11bd 8183 5ebc dc35 0fbb 4c9e aebc
00000070: a83c 0cbd 5c88 9c3c 3374 3c3c 5ebd babc
00000080: ba3c 93bc 1a22 6eb8 fa80 b23c 8f76 083d
00000090: 118d cf3c 9396 80bc 7658 da3a 7301 ea3c
000000a0: 33a9 023d 2e98 c7bc 7719 243b 0121 a93c
000000b0: 4e78 b7bc fe96 0e3d ed2d 7b3c 4500 fc3c
000000c0: a810 2d3b 3bf1 68bc 4f8f c0bc a521 3fbc
000000d0: 2595 45bb ceda 153c 2a2f 0f3c 58e5 5b3c
000000e0: 3c6d 63bc cde5 103d 3276 a8bc 0c2f b73c
000000f0: eb22 283b caa3 033d 8790 9abb 4b40 d83b
00000100: 7044 fb3c 8496 fbbc 9ada b03c 671c d33b
00000110: f8ea edba 406f 8d3c 4b12 96bc 914d 29bd
00000120: b63a 3cbd 7971 39bd 95b8 7dbd 17e3 f0bb
00000130: 9fb0 2bbd 47c7 ee3a 7a4c b7bc 4788 e33c
00000140: d3b1 80b8 ccb4 c03c 633a 86bc 9da8 0fbd
00000150: 079f c3bc 33e0 0dbd d946 c73b 017b 373c
00000160: 3dcf e33c 7c1d 01bb 8974 c23c d8d8 983c
00000170: 0200 4cbc cc9d 783c 540e a63c 2205 51bb
00000180: cdf0 80bc 76c4 2b3c 1e0c 85bc 064a 293b
00000190: fcd9 bd3c 4b1a 78bc 9fc6 1cbd 5d64 79bd
000001a0: e8c8 8ebd 7120 3abc 8841 f3bc 9536 f2bc
000001b0: 9293 5c3c c1a8 033d 7b81 0a3d b7ef 823a
000001c0: 25e7 e6ba b26e c6bc cd70 b9ba 43b8 b93c
000001d0: 4cb5 963c b67a b7bc f729 933c 5ab5 833c
000001e0: 9ba0 8abb 9464 dbbc 41a3 c43c b7e8 583c
000001f0: 691f 663d caa4 683d 9114 c03d 369d 8c3d
00000200: 229f e63d a270 9d3d 7128 1c3d 4c9f 37bd
00000210: 553b 43bd 8f12 4bbd 2828 89bc 2c7d 14bb
00000220: fc35 e4bb d3ab 0b38 06c5 003d 3dde 0ebc
00000230: 3795 083d 5c2c d53c 7d6d aa3c 1d0e c23c
00000240: b261 703c 2821 89bd e025 3bbd 6a20 fbbb
00000250: d436 98bd 0ab8 cb3b c876 de3c 2886 683d
00000260: cea6 ad3d e0f1 533d dd67 4a3d 317b 9b3d
00000270: d325 ef3d a3fc ff3d fec5 5a3d 8352 393c
00000280: bea2 103d 062e 963d b385 e73c e648 48bc
00000290: ff8f a93c 9863 46bc 0b89 64bc 798c c73c
000002a0: 01a2 743b 47e5 b53c a022 01bd 9cf0 4abb
000002b0: 0477 033c 07b2 eabc 1ead 78bd 4726 09bd
000002c0: 390b 55bd 4222 c6ba c60f 273d fc0b 603d
000002d0: bad0 733d bbec ac3d b3e0 453d 1c1b 1b3d
000002e0: 4e36 743b b388 453c 88e6 163c 6797 f83c
000002f0: 61e9 753c c20c 713d 36cc da3d 155c 253d
00000300: 5d40 933d e21f 143d 2fbf 9e3c c004 babc
00000310: c649 0b3d 64c4 4ebc 847b 23bc 934d 26bd
00000320: 63c5 1ebd bd09 12bd 472f dbbb e146 35bc
00000330: 69d9 0a3c 292d ed3b 130f 433d c4ff 7b3d
00000340: aaf0 633c 5cfa a73d 0eb9 09bc 4d54 36bd
00000350: c3b1 78bd 022c 37bd c438 5b3d 31f9 543d
00000360: f8e5 09bc 81b5 5a3d 081d 433d 9b4e 8e3d
00000370: f1fb 833d ff2a 8c3d 6dec ddbc 1775 bfb9
00000380: b7ce 1bbc 20c3 cabb e6dd f03c 7670 9a3c
00000390: 7993 da3a 6363 82bc 1c42 2a3c 4d7b babc
000003a0: e93b 393a 0332 413d 72a6 9d3d 470b 0e3c
000003b0: 72c3 823d 8d02 623c efbd b8bc c0e6 67bd
000003c0: 029e 8c3b 056e 303d 5302 913d 57a5 7f3d
000003d0: 6cb9 033d bbd1 7dbb 4708 3a3d 034a 013e
000003e0: 6156 bd3d d312 3c3d c9dd 97bc b565 0f3d
000003f0: a7b2 953c 8071 c0bc e99d 773b 655b 343c

layer_stack.1.bias f4 [64]
0.124053195 0.28717318 0.26593962 -0.032351818 -0.034299463 -0.029414743 -0.11674939 -0.09728855
0.013078119 0.17749265 -0.042193756 -0.042887334 0.106193885 0.12588355 -0.029525194 0.15333794
-0.0009747361 -0.087524235 0.22900729 0.026448587 -0.025172872 0.1560386 0.14925525 0.10643459
0.087265775 0.06342242 -0.07909345 -0.08354442 0.06887406 -0.016043931 0.06073378 0.06400408
-0.06883045 0.03516005 0.16502847 0.10023417 -0.033463627 -0.07348029 0.07545216 -0.03865512
0.093893185 0.08792518 -0.067702085 -0.26416752 -0.08749705 -0.02495363 0.030954393 -0.011730476
-0.00355404 -0.080656 0.08773217 0.034312665 -0.04219995 0.018608285 0.03694974 0.14842068
0.013716708 0.057298925 -0.121405415 0.087123476 -0.053433735 0.092381075 0.027544325 -0.029073458
00000000: 9a0f fe3d 5d08 933e 3d29 883e 5783 04bd
00000010: 987d 0cbd 30f7 f0bc 4e1a efbd 383f c7bd
00000020: 9b45 563c a2c0 353e 5cd3 2cbd a1aa 2fbd
00000030: 2e7c d93d 9ee7 003e d2de f1bc 9f04 1d3e
00000040: 6f85 7fba e83f b3bd e380 6a3e b5aa d83c
00000050: 5737 cebc 95c8 1f3e 5ed6 183e 61fa d93d
00000060: 66b8 b23d 9de3 813d bffb a1bd 5619 abbd
00000070: d80d 8d3d 906e 83bc fcc3 783d 9214 833d
00000080: fbf6 8cbd fc03 103d 39fd 283e 9347 cd3d
00000090: 2811 09bd d67c 96bd a986 9a3d d554 1ebd
000000a0: 124b c03d 1e12 b43d 64a7 8abd f740 87be
000000b0: a731 b3bd 8e6b ccbc 1194 fd3c 2f31 40bc
000000c0: e6ea 68bb f92e a5bd edac b33d 708b 0c3d
000000d0: dbd9 2cbd 6770 983c 9c58 173d 97fb 173e
000000e0: 0bbc 603c 47b2 6a3d 67a3 f8bd cb6d b23d
000000f0: 55dd 5abd 4a32 bd3d a3a4 e13c 762b eebc

layer_stack.3.weight f4 [32, 64]
-0.01661506 -0.08584254 4.726205e-05 -0.026409164 -0.0019734653 0.0349084 -0.03188706 0.096477166
-0.097899444 -0.07828683 -0.11102383 -0.094252706 -0.107636124 0.04524734 -0.043860976 -0.06755173
-0.016062789 0.1641364 -0.080092065 -0.120212555 0.06950365 0.014071847 -0.009489016 -0.035957098
-0.10954079 0.020508973 0.0065735076 0.0049974304 -0.11938392 -0.0963751 0.05122484 -0.10529411
0.044046402 -0.05125352 0.017251637 -0.07917503 0.16229786 -0.023883905 -0.12956414 0.11739649
-0.07353911 0.043076206 -0.08842677 0.04382959 0.1191734 -0.04042313 0.016391495 -0.061311565
-0.120349795 -0.006644051 0.009973149 -0.11757566 5.2416955e-05 -0.09987787 0.032368526 0.046602797
0.071794234 -0.03414238 0.107507944 0.03819616 0.04662157 -0.12197317 -0.045876533 0.06712851
-0.019174078 0.13331746 -0.24339385 0.03797989 0.16330732 -0.0019119452 0.32673433 -0.37210688
0.34035677 -0.1461109 -0.27545625 -0.35581377 0.4058583 0.032403722 -0.4178844 -0.0015155255
0.0012009236 -0.19077842 -0.23751904 -0.13851713 0.2196918 0.2982461 0.20551242 -0.07766746
0.03181258 -0.08871168 0.49141335 -0.34010226 0.11273143 -0.28339094 0.118517734 0.05820901
-0.34785745 0.14980061 0.048168685 0.14887753 -0.28002757 -0.24635859 0.46482134 0.25036588
-0.27794015 0.1656538 0.13403893 -0.1688568 -0.09548004 0.055741936 -0.36895475 -0.3677874
0.1919944 -0.30665305 -0.10591895 -0.34455243 0.18892089 0.6306732 0.33191845 0.079942435
0.16745023 0.19625929 0.090191066 0.28040028 -0.08880609 0.22193345 0.13792224 -0.045312036
-0.08981494 0.05170811 -0.014068995 -0.095972374 -0.047014702 0.08109881 -0.08956425 -0.06245559
-0.26871893 0.2734267 0.019056566 -0.116333775 -0.08252516 0.14929393 -0.43847674 0.29478535
-0.12166355 0.09777432 -0.005977149 -0.022383284 -0.008084164 0.16832632 0.2930019 0.028495409
0.14819516 0.0020353086 0.16469748 0.08686235 -0.13592744 -0.21453139 0.062112812 0.21517445
0.17117335 0.071401946 -0.0036264875 -0.0990344 -0.14485349 -0.12544513 -0.06609942 -0.042891517
-0.19016658 0.31125465 -0.11379548 0.019335544 -0.077442646 0.2134077 -0.05925068 0.026556201
-0.1053602 0.21726781 -0.27656436 0.046291765 -0.1331291 0.11441978 -0.21372512 -0.16771434
0.24765392 0.13523325 0.2930656 0.022673314 -0.23275149 -0.07463265 -0.084818 -0.119844474
0.2610491 0.1986762 0.015538376 0.083191305 -0.05137493 0.1248709 0.05915639 0.025743755
-0.13883467 -0.03722726 0.008174289 -0.07140241 -0.33748206 0.31713343 -0.027655661 -0.011071912
-0.06546446 0.065076746 0.06412627 -0.08550943 0.054757368 0.097782865 0.16855346 0.2551389
-0.09889148 -0.008975572 -0.0137346005 0.14891285 -0.20885882 -0.14431573 -0.09403816 -0.04627446
0.24185339 -0.10023278 0.14458627 0.024712395 -0.027447602 0.036469206 -0.14041689 0.032234617
0.08610699 0.009708573 0.124358766 -0.06564395 0.18172441 0.17806706 -0.02938811 0.12153342
-0.25254717 0.18025745 -0.20925604 0.056474384 -0.21053678 -0.20121899 0.13212796 -0.080201745
0.08297515 -0.21488972 0.023206376 -0.046060733 0.10684463 -0.15336311 0.08345208 0.01149728
00000000: 4e1c 88bc 37ce afbd 3d3b 4638 0858 d8bc
00000010: 4155 01bb 1cfc 0e3d 019c 02bd d295 c53d
00000020: 817f c8bd d854 a0bd 7660 e3bd 9007 c1bd
00000030: 5470 dcbd 4655 393d 91a7 33bd 9058 8abd
00000040: 1c96 83bc 5f13 283e 4f07 a4bd 0032 f6bd
00000050: ee57 8e3d 9b8d 663c d177 1bbc c047 13bd
00000060: ec56 e0bd 6f02 a83c 9466 d73b 7cc1 a33b
00000070: 8f7f f4bd 4f60 c5bd 23d1 513d 70a4 d7bd
00000080: 006a 343d 36ef 51bd 4e53 8d3c 8526 a2bd
00000090: 6931 263e 2ea8 c3bc 76ac 04be 926d f03d
000000a0: ac9b 96bd ad70 303d 1819 b5bd a886 333d
000000b0: 2f11 f43d b992 25bd 7547 863c d621 7bbd
000000c0: f479 f6bd 57b6 d9bb 6b66 233c 82cb f0bd
000000d0: 47da 5b38 c58c ccbd dc94 043d 93e2 3e3d
000000e0: db08 933d e1d8 0bbd 202d dc3d 9473 1c3d
000000f0: 42f6 3e3d 12cd f9bd 08e9 3bbd ac7a 893d
00000100: f512 9dbc 5f84 083e 3d3c 79be cd90 1b3d
00000110: 093a 273e 3c9a faba b949 a73e cb84 bebe
00000120: 3e43 ae3e 199e 15be 9a08 8dbe 392d b6be
00000130: a9cc cf3e c4b9 043d f2f4 d5be 99a4 c6ba
00000140: 4f68 9d3a 6b5b 43be 3138 73be 6fd7 0dbe
00000150: e3f6 603e b6b3 983e d971 523e 1e10 9fbd
00000160: e84d 023d 78ae b5bd 889a fb3e e221 aebe
00000170: bcdf e63d 9e18 91be 6db9 f23d 926c 6e3d
00000180: 5f1a b2be 5565 193e 874c 453d 5a73 183e
00000190: c65f 8fbe 6d45 7cbe 10fd ed3e f52f 803e
000001a0: 2c4e 8ebe 26a1 293e 8041 093e cce8 2cbe
000001b0: 0a8b c3bd a851 643d a3e7 bcbe a14e bcbe
000001c0: 2e9a 443e a101 9dbe 09ec d8bd 2d69 b0be
000001d0: 7a74 413e cd73 213f 37f1 a93e dcb8 a33d
000001e0: 1378 2b3e 32f8 483e 18b6 b83d a090 8f3e
000001f0: f8df b5bd 8642 633e 7d3b 0d3e 1d99 39bd
00000200: e5f0 b7bd e2cb 533d a481 66bc 2a8d c4bd
00000210: 7d92 40bd 2217 a63d 766d b7bd 6fd1 7fbd
00000220: 8795 89be 96fe 8b3e 841c 9c3c 6740 eebd
00000230: f302 a9bd 82e0 183e 0680 e0be 1bee 963e
00000240: bd2a f9bd e73d c83d f6db c3bb 265d b7bc
00000250: 7173 04bc bc5d 2c3e 5804 963e 346f e93c
00000260: 79c0 173e d062 053b 75a6 283e e3e4 b13d
00000270: 9030 0bbe 1eae 5bbe 016a 7e3d b156 5c3e
00000280: 1148 2f3e 2f3b 923d 5daa 6dbb 8cd2 cabd
00000290: 7954 14be b074 00be 225f 87bd 04af 2fbd
000002a0: 07bb 42be c55c 9f3e 9b0d e9bd 9365 9e3c
000002b0: 409a 9ebd 8c87 5a3e d7b0 72bd 648c d93c
000002c0: 17c7 d7bd 747b 5e3e d899 8dbe 6f9c 3d3d
000002d0: ff52 08be eb54 ea3d c2da 5abe 4fbd 2bbe
000002e0: fd98 7d3e 967a 0a3e b20c 963e 63bd b93c
000002f0: 6856 6ebe 01d9 98bd 0fb5 adbd 0571 f5bd
00000300: 3aa8 853e c671 4b3e ac94 7e3c 3460 aa3d
00000310: 856e 52bd 50bc ff3d f94d 723d 91e4 d23c
00000320: ad2a 0ebe 9d7b 18bd 74ed 053c 6d3b 92bd
00000330: 73ca acbe 505f a23e 208e e2bc f766 35bc
00000340: 3b12 86bd f546 853d a254 833d 911f afbd
00000350: 4349 603d 6242 c83d 4799 2c3e 91a1 823e
00000360: 9e87 cabd 470e 13bc 1707 61bc 9c7c 183e
00000370: 16df 55be 81c7 13be 1497 c0bd 4a8a 3dbd
00000380: 6aa8 773e d846 cdbd 6c0e 143e a671 ca3c
00000390: cbd9 e0bc bc60 153d 72c9 0fbe 7208 043d
000003a0: dd58 b03d b510 1f3c cfaf fe3d 5670 86bd
000003b0: f715 3a3e 3657 363e 55bf f0bc 84e6 f83d
000003c0: dd4d 81be 6995 383e 3747 56be af51 673d
000003d0: f496 57be 5a0c 4ebe 8d4c 073e d040 a4bd
000003e0: e0ee a93d 0d0c 5cbe 4c1b be3c 2eaa 3cbd
000003f0: 5bd1 da3d 380b 1dbe ede8 aa3d 165f 3c3c

layer_stack.3.bias f4 [32]
-0.016439792 0.25543025 0.15776479 0.13414782 0.053893834 0.23812875 0.22691096 0.222388
0.26014566 0.073775366 0.055875223 0.03336383 0.096340194 0.10226644 -0.09191776 0.2156461
-0.009936543 0.06112009 0.03641971 -0.047157 0.12208304 0.160497 0.04320334 0.24218263
0.30508268 -0.18002641 0.043800928 -0.12613946 -0.09944477 -0.07809514 0.2641548 0.06197128
00000000: beac 86bc c1c7 823e 188d 213e 0c5e 093e
00000010: c8bf 5c3d 06d8 733e 595b 683e aeb9 633e
00000020: d031 853e 8a17 973d 6bdd 643d 83a8 083d
00000030: 024e c53d 1171 d13d 613f bcbd 55d2 5c3e
00000040: e2cc 22bc 0f59 7a3d d52c 153d b327 41bd
00000050: ac06 fa3d 5359 243e fcf5 303d b9fe 773e
00000060: cc33 9c3e d858 38be 9a68 333d b42a 01be
00000070: b3a9 cbbd 58f0 9fbd 4c3f 873e 99d5 7d3d

classifier.0.weight f4 [10, 32]
0.08330793 -0.21474314 0.25799933 -0.31036794 -0.2912456 -0.35162216 -0.3099405 -0.10728083
-0.14174235 -0.040070273 0.5963297 -0.5298982 0.51070875 -0.55899954 -0.09220949 -0.60289454
-0.15715033 0.43603027 -0.4178291 0.019081175 -0.5317154 -0.15717289 -0.41705763 1.2421207
-0.42988628 -0.36631683 0.26689282 -0.13036264 -0.2605044 0.0974025 -0.38400477 -0.2484353
-0.05874004 0.62039226 -0.4078328 -0.3739851 -0.25378695 -0.37619704 -0.13327907 0.07376468
-0.60547066 0.11848421 -0.4859295 0.8307522 -0.30949745 0.9560955 -0.015466877 -0.07022909
-0.22178566 0.21179022 0.59988016 -0.08827935 0.26833627 -0.25794008 0.23295513 -0.83494794
0.30555123 -0.0018196596 0.086663365 -0.024888031 0.05309818 0.104459405 -0.4870072 -0.4249505
-0.009017247 -0.21940506 -0.14424849 0.3893671 -0.20572236 -0.29616103 0.32262158 0.019943796
-0.06930206 0.41812652 0.5824927 0.041352388 0.104061246 0.8159284 0.743587 -0.7394488
0.3119065 0.3999319 -0.27414584 -0.074393466 0.6210263 -0.26630047 -0.36414358 -0.23413573
-0.76922303 -0.25834593 -0.3817301 -0.10390996 -0.16705467 -0.22064416 0.21335787 0.40086675
0.1886788 -0.4112901 -0.032787047 0.09270429 0.5293437 -0.31464934 0.10978885 0.19951683
-0.29862332 -0.24770801 -0.22943923 -0.31881815 -0.6432136 0.53391254 0.13712978 0.57161254
-0.018826986 -0.05668836 0.058508724 -0.1955337 -0.12191662 0.36086178 -0.17034948 0.25350672
-0.32097054 0.9990634 -0.24417229 0.13396011 0.5698258 0.23377067 0.40983742 0.81765026
0.14796162 0.8711264 0.21819147 0.15906468 0.47723046 0.1454564 0.23499368 -0.57850564
0.1158069 0.09237975 0.4352735 -0.40150133 0.059357464 -0.8046191 -0.9037803 -0.06253593
-0.12045486 -0.078458995 0.7845573 0.16463374 0.5830152 -0.3949849 -0.13983217 -1.0284338
0.2888032 -0.043459263 0.6278963 0.06584037 -0.05375423 0.08403807 -0.10341352 -0.19740242
-0.11008327 -0.024773374 0.07208431 0.16127524 -0.074442826 -0.050752033 0.47741836 0.9078973
0.62039346 0.16073714 -1.07412 0.04264052 0.2354164 -0.463512 -0.21472964 -0.19468094
0.01831013 0.40512916 0.071522765 0.07910112 0.26350266 0.545495 0.2921491 0.48052445
0.52212965 0.789596 -0.89685965 0.17328371 -0.08670266 -0.3907503 -0.053127754 -0.47541016
0.07625493 0.64755 0.53060824 0.16125916 -0.5778395 -0.5084006 -0.117497884 -0.24659114
0.59836745 -0.19910255 -0.01947642 0.89128053 -0.043564346 -0.8218332 0.24538116 -0.6109847
-0.17771797 -0.21826437 -0.6949897 -0.111258335 -0.13142699 -0.055576116 -0.36720946 0.6337914
0.5479626 -0.56278884 -0.41227582 -0.1527974 0.0332597 0.010702023 0.5639492 -0.6819107
0.15755409 -0.6343043 0.02833287 0.076003924 0.47950676 0.110694036 -0.37290916 0.30919325
-0.6367439 0.285964 0.44559658 -0.32366776 0.61483353 0.30222672 0.31987274 -0.064144626
-0.2127707 -0.46536246 0.35196134 -0.062678106 -0.045684587 0.31341657 1.0147102 -1.0493451
-0.628633 -0.44445074 0.48918313 -0.13253394 0.11351427 -0.21446204 0.12506199 0.18232995
00000000: 599d aa3d a0e5 5bbe 7d18 843e 8ce8 9ebe
00000010: 251e 95be d207 b4be 85b0 9ebe 0db6 dbbd
00000020: e824 11be ba20 24bd 10a9 183f 69a7 07bf
00000030: cfbd 023f 981a 0fbf 54d8 bcbd 4c57 1abf
00000040: 04ec 20be 5c3f df3e b2ed d5be 2050 9c3c
00000050: 801e 08bf eef1 20be 9488 d5be d0fd 9e3f
00000060: 0e1a dcbe e18d bbbe 2da6 883e c97d 05be
00000070: d560 85be f67a c73d 469c c4be d365 7ebe
00000080: 6599 70bd 07d2 1e3f 76cf d0be fa7a bfbe
00000090: 5df0 81be e69c c0be 4f7a 08be f011 973d
000000a0: 2000 1bbf d9a7 f23d c0cb f8be 2dac 543f
000000b0: 7376 9ebe adc2 743f c968 7dbc 45d4 8fbd
000000c0: c81b 63be 89df 583e bf91 193f cecb b4bd
000000d0: 5f63 893e b910 84be ca8b 6e3e 26bf 55bf
000000e0: 3671 9c3e a581 eeba 907c b13d fce1 cbbc
000000f0: 7a7d 593d d0ee d53d 0259 f9be 1d93 d9be
00000100: 13bd 13bc b8ab 60be e0b5 13be 205b c73e
00000110: e2a8 52be 6ba2 97be a82e a53e 2c61 a33c
00000120: 3dee 8dbd ae14 d63e 3e1e 153f 1f61 293d
00000130: 101e d53d afe0 503f b85b 3e3f 844c 3dbf
00000140: 35b2 9f3e e0c3 cc3e d85c 8cbe 9a5b 98bd
00000150: 94fb 1e3f 8958 88be 0771 babe 47c1 6fbe
00000160: cdeb 44bf eb45 84be 2172 c3be bfce d4bd
00000170: 6110 2bbe 8bf0 61be 7c7a 5a3e 683e cd3e
00000180: 0435 413e 9e94 d2be b64b 06bd bfdb bd3d
00000190: 1283 073f b819 a1be fad8 e03d 244e 4c3e
000001a0: 28e5 98be 2ba7 7dbe 1ef2 6abe 223c a3be
000001b0: a6a9 24bf 7eae 083f c06b 0c3e 3355 123f
000001c0: 0d3b 9abc 0e32 68bd d8a6 6f3d fc39 48be
000001d0: 6caf f9bd e0c2 b83e 1870 2ebe a2cb 813e
000001e0: 4056 a4be 9ec2 7f3f 4d08 7abe d72c 093e
000001f0: 1be0 113f 9461 6f3e 36d6 d13e 8751 513f
00000200: 4083 173e 2402 5f3f 966d 5f3e dae1 223e
00000210: 8d57 f43e 86f2 143e 2fa2 703e f218 14bf
00000220: 2b2c ed3d 9831 bd3d 2bdc de3e 9591 cdbe
00000230: d020 733d 84fb 4dbf 255e 67bf d612 80bd
00000240: 0ab1 f6bd 1caf a0bd bfd8 483f bf95 283e
00000250: 7c40 153f 763b cabe 2a30 0fbe b8a3 83bf
00000260: 03de 933e 5702 32bd d0bd 203f 51d7 863d
00000270: 652d 5cbd 271c ac3d 78ca d3bd dc23 4abe
00000280: 5673 e1bd 88f1 cabc f0a0 933d 5625 253e
00000290: 7b75 98bd 5de1 4fbd 2e70 f43e f56b 683f
000002a0: 1bd2 1e3f 4798 243e c47c 89bf d3a7 2e3d
000002b0: ff10 713e 7251 edbe 16e2 5bbe 715a 47be
000002c0: 20ff 953c 176d cf3e 877a 923d c5ff a13d
000002d0: d2e9 863e 8fa5 0b3f 9194 953e 4d07 f63e
000002e0: 4aaa 053f f722 4a3f 9898 65bf 4971 313e
000002f0: 2a91 b1bd 6c10 c8be 7d9c 59bd f668 f3be
00000300: 8b2b 9c3d d6c5 253f f1d5 073f 1f21 253e
00000310: 4aed 13bf 8b26 02bf bba2 f0bd 6382 7cbe
00000320: 9c2e 193f 8ae1 4bbe 038d 9fbc f62a 643f
00000330: 8770 32bd a963 52bf 3345 7b3e 7e69 1cbf
00000340: b3fb 35be b280 5fbe d8ea 31bf 69db e3bd
00000350: cc94 06be c8a3 63bd e102 bcbe 2740 223f
00000360: 4747 0c3f ee12 10bf d115 d3be ec76 1cbe
00000370: 533b 083d 8a57 2f3c fa5e 103f b391 2ebf
00000380: dc55 213e c461 22bf 561a e83c f2a7 9b3d
00000390: e981 f53e 8eb3 e23d f3ed bebe 944e 9e3e
000003a0: a601 23bf e069 923e 3c25 e43e c8b7 a5be
000003b0: bb65 1d3f 76bd 9a3e 5cc6 a33e 425e 83bd
000003c0: 90e0 59be fd43 eebe 4734 b43e 615d 80bd
000003d0: c31f 3bbd 2378 a03e 06e2 813f f150 86bf
000003e0: 18ee 20bf 0c8f e3be 3676 fa3e fab6 07be
000003f0: 2b7a e83d f09b 5bbe 4010 003e b4b4 3a3e

classifier.0.bias f4 [10]
-0.2278069 0.23092267 -0.02430316 -0.14054376 -0.10740728 0.3041161 0.19420771 0.032778118
-0.05585112 0.17426032
00000000: 3646 69be fe76 6c3e 6c17 c7bc b4ea 0fbe
00000010: 59f8 dbbd 1bb5 9b3e 63de 463e 5942 063d
00000020: 25c4 64bd 4c71 323e
