mnist/mymodel_weights.pth (torch, 213015 bytes, 6 tensors)

layer_stack.1.weight f4 [64, 784]
00000000: b88b fa3c d5e4 833c 03e6 02bd 6e8b b13b
00000010: 7743 333c 9c18 6ebc b74a aaba f768 953b
00000020: 7700 1dbc 93e0 39ba 58e6 ddbc 8ae2 2b3c
00000030: b9e9 963c e99a 63bb e00b 86bc 9a90 ff3c
00000040: dc7e 3dbc c03c 193c b326 a6bc ee0b adbc
00000050: 2ccc ccbc 5caa 0e3c b7ea 923c 33ea 2cbc
00000060: 3afb a0bc b334 4dbc 7a6c d4bc caaf 033d
00000070: fa5f 853c eea2 bf3c f777 ae3b 8199 bf3b
00000080: 9cf2 af3b bfe3 05bd f7e9 27bc 9205 2dbc
00000090: 01f8 593c a2c7 24bc 7713 14bb f67a aabc
000000a0: 1544 bf3c 330e 023d 0570 943c d9da 463c
000000b0: b32a 9ebc d806 113d 6555 05bb 297e bd3c
000000c0: 86a8 da3c 70b1 96bc 674c e23c fb77 0a3c
000000d0: 2ab3 e1bc 2594 ba3c 93bd 74bb 2e2b bcbc
000000e0: f01a 953c 8747 c73c eb80 ce39 6d9a 0b3d
000000f0: 652b 713c 2bf1 4dbc 9f73 27bc b4aa c3bc
00000100: 796f a2bb 3831 913c 7b32 d6ba 9873 df3c
00000110: 1868 9a3b 493c 563d abb7 a83c 8a83 26bc
00000120: 051a 553c 20ff cb3c 0eab b8bc 8dc8 153d
00000130: 9e5c 853c 45a0 c1bc 87a0 b63c befc 033d
00000140: 0e6a de3c 7471 1abc 13c3 9d3b e219 0fbd
00000150: 08b4 083d 07a9 96bc 23b8 903b d28a 0e3d
00000160: fe7d 4f3b 4605 d73b 1fc6 ecbb 79fd 5bbc
00000170: dac4 a43b 9f8e a93b 7b00 dc3c bee7 afbc
00000180: 6018 263b b268 45bb 5a35 9f3c 95e7 713c
00000190: 639d c73b 9975 ce3a 0e48 5e3d 1df0 00bc
000001a0: 3e51 e9bb 16cb 973b 6c75 d53b 3559 96bc
000001b0: 1aaf 043d 130a 25bd 1361 01bc 5c8a 7bbc
000001c0: dc39 543c 8cb3 063d a10f b13c 0af2 8d3b
000001d0: d15b bebc 6503 34bd a4e6 7c3b 03db 1abc
000001e0: 1383 3fbc 9bea 30bd e53c f23c 7b8c 64bd
000001f0: 68cb ff3c ab09 083d 5695 ee3c 2f40 3d3d
00000200: 8b73 ba3d 5efc 7b3d b564 823c 762d 5cbc
00000210: 4738 1a3d eb94 e9bc 30a6 59bd 80a0 d53b
00000220: 7bed 02bd 5115 8f3c bb41 08bb d92a febb
00000230: de57 e53c ec8b 0d3d f972 833b 39a8 fcbc
00000240: 592b f9bc 4af0 8ebd e162 7cbd d941 5cbd
00000250: 2c62 85bc 8dd2 b8bc 78cc 49bd dd66 de3c
00000260: 1493 843c 94ab 333d a3ad 4b3d 81a4 113d
00000270: e7b5 09bd 9168 1c3d ce6e 423d 20a5 41bb
00000280: 9199 e3bc 20c6 1f3d 7f63 fcbc 9766 e1bb
00000290: 9b7c 13bd a0a3 323c 0cb8 0b3d c621 fabc
000002a0: 7581 92bc 51a0 e0bc 9968 27bc 5cb6 b03c
000002b0: 2bdf b2bb 284d 6ebd 2090 09bd 4679 29bd
000002c0: 50db cdbc c067 9cbd 3f32 7bbd 3521 99bc
000002d0: 8138 e93c 18c6 3d3c 8842 01bd 84db 8fbb
000002e0: 9420 7fbd 56bb 093c 96a7 a5bc 4aff 243d
000002f0: 355d cdbc 5a9f 80bc 9173 293a b51c 8a3a
00000300: 5de0 613c 84c7 d3bc 9bd7 fbbc ea0d 083d
00000310: 94e0 0f3d ce32 f43c 3320 893a 1f02 2bbc
00000320: 5b64 d0bc 618a 23bd e32d 9fbc 38fc 5fbd
00000330: 529a 87bd 9b4e 03bc cd71 953b d21b 21bd
00000340: 0f94 2dbc 29be ab3b 359e 03bd ee18 debb
00000350: 5087 22bd b988 6abc 3780 ca3d 8118 593b
00000360: 7a02 073d 739a 59bb b15d c3bc 9053 563d
00000370: cdf0 62bc 581f d23c 91db 9ebc 3d44 373c
00000380: fbac 50ba f920 dabc d2bc 0bbd 36ec 8cb9
00000390: e153 39bd 4fcc 54bd 6c7a 17bd a615 7ebd
000003a0: 1cf6 a1bc 3bdd e93c 756e 17bc 3dd4 413d
000003b0: 871c 783d a040 813d 8381 5cbc 619f 00bd
000003c0: 7dd9 47bd 8e93 dc3b f719 e33c c70b dbbc
000003d0: 764a c0bb ddac 70bd faca d2bb f8ee 3c3d
000003e0: be97 d8bb 7498 4f3c 26c3 8abb 8459 f43c
000003f0: 8eb4 b2bc 9c40 18bc 5371 dcbc fccd 05bb
0.030584201 0.016100327 -0.031957638 0.0054182326 0.010941378 -0.0145322345 -0.0012992237 0.004559632
-0.00958263 -0.0007090654 -0.027087376 0.010491023 0.018421995 -0.0034729785 -0.016363084 0.031196881
-0.01156589 0.009352863 -0.020282125 -0.021123853 -0.0249997 0.008707609 0.017934186 -0.010553884
-0.019651044 -0.0125247715 -0.025930632 0.032150067 0.016281117 0.02339312 0.0053243595 0.0058471565
0.0053694975 -0.0326879 -0.010248653 -0.01056041 0.013303758 -0.010057362 -0.002259461 -0.020810585
0.023347894 0.031751823 0.018119821 0.012137138 -0.01930747 0.035406917 -0.0020345089 0.023131447
0.026691686 -0.018395156 0.027624322 0.008451457 -0.027551252 0.022775719 -0.003734444 -0.022969808
0.018201321 0.0243261 0.00039387433 0.03408282 0.014719819 -0.012569706 -0.010220437 -0.023885109
-0.004957136 0.017723665 -0.0016341949 0.0272768 0.004712116 0.052303586 0.020595392 -0.010163197
0.013006692 0.024901927 -0.022542503 0.036568213 0.016279515 -0.023635993 0.022293342 0.032223456
0.02715018 -0.009426463 0.0048145144 -0.034936793 0.033374816 -0.018391145 0.004416482 0.034800358
0.003166079 0.006561908 -0.0072257663 -0.013427132 0.0050283493 0.0051744725 0.026855698 -0.021472808
0.0025344118 -0.0030122218 0.01943462 0.014764686 0.00609176 0.00157516 0.054267935 -0.0078697475
-0.0071202805 0.004632364 0.006514242 -0.018353084 0.032393552 -0.04029281 -0.007896679 -0.015352812
0.012953248 0.032886073 0.021613898 0.004331832 -0.02323714 -0.04394855 0.003858962 -0.0094516305
-0.011688965 -0.043192487 0.029570052 -0.055798035 0.031224921 0.033212345 0.029123943 0.04620379
0.09104069 0.061519973 0.015917161 -0.013438573 0.037651327 -0.028513392 -0.053137004 0.006519377
-0.03196476 0.01746622 -0.0020791132 -0.0077565727 0.027996 0.034557268 0.0040115085 -0.030841934
-0.030416178 -0.06979425 -0.061617736 -0.053773735 -0.016282164 -0.022561336 -0.049267262 0.027148658
0.016183414 0.0438648 0.04972614 0.035557274 -0.03362074 0.03818566 0.047468953 -0.0029547885
-0.027783187 0.039007306 -0.030809162 -0.0068786847 -0.036007505 0.010903269 0.034111068 -0.030533683
-0.017883996 -0.027420195 -0.010217809 0.02157133 -0.0054587326 -0.05817905 -0.033584714 -0.04137542
-0.02512899 -0.07636976 -0.061327215 -0.018692592 0.028469326 0.011582874 -0.03155759 -0.004390182
-0.06228693 0.008406481 -0.020221513 0.040282525 -0.025068859 -0.015700985 0.0006464059 0.001053712
0.0137864025 -0.025851972 -0.030742457 0.033216394 0.035126284 0.029809382 0.0010461867 -0.010437517
-0.025438478 -0.03992689 -0.01943106 -0.054683894 -0.06621231 -0.0080143465 0.0045606853 -0.039333172
-0.010594382 0.0052411747 -0.0321333 -0.006777874 -0.039679825 -0.014314824 0.09887736 0.0033126178
0.032961346 -0.0033203631 -0.023848386 0.052325785 -0.013851357 0.025649711 -0.019391807 0.011185703
-0.00079603464 -0.02662705 -0.03411562 -0.00026878872 -0.04524601 -0.051952656 -0.036981985 -0.062032364
-0.019770674 0.028547874 -0.009242644 0.047321547 0.06057408 0.06311154 -0.013458612 -0.031401996
-0.048791397 0.006731457 0.027722342 -0.026739014 -0.0058682514 -0.058758605 -0.006432888 0.046126336
-0.006609886 0.012670625 -0.0042346893 0.02982784 -0.02181461 -0.009292748 -0.026909506 -0.0020416966

layer_stack.1.bias f4 [64]
00000000: 6160 f3bc 611d 1e3e 1465 7e3d 1647 47bd
00000010: 0f84 003e 4a1d e93d 982b 39bd c149 8c3d
00000020: a991 483e 8833 303d fa63 22bd ee07 8e3d
00000030: 9a90 0dbe 5ba9 3b3e 3a42 e1bc 1453 b8bd
00000040: 3a91 6fbd 911d 613e 4a7d d3bc abd4 0f3d
00000050: 3c82 babc 81a2 553d 26cd 083d 9a3c d83b
00000060: 9da7 8e3d 2998 073d 08df 363e 62e6 6abd
00000070: b524 5ebc 36f1 1c3e 8a57 e2bc 3f4c c7bc
00000080: 6e1e 9a3e 9f38 0dbd f229 b43d 1fea b43d
00000090: e42c 633d e8d5 443c bb55 d83d c906 86bd
000000a0: ab73 c13d ac1e 57be da2a 883d f85c d33b
000000b0: 0576 25bd d67b 8c3d 1b45 00bd 209c 3f3e
000000c0: 7e67 a93c f599 033b 5f74 b0bc b2f9 9a3d
000000d0: 2483 693d 87c3 6bbb 6ec4 9c3d 0142 293e
000000e0: c04b cbbd ee80 81bd 0ee7 2a3e bfc1 153d
000000f0: 8bfa debb cb17 6abd daaa 1dbe a700 253d
-0.029709043 0.15440895 0.062108114 -0.048651777 0.12550376 0.113825396 -0.04520759 0.06850005
0.19586815 0.043017894 -0.039646126 0.06935106 -0.13824692 0.18326323 -0.0274974 -0.09000221
-0.05848811 0.21983935 -0.025816578 0.035114925 -0.022767179 0.05215693 0.03339877 0.006599021
0.069655634 0.033104096 0.17858517 -0.057348616 -0.013558556 0.1532639 -0.027629633 -0.02432835
0.3010134 -0.034477826 0.08797063 0.088337176 0.055462733 0.01201389 0.10563227 -0.06544263
0.0944589 -0.21007794 0.06648798 0.0064502917 -0.040395755 0.06859557 -0.031315904 0.187119
0.020679232 0.002008078 -0.021539865 0.07567157 0.05700983 -0.0035974698 0.076546535 0.16529085
-0.099265575 -0.063234195 0.16689703 0.036561724 -0.0068047694 -0.057151597 -0.15397206 0.040283825

layer_stack.3.weight f4 [32, 64]
00000000: fb8c f1bd 9a44 8a3d a0f2 afbd 18fb cfbd
00000010: e450 a53d 8818 ab3d 4065 8fbd ab60 05bd
00000020: 8fcf 8f3c adeb b8bd 95b5 c9ba f485 8a3d
00000030: 8a1a f0bc cd6d afbd 8019 15bd a1b9 06be
00000040: f08d 5f3d f764 c53d e43a 583c e40b f7bc
00000050: 29b6 ddbd da53 91bd c8d0 7b39 f896 b2bd
00000060: c99e 17bd b24c 4f3c 71f6 b3bd 22ac 6b3d
00000070: 58a3 023d 5e90 e2bd 850d 793d ecd6 cc3a
00000080: eb84 023e 44e0 a33d a19f 973c b4f2 d9bd
00000090: 2fb9 06be 065c 063e 9d38 ef3d e58f 01be
000000a0: 7c91 653d a522 293d 22a3 263e 77ca 87bd
000000b0: 920f f7bc fc21 a23c 80d6 ef3d 2860 96bc
000000c0: 0ecf d93c dfb6 3ebc d635 013e 85b4 413d
000000d0: eae7 293d 24b6 033e e903 583b a941 113e
000000e0: 2dc0 93bd 44b2 08bc f8fd 8b3d 80f1 18bd
000000f0: 02e7 3d3d e17a d6bc 9031 113d 83dc e2bd
00000100: fdba 35be a3f0 adbd 42cc 2f3e e8d3 60bd
00000110: cab7 c83e 1c39 9b3e 3c29 b73d 7854 08be
00000120: 23fe 8abc eeda 883e cda3 1fbf 070e c93c
00000130: 5650 263e 9c45 69be 6085 10be 9b89 debd
00000140: eb5a 933c 24dc 4abe ea88 0f3d 8d52 ff3d
00000150: a472 493e aa66 613e 807c 97be 97b9 87be
00000160: ba8a 3b3e 7354 8c3e dde1 2b3e 9092 a2be
00000170: ba98 3ebe d802 eb3e e1cb 9a3e 3615 b0be
00000180: 4a01 f23d e74a 8b3c 48b3 d63e afa1 0d3e
00000190: 0438 83be 0989 713e 6de5 983e 99e2 efbe
000001a0: d786 893e 9ae6 bcbe 5095 583e 84cf b83e
000001b0: 69da 4a3f e9e8 9a3d 696b 33bd 5d5c b53e
000001c0: 88ab 01be f3a9 013e 8503 f63d dbe2 eebd
000001d0: 491a aa3e 5b6d a5be 835d 183b 0fc8 debb
000001e0: 3eac 7ebe 8b24 c3be 8061 873d 8d7f 41be
000001f0: 25bb 563d 21ea a23e f1d1 473e 77e0 f13e
00000200: 6bfa b9bd 2480 85bd fae8 f13e 4032 cbbd
00000210: 7071 353e 8966 b5be f11d 22bd 7caf e6bd
00000220: 1f48 cd3b 51b1 1cbd 878d 2ebe f39f eebe
00000230: d0f5 813d 6c98 c9bd 9d9e 723d 4c59 5dbd
00000240: 6e78 133e 1669 c3bd 7e12 43bc 5c3d ff3e
00000250: 34aa 093e 7de8 0b3e 5147 9b3e fd7d 633e
00000260: 5f0b 233c 3ed0 0f3d 06f7 9a3e e830 fbbd
00000270: 3f11 5ebe e5ea d7bd cb65 ac3e 1e1b 1a3e
00000280: 5223 613e 0ddb 44bc f725 6bbe 058e 1fbd
00000290: f6f7 2dbd 7a61 a5be 5154 3dbe 649b e0bd
000002a0: d727 9dbe 5db1 163e a8c2 533d 29de 07be
000002b0: 9ae3 7fbe c203 6abe bddd 07be 6c3b 833e
000002c0: 875d d1bc d4dc b23e 9ede 413e e32c a8bc
000002d0: 4a59 fa3d 2a01 e9be b87e 4ebe 1541 29be
000002e0: a85a f63d bdbb 8bbe efbc 7bbd 6f72 2cbe
000002f0: 3601 c43e 7460 853d b488 ba3e 6970 1fbe
00000300: bfbb d8bd 5a93 56bd 1331 20be 75cd 9bbd
00000310: b3d7 bd3d 90b0 533c 2ad4 d8bd ce62 7b3d
00000320: b11c b5bd a184 34bd e24f b5bd 4a1b 83bd
00000330: 0da5 9e3d 253e 263c e71c 653d aafb fabd
00000340: 7a2e 08bd 07a7 f13d 81a1 dc3d 6e28 76bd
00000350: 17c3 e4bd 96d0 533d c5ee ce3a d5f9 25be
00000360: d3f9 163e 2e37 8ebc 4fe2 633d 03c9 bfbd
00000370: 668e df3b b280 f8bd aef6 cf3d 0d11 7d3d
00000380: a162 3c3e a592 e0bd 0125 923d 0516 e13d
00000390: 95c1 ef3c 6c75 0b3d 383a 3bbd ba78 61bd
000003a0: 1018 9c3d 73d2 373e 1466 fcbd 0393 b4bb
000003b0: e625 e4bd a671 11be 2321 3e3d 576b cfbb
000003c0: 7906 233d e94f 233e 2de6 e53d 1d98 c73d
000003d0: 89ed 583e 002f f23c 65ee a6bd a40a 9c3d
000003e0: b1c9 01be 4331 7ebc 37d6 6ebd 8551 103e
000003f0: 4a83 cebc d96f 213e cf0a 5f3d 2a06 58bd
-0.11794468 0.06751366 -0.08591199 -0.10155314 0.08072069 0.08354288 -0.07001734 -0.032562893
0.017555026 -0.090293266 -0.0015389199 0.06763831 -0.02930953 -0.08565865 -0.03640127 -0.1315675
0.05457872 0.09638398 0.013197634 -0.030157037 -0.1082576 -0.070960715 0.00024015002 -0.08720201
-0.037016664 0.012652563 -0.08787239 0.057537206 0.031894058 -0.11062692 0.06080391 0.0015628017
0.12746017 0.0800176 0.018508734 -0.10641995 -0.1315658 0.13121042 0.1168072 -0.12652548
0.056046948 0.041292805 0.16273168 -0.06630414 -0.030158792 0.019791596 0.117108345 -0.018356398
0.02658799 -0.01164028 0.12618193 0.047291297 0.041480936 0.1286245 0.0032961315 0.14185204
-0.07214389 -0.008343283 0.0683555 -0.037339687 0.046362884 -0.02618164 0.035447657 -0.110772155
-0.17747112 -0.084931634 0.17167762 -0.05488959 0.3920272 0.30317008 0.08943412 -0.13313472
-0.016966885 0.2672953 -0.62359315 0.024542822 0.16241583 -0.2278046 -0.14113379 -0.1086609
0.017987689 -0.1981054 0.03504268 0.12466917 0.19672638 0.2201182 -0.29587173 -0.2650878
0.18314639 0.2740818 0.16785379 -0.31752443 -0.18612948 0.45900607 0.30233672 -0.34391183
0.11816652 0.01700349 0.41933656 0.13831209 -0.25628674 0.23587431 0.29862538 -0.46852568
0.26860687 -0.36894685 0.21150708 0.36095822 0.7923952 0.07563955 -0.043803606 0.3542203
-0.1266309 0.12662487 0.1201239 -0.11664363 0.3322318 -0.32309994 0.0023249097 -0.006798751
-0.24870393 -0.38113818 0.066103935 -0.18896313 0.05242457 0.3181925 0.1951368 0.47241566
-0.090809666 -0.065185815 0.4724806 -0.09921694 0.17719054 -0.3542979 -0.039579336 -0.1126394
0.006264701 -0.03825504 -0.17046176 -0.46606407 0.06345713 -0.09843525 0.059233297 -0.05404024
0.14401409 -0.09541528 -0.011906264 0.498515 0.13443834 0.13662906 0.30327848 0.2221603
0.009951442 0.035110705 0.3026659 -0.122651875 -0.21686266 -0.105428495 0.33671412 0.15049407
0.2198613 -0.012015116 -0.22963701 -0.0389538 -0.042472802 -0.3230093 -0.18489195 -0.109671384
-0.30694458 0.14716096 0.05169931 -0.13268341 -0.24989167 -0.22852996 -0.1326818 0.25631273
-0.025557293 0.34934103 0.18932578 -0.020529216 0.12224062 -0.455087 -0.20165527 -0.16528733
0.1202901 -0.2729167 -0.061459478 -0.16840528 0.38282174 0.065125376 0.3643242 -0.15570225
-0.10582685 -0.05238662 -0.1564372 -0.07607547 0.09269657 0.012920514 -0.10587342 0.061373524
-0.08843363 -0.044071797 -0.08853127 -0.06401689 0.07746325 0.010146652 0.055935767 -0.12255032
-0.03324745 0.11799436 0.10772992 -0.06009715 -0.11170023 0.051712595 0.0015787712 -0.16208585
0.14743738 -0.017360296 0.055635747 -0.09364512 0.006822395 -0.12133922 0.10154472 0.06178384
0.18396999 -0.1096547 0.07135964 0.10990528 0.029267112 0.03404753 -0.04570982 -0.055046774
0.07621777 0.17951374 -0.12324157 -0.005510689 -0.11140041 -0.1420351 0.04641832 -0.0063299346
0.039801095 0.15948452 0.11225543 0.0974581 0.21184362 0.029563427 -0.08150939 0.07619217
-0.12674595 -0.015514675 -0.05830976 0.14093597 -0.025209088 0.15765323 0.054453667 -0.052740254

layer_stack.3.bias f4 [32]
00000000: 4792 2fbd fcee 953e 8f75 573e eda8 e5bd
00000010: 1bb7 653e 9123 dd3d 56cc 3b3c 81da a6bd
00000020: b5a2 bcbc ac14 173e 0b53 86bc cb69 14bd
00000030: f1e8 8e3e f22d 39bd fbbc 46bd 4c3c 233e
00000040: 83a2 5e3e b9aa acbd 3e5c bb3d 75a0 b43c
00000050: 590b 7f3d c603 713d cb83 23be e267 1f3e
00000060: 1719 bbbd b353 933d 4b0b 673e 69fd 45bd
00000070: b49a 183e 473b 153e 1064 43bd 9e2b 563e
-0.04286411 0.29283893 0.21040939 -0.11213861 0.2243313 0.107977994 0.011462292 -0.08147145
-0.023026804 0.1475398 -0.01639702 -0.036233705 0.27912095 -0.045209832 -0.04852007 0.1594097
0.21741681 -0.08431 0.09148453 0.022049168 0.06226668 0.05884149 -0.15968244 0.15566972
-0.09135645 0.07193699 0.22562902 -0.048337374 0.14902765 0.14573394 -0.04770285 0.20915076

classifier.0.weight f4 [10, 32]
00000000: 26f4 373e 9243 6b3e 8a7f abbe 5d3a 223e
00000010: 6826 0a3e ae75 7cbf 135d 81be 0b60 5a3f
00000020: 2f90 45bd af6a 153f 76b5 e8be 43ee 663f
00000030: 1bd2 efbe 9b19 363d 1eb4 15bf ce72 7ebe
00000040: 6e47 4a3e 6cca d0bd 71c7 09bf 84ee 053d
00000050: b238 92bc 0583 f83e 6c9f 773d 1645 2c3e
00000060: d284 d9be fd97 afbe 945d 2cbf 222e ef3e
00000070: a353 f53c 8465 7cbe ed1e 3f3d 5499 8abe
00000080: d615 0dbe 087a 0bbf 3f08 fbbe 9a3c 213e
00000090: 6c85 08bf 82dd 413f cd90 6bbe 69ec 89bd
000000a0: 1aa1 443e dc62 aabe 4fc1 05bf 7403 b3be
000000b0: 77a7 c13e 3bd2 ae3c fe61 643d 0ee1 6b3f
000000c0: 2d1b f13a 6fe9 2d3e d7e1 833e 5828 9dbe
000000d0: e390 21be e54a 3dbf a39e c7bd 5c80 8ebe
000000e0: c6d1 753f 9083 0a3f 010f dd3e 2f38 67be
000000f0: affd a2be ca5b b5be e9c4 c9be a647 7ebe
00000100: 6fb4 29be 6411 21bf a036 75be dcd5 5bbd
00000110: 9a65 293e 99f5 233f 0218 003c f031 043f
00000120: 052a 4e3e d3cd 903e 61aa 223f 27cb b53e
00000130: 12b7 87be c909 2bbf fb76 a2be 1162 83bf
00000140: 7fb8 a63c 41d8 fcbd 7e0c 393e 879e 1bbe
00000150: 6053 d73e 7d3c 32bd 25e9 843d a47a 40be
00000160: fbb8 543f c75e 9bbe dbc1 cdbd 5b6e 133f
00000170: e6b8 efbd 0f25 6cbe b501 483d 9648 01be
00000180: ad13 5abc 7139 92be 38bc 0d3f ad85 e03d
00000190: bc5a e7be d365 a2bd 285b 083d d79f a43d
000001a0: 0ff4 4dbe 364e 59bf 6d65 033f 4fe8 1bbf
000001b0: 3650 d8bd 97f2 b33e 008b 733f 87a3 26bd
000001c0: a9d5 653e 8718 023e 201b d4be 2ed4 4b3e
000001d0: 0679 b23e 1354 7b3e ce9a 233d 192e dbbd
000001e0: 5126 69bc 3023 e8be 7f2f 313f 1cbb 0a3f
000001f0: fcf2 1d3f cde7 44be 12ff 8a3e 5100 203e
00000200: c4fd 393e 9a0c a8be 258f bc3e 4653 5cbc
00000210: e948 743f b7c8 65be 4c61 6b3e 4549 8f3e
00000220: 3931 a83d 3bbb 0e3f 9b1c c7bd 7c5d 75bf
00000230: aa2d 9d3e 5bb0 c8be 6673 f13c 7338 c93e
00000240: e007 efbe 9783 603e 0274 9a3e 3c7e 483d
00000250: 8313 a03e c468 72bf 486f c7bd f43d 853e
00000260: a606 a1be e563 0b3f 5002 13bf 318e e13d
00000270: f6ac 09bf f66d 723f d337 24bd 5cc8 c5be
00000280: 1eef 083e 70c9 9f3f 6802 613e b4a5 963d
00000290: f129 65be d6d3 6e3e 4eae dabe eb88 2dbf
000002a0: 9c73 213e e330 bebe 66d0 a33d a43b 043e
000002b0: c16e 23bf 080e c3bd 274a 413f dca7 0abc
000002c0: 5a3d 493f e977 843d b228 cf3e 45ef a53d
000002d0: 170a 32bf 4242 a2bd e265 d23c 5ab8 0fbd
000002e0: 5c71 05bf 79cd 663e 521a 4ebe 973e 1ebe
000002f0: 54db 603d cc8e 7bbc 9e7f b5be 1e01 1e3e
00000300: c5cf 2fbe 85b9 353f 8d5f 39bf 1063 0dbe
00000310: 238b 9e3d 85ac bbbe 9d3f a0be f45f 88bd
00000320: 72bc 603c a012 b8be 2988 ea3d a8f3 6a3f
00000330: dde4 113f ad77 de3e 55c7 ffbe 076d 913d
00000340: 9393 a3be 7433 d93d 738b bd3e bf79 eb3d
00000350: 8ca3 1cbd ae49 0abf ca30 1dbd ae3e ed3e
00000360: eb9a 683d b3f4 9bbe e4bb 40bf 35cf f6be
00000370: a14d e5be e597 5abf 0c61 7e3d e721 f6be
00000380: 3775 88bc d388 6abf 9d4d f2be acd9 92be
00000390: 3e0b 7b3e 3423 6b3e b338 3abe 4269 32be
000003a0: b1c6 da3d 0552 183f 2fd4 52be 63cb 3bbf
000003b0: 99c3 1ebf 40ff f53d 04d3 07bf bf03 6dbe
000003c0: 3e6e 7a3e 326e 6abd 4ef7 c13d 758b b83e
000003d0: f461 01bf b51e 903e 3987 3cbe feb3 233f
000003e0: 598e 6c3f 48a6 f23e 1a88 ca3e 6637 ae3e
000003f0: bfcf 103f 4ddb 4fbe d6cb dd3e bc3f 3b3f
0.17964229 0.22974995 -0.33495742 0.15842576 0.13491213 -0.98617065 -0.25266322 0.853028
-0.048233207 0.5836591 -0.45450944 0.9020731 -0.46839985 0.044458013 -0.5847796 -0.24848482
0.19753811 -0.10194859 -0.5381995 0.03269817 -0.0178493 0.4853746 0.06045477 0.16823229
-0.42484146 -0.34295645 -0.6733029 0.46714884 0.029947108 -0.246481 0.046660352 -0.27070105
-0.13777861 -0.5448308 -0.4902973 0.15745774 -0.53328586 0.7572862 -0.23004456 -0.06734545
0.1920208 -0.3327855 -0.5224809 -0.34963572 0.37823078 0.02134048 0.055757515 0.9214028
0.001839494 0.16983579 0.2575824 -0.30694842 -0.15777926 -0.73942405 -0.097470544 -0.27832305
0.96023214 0.54107 0.4317551 -0.22580026 -0.3183417 -0.35421592 -0.39408043 -0.24832019
-0.16572736 -0.6291716 -0.23946619 -0.05367075 0.16542664 0.6404663 0.007818224 0.516387
0.20133217 0.2828203 0.6354123 0.35506555 -0.2650686 -0.66811806 -0.317314 -1.0264302
0.020351646 -0.12345935 0.18071172 -0.15197192 0.42055798 -0.043514717 0.06489781 -0.18796784
0.8309476 -0.30345747 -0.100467406 0.57590264 -0.117051885 -0.23061012 0.048829753 -0.12625346
-0.013310355 -0.2855945 0.55365324 0.10962997 -0.45186412 -0.07929578 0.03329006 0.080382995
-0.20112632 -0.84884965 0.5132664 -0.6090135 -0.10562174 0.3514602 0.9513397 -0.040683296
0.22444786 0.12704669 -0.41426945 0.19905159 0.3485796 0.2454379 0.039942555 -0.10702152
-0.014230327 -0.45339346 0.692131 0.54191756 0.6169889 -0.1922905 0.27147728 0.1562512
0.1816321 -0.32822114 0.3682796 -0.013447588 0.9542375 -0.22439848 0.22986335 0.27985588
0.082125135 0.5575444 -0.09722253 -0.9584577 0.306989 -0.3919705 0.029473972 0.3930088
-0.46685696 0.21925198 0.30166632 0.04894851 0.31264886 -0.9469111 -0.09738022 0.2602383
-0.31450385 0.544493 -0.57425404 0.11013449 -0.5377954 0.9469904 -0.0400923 -0.38629425
0.13372466 1.2483349 0.21973574 0.07355824 -0.2237928 0.23322996 -0.4271111 -0.67787045
0.15766758 -0.37146673 0.07998733 0.12913376 -0.6384087 -0.095241606 0.7550377 -0.008462872
0.7860924 0.064681835 0.40460736 0.08102278 -0.69546646 -0.07922794 0.025683347 -0.03508792
-0.521261 0.22539319 -0.20127228 -0.15453564 0.054896668 -0.01535387 -0.35448927 0.15430114
-0.17169102 0.70986205 -0.72411424 -0.1380732 0.07741382 -0.3665506 -0.31298533 -0.066589266
0.013716804 -0.3595171 0.11451752 0.9177804 0.5698984 0.4345068 -0.49956766 0.071008734
-0.31948528 0.10605517 0.37020454 0.114978306 -0.038241908 -0.54018676 -0.038376607 0.46336883
0.056788366 -0.30460128 -0.752867 -0.4820496 -0.4478579 -0.8538802 0.06210427 -0.4807274
-0.016657455 -0.9161503 -0.4732484 -0.28681695 0.24516007 0.22962648 -0.18185692 -0.17422965
0.10682429 0.5950015 -0.20588754 -0.7335722 -0.6201721 0.12011576 -0.5305636 -0.2314596
0.24456117 -0.057233997 0.09470998 0.36043897 -0.5054009 0.28148428 -0.18410958 0.6394652
0.92404705 0.47392488 0.39556962 0.3402664 0.56566995 -0.202985 0.43319577 0.73144126

classifier.0.bias f4 [10]
00000000: 48d1 57be 37f2 083e a518 e13a dbb0 49be
00000010: e3bd f43d 8d1b da3e 6e95 aabd 2229 b63d
00000020: 2035 80bd 84d9 9ebd
-0.21075928 0.13373648 0.0017173482 -0.19696371 0.119502805 0.42599145 -0.08329283 0.08894564
-0.06260133 -0.077563316
