mnist/mymodel_weights.pth (torch, 213015 bytes, 6 tensors)

layer_stack.1.weight f4 [64, 784]
0	0x3c4d3b45	0.012526338
1	0xbc49f5f3	-0.012326705
2	0x3a8c6ddc	0.0010713893
3	0x3baf56b7	0.0053509134
4	0x3c22ccc5	0.009936516
5	0x3c37f345	0.011227434
6	0x3ca946c7	0.020663632
7	0xbb86a80a	-0.0041093873
8	0xbcd92165	-0.026505182
9	0x3bd3de0a	0.006465678
10	0xbaccfd6e	-0.0015639493
11	0x3c1a40b3	0.00941484
12	0xbcb352fe	-0.02189016
13	0x3d0d9373	0.034564447
14	0xbaea4a6e	-0.0017874965
15	0x3d116f3d	0.035506476
16	0x3ba13ad3	0.0049203425
17	0x3cfeb47a	0.031091917
18	0x3cd78151	0.02630678
19	0xbc387761	-0.011258931
20	0x3c621ed8	0.013801299
21	0xbcad837c	-0.02118086
22	0xbc92524c	-0.017861508
23	0x3cf14cce	0.029455569
24	0x3ccf0e55	0.025275389
25	0xbc815be0	-0.01579088
26	0xbcb06de5	-0.021536777
27	0x3c0272b3	0.007961917
28	0xbc4eda5c	-0.012625303
29	0x3c93040a	0.017946262
30	0xbc3a408e	-0.01136793
31	0xbcfbe71a	-0.030749846
32	0xbcf63455	-0.03005425
33	0x3cb51aa7	0.022107435
34	0xbc90226e	-0.017594542
35	0x3cdaa2fe	0.026689049
36	0xbcfce081	-0.03086877
37	0x3c9160f7	0.017746432
38	0xbd0c2f01	-0.034224514
39	0xbce479cd	-0.02789011
40	0xbb2bf150	-0.0026236363
41	0x3c8a746c	0.016901217
42	0xbcbd64d3	-0.023119366
43	0xbcb8df3f	-0.02256739
44	0x3d0d1331	0.03444213
45	0x3c34b45d	0.01102933
46	0x3c32f18e	0.010921849
47	0x3c9c810e	0.019104507
48	0xbcbf9c37	-0.023389919
49	0xbcad4017	-0.021148724
50	0x3cf4314e	0.029808667
51	0x3c52e1ee	0.012871249
52	0x3ba5e9e5	0.005063283
53	0x3c7c8ffc	0.015415188
54	0x3c681bea	0.0141668115
55	0x3bcf14f7	0.006319638
56	0x3c3747a1	0.011186511
57	0xbbdb6025	-0.006694811
58	0x3cba7311	0.022759946
59	0x3a845200	0.0010095239
60	0x3ceb8d38	0.028753862
61	0x3c5c2df8	0.013438694
62	0xbcc4776c	-0.023982726
63	0xbc90e865	-0.01768894
64	0x3c9029f1	0.017598124
65	0xbabd0f52	-0.0014424121
66	0x3b7276b5	0.0036997024
67	0x3c545b1b	0.012961174
68	0xbd098134	-0.033570483
69	0xbc99de85	-0.018782863
70	0xbd05b102	-0.03263951
71	0x3bb8a6ed	0.0056351335
72	0xbce2035a	-0.027589489
73	0x3bd3d0a4	0.006464081
74	0x3ccf866a	0.025332648
75	0xbbd92e2e	-0.0066278195
76	0x3c8eba11	0.017422708
77	0xbcc605f0	-0.024172753
78	0xbd07af17	-0.033125963
79	0x3bf85c20	0.0075793415
80	0xbcdc0d44	-0.026861794
81	0xbb30b0a2	-0.002696075
82	0xbcca4061	-0.024688901
83	0x3c25a77c	0.010110732
84	0xbd05f484	-0.03270389
85	0x3b3b00ca	0.0028534406
86	0xbbbf7588	-0.0058428682
87	0x3c240e15	0.010013123
88	0xbb4afe6e	-0.0030974406
89	0x3b98d1dc	0.004663689
90	0xbd02b1c1	-0.0319078
91	0xbc30d88c	-0.010793816
92	0xbbcbc39f	-0.006218388
93	0xbc4c73d9	-0.012478792
94	0x3a7f4cfa	0.00097389484
95	0x3b057742	0.0020365273
96	0x3c0c4d56	0.00856336
97	0xbcccb4cb	-0.024988553
98	0xbc7ac67e	-0.015306113
99	0x3aef9551	0.0018278753
100	0xbba55585	-0.005045595
101	0xbcb5dcf5	-0.022200087
102	0x3c933a5b	0.017972162
103	0xbc598155	-0.013275464
104	0x3ca566e5	0.020190665
105	0xbcf0d51e	-0.029398497
106	0xbc7aa0ea	-0.015297154
107	0xbca5f465	-0.020258138
108	0xbbc554fa	-0.006022093
109	0xbc3185d3	-0.010835129
110	0x3cf7ad20	0.03023392
111	0x3d056fb0	0.032577217
112	0xbc1f93e0	-0.009739846
113	0xbd1092fc	-0.035296425
114	0xbb9b11b3	-0.0047323345
115	0x3a8c86f6	0.0010721374
116	0xba264320	-0.00063424
117	0x3ca14769	0.019687371
118	0xbcecbcfe	-0.028898712
119	0xbcea38c4	-0.028591521
120	0xbc7db375	-0.01548468
121	0xbc63e7fa	-0.013910288
122	0x3acbf890	0.0015561748
123	0xbd2a7273	-0.041613054
124	0xbcbb3bc4	-0.022855647
125	0x3c3906be	0.011293111
126	0xbc9e3cbd	-0.019316072
127	0xbcb5c52e	-0.02218875
128	0xbc98e550	-0.018664032
129	0xbd066b04	-0.0328169
130	0x3cf24248	0.029572621
131	0x3c8b7760	0.017024696
132	0x39aa99e9	0.000325396
133	0xbccad5f9	-0.024760233
134	0x3ceb40db	0.028717449
135	0x3be1d3e0	0.0068917125
136	0x3c6c05b7	0.014405659
137	0xbd17c394	-0.037051752
138	0xbc395c93	-0.011313575
139	0x3a87d1dd	0.0010362227
140	0x3d0462e3	0.03232087
141	0xbb96e193	-0.0046045273
142	0x3d002836	0.03128835
143	0xbc0d47d7	-0.008623085
144	0xbb61b7df	-0.003444187
145	0xbcfef7dc	-0.031124048
146	0xbc2cfa84	-0.010557774
147	0x3b017a9d	0.001975692
148	0xbca4a35f	-0.020097433
149	0x3cbef53f	0.023310302
150	0xbcb2c961	-0.02182454
151	0xbd36d1b2	-0.044633575
152	0xbcc194de	-0.023630556
153	0xbcf0c01b	-0.029388478
154	0xbd68d1b0	-0.0568406
155	0xbcb9f8f0	-0.02270171
156	0x3b891a77	0.004184063
157	0xbd08c4fc	-0.033390984
158	0x3c3c67f5	0.011499395
159	0x3c8a268a	0.01686408
160	0xbd29a73d	-0.041419256
161	0x3bf5caf4	0.0075010005
162	0x3cb2a502	0.021807197
163	0xbccc91a3	-0.024971789
164	0xbbcf00de	-0.006317242
165	0xbceefb86	-0.02917267
166	0xbcae458d	-0.021273399
167	0x3cb08495	0.021547595
168	0x3c585c6e	0.013205631
169	0xbd09cc4a	-0.03364209
170	0x3c65fc83	0.014037254
171	0xbb0e6623	-0.0021728359
172	0xbcc365e7	-0.023852302
173	0x3ba6b039	0.0050869253
174	0x3cf795fa	0.030222882
175	0x39105f3f	0.00013768392
176	0xbd086877	-0.03330275
177	0x3bb0d923	0.0053969785
178	0xbb0a60e6	-0.0021114885
179	0xbd5e370a	-0.054251708
180	0xbcc5e4b9	-0.024156915
181	0xbd278ff4	-0.04090877
182	0xbcf458e7	-0.029827548
183	0xbc622c8b	-0.013804565
184	0xbc0eb5f6	-0.008710375
185	0x3d422187	0.047395255
186	0x3cd72cf0	0.026266545
187	0xbcc9f59e	-0.024653252
188	0x3c3e0261	0.011597247
189	0xbce59aba	-0.028027881
190	0xbc9ac20e	-0.01889136
191	0x3cb0fbad	0.021604383
192	0x3ce07201	0.027398111
193	0x3b02032a	0.0019838312
194	0xbcffa150	-0.03120485
195	0x3d07bd5f	0.033139583
196	0x3a972493	0.0011531286
197	0xbcb193a1	-0.02167684
198	0xbc983c72	-0.01858351
199	0xbc8840e9	-0.016632514
200	0xbc14fdd5	-0.009093721
201	0xbd17a4df	-0.037022468
202	0xbd28b82d	-0.04119127
203	0x3c8238e0	0.01589626
204	0x3cd3782d	0.02581414
205	0xbcadbfb9	-0.021209585
206	0xbc0f541c	-0.008748081
207	0x3bb0affc	0.0053920727
208	0xbce1087a	-0.027469862
209	0x3c8c627f	0.01713681
210	0xbba01d99	-0.004886341
211	0xbc74e7e9	-0.01494787
212	0xbc26ab7c	-0.010172721
213	0x3d1b56c5	0.037924547
214	0xbc23075f	-0.009950488
215	0xbcd0b375	-0.025476197
216	0xbc4133b5	-0.011792113
217	0xbc21b0db	-0.009868826
218	0x3c9f60c9	0.01945533
219	0x3d20a8df	0.039223548
220	0xbc398238	-0.0113225505
221	0xbc61c09a	-0.01377883
222	0x3c84194c	0.016125344
223	0xbc67548b	-0.014119278
224	0xbd0cfa7a	-0.03441856
225	0x3cf04113	0.029327905
226	0x3ca4ab66	0.02010126
227	0x3cd867a9	0.026416617
228	0x3b6152b2	0.0034381566
229	0xbbf6a5bd	-0.0075270818
230	0xbc0ee67c	-0.008721944
231	0xbc4af306	-0.012387043
232	0x3cecd44f	0.02890983
233	0xbd2e77d0	-0.04259473
234	0xbc2d5e9b	-0.010581638
235	0xbc841457	-0.01612298
236	0x3c9c619f	0.019089518
237	0xbccf751c	-0.025324397
238	0xbd19e5b4	-0.037572578
239	0x3c539ec7	0.012916273
240	0xbcd89e42	-0.02644265
241	0x3d2486f6	0.04016777
242	0xbc4069db	-0.011743988
243	0x3ce23ce8	0.027616933
244	0xbcaefa5a	-0.021359611
245	0x3c13b92f	0.009016319
246	0x3d0b81c3	0.034059297
247	0xbb3aa274	-0.0028478177
248	0xbcfc373e	-0.03078806
249	0xbd0fb6c1	-0.035086397
250	0x3c21e243	0.009880605
251	0xbcad47df	-0.021152435
252	0x3cf89781	0.03034568
253	0x3caca4c5	0.021074662
254	0xbcfc2142	-0.030777577
255	0x3a56596e	0.0008176778

layer_stack.1.bias f4 [64]
0	0x3c0eb886	0.008710986
1	0x3d4ceca2	0.050030358
2	0x3ddcadbf	0.10775327
3	0x3deef36c	0.11667523
4	0xbd73e8ee	-0.05954831
5	0x3c8b6d95	0.017020026
6	0x3c838239	0.016053306
7	0x3e5efc17	0.21775852
8	0x3d66ff87	0.056396034
9	0xbde4eb17	-0.11177652
10	0xbd52d958	-0.051476806
11	0xbd175b00	-0.03695202
12	0x3ceb6a54	0.028737225
13	0x3d2b9f29	0.041899834
14	0xbda90387	-0.08252626
15	0x3d1ca48e	0.03824287
16	0xbd2d976d	-0.04238074
17	0xbbd7c4bb	-0.0065847314
18	0xbd8a50f4	-0.06753722
19	0x3e1e1117	0.15436207
20	0x3af9af56	0.0019049447
21	0xbccfbf7d	-0.025359863
22	0x3e7ddac5	0.24790485
23	0x3c1e9016	0.009677907
24	0x3d9c79b2	0.07640399
25	0x3db56d62	0.08858754
26	0x3dbce1de	0.09222768
27	0x3e064389	0.131117
28	0xbd2b72bb	-0.041857462
29	0xbd99a4dc	-0.075021476
30	0x3e25d7dc	0.16195625
31	0x3d99613e	0.074892506
32	0x3eff6517	0.49881813
33	0xbdabebc6	-0.083945796
34	0xbd0f052a	-0.034917034
35	0xbd9c249d	-0.07624171
36	0x3d76f70f	0.060294207
37	0x3d9ea286	0.07745843
38	0xbd0e65e8	-0.034765154
39	0x3d9fe6a3	0.07807662
40	0x3cd5d2c4	0.026101477
41	0x3dd818a8	0.10551578
42	0x3a59f494	0.0008314338
43	0x3e17a489	0.14808859
44	0xbdac25f6	-0.08405678
45	0x3d4a2de4	0.04936017
46	0x3cd6bfa6	0.026214432
47	0x3e5f5157	0.21808372
48	0x3e2f6bcf	0.1713097
49	0x3dd4ea74	0.10396281
50	0xbb66ebfe	-0.0035235877
51	0xbe66af75	-0.22527869
52	0xbbd9dde1	-0.0066487645
53	0xbcebd4b9	-0.028787958
54	0xbe263743	-0.16232018
55	0x3dbeef1b	0.093229495
56	0x3e81db43	0.25362596
57	0x3d217aef	0.03942388
58	0x3d5a23e9	0.053256903
59	0xbe012184	-0.12610441
60	0xbe8391da	-0.25697213
61	0x3c23997c	0.009985324
62	0xb98341a7	-0.00025035182
63	0x3e960d67	0.293071

layer_stack.3.weight f4 [32, 64]
0	0xbce6efbc	-0.028190486
1	0xbe5216fb	-0.20516579
2	0x3de9f6a6	0.114239976
3	0x3eb216ff	0.3478317
4	0x3e6b56cd	0.2298233
5	0x3e9b4277	0.30324146
6	0xbe3e6710	-0.18594003
7	0x3dd35e2f	0.103206985
8	0x3e0a8784	0.13528258
9	0xbe0fa6ff	-0.14028548
10	0x3c94dd44	0.018171914
11	0x3dae133a	0.08499761
12	0xbdf8fe2b	-0.12157854
13	0xbd9b8deb	-0.07595428
14	0x3e122a3f	0.14273928
15	0xbde1fecb	-0.11034926
16	0x3e1dbad2	0.15403298
17	0xbdb2c073	-0.08728113
18	0x3db5d481	0.088784225
19	0x3cbb49da	0.022862364
20	0x3ca56f2b	0.02019461
21	0x3dc725cd	0.09724007
22	0xbe74738b	-0.23872201
23	0xbce65cdf	-0.028120456
24	0x3e15d07d	0.14630313
25	0xbe135e32	-0.14391401
26	0x3ec446be	0.38335222
27	0x3e730b47	0.2373477
28	0x3cc5b5ec	0.024134599
29	0xbdc9f311	-0.09860814
30	0x3eba0d59	0.36338308
31	0x3e94a3ee	0.29031318
32	0x3e86701a	0.26257402
33	0xbe15a51a	-0.14613762
34	0xbd622b70	-0.055217206
35	0xbe322d14	-0.17400008
36	0x3dbc4d6f	0.09194457
37	0x3e1512f5	0.14558013
38	0xbd7fc341	-0.062442068
39	0x3d139f50	0.036040604
40	0xbdcdd50b	-0.100504
41	0x3e648f49	0.22320284
42	0xbd326873	-0.04355664
43	0xbe0ccc0f	-0.13749717
44	0x3e258abf	0.16166209
45	0x3e0a09bd	0.13480277
46	0x3d4f24ed	0.050572325
47	0x3d96b318	0.07358378
48	0x3aab83e9	0.0013085577
49	0xbe136187	-0.14392672
50	0xbdae0791	-0.08497537
51	0x3d588eba	0.05287049
52	0xbe120b02	-0.14262012
53	0x3e6eeaf2	0.23331812
54	0xbe54e673	-0.20791034
55	0xbdaed75e	-0.08537172
56	0x3caecb6c	0.021337233
57	0xbd0eabc9	-0.034831796
58	0x3c2f65bc	0.010705408
59	0x3e3cb956	0.18430075
60	0xbe317b6c	-0.17332238
61	0x3dcdbdf5	0.10045997
62	0x3dafe000	0.085876465
63	0xbe850a60	-0.25984478
64	0x3c4539ca	0.012037704
65	0x3dd7834f	0.10523092
66	0x3e82f943	0.25580797
67	0x3d9230a8	0.07138187
68	0x3eb3ecef	0.35141703
69	0x3d66a386	0.05630829
70	0xbebc1c2a	-0.36740237
71	0x3dd1943a	0.1023335
72	0x3df03840	0.11729479
73	0x3e59bfe4	0.21264607
74	0x3c90f714	0.017695941
75	0xbc9b6949	-0.018971102
76	0xbdabb19e	-0.08383487
77	0x3cf49577	0.029856427
78	0xbc431e18	-0.01190903
79	0xbe5cca74	-0.21561605
80	0xbe4e5dd8	-0.20152986
81	0xbe7777a7	-0.24166737
82	0x3e0c7328	0.13715804
83	0xbe990c35	-0.29892126
84	0x3d82aeec	0.0638102
85	0xbd80bbd7	-0.062858276
86	0xbdd1ca5f	-0.10243677
87	0xbe80a79f	-0.25127885
88	0x3e6b7db9	0.22997178
89	0xbd55fbe2	-0.052242167
90	0xbe334244	-0.17505747
91	0xbed596b6	-0.41716546
92	0x3db8f138	0.09030384
93	0xbbd31b86	-0.00644249
94	0x3e91fc55	0.28512827
95	0x3c864df0	0.016394585
96	0xbf081a33	-0.53164977
97	0x3e571f3f	0.21008013
98	0xbda361b2	-0.07977618
99	0x3da1f717	0.07908457
100	0xbe9e1257	-0.30873367
101	0x3d212187	0.039338615
102	0x3e708323	0.23487525
103	0x3dd28778	0.10279745
104	0x3e1b9fa2	0.15197614
105	0x3e673d56	0.22581992
106	0x3e92fb5b	0.28707394
107	0xba365e37	-0.0006956788
108	0x3cc04177	0.023468716
109	0x3e3f6ba6	0.18693408
110	0x3d81ca94	0.06337467
111	0xbe9530da	-0.29138833
112	0x3eab302d	0.33435193
113	0xbcac18a4	-0.021007843
114	0xbe51b6c2	-0.20479873
115	0x3c3aeb76	0.011408677
116	0xbe5591e3	-0.20856433
117	0xbe4c407b	-0.19946472
118	0x3e0f28e6	0.13980445
119	0xbd1e3d08	-0.038632423
120	0xbeea57f2	-0.45770222
121	0x3e6038c2	0.21896651
122	0x3edc713a	0.43055135
123	0xbe2ca8cd	-0.16861267
124	0x3efcecab	0.49399313
125	0x3df21496	0.11820333
126	0xbe271de0	-0.1631999
127	0xbed28544	-0.411173
128	0x3db0d996	0.08635251
129	0x3df31a43	0.118702434
130	0xbbb7c84b	-0.0056085936
131	0xbddaab3e	-0.10677193
132	0xbe06cbee	-0.1316373
133	0xbe1f8f81	-0.15582086
134	0x3d5e1d40	0.054227114
135	0x3d4623e4	0.04837407
136	0x3cb5e4c5	0.022203812
137	0x3eaadaa8	0.33369946
138	0xbac67515	-0.0015141094
139	0x3ce7b4c6	0.028284442
140	0xbd6e6710	-0.058203757
141	0x3e7f3856	0.24923834
142	0xbd83c403	-0.06433871
143	0x3e613c8c	0.21995753
144	0xbd946058	-0.072449386
145	0xbe30529d	-0.17219014
146	0xbe570ce0	-0.21001005
147	0xbdbdcf30	-0.092680335
148	0x3e39d0c8	0.1814605
149	0xbca793ce	-0.020456221
150	0x3c112daf	0.0088609895
151	0xbea1131b	-0.3145989
152	0xbdbcbe69	-0.09216005
153	0xbe894fa2	-0.26818568
154	0xbe25f418	-0.16206396
155	0xbe0abf04	-0.13549429
156	0x3c045fe7	0.0080795055
157	0x3e3347a4	0.17507797
158	0xbe3629f9	-0.17789449
159	0xbe267d22	-0.16258672
160	0xbebe367c	-0.37150943
161	0x3d75286b	0.059853
162	0x3d2f6c51	0.042827908
163	0x3c719499	0.014744901
164	0xbe12774f	-0.14303325
165	0xbe3146f3	-0.17312221
166	0x3dd6f419	0.10495777
167	0xbd43ca50	-0.047800362
168	0x3e3c2254	0.1837247
169	0xbe6b819e	-0.22998664
170	0xbd37b366	-0.044848822
171	0x3e70d222	0.2351766
172	0x3e579306	0.21052179
173	0x3e3f3319	0.18671836
174	0x3d7b6a24	0.06138052
175	0x3e4b17da	0.19833317
176	0xbe025092	-0.12726048
177	0x3e2eb859	0.1706251
178	0x3cbe4911	0.0232282
179	0x3e0b6664	0.13613278
180	0xbe5e377a	-0.2170085
181	0xbe314595	-0.173117
182	0x3ece21c9	0.4026015
183	0x3e6305d0	0.22170186
184	0xbe956522	-0.2917872
185	0x3e8aec56	0.27133435
186	0x3e114bbe	0.1418905
187	0xbe270c1e	-0.16313216
188	0x3e1532bb	0.14570133
189	0xbde78594	-0.11304775
190	0xbd155165	-0.036454577
191	0x3e4ee3f5	0.20204146
192	0xbc984d08	-0.018591419
193	0xbee6cbb6	-0.45077294
194	0xbd8403a3	-0.06446006
195	0x3e672051	0.22570921
196	0xbe62aee2	-0.22137025
197	0x3d931748	0.07182175
198	0xbb5005be	-0.0031741704
199	0xbe3d6872	-0.18496874
200	0xbd6264f3	-0.055272054
201	0xbdee1bc5	-0.1162639
202	0x3d0f54a9	0.034992848
203	0xbc4e153b	-0.012578304
204	0xbde793e3	-0.11307504
205	0x3dfdfd0f	0.12401783
206	0x3e654d9d	0.22392888
207	0xbe802a33	-0.25032195
208	0x3dc4c239	0.096073575
209	0x3f1d38b3	0.6141464
210	0x3e13f3b5	0.14448436
211	0x3ebf5e5e	0.37376684
212	0xbdb4e436	-0.0883259
213	0xbd944b35	-0.07240907
214	0xbe36fb1c	-0.17869228
215	0x3e86441c	0.26223838
216	0xbe96b5ab	-0.29435477
217	0xbf10a3cc	-0.56499934
218	0x3e608e17	0.21929203
219	0xbec23ea7	-0.37938425
220	0xbe04fa46	-0.12986097
221	0xbe0ce596	-0.13759455
222	0xbe912f95	-0.28356615
223	0x3f25f19c	0.6482179
224	0xbd14a9f7	-0.036294904
225	0x3e9dc2b5	0.30812612
226	0xbd99f23b	-0.07516905
227	0xbda72be3	-0.081626676
228	0x3d93c1fd	0.07214735
229	0xbef97ecc	-0.4872955
230	0xbe812441	-0.25222972
231	0xbe2bc0fa	-0.16772833
232	0xbd091441	-0.03346658
233	0x3d48d26c	0.0490288
234	0x3de605bd	0.11231563
235	0x3e426d23	0.18986945
236	0xbc8adfef	-0.016952483
237	0x3e0df80f	0.13864158
238	0xbce31fd7	-0.027725143
239	0x3e1de117	0.15417896
240	0x3ec15b3c	0.3776492
241	0x3cc3c629	0.023898201
242	0xbdb1ba39	-0.08678097
243	0x3e28504a	0.16436878
244	0xbe134f99	-0.14385833
245	0x3dbf9755	0.09355036
246	0xbe12c6bd	-0.14333625
247	0x3d35fa58	0.0444282
248	0x3eed2e03	0.46324167
249	0x3dc4c852	0.096085206
250	0x3e219acc	0.15781707
251	0xbec44c9a	-0.38339692
252	0x3eaa0e38	0.33213973
253	0x3e951dc4	0.29124272
254	0xbe3ff55d	-0.18745942
255	0x3e044554	0.12917072

layer_stack.3.bias f4 [32]
0	0xbd012c76	-0.031536542
1	0x3db958e7	0.0905016
2	0xbd81c772	-0.06336869
3	0x3d5941ef	0.053041395
4	0xbe04fd53	-0.1298726
5	0xbe0dd84c	-0.13852042
6	0xbd9e8bc4	-0.07741502
7	0x3e0e986b	0.1392533
8	0x3e36e91c	0.17862362
9	0xbdcd95ee	-0.100383624
10	0xbe3ded6f	-0.18547605
11	0x3edc5251	0.43031552
12	0x3ea2cc3c	0.31796443
13	0xbc6cb415	-0.014447232
14	0x3e8194ef	0.2530894
15	0xbd864091	-0.06555284
16	0xbd9acc00	-0.07558441
17	0x3dfe13c7	0.12406116
18	0x3d019b9b	0.031642538
19	0x3a753d94	0.0009355184
20	0x3d724898	0.059151262
21	0x3da2554f	0.079264276
22	0x3eb1f4b9	0.3475702
23	0x3e882a18	0.26594615
24	0xbd36e6d0	-0.044653714
25	0xbb45dd1a	-0.0030191601
26	0x3db05682	0.0861025
27	0x3db45da0	0.0880692
28	0x3cba0bd0	0.02271071
29	0xbcef0adc	-0.029179983
30	0xbdd8d4f0	-0.105874896
31	0x3ea5e897	0.32404014

classifier.0.weight f4 [10, 32]
0	0xbea1637c	-0.31521213
1	0xbe698a3b	-0.22806637
2	0x3e9e0b92	0.30868202
3	0xbf0fd76b	-0.56188077
4	0x3e26e790	0.16299272
5	0x3e0a7b0e	0.13523504
6	0x3f1d6b45	0.61491805
7	0xbef7135a	-0.48256952
8	0xbe87cb5c	-0.26522338
9	0x3e7887ab	0.24270503
10	0x3d63d921	0.055626992
11	0xbe89dd06	-0.2692644
12	0xbf1a5759	-0.6028953
13	0x3d69d9a7	0.057092335
14	0x3ea47ec6	0.3212797
15	0xbe8f93f2	-0.2804256
16	0xbecb0e2e	-0.39659256
17	0xbd875872	-0.066086665
18	0x3dd4af5f	0.10385012
19	0x3f2706dc	0.6524484
20	0x3edb9efc	0.42894733
21	0xbdb0021e	-0.08594154
22	0xbf6cb11f	-0.92457765
23	0x3dc6f5bc	0.09714839
24	0x3deba785	0.11506561
25	0x3f40b293	0.7527248
26	0xbebfb6be	-0.3744411
27	0x3a58d70b	0.000827179
28	0x3e6a2592	0.22865894
29	0x3f057508	0.521317
30	0x3d4cd8be	0.05001139
31	0xbf1f661f	-0.622652
32	0xbe28125f	-0.16413258
33	0xbea83055	-0.32849374
34	0xbe4a50e6	-0.19757423
35	0x3f0120ff	0.50440973
36	0xbdcde72e	-0.1005386
37	0xbde876db	-0.11350795
38	0xbe2dc1fe	-0.16968533
39	0x3f98d26a	1.1939213
40	0x3ebe9754	0.3722483
41	0xbd35792b	-0.044305008
42	0xbe4eea4a	-0.20206562
43	0xbefd3fdc	-0.49462783
44	0x3f3541d5	0.70803577
45	0x3db4b74a	0.08824022
46	0xbf048ddf	-0.5177898
47	0x3db115a0	0.08646703
48	0x3eefb9a7	0.4682133
49	0xbe855c02	-0.2604676
50	0x3f40e5db	0.7535073
51	0xbed101d6	-0.40821713
52	0xbe94f016	-0.2908942
53	0x3d91ba44	0.071156055
54	0x3e73a754	0.237943
55	0x3eec3a91	0.46138433
56	0x3ea6a8cb	0.32550654
57	0xbedb6fea	-0.4285882
58	0x3e8349e8	0.25642323
59	0xbf3469b9	-0.7047382
60	0x3eeabe89	0.45848492
61	0xbf077fef	-0.52929586
62	0x3ec803e9	0.39065483
63	0xbf145cf4	-0.57954335
64	0xbe1df426	-0.15425166
65	0xbedd3d7f	-0.4321098
66	0x3ea456be	0.3209743
67	0x3f47770c	0.77916026
68	0x3dc82383	0.09772398
69	0x3e001e05	0.12511452
70	0xbdf6c068	-0.12048417
71	0x3e8e4df6	0.27793854
72	0x3f232903	0.63734454
73	0xbdbc89e0	-0.09205985
74	0xbec05fdc	-0.37573135
75	0x3ed4c98b	0.41560015
76	0xbe407a79	-0.1879672
77	0x3d83d05f	0.06436228
78	0xbe5d3616	-0.21602663
79	0x3e9bb02a	0.3040784
80	0x3eb4bca7	0.3530018
81	0xbf502741	-0.81309897
82	0xbe09ef79	-0.13470258
83	0xbf414c3c	-0.7550695
84	0x3d085b15	0.033289988
85	0x3eb134d0	0.34610605
86	0xbf0f9fea	-0.56103384
87	0xbe9fb742	-0.31194502
88	0x3e07f692	0.13277653
89	0x3e9eb1f4	0.30995142
90	0x3ee6d7be	0.45086473
91	0x3eb2f9f7	0.34956333
92	0xbd07f091	-0.033188406
93	0x3f3debde	0.7418803
94	0xbe46563c	-0.19368833
95	0xbe2c0b19	-0.16801108
96	0x3e9b0952	0.30280548
97	0x3f022479	0.508369
98	0xbda18d53	-0.078882836
99	0x3f0de8fe	0.5543364
100	0x3d9ec1b3	0.07751789
101	0xbcee6e79	-0.029105412
102	0xbec19ccc	-0.3781494
103	0xbe13798f	-0.1440184
104	0xbe353165	-0.17694624
105	0xbd1258ea	-0.035729326
106	0x3f2af91c	0.6678636
107	0xbe14edd4	-0.14543849
108	0xbf302512	-0.68806565
109	0x3d03cb05	0.032176036
110	0xbed77933	-0.42084655
111	0x3db53d1d	0.08849547
112	0xbe743ad4	-0.23850566
113	0x3dbad606	0.09122853
114	0xbe4d4cd6	-0.20048842
115	0xbf0f7586	-0.560387
116	0x3f375994	0.7162106
117	0x3e92340d	0.28555337
118	0x3f2da9ab	0.6783702
119	0xbeaa4241	-0.33253673
120	0xbe6cd1f0	-0.2312696
121	0x3ee7e5cf	0.45292518
122	0x3f1df413	0.6170055
123	0x3e3f8ce7	0.18706094
124	0x3d7ff155	0.06248601
125	0xbf03904d	-0.5139206
126	0x3da032c8	0.07822186
127	0xbf0e61e0	-0.55618095
128	0x3ea828a2	0.328435
129	0x3ebc0e5e	0.3672971
130	0xbe8293da	-0.25503427
131	0xbe2b48a6	-0.16726932
132	0xbbb96a3b	-0.0056584156
133	0xbce3e05a	-0.02781694
134	0xbd423575	-0.04741426
135	0x3e8423b7	0.25808498
136	0xbef501b1	-0.47852853
137	0x3d01f497	0.0317274
138	0xbbb98308	-0.005661372
139	0xbe25aeeb	-0.16180007
140	0x3f42646a	0.7593447
141	0x3e097b96	0.1342605
142	0x3f1d9932	0.6156188
143	0xbe6498d0	-0.22323918
144	0xbdc7cc6c	-0.09755787
145	0xbf0f9a86	-0.5609516
146	0x3e1326d8	0.14370286
147	0xbf0c3de7	-0.54781955
148	0xbec0b5c3	-0.37638673
149	0xbeb83920	-0.35981083
150	0x3e550708	0.20803463
151	0x3e29cd2d	0.16582175
152	0x3d40ff2e	0.04711836
153	0xbf920cc2	-1.1410143
154	0xbf29218f	-0.6606683
155	0x3f7a1d88	0.9770131
156	0x3d94a036	0.0725712
157	0xbe81e035	-0.2536637
158	0xbde3959a	-0.111125186
159	0x3f2635d0	0.6492586
160	0xbd7ef8a5	-0.062248845
161	0xbee295ee	-0.44255012
162	0xbe9de5a8	-0.30839276
163	0xbdb2be9e	-0.087277636
164	0xbe2029d4	-0.15640956
165	0x3cc1d243	0.02365983
166	0xbf144568	-0.57918406
167	0xbe9bead2	-0.3045259
168	0xbf2a9162	-0.66628087
169	0xbe08e905	-0.1337014
170	0x3e2d4fae	0.16924927
171	0x3c1e6217	0.009666941
172	0x3c62de26	0.01384691
173	0xbd27beee	-0.04095357
174	0x3f03084c	0.51184535
175	0x3db8cd5f	0.090235464
176	0x3e4aa6ab	0.19790141
177	0x3f84e04c	1.038095
178	0x3d95aaad	0.073079444
179	0x3f102b5a	0.5631615
180	0xbd88e55e	-0.06684373
181	0x3eab2438	0.3342607
182	0x3edb42f4	0.4282452
183	0x3e70432f	0.23463129
184	0xbcf2712e	-0.029594984
185	0x3e1675b6	0.1469334
186	0x3f5d1857	0.86365265
187	0xbe3fe2ca	-0.18738857
188	0xbf79beed	-0.97556955
189	0xbee9c511	-0.45658162
190	0x3e8f3e18	0.2797706
191	0x3df3544f	0.11881315
192	0x3d8478ba	0.06468339
193	0xbf1649be	-0.5870627
194	0xbf20e372	-0.62847054
195	0xbe9eb044	-0.30993855
196	0x3dc9bf8b	0.09850987
197	0x3e2add67	0.16686021
198	0x3f7ea4c0	0.9947014
199	0xbe5a1740	-0.21297932
200	0x3e49c0f2	0.19702509
201	0x3d8ea0c7	0.069642596
202	0x3dd47404	0.10373691
203	0xbeb7e7c6	-0.35919017
204	0x3ea7d130	0.32776785
205	0xbe30cbe0	-0.17265272
206	0xbf341f50	-0.7036028
207	0xbcfea1b3	-0.031082964
208	0x3e452eba	0.19256106
209	0x3f216089	0.63037926
210	0x3e030e1b	0.1279835
211	0x3f2d99bb	0.678127
212	0xbf22712a	-0.63453925
213	0xbedfc6bc	-0.4370631
214	0xbee155e7	-0.4401085
215	0x3e262625	0.16225488
216	0x3e834c72	0.2564426
217	0xbf5a716b	-0.8532931
218	0x3e62a52c	0.2213332
219	0x3eb0a4a0	0.345006
220	0xbe17623b	-0.14783566
221	0x3f2859e4	0.6576216
222	0x3f0f9272	0.5608283
223	0xbe0cd4ce	-0.13753054
224	0x3efe18b6	0.49628228
225	0x3f03f5b1	0.5154677
226	0xbee2d8f8	-0.4430616
227	0x3f3038d4	0.6883671
228	0xbd30cd19	-0.043164346
229	0xbdd8c66f	-0.10584723
230	0xbf05499a	-0.5206543
231	0x3d582de4	0.05277814
232	0x3e4cedbd	0.20012565
233	0xbd6d0171	-0.057862703
234	0x3e838e63	0.2569457
235	0xbe8ac612	-0.2710424
236	0x3f29b31f	0.6628894
237	0x3d5ab9de	0.053399913
238	0xbda84401	-0.08216096
239	0x3ece083e	0.40240663
240	0x3f396b6b	0.7242953
241	0xbed409bf	-0.41413686
242	0xbe8d0afb	-0.2754744
243	0x3ea746d2	0.3267122
244	0x3dba5bd2	0.090995446
245	0x3e3801d6	0.1796945
246	0xbf3ea2d5	-0.7446721
247	0xbd916c33	-0.071007155
248	0xbe5b933d	-0.21442886
249	0x3f561c68	0.83637094
250	0xbf49fab4	-0.7889817
251	0xbf2ee8b3	-0.6832382
252	0x3e90148b	0.28140673
253	0xbeb03312	-0.34413964
254	0xbcd0a9c2	-0.025471572
255	0xbcda3c87	-0.02664019

classifier.0.bias f4 [10]
0	0xbe91bfbf	-0.28466603
1	0x3e590ec9	0.21197046
2	0xbdf50f2d	-0.11965785
3	0xbdf8db39	-0.121511884
4	0xbd31420d	-0.04327588
5	0x3e4a7465	0.19770963
6	0xbe58291f	-0.21109436
7	0xbdc09610	-0.09403622
8	0xbdce001f	-0.10058617
9	0xbdb0aae9	-0.086263485
