mnist/mymodel_weights.pth (torch, 212631 bytes, 6 tensors)

layer_stack.1.weight f4 [64, 784]
0	0xbc95ed57	-0.018301649
1	0xbb7a4170	-0.0038185976
2	0xbc8f67c7	-0.01750554
3	0x3cd4039c	0.025880627
4	0xbd0709ef	-0.032968458
5	0x3d06b507	0.032887485
6	0xbcaa39d3	-0.020779526
7	0xbd0b72ed	-0.03404515
8	0x3cba1322	0.022714201
9	0x3cac42a8	0.021027878
10	0xbccc9f73	-0.024978375
11	0xbcfcddec	-0.03086754
12	0xbc3ef78d	-0.0116557
13	0xbc08338c	-0.008313071
14	0xbcb91f2b	-0.02259787
15	0xbca26649	-0.019824164
16	0x3c27191c	0.010198858
17	0x3c4df248	0.012569971
18	0xbc95f20c	-0.018303894
19	0xbce536a5	-0.027980158
20	0x3ceb6662	0.028735343
21	0x3cdcd266	0.026955795
22	0xbca639ea	-0.020291287
23	0x3bfd8788	0.007737104
24	0xbcb8ed0c	-0.02257397
25	0x3ce2180e	0.02759936
26	0xbce7f871	-0.028316708
27	0xbc957d57	-0.018248243
28	0x3bbc66c8	0.005749557
29	0x3b8d4618	0.0043113343
30	0x3cff7442	0.031183366
31	0x3c70cdf0	0.014697537
32	0x3cee1b4e	0.029065754
33	0x3b828f17	0.003984343
34	0x3b04a34e	0.0020238939
35	0x3b817d8f	0.0039517353
36	0xbc5a387d	-0.013319132
37	0x3cec721e	0.028863009
38	0xbccf199c	-0.025280766
39	0xbc5295a8	-0.012853064
40	0x3cb4376a	0.02199908
41	0x3be23e48	0.006904397
42	0xbc06ff71	-0.008239613
43	0x3c6f665e	0.014611809
44	0x3c375eff	0.011192082
45	0x3c41fd11	0.011840121
46	0xbc832c35	-0.01601229
47	0x3cc2a130	0.0237585
48	0x3c843706	0.016139518
49	0x3d07c966	0.033151053
50	0xbd08455e	-0.03326928
51	0xbcd522e2	-0.02601761
52	0x3cf6309e	0.03005248
53	0xbcb3f120	-0.021965563
54	0x3c9ef258	0.019402668
55	0x3cf0905a	0.029365707
56	0xbcddf2e5	-0.02709336
57	0x3c22a9c0	0.009928167
58	0x3ceb8920	0.02875191
59	0x3ceca24d	0.028885985
60	0xbcc4d561	-0.024027528
61	0xbc77f1d0	-0.015133336
62	0x3d0ab739	0.03386614
63	0xbc2fc11b	-0.010727192
64	0x3bed0b37	0.007234003
65	0x3bbe476b	0.0058068535
66	0x3c62b17f	0.013836264
67	0xbbc99be8	-0.0061526187
68	0xbcc6b42c	-0.024255835
69	0xbca295cf	-0.019846825
70	0xbd06d44e	-0.032917313
71	0xbd41801c	-0.047241315
72	0xbcb1a6f1	-0.02168605
73	0xbc98361f	-0.018580494
74	0xbb363db3	-0.0027807772
75	0x3c77efa8	0.015132822
76	0xbce9ac45	-0.028524527
77	0xbcdb62ef	-0.026780574
78	0xbc157c0f	-0.009123816
79	0xbb74bd31	-0.0037344212
80	0x3a7813fe	0.0009463428
81	0xbca3bf4b	-0.019988677
82	0x3cef3c92	0.029203687
83	0x3d09338f	0.033496436
84	0x3c2eba28	0.0106645
85	0x3c8b49ba	0.017002929
86	0xbaef2ff5	-0.0018248545
87	0x3cd4739b	0.025934031
88	0x3c8a53ed	0.016885722
89	0x3ca92271	0.020646306
90	0xbd0a281a	-0.03372965
91	0x3bd1e1e8	0.006405104
92	0xbd2775fb	-0.040884
93	0xbccc4e9c	-0.024939828
94	0xbd17d13d	-0.03706478
95	0xbdbac550	-0.091196656
96	0xbde708aa	-0.112809494
97	0xbdc6c1f9	-0.09704966
98	0xbdbb9b35	-0.09160463
99	0xbd844d4c	-0.06460056
100	0xbd8234ed	-0.06357751
101	0xbd58e55c	-0.05295311
102	0x3c32f40b	0.010922442
103	0xbce86ae7	-0.028371288
104	0xbcaafd1c	-0.020872645
105	0xbb4b16f6	-0.0030989028
106	0xbb69ce96	-0.0035676113
107	0x3bac8b09	0.0052655977
108	0xbd07edfe	-0.03318595
109	0x3c766e1c	0.015040901
110	0xbbf3c9c1	-0.0074398224
111	0x3d0b8013	0.034057688
112	0xbc8fcaf7	-0.017552836
113	0xbcc844db	-0.024446895
114	0xbc655b90	-0.013998881
115	0xbb02b24e	-0.0019942704
116	0x3d041b40	0.03225255
117	0xbc89317c	-0.016747229
118	0xbd6e4e2b	-0.058180016
119	0xbd15d402	-0.03657914
120	0xbd891bd0	-0.06694758
121	0xbd8e48cb	-0.06947478
122	0xbdc0b507	-0.09409528
123	0xbd694aef	-0.056956228
124	0xbd7e653c	-0.062108263
125	0xbdb1d7ca	-0.086837366
126	0xbd044334	-0.032290652
127	0xba31f8a3	-0.0006789064
128	0x3c9f48bb	0.01944386
129	0xbaeb083c	-0.0017931531
130	0x3cd998c5	0.026562104
131	0xbd1404e8	-0.03613749
132	0x3d0bbd2c	0.034115955
133	0x3b660b97	0.0035102123
134	0x3d02e9ab	0.031961124
135	0x3d1eade1	0.038740043
136	0xbbabd0ac	-0.0052433815
137	0xbba1e4df	-0.0049406136
138	0x3d0d6fc8	0.03453043
139	0x3af2e6b2	0.0018531887
140	0x3c9b9a10	0.018994361
141	0x3cf3a456	0.029741447
142	0x3cb6eaf2	0.022328828
143	0x3ca31967	0.019909574
144	0xbc0fad29	-0.008769312
145	0xba8a2e3a	-0.0010542341
146	0xbd3525cc	-0.0442255
147	0xbda8f766	-0.082503125
148	0xbd2cd1dd	-0.04219233
149	0xbd4ee07c	-0.050507054
150	0xbd82aa81	-0.06380177
151	0x3cd3f69b	0.025874427
152	0x3d98c3b7	0.07459205
153	0x3d19440a	0.037418403
154	0x3d013127	0.031541016
155	0xbcb5f316	-0.022210639
156	0xbdb9417a	-0.09045692
157	0x3c27ccec	0.010241728
158	0x3b8b1f42	0.0042456696
159	0x3c6a12c1	0.014286698
160	0x3ca7a40a	0.020463962
161	0x3d7150a5	0.0589148
162	0x3d159774	0.03652139
163	0x3b2e224c	0.0026570735
164	0xbc4c8222	-0.012482198
165	0x3d468d2e	0.048474483
166	0xbcc41fd4	-0.023940958
167	0x3ce70cda	0.02820437
168	0xbb264700	-0.002537191
169	0xbcccd92d	-0.025005901
170	0xb8e59505	-0.00010947328
171	0xbc94d7b8	-0.018169269
172	0xbd086343	-0.03329779
173	0xbbe48e30	-0.006974958
174	0xbd030e75	-0.03199621
175	0x3b70d8e4	0.003675037
176	0xbbefd048	-0.00731853
177	0xbcb4548b	-0.02201297
178	0x3bab7418	0.0052323453
179	0x3d06e090	0.032929003
180	0x3d9d48f0	0.07679927
181	0x3d217074	0.039413884
182	0x3c3389a6	0.010958111
183	0xbcc0b912	-0.023525748
184	0xbd3ac621	-0.045599107
185	0x3cc68c69	0.024236875
186	0xbc88e17f	-0.016709087
187	0x3d766a9b	0.06016026
188	0x3d34e9df	0.04416835
189	0x3d51efa7	0.05125394
190	0x3daf7890	0.08567917
191	0x3d6a44eb	0.05719463
192	0xbd130f3f	-0.03590321
193	0xbbc912aa	-0.006136258
194	0x3b35c506	0.0027735843
195	0xbb400b80	-0.002930373
196	0xbd070b8c	-0.032969996
197	0xbbb8b182	-0.005636395
198	0xbc8c3f56	-0.017120045
199	0x3b3fbee7	0.0029258074
200	0xbbcfd895	-0.0063429573
201	0xbce68188	-0.028137937
202	0x3a841fa4	0.001008023
203	0xbd017187	-0.03160241
204	0x3d8075ce	0.062724695
205	0x3d80c1ce	0.06286965
206	0x3dd66056	0.10467593
207	0x3d49fbc2	0.04931236
208	0x3bc7e1e4	0.0060999263
209	0x3c7c607a	0.015403861
210	0xbd67d06f	-0.056595262
211	0xbcee5863	-0.02909488
212	0x3d5b0121	0.053467873
213	0x3b4b94e7	0.0031064095
214	0x3db0ad54	0.0862681
215	0x3d7c7a51	0.061640088
216	0x3d2c1cca	0.042019643
217	0x3ddc8af1	0.107686885
218	0x3d51efdf	0.05125415
219	0x3da1d428	0.07901794
220	0xbb3b95ae	-0.0028623152
221	0x3c59e100	0.013298273
222	0x3c28d2df	0.010304182
223	0xbca88aff	-0.020574091
224	0x3d01810c	0.03161721
225	0x3c8e51b5	0.017372945
226	0x3bad1b59	0.005282801
227	0x3d23472e	0.039862804
228	0xbc72f256	-0.014828285
229	0x3c5c9f27	0.013465679
230	0x3ddb4512	0.107065335
231	0x3dd91e37	0.10601466
232	0x3db15933	0.086595915
233	0x3da4fb22	0.08055712
234	0x3ddac76e	0.106825694
235	0x3ddbf416	0.10739915
236	0x3c3e81a5	0.011627589
237	0xbd46c800	-0.04853058
238	0xbd4baa0b	-0.049722712
239	0xbcb44126	-0.022003721
240	0x3d01764b	0.031606954
241	0xbcaa7ae7	-0.020810558
242	0x3d6be1a6	0.057588242
243	0x3d145f0a	0.03622345
244	0x3b8a12d0	0.0042136684
245	0x3d205422	0.039142735
246	0x3c40f243	0.01177651
247	0x3dbc792d	0.092028
248	0x3d3cca67	0.046091463
249	0xbb83b693	-0.0040195673
250	0x3d1de6e4	0.038550273
251	0xbcad1ccf	-0.021131901
252	0xbcbcbe22	-0.023039881
253	0x3cd79a50	0.0263187
254	0xbcf60109	-0.03002979
255	0xbce45b8f	-0.02787569

layer_stack.1.bias f4 [64]
0	0x3e0b47e3	0.13601641
1	0x3d997567	0.07493096
2	0x3e3ccbd4	0.1843713
3	0xbc0ae0d8	-0.0084764585
4	0x3df1d506	0.11808209
5	0xbe4077c0	-0.18795681
6	0x3dc2b3e3	0.09506967
7	0xbcb89669	-0.022532659
8	0x3d550c55	0.052013714
9	0xbdd40fdb	-0.10354587
10	0x3e11e3cd	0.14247055
11	0xbda23c9c	-0.079217166
12	0xbe04d820	-0.1297307
13	0x3d430501	0.047612194
14	0x3e6d7b93	0.23191671
15	0xba883fed	-0.0010395028
16	0xbce4d838	-0.027935132
17	0x3e8126f2	0.25225025
18	0xbe3d94c8	-0.18513787
19	0xbdf7f092	-0.12106432
20	0x3e062de2	0.1310344
21	0x3e9f5469	0.31119087
22	0x3d12a75a	0.03580413
23	0x3e2017da	0.15634099
24	0x3e624241	0.22095586
25	0x3ceb748f	0.028742103
26	0x3c7924ad	0.015206498
27	0x3dca7f2e	0.09887539
28	0xbce6327c	-0.028100245
29	0x3e91c344	0.28469288
30	0xbd490c0c	-0.049083754
31	0x3d3388b5	0.043831546
32	0x3c546ad3	0.012964922
33	0x3e8f021c	0.27931297
34	0x3d26cb55	0.040721256
35	0xbd02211d	-0.03176986
36	0xbdb977fa	-0.09056087
37	0xbd11cadd	-0.035593856
38	0xbd1e4632	-0.038641162
39	0xbd3ebcaa	-0.046566643
40	0x3d8bea36	0.068317816
41	0x3e6d8564	0.23195416
42	0x3e982c97	0.2972152
43	0x3e65bab2	0.224345
44	0xbd6b66cd	-0.057471085
45	0xbe4c0e2b	-0.1992728
46	0xbdad5ccb	-0.084649645
47	0x3bb30f79	0.005464491
48	0x3d08c063	0.0333866
49	0xbe15fc7a	-0.14647093
50	0x3ce9e607	0.028552068
51	0xbdf35817	-0.11882036
52	0x3d340a8b	0.043955367
53	0x3c9909d9	0.018681454
54	0x3d19afc6	0.037521146
55	0xbc5130fb	-0.0127680255
56	0xbc6497e3	-0.013952228
57	0xbdb90a1e	-0.09035133
58	0x3e1d96d2	0.15389565
59	0x3d23cc83	0.03998996
60	0xbd805feb	-0.06268295
61	0xbce8d39e	-0.02842122
62	0xbd41d81f	-0.04732525
63	0x3d7229cd	0.059121896

layer_stack.3.weight f4 [32, 64]
0	0xbd8baea3	-0.06820419
1	0x3e91d0fc	0.28479755
2	0x3f085af2	0.5326377
3	0xbde1c8a9	-0.11024601
4	0xbd78bd04	-0.060727134
5	0xbe836293	-0.25661144
6	0x3d912cd6	0.0708863
7	0xbea48e4c	-0.32139814
8	0x3e25b7f2	0.16183451
9	0xbed90481	-0.4238625
10	0x3d5fa1a4	0.054597512
11	0xbe37a349	-0.17933382
12	0xbee87cfa	-0.4540785
13	0xbf12239a	-0.57085574
14	0xbec254c7	-0.37955305
15	0x3e935b59	0.2878063
16	0x3df35911	0.118822224
17	0xbec288bf	-0.37994954
18	0xbe0847b9	-0.1330861
19	0x3d956441	0.072945125
20	0x3d3864ec	0.04501812
21	0x3ee1f7ef	0.4413447
22	0xbe2d01c1	-0.168952
23	0x3e08403f	0.13305758
24	0x3e8e5936	0.27802438
25	0xbcd33142	-0.025780324
26	0x3dfe1829	0.12406952
27	0x3ebfd83f	0.3746967
28	0x3e5c2e53	0.21502046
29	0xbe314101	-0.17309953
30	0x3e42f5a9	0.19039024
31	0xbe402d55	-0.18767293
32	0x3e053da9	0.13011803
33	0x3d570d73	0.05250306
34	0x3e931548	0.28727174
35	0xbe21ed4c	-0.15813178
36	0x3e856436	0.26053017
37	0xbf05058f	-0.51961607
38	0xbd968484	-0.07349494
39	0x3cd0b3a2	0.02547628
40	0xbe2d2ab5	-0.16910823
41	0x3ec42b19	0.3831413
42	0x3e465e4e	0.19371912
43	0x3e1de541	0.15419485
44	0x3e0bec42	0.13664344
45	0xbec6c0d7	-0.38819
46	0x3e5e5408	0.21711743
47	0xbc46f890	-0.012144223
48	0x3da17a3c	0.078846425
49	0x3e938b03	0.28816995
50	0xbd9a136f	-0.07523238
51	0xbe9f0232	-0.31056362
52	0x3df8ef99	0.121550746
53	0xbe3a54b4	-0.18196374
54	0xbd19cb7e	-0.03754758
55	0x3cf60201	0.030030252
56	0x3d8c14a0	0.068398714
57	0x3e1c15e7	0.1524273
58	0x3e2a2e41	0.16619207
59	0xbd8642bd	-0.06555698
60	0x3e018868	0.12649691
61	0xbd440bd7	-0.047862854
62	0xbe20edf2	-0.15715769
63	0x3db7b233	0.08969536
64	0xbc5b10d8	-0.013370715
65	0xbe3b811b	-0.18310969
66	0xbdc8d320	-0.09805894
67	0xbd0a734d	-0.033801366
68	0x3e1ee08f	0.1551535
69	0xbce07c01	-0.02740288
70	0xbd9b4818	-0.0758211
71	0xbdaafcf5	-0.08349029
72	0x3cd6e20e	0.026230838
73	0xbd7d59c5	-0.06185319
74	0x3dfbbb73	0.122916125
75	0xbd90a2a3	-0.070622705
76	0xbdba295e	-0.090899214
77	0x3c9c3e0e	0.019072559
78	0xbc0778d6	-0.008268556
79	0x3db516a4	0.08842209
80	0x3d76d01e	0.06025707
81	0xba14ed0f	-0.00056810764
82	0xbe5e531a	-0.21711388
83	0xbd9c4950	-0.07631171
84	0xbd92779b	-0.07151719
85	0xbde04e86	-0.10952477
86	0xbdde1c7e	-0.10845278
87	0x3dfb299e	0.12263797
88	0xbd3926b2	-0.04520292
89	0xbd84c1af	-0.06482255
90	0xbe1a26c5	-0.15053852
91	0x3de05c95	0.109551586
92	0xbdb0ad0e	-0.086267576
93	0x3e4f8da0	0.2026887
94	0x3e07e007	0.13269053
95	0xbe6a65ca	-0.22890392
96	0xbd739a94	-0.05947359
97	0x3cc8b0b3	0.02449832
98	0x3e055b72	0.13023165
99	0x3dece017	0.11566179
100	0x3d145657	0.036215153
101	0x3d88b24b	0.06674632
102	0xbdcfe414	-0.10150924
103	0xbcff8e59	-0.031195806
104	0xbdb095a2	-0.0862229
105	0x3c90b6df	0.017665325
106	0x3b69d87e	0.0035682018
107	0x3dfe763c	0.12424895
108	0xb9850847	-0.00025373904
109	0xbdf55a02	-0.11980058
110	0xbd170e28	-0.036878735
111	0xbdc38f2e	-0.09548794
112	0x3c940cb0	0.018072456
113	0x3d9f6e67	0.077847295
114	0xbcf7f838	-0.030269727
115	0xbd310893	-0.043221068
116	0xbb160d4d	-0.0022896111
117	0xbc94b81c	-0.018154196
118	0xbe23c1d5	-0.1599191
119	0xbcc612fd	-0.024178976
120	0xbde25184	-0.11050704
121	0xbe05c8fc	-0.1306495
122	0xbd8bfa49	-0.068348475
123	0x3d42298d	0.047402907
124	0xbd9e03d8	-0.07715577
125	0x3cb9cbb1	0.022680135
126	0x3deabfa7	0.11462336
127	0xbe54d7d9	-0.20785464
128	0xbd23199c	-0.039819345
129	0xbe3d4371	-0.18482758
130	0xbda810ce	-0.0820633
131	0x3d8b9816	0.068161175
132	0x3cab8b6b	0.020940503
133	0x3e512cf0	0.20427299
134	0xbea49703	-0.32146463
135	0x3e399fad	0.18127318
136	0x3e17ea4c	0.14835471
137	0x3e87915f	0.26478097
138	0x3ec8c09b	0.39209446
139	0xbd14e193	-0.036347937
140	0x3d22e87f	0.039772507
141	0x3cd84853	0.026401674
142	0x3e181698	0.14852369
143	0x3d2fe34a	0.04294137
144	0xbe53a4ae	-0.20668289
145	0xbe2f53ae	-0.17121765
146	0x3e0c3885	0.13693435
147	0xbe3c1b29	-0.18369736
148	0xbe07bb6b	-0.13255088
149	0xbe181c2f	-0.14854501
150	0x3e05fbc2	0.13084319
151	0x3e493090	0.19647431
152	0x3a8e62a7	0.0010863141
153	0x3bb43ea7	0.005500633
154	0xbae61e9c	-0.001755673
155	0x3e54e46f	0.20790266
156	0xbd1ef909	-0.038811717
157	0x3e55dc57	0.20884834
158	0xbd29e789	-0.041480575
159	0x3a134127	0.00056173134
160	0xbb45a379	-0.0030157252
161	0x3c6fbc16	0.0146322455
162	0xbdccd53c	-0.10001609
163	0x3e209ea9	0.15685524
164	0xbe41d621	-0.1892934
165	0x3e39c11b	0.1814007
166	0xbd722daa	-0.05912558
167	0x3b13307f	0.0022459326
168	0x3dcd4e47	0.10024696
169	0x3d9d953c	0.0769448
170	0x3d51cbbd	0.05121969
171	0x3e7a415a	0.24438992
172	0xbe3cb0ce	-0.1842682
173	0x3e44aab8	0.19205749
174	0x3d3ece39	0.046583388
175	0xbe2a40d0	-0.16626287
176	0x3e1828c3	0.148593
177	0xbe5af31c	-0.21381801
178	0x3ce28774	0.02765248
179	0x3e7d41ff	0.24732207
180	0xbd945141	-0.072420605
181	0xbd02b4fd	-0.031910885
182	0xbc9751e6	-0.01847167
183	0xbdc904bd	-0.09815357
184	0x3e7817c7	0.2422782
185	0xbe772964	-0.24136883
186	0x3b96434d	0.0045856596
187	0xbe167ba0	-0.14695597
188	0x3e843d9d	0.25828257
189	0x3e02d941	0.12778188
190	0x3e551e83	0.2081242
191	0xbe5d37e2	-0.21603349
192	0xbe406156	-0.1878713
193	0x3e14cf22	0.1453214
194	0x3eb8b1b0	0.36073065
195	0x3da87f57	0.08227413
196	0xbea557e7	-0.32293627
197	0xbc0e2824	-0.008676562
198	0x3e0aa377	0.1353892
199	0xbe53cf98	-0.2068466
200	0x3e02a29e	0.12757346
201	0xbe1145bf	-0.14186762
202	0x3e3fb864	0.18722683
203	0xbeca9565	-0.39567104
204	0x3da62d12	0.08114065
205	0xbe48ef81	-0.19622613
206	0xbf05aa5f	-0.5221309
207	0xbd17a4a3	-0.037022244
208	0x3de6d036	0.11270182
209	0xbb64e049	-0.0034923723
210	0xbe1c4392	-0.15260151
211	0x3e9576b0	0.29192114
212	0x3df76d11	0.1208135
213	0x3cada0d8	0.02119486
214	0x3d82033d	0.06348274
215	0xbea43383	-0.3207055
216	0x3ea26b45	0.31722465
217	0xbba2ade0	-0.004964575
218	0x3dd4bfd0	0.10388148
219	0xbdd88d3f	-0.105738156
220	0x3e070f0b	0.13189332
221	0xbf086154	-0.5327351
222	0x3ebea2f6	0.37233704
223	0x3e378464	0.17921597
224	0xbde061dc	-0.10956165
225	0x3c964b14	0.018346347
226	0x3b89741f	0.004194751
227	0x3e6d965f	0.23201893
228	0x3f1fd623	0.6243612
229	0xbdef3824	-0.1168063
230	0xbd232305	-0.03982832
231	0x3db8d50d	0.09025011
232	0xbdeee5e6	-0.116649434
233	0x3e08d97c	0.13364214
234	0x3dd67ce2	0.10473038
235	0x3e84199a	0.25800782
236	0x3e37e0ca	0.17956844
237	0x3e848a0c	0.2588657
238	0xbcee6c7f	-0.02910447
239	0x3da937b1	0.082625754
240	0xbe0d47e6	-0.13796958
241	0x3f39f342	0.72636807
242	0xbe579793	-0.21053915
243	0x3e0c37b5	0.13693126
244	0x3e93f5c8	0.28898454
245	0xbe6c4835	-0.2307442
246	0xbeb68f43	-0.35656175
247	0xbd58c715	-0.052924234
248	0x3e186404	0.14881903
249	0x3dfbd960	0.1229732
250	0x3e2a6e83	0.1664372
251	0x3db5dc00	0.08879852
252	0x3eb21dc5	0.34788337
253	0xbdaaec9a	-0.083459094
254	0xbcc9044d	-0.024538184
255	0x3e790cf4	0.24321347

layer_stack.3.bias f4 [32]
0	0xbcfae23a	-0.030625451
1	0x3d570e63	0.052503955
2	0x3e2bdafe	0.16782758
3	0xbde12ecc	-0.10995254
4	0x3d43e679	0.047827218
5	0x3b7579b8	0.0037456583
6	0x3e006a04	0.12540442
7	0xbc36ad8a	-0.011149773
8	0x3dec2bc8	0.11531788
9	0xbd01991e	-0.031640165
10	0x3cb5aad2	0.02217618
11	0x3d75e406	0.060031913
12	0x3de8a174	0.1135892
13	0x3e13b202	0.14423373
14	0xbc8fd920	-0.017559588
15	0xbd538980	-0.051644802
16	0x3ea6869c	0.32524574
17	0x3e8d4107	0.27588674
18	0x3e877c5d	0.2646207
19	0x3e0afdef	0.1357343
20	0x3e74c907	0.23904811
21	0x3edc0650	0.42973566
22	0x3dbde714	0.0927259
23	0x3e26c6e0	0.16286802
24	0x3e504bcc	0.20341414
25	0x3e568dfb	0.20952599
26	0x3e3fdf4d	0.18737526
27	0x3a8af4e9	0.0010601553
28	0x3e898582	0.2685967
29	0xbdd63a1d	-0.10460303
30	0x3dbf0a90	0.093281865
31	0xbd68ae3e	-0.056806795

classifier.0.weight f4 [10, 32]
0	0xbe95312e	-0.29139084
1	0xbe073a1b	-0.13205759
2	0xbea705f0	-0.32621717
3	0xbe949d9e	-0.29026502
4	0x3e2b04db	0.16701071
5	0x3d0d0327	0.034426834
6	0xbf0fc78f	-0.5616388
7	0x3c4a4db6	0.012347629
8	0x3f5ab15c	0.8542688
9	0xbf0269ce	-0.50942695
10	0xbe1eb4d4	-0.15498668
11	0x3cd1881d	0.0255776
12	0xbef65e8a	-0.48119003
13	0xbe5428d2	-0.20718697
14	0x3e459b0d	0.19297428
15	0xbd0a2e65	-0.03373565
16	0xbf5a65aa	-0.8531138
17	0x3f632de4	0.887419
18	0xbf0c747c	-0.5486524
19	0xbe58ee55	-0.21184666
20	0x3ef87a4a	0.485308
21	0xbdd85ad7	-0.10564201
22	0x3f0d00d2	0.55079377
23	0xbf0cabc4	-0.54949594
24	0xbecd480b	-0.40094027
25	0xbe5cb5c6	-0.21553716
26	0xbd8957e2	-0.067062154
27	0x3c3a7fa5	0.011382972
28	0xbd962024	-0.07330349
29	0x3e98c35a	0.2983654
30	0x3eaf0e0b	0.341904
31	0x3de84558	0.11341351
32	0x3f0b9287	0.5452046
33	0x3e99bf7f	0.30028912
34	0x3ea3a042	0.31958205
35	0x3eb45220	0.35218906
36	0x3f308167	0.6894745
37	0x3d9e7f0e	0.077390775
38	0x3e0248c0	0.12723064
39	0x3f4ba6a6	0.7955116
40	0xbf9d55ae	-1.2291772
41	0x3e8e0401	0.2773743
42	0x3dd8f02a	0.10592683
43	0xbf4ca4d4	-0.7993901
44	0x3e8bb786	0.27288455
45	0xbe95e076	-0.29272813
46	0x3eee7dce	0.46580356
47	0xbd36080c	-0.044441268
48	0x3f104a0a	0.56362975
49	0xbee97883	-0.45599756
50	0x3e176bb9	0.14787187
51	0x3ee208ec	0.44147432
52	0x3d2d2f97	0.042281713
53	0xbe9d4c0d	-0.30722085
54	0xbdff01d1	-0.12451518
55	0x3e250618	0.16115606
56	0x3ec4dd95	0.38450304
57	0xbf251254	-0.6448109
58	0xbef6b3a2	-0.48183924
59	0x3de2669a	0.11054726
60	0x3e05d4e7	0.13069497
61	0x3d42f931	0.04760093
62	0xbf2346e3	-0.6378004
63	0x3d1d66ab	0.03842799
64	0x3f6ab93f	0.91688913
65	0xbb481c1c	-0.0030534333
66	0xbf13dc20	-0.5775776
67	0x3f4a317d	0.78981763
68	0xbe9700e7	-0.29492876
69	0x3eae420c	0.34034765
70	0xbd04db3b	-0.032435637
71	0x3dee9e7c	0.11651322
72	0x3e5fc618	0.2185291
73	0x3e87ace7	0.26499102
74	0x3eb0c286	0.3452341
75	0x3cc50e2d	0.024054611
76	0xbf1ae0b6	-0.6049913
77	0xbd2f93bc	-0.0428655
78	0x3f19169c	0.59800124
79	0xbe61c16a	-0.22046438
80	0xbf07eb77	-0.53093666
81	0xbea68594	-0.32523787
82	0xbeb45d8e	-0.35227627
83	0x3e124450	0.14283872
84	0x3e89da44	0.26924336
85	0x3dfe299d	0.12410281
86	0x3c51d74c	0.012807678
87	0x3ee044a8	0.4380238
88	0xbf025a7e	-0.5091933
89	0xbd73c80b	-0.059516948
90	0xbedebbad	-0.4350256
91	0xbd19f58e	-0.037587695
92	0xbde84469	-0.11341173
93	0xbd16bd27	-0.036801483
94	0x3f08f160	0.5349331
95	0xbe1f7368	-0.15571368
96	0xbead5df3	-0.3386074
97	0xbd411f56	-0.047149025
98	0x3e2462a0	0.16053247
99	0x3f219536	0.631183
100	0xbe665ac6	-0.22495565
101	0x3da86ddf	0.08224081
102	0x3effce71	0.4996219
103	0xbf21c1c2	-0.63186276
104	0xbec7fb05	-0.390587
105	0xbe0acd20	-0.13554811
106	0x3d4b7784	0.049674526
107	0x3e3ed4e7	0.18635903
108	0x3f3ab3c0	0.72930527
109	0x3e788c3b	0.24272244
110	0x3b862ea5	0.004094916
111	0x3cd31f76	0.025771838
112	0xbeb76b05	-0.35823837
113	0xbf1d0cf9	-0.6134792
114	0x3e33dd90	0.17564988
115	0xbedc1f92	-0.42992836
116	0xbed9cdd3	-0.42539844
117	0xbed36e21	-0.4129496
118	0x3ecf5e15	0.40501466
119	0x3ec7bd8a	0.39011794
120	0x3f064a45	0.52457076
121	0xbed1f192	-0.41004616
122	0x3d55b1ed	0.052171636
123	0xbd4f1607	-0.050558116
124	0xbde96593	-0.11396327
125	0xbbad0f6f	-0.005281381
126	0x3f568552	0.8379718
127	0xbc4f7901	-0.012663127
128	0xbf0fe0cc	-0.5620239
129	0xbda28eb3	-0.07937374
130	0x3f1fc97d	0.6241682
131	0xbe8e0c2d	-0.27743664
132	0x3f28f8cf	0.6600465
133	0xbf3e7e50	-0.7441149
134	0xbf0167fd	-0.505493
135	0x3dce8148	0.10083252
136	0xbea9f514	-0.33194792
137	0x3da3600e	0.07977305
138	0xbeecf3da	-0.46279794
139	0x3e10fdf4	0.14159375
140	0x3e96546e	0.2936129
141	0xbf2948da	-0.6612679
142	0xbebc64bd	-0.36795607
143	0xbe118ec3	-0.14214616
144	0xbd43832e	-0.047732525
145	0xbe4b7b36	-0.1987122
146	0x3c62c3ce	0.013840629
147	0x3f1f3554	0.6219075
148	0x3eae29f0	0.3401637
149	0x3f0ec975	0.5577615
150	0xbed3ecee	-0.413917
151	0x3f05d3d2	0.5227634
152	0xbf277759	-0.65416485
153	0x3f583797	0.84459823
154	0x3ed97081	0.42468646
155	0xbdf83486	-0.12119393
156	0x3ed91aff	0.4240341
157	0xbd4b5c38	-0.049648494
158	0xbf0c3bb9	-0.5477863
159	0xbdab1c10	-0.08354962
160	0xbe1535bc	-0.1457128
161	0xbe59088c	-0.21194667
162	0xbe34931b	-0.17634241
163	0xbe9de507	-0.30838796
164	0x3c9c17bc	0.019054286
165	0x3d34d290	0.04414612
166	0xbea5cf17	-0.3238456
167	0xbd49e5f2	-0.04929156
168	0x3dfa1b09	0.12212188
169	0xbea4c772	-0.32183415
170	0x3ef00c3f	0.46884343
171	0x3e204de7	0.15654717
172	0xbe490420	-0.1963048
173	0xbdc2abe4	-0.09505442
174	0xbed93df7	-0.42430088
175	0x3dc1340e	0.09433757
176	0x3f788e80	0.9709244
177	0x3ea9f712	0.33196312
178	0x3f29b5d0	0.6629305
179	0xbefd775f	-0.49505135
180	0xbf04c3c0	-0.5186119
181	0x3f146090	0.5795984
182	0xbdbd3dc9	-0.092403
183	0xbe22d4c1	-0.15901472
184	0x3f531840	0.8245888
185	0x3e45890e	0.19290563
186	0x3e3b2ef3	0.18279628
187	0x3c404f62	0.011737676
188	0xbf77d9ad	-0.9681652
189	0xbdd39af3	-0.103322886
190	0x3f28bba6	0.6591133
191	0x3d17adb5	0.037030894
192	0x3efa1339	0.4884279
193	0x3e943250	0.28944635
194	0xbcc19008	-0.02362825
195	0xbf48787f	-0.7830886
196	0xbe9dab22	-0.30794626
197	0xbe89ffd8	-0.26953006
198	0xbebcc10d	-0.36866036
199	0xbe34a67b	-0.17641632
200	0x3ec989c3	0.39362916
201	0xbe4ffb21	-0.20310642
202	0x3e372746	0.17886075
203	0x3ea25f31	0.3171325
204	0xbf20b89e	-0.62781703
205	0x3ec65994	0.38740218
206	0xbea43b01	-0.32076266
207	0x3cb991df	0.022652565
208	0x3ec1fcce	0.37888187
209	0x3f282eb5	0.6569627
210	0xbf18d269	-0.5969606
211	0x3f2446e9	0.641707
212	0x3c9d850f	0.019228486
213	0xbf5dfccb	-0.86713856
214	0x3f46e9c1	0.7770043
215	0x3ea83918	0.3285606
216	0x3e1c7a45	0.15281017
217	0x3f0a00c5	0.53907424
218	0x3ca2d737	0.019878013
219	0xbde3b133	-0.111177824
220	0xbf3d12d4	-0.73856854
221	0xbd433c74	-0.047665074
222	0xbf3ad63f	-0.72983164
223	0x3d6d0a56	0.057871185
224	0xbe12183d	-0.14267059
225	0xbce6b3e8	-0.028161958
226	0xbe9b2880	-0.30304337
227	0x3eea2b47	0.45736143
228	0xbd8c1f7a	-0.06841941
229	0x3e949421	0.29019263
230	0x3e3e5720	0.18587923
231	0x3ed7b10b	0.4212726
232	0x3e831311	0.25600484
233	0x3f50d142	0.815693
234	0x3e51562b	0.20443027
235	0xbe15defb	-0.14635842
236	0x3f84451a	1.0333588
237	0x3e813fe9	0.25244072
238	0x3da2fa0c	0.07957849
239	0xbda4acf0	-0.08040798
240	0xbebe67da	-0.37188607
241	0x3e957f62	0.29198748
242	0xbea32063	-0.31860647
243	0xbea98974	-0.3311268
244	0x3ef67c50	0.48141718
245	0x3f2fd1c9	0.6867948
246	0xbed72327	-0.42019007
247	0x3c1b79b3	0.009489465
248	0xbeda62b1	-0.4265342
249	0xbf0cda64	-0.5502074
250	0xbf040358	-0.515676
251	0xbdb2cb06	-0.0873013
252	0x3cfffc63	0.031248277
253	0xbdbc5bcd	-0.09197197
254	0xbf3c1fb7	-0.73485893
255	0xbdd62d1b	-0.10457822

classifier.0.bias f4 [10]
0	0xbe1a0e3c	-0.15044492
1	0x3decfdc6	0.11571841
2	0x3cf8ad5c	0.030356102
3	0xbdcc893a	-0.099871114
4	0xbdaf775c	-0.08567688
5	0x3de3a24a	0.111149386
6	0xbea8ddec	-0.32981813
7	0x3d8e48de	0.06947492
8	0xbe3f338a	-0.18672004
9	0x3d489dfa	0.048978783
