state_tests/nets/dubconv.pth (torch, 26159 bytes, 18 tensors)

layer_stack.0.layer_stack.0.weight f4 [24, 1, 3, 3]
0	0xbe9cceab	-0.30626425
1	0x3c8d1d02	0.017225746
2	0x3e9ce523	0.30643567
3	0xbd5dfa40	-0.054193735
4	0xbc1913fb	-0.009343143
5	0x3e9646b3	0.29350814
6	0xbe1c82d4	-0.15284282
7	0xbea32ac9	-0.3186858
8	0xbdd486ab	-0.103772484
9	0x3e8dce50	0.27696466
10	0xbdcbd607	-0.09952932
11	0x3e2c5cbc	0.1683225
12	0xbdd2ce6c	-0.10293278
13	0xbe37d4d0	-0.17952275
14	0x3e254fda	0.16143742
15	0x3ea82102	0.32837683
16	0xbe89825d	-0.26857272
17	0x3d1fb635	0.038992126
18	0xbe12cd7e	-0.14336202
19	0x3e5f2bf1	0.21794106
20	0xbd5ea7f1	-0.05435938
21	0x3ea27e3c	0.31736934
22	0xbc837995	-0.016049186
23	0xbd164ef0	-0.036696374
24	0x3e4ac49a	0.1980156
25	0xbd37d414	-0.044879988
26	0xbdd9f44a	-0.106422976
27	0x3e9485f3	0.29008445
28	0xbe9466a7	-0.28984568
29	0x3de57aac	0.112050384
30	0xbdcc9aed	-0.09990487
31	0xbd3109bb	-0.04322217
32	0x3e5ac6ba	0.2136487
33	0xbe5cc9f1	-0.2156141
34	0xbdd76b36	-0.10518496
35	0x3e6a0a9f	0.22855614
36	0xbd38e7cb	-0.04514293
37	0xbdbe4d86	-0.0929213
38	0x3c9cffab	0.01916488
39	0xbe8d92c8	-0.27651048
40	0xbc5bed2b	-0.0134232445
41	0x3d44624b	0.047945302
42	0xbdc63a86	-0.09679131
43	0xbc22ed00	-0.0099442005
44	0xbe8dbdc6	-0.27683848
45	0xbe316d0c	-0.17326754
46	0x3e75995f	0.23984288
47	0xbd6f7c84	-0.058468357
48	0x3e64b465	0.2233444
49	0xbe91250f	-0.28348586
50	0x3e33b5ae	0.17549774
51	0xbe2b2f0d	-0.16717167
52	0xbe406976	-0.1879023
53	0x3e08a81b	0.13345377
54	0x3d85cdbf	0.065333836
55	0x3e46aecf	0.19402622
56	0x3e8c82fc	0.27443683
57	0x3da024c6	0.07819514
58	0xbeaa3331	-0.3324218
59	0x3e4268a6	0.18985233
60	0xbe532bbc	-0.20622152
61	0x3c4d3e1e	0.012527017
62	0x3e8597da	0.26092416
63	0xbe81a7c2	-0.25323302
64	0x3df1afcd	0.118011095
65	0xbe3183b6	-0.173354
66	0xbda4c4cb	-0.08045348
67	0xbe2af936	-0.16696629
68	0xbe764133	-0.24048309
69	0xbdfac92b	-0.12245401
70	0xbe8a44b6	-0.27005547
71	0xbcd94c41	-0.026525619
72	0xbe8dc5ec	-0.27690065
73	0x3e1d92f0	0.15388083
74	0x3e42ec4a	0.1903545
75	0xbc5ee011	-0.013603226
76	0xbd247cd4	-0.040158108
77	0x3e2152a9	0.15754189
78	0x3e849df8	0.2590177
79	0x3ea2588f	0.3170819
80	0xbe5e42e7	-0.21705209
81	0x3ca8e989	0.02061917
82	0x3e958363	0.29201803
83	0xbea89fd8	-0.3293445
84	0xbe59f498	-0.21284711
85	0x3d8cb6f8	0.06870836
86	0x3e4d6f2c	0.2006194
87	0x3e9293e9	0.28628471
88	0xbd5aec87	-0.053448226
89	0x3d248c54	0.04017289
90	0x3d08dbbb	0.033412676
91	0xbe826767	-0.25469515
92	0xbe0d5fe9	-0.13806118
93	0xbe023ccb	-0.12718503
94	0xbe8c547a	-0.274082
95	0xbe5a9143	-0.21344475
96	0x3e8d80bb	0.27637276
97	0x3e43f9cf	0.19138263
98	0x3e215f6c	0.15759057
99	0xbdccece2	-0.10006119
100	0x3e92c8d5	0.28668848
101	0x3df8d793	0.121504925
102	0x3d2f54d0	0.042805493
103	0x3dc6edbc	0.09713313
104	0x3e9304a5	0.2871448
105	0x3c9c1687	0.01905371
106	0xbea3a8fc	-0.31964862
107	0x3da40b37	0.080099516
108	0xbd5665d7	-0.052343216
109	0x3cdf8fbd	0.02729022
110	0x3ea90f91	0.3301969
111	0x3e2c9c2b	0.16856448
112	0xbea7dbbe	-0.32784837
113	0x3c5fb0a6	0.013652956
114	0x3e75cf0f	0.24004768
115	0x3e8968e1	0.2683783
116	0x3d53f181	0.051743988
117	0xbe4c6d89	-0.1996366
118	0x3e991ad7	0.2990329
119	0xbbd65861	-0.0065412973
120	0x3de3c52b	0.11121591
121	0x3e9aed8e	0.30259365
122	0xbe0b99a1	-0.13632824
123	0x3e9ab3db	0.30215344
124	0x3da09c0a	0.07842262
125	0xbdfc427e	-0.1231737
126	0x3d8273f5	0.06369773
127	0xbe0ed563	-0.13948588
128	0xbd1f3a52	-0.038873978
129	0xbe7f154f	-0.24910472
130	0xbe713e9b	-0.23559038
131	0x3e3eef73	0.1864603
132	0x3df279c4	0.11839631
133	0xbe8fe042	-0.28100783
134	0xbe94e0a2	-0.2907763
135	0xbdabbfc1	-0.083861835
136	0xbe415b7e	-0.18882558
137	0xbe4784ce	-0.19484255
138	0xbe4fefcb	-0.20306318
139	0x3e6fb25b	0.23407881
140	0xbd22cebb	-0.039747935
141	0xbe26044c	-0.16212577
142	0xbe8f1bc8	-0.27950883
143	0xbcc64418	-0.024202392
144	0xbe810791	-0.25201085
145	0x3b393ef0	0.0028266273
146	0xbe33bc89	-0.17552389
147	0xbd1eb0ed	-0.03874295
148	0xbea7949f	-0.32730576
149	0xbdddf004	-0.10836795
150	0x3e32c60d	0.17458363
151	0x3e7c5e65	0.24645384
152	0xbe3c3271	-0.18378617
153	0xbe3a6877	-0.18203913
154	0x3d421727	0.04738536
155	0xbcab7b18	-0.02093272
156	0xbe1c14c5	-0.15242298
157	0x3e1cebc8	0.15324318
158	0x3dbc1130	0.09182966
159	0xbdccf848	-0.100082934
160	0xbea4a5d3	-0.32157764
161	0x3e30afe9	0.17254604
162	0x3d0acd6b	0.033887308
163	0x3e4f8f33	0.2026947
164	0xbe866b3c	-0.26253688
165	0xbe0fdfe0	-0.14050245
166	0x3dd62f50	0.10458243
167	0xbe1cd640	-0.15316105
168	0xbe073d0b	-0.1320688
169	0xbe9073c6	-0.28213328
170	0xbda77950	-0.081774354
171	0xbe631e7e	-0.221796
172	0x3e49397f	0.1965084
173	0x3e58d36b	0.211744
174	0x3e18c7b4	0.1491993
175	0xbcde6319	-0.027146863
176	0x3e97d1a2	0.29652125
177	0xbe97e35b	-0.29665646
178	0xbe8ad739	-0.27117327
179	0xbe863ce9	-0.26218346
180	0x3d5523b6	0.05203601
181	0x3d3aa101	0.0455637
182	0xbe4290ae	-0.19000503
183	0xbe632326	-0.22181377
184	0x3e9c238a	0.30495864
185	0xbe409296	-0.18805918
186	0xbe098f7b	-0.1343364
187	0xbeaa82cf	-0.33302924
188	0xbb1abc2c	-0.0023610694
189	0xbe833686	-0.25627536
190	0xbd8fc64d	-0.07020245
191	0xbdcc1b29	-0.09966118
192	0x3deae395	0.11469189
193	0x3d8d1f79	0.068907686
194	0x3e6291fb	0.22126
195	0xbe5e2160	-0.21692419
196	0x3d80893b	0.06276175
197	0x3d717678	0.05895087
198	0xbd803ff2	-0.062621966
199	0xbd426e02	-0.047468193
200	0xbea19c1f	-0.31564423
201	0x3e7d9e9a	0.24767533
202	0xbe414b76	-0.18876442
203	0x3d6f7864	0.058464423
204	0xbe0f0a4e	-0.13968775
205	0xbea2febe	-0.31834978
206	0x3da752d8	0.08170098
207	0x3e5876a6	0.21139011
208	0x3e624f33	0.22100525
209	0xbe9cbfee	-0.3061518
210	0x3c1150be	0.008869348
211	0xbe2a5283	-0.16633038
212	0x3e712a86	0.23551378
213	0xbe279fd2	-0.1636956
214	0xbea774d7	-0.3270633
215	0xbe997bf5	-0.29977384

layer_stack.0.layer_stack.0.bias f4 [24]
0	0x3c8e6b28	0.01738508
1	0xbe31aad0	-0.17350316
2	0x3d1e8c65	0.03870811
3	0x3e4145cc	0.18874282
4	0xbe68836e	-0.22706386
5	0xbe7c023c	-0.24610227
6	0xbdad8a01	-0.08473588
7	0x3b31dd55	0.002713998
8	0x3e976958	0.29572558
9	0xbe9e5a52	-0.30928284
10	0xbe79a617	-0.24379764
11	0xbd9ab92f	-0.07554852
12	0xbdfd3672	-0.123639
13	0xbe036a4a	-0.12833515
14	0x3c8261f6	0.015915852
15	0x3e63a072	0.22229174
16	0x3de9ffac	0.11425719
17	0x3e6daa7a	0.23209563
18	0xbe991a4a	-0.2990287
19	0x3d18bd54	0.037289932
20	0xbe5fda60	-0.21860647
21	0xbe50e2c9	-0.20399012
22	0xbd919eee	-0.071103916
23	0x3e933790	0.28753328

layer_stack.0.layer_stack.2.weight f4 [24, 24, 1, 1]
0	0xbe3fbf78	-0.18725383
1	0x3e206fad	0.15667601
2	0x3d1cf448	0.038318902
3	0xbddd4c63	-0.10805585
4	0x3e308e81	0.17241861
5	0x3ccc704f	0.024955897
6	0x3daf988a	0.085740164
7	0xbe4c90d1	-0.19977118
8	0xbe20a12b	-0.1568648
9	0xbd09cae0	-0.033640742
10	0x3d9316c8	0.071820796
11	0xbcfd1352	-0.030893002
12	0xbcfa9738	-0.030589685
13	0xbc8a938e	-0.016916063
14	0x3cce3394	0.025171079
15	0x3e37e043	0.17956643
16	0xbe4785cc	-0.19484633
17	0xbd08575e	-0.033286445
18	0x3b9641c5	0.004585477
19	0xbdaf297f	-0.085528366
20	0x3e037761	0.12838508
21	0x3e3d64a9	0.1849543
22	0xbdb10ec0	-0.086453915
23	0x3d63fbd7	0.055660095
24	0xbdb0e942	-0.086382404
25	0x3e3fec0c	0.18742388
26	0x3db15e36	0.086605474
27	0xbdf32318	-0.11871928
28	0xbd3751b3	-0.04475565
29	0xbd4e05cf	-0.05029851
30	0xbdeed43b	-0.116615735
31	0x3d4741e9	0.04864684
32	0x3dbdd596	0.09269254
33	0x3c4cab68	0.012492038
34	0xbc2a3219	-0.010387921
35	0x3dfcaf09	0.12338073
36	0x3de058dc	0.109544486
37	0xbe1fb02d	-0.1559455
38	0x3d7f191c	0.062279806
39	0x3cd96bba	0.026540626
40	0x3db92e3f	0.09042024
41	0xbdf2a014	-0.11846939
42	0x3e411e9a	0.1885933
43	0x3d03ed97	0.032209005
44	0xbe2dbff3	-0.16967754
45	0x3db1c49b	0.08680078
46	0x3d2e3dd0	0.042539418
47	0x3e20bad8	0.15696275
48	0x3ca33f1a	0.01992755
49	0x3da5f4b8	0.08103317
50	0xbdf3a27a	-0.11896224
51	0x3d9ac5d4	0.07557264
52	0x3d964911	0.07338155
53	0xbd170394	-0.036868647
54	0x3e3fe0b5	0.18738063
55	0xbe0bc64f	-0.13649867
56	0x3c9c0e25	0.019049713
57	0x3d2eb281	0.042650703
58	0x3dd36b1c	0.10323164
59	0xbd520947	-0.05127838
60	0x3ddcf66d	0.107891895
61	0x3dd954cc	0.10611877
62	0x3dc473b9	0.09592385
63	0xbe0ce382	-0.13758662
64	0xbd58a5b1	-0.05289239
65	0x3e1c3a52	0.15256622
66	0xbd79021c	-0.060793027
67	0xbb1739ba	-0.002307518
68	0x3db0c39b	0.08631059
69	0xbd95aa99	-0.073079295
70	0x3e3564e9	0.17714275
71	0x3d1ac0da	0.037781574
72	0x3df0a425	0.11750058
73	0xbe1bed26	-0.15227184
74	0xbe404dc7	-0.1877967
75	0xbdd8d653	-0.10587754
76	0x3c76e75a	0.015069807
77	0xbcab0931	-0.020878406
78	0x3d6a8bf6	0.057262383
79	0xbda0b33c	-0.07846686
80	0xbd445373	-0.047931146
81	0xbd62b91f	-0.055352326
82	0x3e3d0c63	0.18461756
83	0xbcea5de8	-0.028609231
84	0xbe00aba8	-0.12565482
85	0x3e10a167	0.1412407
86	0xbe3feb34	-0.18742067
87	0x3dd2d5c5	0.102946796
88	0xbcc6f36d	-0.024285996
89	0xbe2bce10	-0.16777825
90	0xbcf9f335	-0.030511478
91	0xbe0576f4	-0.13033658
92	0x3d88be11	0.06676877
93	0xbde64844	-0.11244252
94	0x3e506adc	0.20353264
95	0x3e300bcd	0.17192002
96	0xbdd478c5	-0.103745975
97	0x3e069dfb	0.13146202
98	0xbe0f1123	-0.13971381
99	0xbc465b39	-0.01210671
100	0x3d736b75	0.05942865
101	0xbe4b70b4	-0.19867212
102	0xbd83df00	-0.06439018
103	0xbe47a6b7	-0.1949719
104	0xbce8d879	-0.028423535
105	0x3d568e1e	0.052381627
106	0xbe4fdf0c	-0.2029993
107	0xbe1cd746	-0.15316495
108	0xbe098375	-0.13429053
109	0x3c858d8f	0.016302852
110	0xbe4266af	-0.18984483
111	0xbc56a143	-0.013099971
112	0x3d70cb65	0.058787722
113	0x3dd95a0a	0.10612877
114	0x3d8b395a	0.06798048
115	0x3d3c0063	0.045898806
116	0x3e0d4bc7	0.13798438
117	0x3dc35df8	0.095394075
118	0x3cdec6fc	0.027194493
119	0xbd420f35	-0.047377784
120	0xbc1a369e	-0.009412436
121	0xbe272007	-0.16320811
122	0xbdf1f521	-0.11814333
123	0x3c9b7d93	0.018980777
124	0xbd89c641	-0.06727267
125	0xbe0ae2ac	-0.13563031
126	0x3d2f4314	0.04278858
127	0x3ddd7782	0.1081381
128	0xbdafeb44	-0.08589795
129	0xbd89e913	-0.067339085
130	0xbd07911d	-0.033097375
131	0x3e35fc55	0.17772038
132	0x3e3f8653	0.18703584
133	0xbe007c8d	-0.12547512
134	0x3c4918ee	0.01227401
135	0x3d5786be	0.052618735
136	0xbe281edc	-0.16418022
137	0x3e2efda5	0.17088945
138	0xbc910b76	-0.01770566
139	0xbc5bd673	-0.013417828
140	0x3e224036	0.15844807
141	0x3c9e4daf	0.019324152
142	0xbd93df63	-0.07220342
143	0xbe2a3e05	-0.16625221
144	0xbdf6e01f	-0.120544665
145	0x3d4f67b8	0.050636023
146	0xbe1b616b	-0.15173881
147	0x3b90d925	0.004420417
148	0xbe236896	-0.15957865
149	0xbe3a10ff	-0.18170546
150	0xbe03ce50	-0.1287167
151	0x3e2b5b08	0.16733944
152	0x3e027703	0.12740712
153	0x3c0901c5	0.008362238
154	0x3d66a9ac	0.056314155
155	0xbe04bc03	-0.12962346
156	0xbdcdf5b3	-0.10056629
157	0xbb05beae	-0.0020407843
158	0x3e4dbce6	0.2009159
159	0xbdd29577	-0.102824144
160	0x3e21124a	0.15729633
161	0x3e4ad2dd	0.19807
162	0xbc5e7fed	-0.013580305
163	0x3e4d2927	0.2003523
164	0xbd87969c	-0.06620523
165	0x3d9e5fba	0.07733102
166	0x3d3e5e42	0.04647661
167	0x3e4b8ea8	0.19878638
168	0x3e1e90fd	0.15484996
169	0xbe2b0e28	-0.16704619
170	0xbe1b2fc0	-0.15154934
171	0xbd7ac195	-0.06121977
172	0xbe0ce52c	-0.13759297
173	0x3e2a6fa9	0.16644157
174	0x3d833031	0.06405676
175	0xbccc1701	-0.024913313
176	0xbdac8a75	-0.08424846
177	0xbe007c6f	-0.12547468
178	0x3dfec3e3	0.12439706
179	0x3e0c596d	0.13705988
180	0x3e11eb43	0.14249901
181	0x3ca0b0da	0.01961558
182	0xbdd41a3f	-0.103565685
183	0xbe0a9631	-0.13533856
184	0xbe388a8f	-0.18021606
185	0x3d955a47	0.0729261
186	0x3de38cf0	0.11110866
187	0x3e1666ab	0.14687602
188	0x3e1ed9b7	0.15512739
189	0x3d062300	0.032748222
190	0xbe183c0e	-0.14866659
191	0x3d59c896	0.05316981
192	0x3d459993	0.048242163
193	0xbe20d24c	-0.15705222
194	0x3e09b053	0.13446169
195	0xbdbf8830	-0.093521476
196	0x3e500c9a	0.20317307
197	0xbe133a7e	-0.14377782
198	0x3e0eb192	0.13934925
199	0x3ddf85e2	0.10914208
200	0xbbe1ef9c	-0.0068950187
201	0x3e39ee5a	0.1815733
202	0x3dd531e9	0.1040991
203	0x3dc0816e	0.09399687
204	0x3cec7963	0.028866475
205	0xbd9fe0d4	-0.078065544
206	0xbe45e9e9	-0.19327511
207	0x3e042a2d	0.12906714
208	0xbd9ab31f	-0.07553696
209	0xbcb85975	-0.022503594
210	0xbe503abe	-0.20334908
211	0x3e1715b0	0.14754367
212	0x3c75541a	0.014973665
213	0xbe3b0fef	-0.18267797
214	0xbda0d076	-0.07852261
215	0x3d3c5537	0.045979705
216	0xbd131608	-0.035909683
217	0xbd915f6f	-0.07098281
218	0xbddb5be0	-0.10710883
219	0xbc29ad0e	-0.010356201
220	0xbe237361	-0.15961982
221	0x3e49006d	0.19629069
222	0x3d7c4f15	0.061598856
223	0x3c79b1f8	0.015240185
224	0x3d4dae51	0.05021507
225	0x3d96de1a	0.07366581
226	0x3db8d89e	0.090256914
227	0xbdbf6841	-0.09346057
228	0x3d8781d0	0.06616557
229	0xbda507ee	-0.08058153
230	0x3e3df705	0.18551262
231	0x3c9f6216	0.01945595
232	0xbe10e0c5	-0.14148243
233	0x3e4d470b	0.20046632
234	0x3df25345	0.11832289
235	0xbcef108f	-0.0291827
236	0xbdaed545	-0.08536772
237	0x3def7bd6	0.11693542
238	0xbd54c22b	-0.051942986
239	0xbc62f5fa	-0.013852591
240	0xbe06a409	-0.13148512
241	0x3e35fb93	0.17771749
242	0x3e0f8308	0.14014828
243	0xbe3e68df	-0.18594693
244	0xbe133aed	-0.14377947
245	0xbdd3a3b8	-0.10333961
246	0xbdb31c4d	-0.08745632
247	0xbe3495de	-0.17635295
248	0x3da5419c	0.080691546
249	0x3e377d5c	0.17918915
250	0xbdca028f	-0.09863769
251	0xbbd42ebd	-0.006475298
252	0xbe0550c5	-0.13019092
253	0x3e1a7483	0.15083508
254	0xbe3f0eb4	-0.18657953
255	0x3ce8b844	0.028408177

layer_stack.0.layer_stack.2.bias f4 [24]
0	0xbcec5793	-0.028850352
1	0x3e4cf1a8	0.2001406
2	0x3db83016	0.08993547
3	0xbd8f8ecb	-0.070096575
4	0x3d6355b5	0.05550166
5	0x3e216206	0.15760049
6	0x3be97579	0.0071245995
7	0xbd6b714f	-0.057481106
8	0x3e02c033	0.1276863
9	0xbad588d8	-0.0016291393
10	0xbc876710	-0.016528636
11	0xbc50d1be	-0.012745319
12	0x3d516d9c	0.051129922
13	0x3ddde823	0.10835292
14	0x3e25cdb1	0.16191746
15	0x3cdab183	0.026695972
16	0xbd49257a	-0.049108006
17	0xbd68f3cd	-0.05687313
18	0xbe500759	-0.20315303
19	0x3da4ef9a	0.08053513
20	0x3c7f7220	0.015591174
21	0xbb347bd7	-0.0027539635
22	0xbdebc5dd	-0.11512349
23	0x3e28321b	0.16425364

layer_stack.0.layer_stack.4.weight f4 [24, 24, 1, 1]
0	0x3de03e86	0.109494254
1	0xbbe24484	-0.0069051404
2	0xbe4d7c27	-0.20066892
3	0x3dba4a65	0.09096221
4	0xbe3ee0a0	-0.18640375
5	0xba347be9	-0.0006884919
6	0xbda7d26b	-0.08194431
7	0xbe44e07c	-0.19226259
8	0x3db35c2f	0.08757817
9	0x3e4d448c	0.2004568
10	0x3d4e1572	0.05031342
11	0x3e09e8fd	0.13467784
12	0xbde3d02f	-0.11123692
13	0xbd83dd49	-0.06438691
14	0x3e30c833	0.1726387
15	0x3ca1a6a7	0.019732786
16	0xbd8e0a34	-0.0693554
17	0x3c4a4532	0.012345599
18	0xbd10c10e	-0.03534036
19	0x3d8190f6	0.06326477
20	0xbe4889c4	-0.19583803
21	0xbe2cf80c	-0.16891497
22	0xbe436b20	-0.19083834
23	0xbe0d7c4e	-0.1381695
24	0xbe2a8705	-0.16653068
25	0x3d64cdbb	0.055860262
26	0x3d28795c	0.041131362
27	0x3e1706f4	0.14748746
28	0x3e44f9db	0.19235937
29	0xbe480016	-0.19531283
30	0x3d0e1da9	0.034696255
31	0xbdcbac5b	-0.099449836
32	0xbd971f1f	-0.07378983
33	0xbc53462e	-0.01289515
34	0x3dacdcc4	0.08440545
35	0xbda4f96a	-0.080553845
36	0x3da3e392	0.0800239
37	0xbc8d6650	-0.0172607
38	0x3dc60dc4	0.09670594
39	0x3e0c7b02	0.13718799
40	0x3ddf1578	0.10892767
41	0xbb92bf65	-0.0044783824
42	0x3e21f594	0.15816337
43	0xbe4464f9	-0.19179143
44	0x3d1c5a7b	0.038172226
45	0xbe4bc8d4	-0.19900829
46	0x3dfa4b6d	0.122214176
47	0x3da3fd0c	0.08007249
48	0x3bc78870	0.0060892627
49	0xbe270573	-0.16310672
50	0x3dac6cf0	0.08419216
51	0xbd3dc946	-0.046334527
52	0xbd106d63	-0.03526057
53	0x3cf8cc7c	0.030370943
54	0xbc7adc27	-0.0153112775
55	0xbd527f2b	-0.051390808
56	0xbd2c9aef	-0.042139944
57	0x3deb037e	0.114752755
58	0x3e009dee	0.12560245
59	0xbde4a06e	-0.11163412
60	0xbd01ef56	-0.03172239
61	0x3df19abd	0.11797092
62	0x3dce10e4	0.100618154
63	0x3d8e092d	0.06935344
64	0xbe4ed57c	-0.20198625
65	0x3dba9182	0.09109785
66	0x3e1476ea	0.14498487
67	0x3e33eb92	0.17570332
68	0xbe226dd3	-0.15862207
69	0xbe41cab3	-0.1892498
70	0x3e3bc08e	0.18335173
71	0x3bd0d71c	0.0063732993
72	0xbdb9f529	-0.09079964
73	0x3d72451c	0.05914794
74	0xbd0d6960	-0.03452432
75	0xbe439f01	-0.19103624
76	0xbe3179c8	-0.17331612
77	0x3e090fa9	0.1338488
78	0x3dcabc39	0.09899182
79	0xbe255300	-0.16144943
80	0x3e48426e	0.19556591
81	0xbdbff4ab	-0.093728386
82	0x3e324dd3	0.174125
83	0x3e1cdaa1	0.15317775
84	0xbe04993e	-0.12949082
85	0x3dd2ac01	0.102867134
86	0xbdfc7b98	-0.12328261
87	0x3d3ad131	0.045609657
88	0xbdbbc8ec	-0.09169182
89	0xbd95eece	-0.07320939
90	0x3e12e68c	0.14345759
91	0xbe2b872e	-0.16750786
92	0xbc7581f7	-0.014984599
93	0xbdafc755	-0.085829414
94	0x3e46e976	0.19424996
95	0xbde82ca2	-0.11336638
96	0x3e17095a	0.14749661
97	0x3e259b94	0.1617263
98	0x3e1eab86	0.15495118
99	0xbe2e3844	-0.17013651
100	0xbe466f2b	-0.19378345
101	0x3e314b2b	0.1731383
102	0x3daf0c97	0.08547323
103	0xbe51011d	-0.20410581
104	0x3e2d1d78	0.16905773
105	0x3d35401c	0.044250593
106	0xbe443ec8	-0.19164574
107	0xbd9d1c65	-0.076714315
108	0x3cfdffa3	0.031005686
109	0xbd6cc889	-0.057808433
110	0x3e28e515	0.16493638
111	0x3d57bdda	0.05267129
112	0xbe09d523	-0.13460211
113	0x3e1bfb19	0.15232505
114	0x3df087b6	0.11744635
115	0x3e215f26	0.15758952
116	0x3daaffdb	0.08349582
117	0xbe25e71e	-0.16201445
118	0xbd702a45	-0.05863406
119	0x3e05441d	0.13014264
120	0x3bd8c912	0.0066157663
121	0xbe19b84c	-0.1501171
122	0x3d876d77	0.06612676
123	0x3dbf7580	0.09348583
124	0xbde5ce4e	-0.1122099
125	0xbd8a09e6	-0.06740169
126	0x3d53107b	0.05152939
127	0x3e2bb7a9	0.1676928
128	0xbd334aa4	-0.043772355
129	0xbb2b803f	-0.002616897
130	0x3c9ec3ac	0.019380413
131	0x3e3b5345	0.18293484
132	0x3e454a7f	0.19266699
133	0x3e17081d	0.14749189
134	0x3dad3854	0.08458009
135	0xbe10eb10	-0.14152169
136	0x3c75b4dc	0.0149967335
137	0x3e115f60	0.14196539
138	0x3cd4d7ad	0.025981748
139	0x3deaac57	0.114586525
140	0xbd427917	-0.04747876
141	0x3b24a3f7	0.0025122145
142	0xbe04ea9e	-0.12980124
143	0x3dab082c	0.08351168
144	0x3c82e4b7	0.0159782
145	0xbce05eef	-0.027389018
146	0xbe23b2c7	-0.15986167
147	0x3cccc4d1	0.024996193
148	0x3dd8c879	0.10585112
149	0x3d0b31e8	0.03398314
150	0x3deb6b8a	0.11495121
151	0x3df74e58	0.1207549
152	0x3c41fe31	0.011840389
153	0x3d39390b	0.045220416
154	0x3e05be84	0.13060957
155	0xbe155cb8	-0.1458615
156	0x3e148082	0.14502147
157	0x3e4bef38	0.19915473
158	0xbdc05bd6	-0.09392516
159	0x3e350652	0.17678192
160	0xbe14a9ef	-0.1451795
161	0x3d8294cb	0.06376036
162	0xbe29655f	-0.16542576
163	0xbe27eb19	-0.16398276
164	0xbe077ca4	-0.1323114
165	0xbde9008f	-0.1137706
166	0x3de0279f	0.10945057
167	0xbdd67909	-0.104723044
168	0xbdf73e0d	-0.12072382
169	0xbdf5e993	-0.12007441
170	0xbe414de3	-0.18877368
171	0x3dbf0c7b	0.09328552
172	0xbe09a29c	-0.13440937
173	0x3bd9c663	0.006645964
174	0x3e008bfc	0.125534
175	0x3b83a120	0.0040170103
176	0x3e3182f2	0.17335108
177	0xbe3da691	-0.18520571
178	0xbaa587c6	-0.0012628965
179	0xbcb80867	-0.022464944
180	0xbd4f640c	-0.05063252
181	0xbd8ca911	-0.06868184
182	0xbe3123a8	-0.17298758
183	0xbe0acdd3	-0.13555078
184	0x3e123403	0.14277653
185	0x3ce30c87	0.027715934
186	0xbe02198f	-0.12705062
187	0xbd79b118	-0.060959905
188	0xbb2b002d	-0.0026092634
189	0xbe05be0a	-0.13060775
190	0x3dbf2f19	0.09335155
191	0x3e4dd7b4	0.20101815
192	0x3db6757a	0.089091256
193	0xbc990c3a	-0.018682588
194	0x3ded2bb1	0.11580599
195	0xbe2c84f1	-0.16847588
196	0x3df449f8	0.11928171
197	0x3c2c3ff3	0.010513294
198	0x3cbafd8a	0.022825975
199	0xbbd2f3b3	-0.0064377426
200	0xbda7f16b	-0.08200344
201	0x3b0960c2	0.0020962213
202	0xbe1be573	-0.15224247
203	0x3d7d57c3	0.061851274
204	0x3d5d4b0e	0.054026656
205	0x3e07c24d	0.13257714
206	0x3e1b1221	0.15143634
207	0x3d4b6e8c	0.049665973
208	0x3e00081a	0.1250309
209	0x3d5fb315	0.054614145
210	0x3db2e402	0.08734895
211	0xbe041145	-0.12897213
212	0xbe3d2ffd	-0.18475337
213	0x3d6d4b5a	0.05793319
214	0x3d4d7c50	0.05016738
215	0x3e01e68a	0.126856
216	0x3e27ec0e	0.16398641
217	0xbe360db9	-0.17778672
218	0xbd0bb399	-0.034106825
219	0x3dcfe3bc	0.10150859
220	0x3c946eae	0.018119182
221	0x3d5d1b0d	0.053980876
222	0xbd93598a	-0.071948126
223	0x3d8fcada	0.07021113
224	0xbd8a2f26	-0.06747274
225	0x3ddcc80d	0.10780344
226	0xbe393453	-0.18086366
227	0x3d49e463	0.049290072
228	0xbd1e1efa	-0.03860376
229	0x3d7fec5c	0.06248127
230	0x3e2ccccf	0.16875003
231	0xbdb803a5	-0.0898507
232	0xbe4102f3	-0.18848781
233	0x3e4760f3	0.19470577
234	0x3dd3fd16	0.10351007
235	0xbdf8e830	-0.12153661
236	0xbe1f0db7	-0.15532576
237	0xbc95f999	-0.018307494
238	0xbe4d123b	-0.20026486
239	0x3caa9694	0.020823754
240	0x3dea9022	0.114532724
241	0x3d856a61	0.06514431
242	0x3dcc5cd0	0.0997864
243	0xbe045db6	-0.12926373
244	0xbd0ddffe	-0.034637444
245	0xbe303744	-0.17208582
246	0xbcadc10c	-0.021210216
247	0x3e461f55	0.1934789
248	0x3e0662f0	0.13123679
249	0xbe2a5fb4	-0.1663807
250	0x3cf8dfe5	0.030380199
251	0xbe06ce16	-0.13164553
252	0x3e030359	0.12794246
253	0x3d8afd44	0.06786588
254	0xbe01b1d5	-0.12665494
255	0xbe1af7d4	-0.15133601

layer_stack.0.layer_stack.4.bias f4 [24]
0	0xbdb84324	-0.08997181
1	0x3d9b4474	0.07581416
2	0x3e4f3dd6	0.20238432
3	0xbe129cd8	-0.14317644
4	0x3e3de7ce	0.18545458
5	0xbdfe14f4	-0.1240634
6	0x3d0093f5	0.031391103
7	0x3e4f17d5	0.20223935
8	0xbbc7d2d8	-0.0060981326
9	0xbd2bc570	-0.041936338
10	0x3cd1e9cf	0.025624184
11	0x3cf85dfa	0.030318249
12	0x3d68ce70	0.0568375
13	0xbda79e1b	-0.08184453
14	0xbe1a1708	-0.15047848
15	0xbd973b76	-0.07384388
16	0x3e4e975d	0.20174928
17	0x3dfb4cff	0.12270545
18	0x3dea0ede	0.11428617
19	0x3de52fd2	0.111907616
20	0xbe29328f	-0.16523193
21	0xbdf310a8	-0.11868411
22	0xbca22bff	-0.01979637
23	0x3b0a84c3	0.002113626

layer_stack.2.layer_stack.0.weight f4 [10, 24, 3, 3]
0	0xbcf67d83	-0.030089146
1	0x3d27b49c	0.040943727
2	0xbbb02534	-0.0053755287
3	0x3d786822	0.060646184
4	0x3caf8908	0.021427646
5	0x3d11be6f	0.035582002
6	0x3d2377a7	0.03990903
7	0x3d6ca6c1	0.057776216
8	0xbd8a101b	-0.06741353
9	0xbd4a450f	-0.049382266
10	0x3d10d486	0.03535893
11	0xbd75ebe1	-0.060039405
12	0xbd592a2f	-0.053018745
13	0x3d648f1e	0.05580055
14	0x3c6ec068	0.01457224
15	0xbd539268	-0.051653296
16	0x3c264596	0.0101484265
17	0x3d460677	0.04834601
18	0xbd4d618b	-0.050141852
19	0x3cc66ec6	0.024222743
20	0xbbcc5348	-0.006235514
21	0xbce19ab3	-0.027539587
22	0x3d68d589	0.056844268
23	0x3d5282c8	0.051394254
24	0x3bd322b7	0.0064433473
25	0xbd244273	-0.040102433
26	0x3d2c7b87	0.042109992
27	0xbbe0daff	-0.006862044
28	0xbc2c0c1c	-0.010500934
29	0xbbfbb9e1	-0.0076820706
30	0x3c99741e	0.018732127
31	0x3c3b99f5	0.01145028
32	0x3cc1cd58	0.023657486
33	0xbd3fce0c	-0.04682736
34	0xbc304f7e	-0.01076114
35	0x3c821586	0.015879404
36	0xbd007a78	-0.031366795
37	0x378f2dcb	1.7068252e-05
38	0xbcc5e571	-0.024157258
39	0xbd4ce19f	-0.050019857
40	0x3cff8ec3	0.031196004
41	0xbd2f6336	-0.042819224
42	0xbcfe30e0	-0.031029165
43	0x3d6d2886	0.057899974
44	0x3d162f24	0.03666605
45	0x3c61901a	0.013767267
46	0xbc877650	-0.016535908
47	0xbc3c5ebb	-0.011497195
48	0x3d45642b	0.04819123
49	0xbd0b1f3a	-0.033965327
50	0x3d0a2673	0.033728074
51	0x3d4d2d8d	0.05009227
52	0x3d7e4cf3	0.062085103
53	0xbce2e860	-0.027698696
54	0x3c43b930	0.011946008
55	0xbb57c8b5	-0.0032926027
56	0x3d7358d1	0.059410874
57	0xbd5f5486	-0.054523967
58	0x3d35ca95	0.04438265
59	0xbcca0086	-0.024658453
60	0xbd10c7f4	-0.03534694
61	0x3d55dd06	0.052212738
62	0xbd80be23	-0.06286266
63	0x3d6ad81c	0.057335004
64	0x3caaaed7	0.020835323
65	0x3d885b58	0.066580474
66	0xbcf92ae2	-0.030415956
67	0xbcaa7c26	-0.020811152
68	0x3cf3cf00	0.029761791
69	0xbd496b7e	-0.04917478
70	0xbb143967	-0.0022617222
71	0xbc577f6a	-0.0131529365
72	0xbc0c3eb2	-0.00855987
73	0x3b732f8e	0.0037107202
74	0xbd3cca61	-0.04609144
75	0x3d80f0c7	0.06295925
76	0x3c3f7680	0.011685967
77	0xbbfcd352	-0.007715621
78	0x3d8b56dc	0.068036765
79	0x3d235921	0.03987992
80	0x3d84a51b	0.06476804
81	0xbd00da95	-0.031458456
82	0xbd863c88	-0.06554514
83	0xbce3a5bd	-0.027788991
84	0xbc2282bf	-0.009918868
85	0x3d5de407	0.054172542
86	0xbd2ba7bf	-0.041908022
87	0x3d129a9e	0.035791986
88	0xbc84ff97	-0.016235156
89	0xbcc9461f	-0.02456957
90	0xbb95f2d2	-0.0045760656
91	0x3d6194dd	0.055073608
92	0x3b86d874	0.0041151587
93	0x3c6c6daa	0.014430443
94	0xbd5abdb7	-0.053403582
95	0xbd6a7c53	-0.05724747
96	0xbd2b0da5	-0.04176106
97	0x3d4ba8b2	0.049721427
98	0xbd154725	-0.0364448
99	0xbc93947d	-0.01801514
100	0x3d806897	0.06269949
101	0x3c15892e	0.0091269445
102	0xbcf67322	-0.030084196
103	0x3c15f0a5	0.009151612
104	0xbcb4592e	-0.02201518
105	0xbc81f1e8	-0.01586242
106	0xbce404dd	-0.02783435
107	0xbcc0d026	-0.023536753
108	0xbc3121bc	-0.010811266
109	0x3c3a3503	0.011365178
110	0x3d33c843	0.043892156
111	0x3ca5a1a8	0.020218685
112	0xbd4b94dc	-0.04970251
113	0x3cbedc45	0.023298392
114	0xbd273685	-0.04082348
115	0xbc1d6d2d	-0.009608549
116	0xbc2beaca	-0.01049299
117	0xbd147d57	-0.036252346
118	0x3d66b476	0.056324445
119	0xbced5899	-0.02897291
120	0x3d6bd15d	0.05757271
121	0x3c6ec9bf	0.014574467
122	0x3d83c6d6	0.06434409
123	0x3d0a393c	0.03374599
124	0xbc737dae	-0.014861507
125	0x3d4821b0	0.048860252
126	0xbd074828	-0.033027798
127	0xbb8d07eb	-0.0043039224
128	0xbd86539b	-0.06558915
129	0xbd3368fb	-0.04380129
130	0x3c09b006	0.008403784
131	0x3cfe35fa	0.031031597
132	0xbd6ef385	-0.058337707
133	0x3d1d3fc6	0.038390897
134	0x3ca2dee2	0.01988167
135	0x3c8e7d88	0.017393842
136	0x3caf8848	0.021427289
137	0x3c981178	0.018563017
138	0xbd118123	-0.035523545
139	0xbb75f767	-0.0037531496
140	0x3d2c78a2	0.042107232
141	0xbd8398ee	-0.064256534
142	0xbd89ae0e	-0.067226514
143	0xbd4eb7c2	-0.050468214
144	0xbc749d76	-0.01493012
145	0x3a3cf432	0.0007208019
146	0x3cab5904	0.02091647
147	0x3c84c5cd	0.0162076
148	0x3d8a9df8	0.067684114
149	0x3d1b935d	0.037982333
150	0xbd03ead5	-0.032206375
151	0x3d51356e	0.051076345
152	0x3d1fd90f	0.039025363
153	0x3d7c28eb	0.06156246
154	0xbd8567cd	-0.06513939
155	0xbc2bc546	-0.010484045
156	0xbd88bbf4	-0.06676474
157	0xbcc8d097	-0.024513526
158	0xbcb80359	-0.022462534
159	0xbd7ef721	-0.0622474
160	0xbcb82552	-0.022478733
161	0x3d7dce6e	0.061964445
162	0xbd464654	-0.048406914
163	0xbd4f9299	-0.050676916
164	0x3cdf0f00	0.027228832
165	0x3c8762db	0.01652663
166	0x3c8548e0	0.016270101
167	0x3a8a2426	0.0010539338
168	0xbd7821fe	-0.060579292
169	0x3d670234	0.056398585
170	0x3d23339e	0.039844148
171	0x3bd695f6	0.0065486385
172	0x3d6ada33	0.057336997
173	0x3b04fe03	0.0020293004
174	0xbd7c7f4b	-0.061644834
175	0x3d711e12	0.058866568
176	0xbd3cfc4d	-0.04613905
177	0x3d14a9c0	0.0362947
178	0xbd598f68	-0.05311528
179	0x3c805fd2	0.01567069
180	0x3d2c7a4f	0.04210883
181	0xbcb91459	-0.02259271
182	0x3b1d8db5	0.0024040763
183	0xbd8b4d72	-0.06801881
184	0x3b7c6482	0.0038512056
185	0xbb176d5b	-0.0023105952
186	0xbd74a1b3	-0.05972452
187	0xbc5954a8	-0.0132648125
188	0xbba45d22	-0.005015985
189	0x3d03e723	0.03220285
190	0x3d3a0559	0.045415256
191	0x3b8b0dc1	0.004243583
192	0x3d473119	0.048630808
193	0x3d6ca2de	0.05777251
194	0xbd511962	-0.051049598
195	0xbc8f01b3	-0.017456865
196	0x3d6389ee	0.055551462
197	0xbd2ab1c4	-0.041673437
198	0xbd4afe40	-0.049558878
199	0x3c1d3825	0.009595905
200	0x3ae77e24	0.0017661494
201	0xbd56926e	-0.05238574
202	0x3c802630	0.01564321
203	0x3d8135ce	0.063090906
204	0x3d825995	0.06364743
205	0xbcaa12ae	-0.02076086
206	0x3d73fe57	0.05956873
207	0xbb38df58	-0.0028209295
208	0x3bce28ee	0.0062915003
209	0xbd64d933	-0.0558712
210	0xbcf3d0d3	-0.029762661
211	0xbd84e95a	-0.06489821
212	0x3d8115c6	0.06302981
213	0xbd1e973e	-0.038718455
214	0x3d65c919	0.056099985
215	0x3d511f25	0.051055092
216	0xbcc0ccfb	-0.023535242
217	0xbd311c15	-0.04323967
218	0xbcbd2909	-0.023090856
219	0x3cdcf538	0.026972398
220	0x3d5a6f9e	0.053329103
221	0x3bcc1127	0.0062276307
222	0xbd54074f	-0.051764783
223	0xbd384357	-0.044986095
224	0xbcbd3578	-0.023096785
225	0xbb7ef035	-0.0038900499
226	0xbd44c0fd	-0.04803561
227	0xbd107f65	-0.035277743
228	0x3c5e3347	0.01356203
229	0xbd1d613a	-0.0384228
230	0xbb5cf470	-0.0033715032
231	0x3ce7c7ea	0.028293569
232	0x3d30a170	0.04312271
233	0xbc066dbc	-0.008204874
234	0xbd797b35	-0.060908515
235	0x3caa4b53	0.02078787
236	0xbbb4ca7f	-0.0055173035
237	0xbd1f52ab	-0.038897198
238	0x3bd5143c	0.0065026563
239	0xbd289fb5	-0.041167933
240	0x3d7825a1	0.06058276
241	0x3d84c35c	0.06482574
242	0xbc14a8b4	-0.009073425
243	0xbcef0ecd	-0.029181862
244	0x3d891efb	0.06695362
245	0xbd14e79e	-0.0363537
246	0x3d21b6ba	0.039480902
247	0xbd89fdb3	-0.067378424
248	0x3d07e7e4	0.033180133
249	0xbd8903d8	-0.06690186
250	0xbd0c38d7	-0.034233894
251	0xbcfd2600	-0.030901909
252	0xbd46255b	-0.04837547
253	0x3c441f77	0.011970392
254	0xbd536c70	-0.051617086
255	0xbd24537d	-0.040118683

layer_stack.2.layer_stack.0.bias f4 [10]
0	0xbd27d291	-0.040972296
1	0xbc911a8c	-0.017712854
2	0xbb3370e7	-0.0027380527
3	0x3c71a9f2	0.014749991
4	0xbd547013	-0.051864695
5	0x3d6838a9	0.05669466
6	0x3ba22c3a	0.00494912
7	0x3d5b3813	0.053520273
8	0xbcd5c550	-0.026095062
9	0xbd1a360b	-0.037649196

layer_stack.2.layer_stack.2.weight f4 [10, 10, 1, 1]
0	0xbe9f6322	-0.3113032
1	0xbe954ffd	-0.2916259
2	0xbe994fa3	-0.2994357
3	0x3d8356e9	0.06413061
4	0x3de27fb7	0.11059516
5	0x3e5f480e	0.2180483
6	0xbe009e33	-0.12560348
7	0xbe0295ff	-0.12752531
8	0x3e570161	0.2099662
9	0x3d35b116	0.044358335
10	0x3e8b01c3	0.27149782
11	0x3e837f05	0.25682846
12	0x3c941e1b	0.018080762
13	0x3e76eb5b	0.24113218
14	0xbb5902f8	-0.0033113342
15	0x3e784e87	0.24248706
16	0x3c1518ba	0.009100134
17	0x3e0e6892	0.13907078
18	0x3e7f5382	0.249342
19	0x3d49e2e3	0.04928864
20	0xbd14119b	-0.036149602
21	0x3e1656ed	0.14681597
22	0xbe8e1b0b	-0.27755007
23	0x3e5ce30c	0.21570987
24	0x3dc0b18b	0.09408864
25	0xbb602280	-0.003420025
26	0x3e55b4ca	0.20869747
27	0x3e960183	0.29298028
28	0xbe890a33	-0.26765594
29	0x3e8b68a9	0.27228287
30	0x3ea1af5d	0.31579104
31	0x3e5ff47d	0.21870609
32	0xbe82f118	-0.25574565
33	0xbe248015	-0.16064484
34	0xbe8205ef	-0.25395152
35	0xbe60a236	-0.21936879
36	0x3dc3ac18	0.09554309
37	0x3dda6b13	0.10664954
38	0x3d453f2c	0.04815595
39	0x3e50b27e	0.2038059
40	0x3cdb17a9	0.02674468
41	0x3e3c1516	0.18367419
42	0xbd1747a0	-0.03693354
43	0xbe84b577	-0.25919697
44	0x3e4ef324	0.20209938
45	0xbe2f3c84	-0.17112929
46	0xbe9223ff	-0.28543088
47	0x3e82fbea	0.2558282
48	0x3e6c273a	0.23061839
49	0x3e4294c8	0.19002068
50	0x3e58ade3	0.21160083
51	0xbe9419c7	-0.28925917
52	0x3e672a27	0.22574674
53	0x3e8a5dbb	0.27024636
54	0xbde26c78	-0.11055845
55	0x3e9ad552	0.30240875
56	0x3e981167	0.29700777
57	0xbe59b90d	-0.21261998
58	0x3e855cd7	0.26047394
59	0xbe80d79f	-0.25164506
60	0xbe576429	-0.21034302
61	0x3d11eeb7	0.035628047
62	0xbe8d184d	-0.27557603
63	0xbe9787bc	-0.29595745
64	0xbe58654b	-0.2113239
65	0xbddf91ce	-0.10916482
66	0xbd9c4766	-0.07630806
67	0xbcdef7be	-0.027217742
68	0xbd68a1a2	-0.05679477
69	0xbe877fc1	-0.26464656
70	0xbe168a3c	-0.1470117
71	0x3ba4dcb5	0.005031193
72	0xbe855c72	-0.26047093
73	0x3e1d3737	0.15353094
74	0xbe602590	-0.21889329
75	0xbd942718	-0.07234019
76	0x3e5f0770	0.21780181
77	0xbdbd2f08	-0.09237486
78	0x3e1ead30	0.15495753
79	0xbe5bbb23	-0.21458106
80	0xbd1d09ba	-0.038339354
81	0x3e21cb8d	0.15800305
82	0xbce0ffaf	-0.02746567
83	0x3de61a76	0.11235516
84	0xbe82679b	-0.2546967
85	0x3e52024f	0.20508693
86	0xbe4e1a20	-0.20127153
87	0xbe0e4ae0	-0.1389575
88	0xbc7615f2	-0.015019881
89	0x3da477de	0.08030675
90	0x3d2ba9ef	0.04191011
91	0x3e6e2a74	0.23258382
92	0x3e276cae	0.16350052
93	0xbe833888	-0.25629067
94	0x3e55441a	0.2082676
95	0xbdfb0523	-0.12256839
96	0x3e56359a	0.20918885
97	0xbe90f741	-0.2831364
98	0x3cd47978	0.025936827
99	0x3e78c014	0.24292022

layer_stack.2.layer_stack.2.bias f4 [10]
0	0x3e9fca90	0.3120923
1	0x3e924412	0.2856756
2	0x3e68c92a	0.22732988
3	0x3d0446a5	0.032293934
4	0xbe9c7c8a	-0.30563766
5	0xbd95b048	-0.073090136
6	0xbd0bbcdf	-0.03411567
7	0x3aaca7c9	0.0013172562
8	0x3e4cfe55	0.20018895
9	0xbe100c75	-0.14067252

layer_stack.2.layer_stack.4.weight f4 [10, 10, 1, 1]
0	0x3b481b68	0.0030533914
1	0x3e9c94b4	0.305822
2	0xbe48e558	-0.19618738
3	0x3d2254b2	0.039631553
4	0x3d0fc3bc	0.035098776
5	0xbe2cc581	-0.16872217
6	0xbe0d2e79	-0.13787259
7	0x3d7e6819	0.062110994
8	0xbe969cae	-0.29416412
9	0xbe0f60c9	-0.14001764
10	0xbd806ee4	-0.06271151
11	0x3e087bb6	0.13328442
12	0x3d1ae37c	0.037814602
13	0xbe9461f2	-0.28980976
14	0xbd86d470	-0.06583488
15	0xbd77eaad	-0.06052654
16	0x3e1c6e9c	0.15276569
17	0xbd2a2f7d	-0.041549195
18	0xbdf82125	-0.12115697
19	0xbe775512	-0.24153545
20	0xbe624012	-0.22094753
21	0xbe888808	-0.26666284
22	0xbe5ab441	-0.21357824
23	0x3e5a7736	0.21334538
24	0x3d9fec96	0.07808797
25	0x3e24a5c0	0.16078854
26	0x3db5eca9	0.0888303
27	0xbc233310	-0.009960905
28	0x3de64b78	0.11244863
29	0x3e23e6c0	0.16005993
30	0xbda784af	-0.08179604
31	0x3d3f31b3	0.046678256
32	0x3d227bea	0.039668955
33	0xbe4b0626	-0.19826564
34	0x3deddc2a	0.116142586
35	0xbc7a79fa	-0.015287871
36	0xbe3816a2	-0.17977384
37	0x3d987553	0.07444253
38	0xbbe1dba5	-0.0068926387
39	0x3cd7ea3e	0.026356813
40	0xbe59819b	-0.21240847
41	0x3d105f0a	0.035246886
42	0xbe4ed02a	-0.20196596
43	0x3e11bce2	0.1423221
44	0xbe954257	-0.29152176
45	0x3e85ea91	0.26155522
46	0x3de712a2	0.11282851
47	0xbe624c23	-0.22099356
48	0xbe65b61d	-0.22432752
49	0xbe3bf7e0	-0.18356276
50	0xbe981c2e	-0.29709
51	0xbe8d4e33	-0.27598724
52	0x3dfd5e08	0.12371451
53	0x3dfabb98	0.12242812
54	0xbd6f0849	-0.05835751
55	0xbe96d089	-0.29455975
56	0x3e70391c	0.23459285
57	0xbe3c2847	-0.1837474
58	0xbe31526d	-0.17316599
59	0xbe95464c	-0.29155195
60	0x3c4bf8a3	0.012449416
61	0x3e30e012	0.17272976
62	0xbd24fde9	-0.04028121
63	0xbe9562f8	-0.2917707
64	0x3c53ecd3	0.012934881
65	0xbe0715e1	-0.1319194
66	0xbe9f80ee	-0.31153053
67	0xbe88c29c	-0.26710975
68	0xbe2e3808	-0.17013562
69	0x3d012b58	0.031535476
70	0x3e2be77f	0.16787528
71	0xbe65f7d9	-0.22457828
72	0xbe5c9641	-0.21541692
73	0xbce26852	-0.027637634
74	0xbd05ca83	-0.032663833
75	0x3e16a668	0.14711916
76	0xbe73ed10	-0.23820901
77	0x3df5db30	0.12004697
78	0x3e90f06a	0.2830842
79	0x3df749f4	0.12074652
80	0xbc1ac3dc	-0.009446111
81	0x3cfe68c5	0.031055817
82	0x3e040a77	0.12894617
83	0x3d330674	0.043707326
84	0x3e1359da	0.14389744
85	0x3c891a47	0.016736163
86	0xbc186098	-0.0093003735
87	0x3e14d396	0.14533839
88	0xbe842006	-0.25805682
89	0x3e94eb96	0.29085988
90	0x3dd47a8e	0.10374938
91	0xbc911fa0	-0.017715275
92	0x3e78ab2b	0.24284045
93	0xbe5f85a4	-0.21828324
94	0x3d71c326	0.059024
95	0x3daa7e18	0.08324832
96	0x3dd5b66d	0.104351856
97	0xbe41c658	-0.18923318
98	0x3debc077	0.11511319
99	0x3db82644	0.089916736

layer_stack.2.layer_stack.4.bias f4 [10]
0	0x3d87a171	0.066225894
1	0xbcfaae28	-0.030600622
2	0x3d621f6e	0.055205755
3	0x3d6dc9e5	0.05805387
4	0x3e0b918e	0.13629743
5	0xbc770add	-0.015078274
6	0xbe6fc411	-0.23414637
7	0x3e5e59c2	0.21713927
8	0xbc941276	-0.01807521
9	0xbe80536c	-0.25063646

layer_stack.3.layer_stack.0.weight f4 [10, 10, 3, 3]
0	0x3d9b9045	0.075958766
1	0xbca58b5f	-0.020208059
2	0x3d25cb0d	0.040476847
3	0xbced63a0	-0.028978169
4	0xbc522424	-0.012825999
5	0x3d0662e1	0.032809142
6	0xbd32232b	-0.04349057
7	0x3cb66d99	0.022269057
8	0x3d51c0a3	0.051209103
9	0x3d8ce14e	0.06878911
10	0x3daf80fd	0.085695244
11	0x3caf4079	0.021393048
12	0xbd6d3f3c	-0.057921633
13	0xbb2c5340	-0.0026294738
14	0x3b9d3c87	0.004798475
15	0xbd23f7f5	-0.040031392
16	0x3b715350	0.003682334
17	0x3dcc4fe4	0.099761754
18	0x3d1782a7	0.036989834
19	0x3c9056cb	0.017619511
20	0x3cb1c973	0.021702504
21	0x3c9bbfe5	0.0190124
22	0x3db51396	0.08841626
23	0xbb925e76	-0.004466827
24	0x3c3c800b	0.011505137
25	0xbd0b26e0	-0.03397262
26	0xbd17bd9b	-0.037046056
27	0x3d25926f	0.040422853
28	0xbc19983c	-0.009374674
29	0xbd81d107	-0.06338697
30	0xbd834041	-0.0640874
31	0xbda94c0f	-0.0826646
32	0x3dce37c3	0.100692295
33	0x3d96b885	0.07359413
34	0x3d9367f6	0.07197563
35	0xbd4af0d6	-0.049546085
36	0xbd95ceb7	-0.07314818
37	0x3cb241db	0.021759918
38	0x3d2d4c0e	0.04230886
39	0x3d951174	0.072787195
40	0x3d8d7876	0.06907742
41	0xbd41fc07	-0.047359493
42	0xbdc6cb3a	-0.09706731
43	0x3c87d8ad	0.016582811
44	0x3d24ac60	0.040203452
45	0x3db139cb	0.08653601
46	0x3d86718f	0.06564628
47	0xbd4f6001	-0.050628666
48	0xbd864ef4	-0.06558028
49	0x3d969ee6	0.07354526
50	0x3d9cc948	0.07655579
51	0xbd7a35f7	-0.06108662
52	0x3dbfec3b	0.09371229
53	0xbd3f0e47	-0.046644475
54	0x3d2149fe	0.039377205
55	0xbb720616	-0.0036929897
56	0x3d728668	0.05921021
57	0xbbca8956	-0.0061809225
58	0x3d78c4e3	0.06073464
59	0xbb240309	-0.0025026223
60	0x3d815fc9	0.06317098
61	0x3c14f999	0.009092712
62	0xbda94adc	-0.082662314
63	0x3d65ace3	0.05607308
64	0xbbca3338	-0.0061706565
65	0xbd290015	-0.041259844
66	0x3d771302	0.06032086
67	0x3d85f9bc	0.06541774
68	0x3d5cdc86	0.053921245
69	0x3d68e946	0.056863092
70	0xbd87e7a5	-0.066359796
71	0x3d8d50ee	0.06900202
72	0xbd8b658e	-0.068064794
73	0x3d31da87	0.043421295
74	0xbd9772fd	-0.07394979
75	0x3cb74d5b	0.022375753
76	0xbdc84e5b	-0.0978057
77	0xbd66eb7a	-0.05637691
78	0x3c90d0e2	0.017677728
79	0xbdb30252	-0.08740677
80	0xbcf617b7	-0.030040605
81	0xbcfaedfc	-0.030631058
82	0x3d343370	0.043994367
83	0xbdad8323	-0.08472278
84	0xbd403f8e	-0.04693561
85	0x3d82aca4	0.06380585
86	0xbc850c35	-0.016241172
87	0xbd8d4775	-0.06898395
88	0xbd14a3ad	-0.036288906
89	0x3c49c37c	0.0123146735
90	0xbdd442a1	-0.10364271
91	0x3d1bedf2	0.03806872
92	0x3d77e966	0.06052532
93	0x3c9cc313	0.019135987
94	0xbda5128a	-0.08060177
95	0xbd1bda72	-0.038050123
96	0x3c098405	0.008393292
97	0x3ccc9d63	0.024977392
98	0xbb0a42b2	-0.0021096882
99	0xbdadaa9d	-0.084798075
100	0xbcd9a403	-0.026567465
101	0xbd249b6f	-0.040187296
102	0xbd9e1702	-0.07719232
103	0xbd2ff7ac	-0.042960808
104	0x3b0c24ac	0.0021384163
105	0xbd49b094	-0.049240664
106	0xbcdd02bc	-0.026978843
107	0xbc5dfb58	-0.013548695
108	0xbc4d486b	-0.012529473
109	0xbd47430f	-0.048647936
110	0xbd9b0ffd	-0.07571409
111	0xba8a7c16	-0.0010565545
112	0x3c8e4911	0.017368825
113	0xbca3458a	-0.01993062
114	0xbd62f48e	-0.055409007
115	0x3c265764	0.0101526715
116	0xbc9e14b9	-0.01929699
117	0x396ad9b1	0.00022397075
118	0xbdbd383f	-0.09239244
119	0x3da9aad6	0.082845375
120	0x3b2709c6	0.0025488003
121	0xbb9c17e2	-0.0047635892
122	0x3c4e5ac1	0.01259488
123	0xbd600947	-0.054696348
124	0xbd8fe55f	-0.07026171
125	0x3bbc4862	0.0057459334
126	0xbc71ff9f	-0.0147704175
127	0x3da7f7a4	0.082015306
128	0xbd15e2e1	-0.03659332
129	0x3d1b6941	0.037942175
130	0xbcc9d1a5	-0.0246361
131	0xbd0fc3b9	-0.035098765
132	0x3d99f223	0.07516887
133	0x3d23422c	0.03985803
134	0x3cf011ff	0.029305456
135	0x3bc0222c	0.0058634486
136	0x3d98a44c	0.07453212
137	0x3dad79d8	0.084705055
138	0x3cb35435	0.021890739
139	0x3d2c1499	0.04201183
140	0xbbd03a9f	-0.0063546444
141	0x3d259fa9	0.040435467
142	0xbc5a9ef1	-0.013343559
143	0x3d5bceaa	0.053663887
144	0xbdbbb41f	-0.09165215
145	0x3cc90791	0.02453974
146	0xbc3aa83b	-0.011392648
147	0x3d836eb7	0.064176016
148	0xbda43cab	-0.08019384
149	0x3b0288d8	0.001991799
150	0xbcb7ad11	-0.022421392
151	0xbcb4c668	-0.022067264
152	0xbd907bc9	-0.0705486
153	0xbb4c8ff4	-0.0031213732
154	0x3d2179cb	0.03942279
155	0xbd9a7903	-0.075426124
156	0xbdb252cf	-0.08707201
157	0x3dd28ed2	0.10281147
158	0x3d900572	0.070322886
159	0x3c032ff2	0.0080070365
160	0x3cc3ce3a	0.023902047
161	0x3d283972	0.04107041
162	0x3d7e336f	0.06206077
163	0xbd2c8d73	-0.042127084
164	0xbd5dd54e	-0.0541585
165	0xbc60b4e3	-0.013715002
166	0x3dc06b1a	0.09395428
167	0x3cc930a0	0.024559319
168	0xbc967d22	-0.018370215
169	0x3da73b29	0.08165581
170	0x3cc150fd	0.023598189
171	0x3db058b1	0.086106665
172	0xbc565f46	-0.013084238
173	0x3c616365	0.013756608
174	0xbd7a0927	-0.061043885
175	0xbd7bc009	-0.061462436
176	0xbd989dad	-0.07451949
177	0x3d4bb8b1	0.049736682
178	0x3cdf7b88	0.027280584
179	0xbd9f347f	-0.07773685
180	0xbdc68a19	-0.09694309
181	0x3d3508ab	0.04419772
182	0x3cc73fb3	0.024322366
183	0x3cb6a5f0	0.022295922
184	0xbc1df0e2	-0.0096399505
185	0xbdbe2e16	-0.09286134
186	0xbcb9196a	-0.022595126
187	0xbbb6cbcf	-0.005578495
188	0x3b4b5ff3	0.0031032532
189	0xbda98bf6	-0.082786486
190	0x3d58e959	0.052956913
191	0xbd0a94b3	-0.033833217
192	0xbd409ed5	-0.047026474
193	0xbdbdf713	-0.09275641
194	0xbdb9f150	-0.0907923
195	0x3db27607	0.08713918
196	0x3db8e107	0.090272956
197	0xbcd1beca	-0.02560367
198	0xbca9b086	-0.020714056
199	0xbd92514b	-0.07144412
200	0xbc7ae966	-0.015314436
201	0x3d6dc309	0.05804733
202	0xbd5d3ec4	-0.054014936
203	0x3dd2f3cc	0.10300407
204	0xbc471dcf	-0.012153103
205	0xbd25c078	-0.040466756
206	0x3a77a630	0.0009447066
207	0x3d5326fd	0.051550854
208	0x3d752c52	0.05985672
209	0x3d3e1012	0.046402045
210	0x3d9f7616	0.07786195
211	0x3c3739f6	0.011183253
212	0x3dcb0e7d	0.09914873
213	0xbce584e3	-0.028017467
214	0xbd8f6af7	-0.07002824
215	0x3db18248	0.08667427
216	0x3cab7f46	0.020934712
217	0xbd9ce49e	-0.07660793
218	0xbc855155	-0.016274134
219	0x3d133de0	0.03594768
220	0xbda142d8	-0.078740776
221	0xbd5f7008	-0.0545502
222	0x3beab239	0.007162359
223	0xbd99fb39	-0.0751862
224	0x3d9b3deb	0.07580169
225	0x3b74cf49	0.0037354997
226	0x3c8bf5b0	0.017084926
227	0x3dc6b96b	0.097033344
228	0x3dc6c26b	0.09705051
229	0xbd46ad20	-0.04850495
230	0xbda2d7e3	-0.079513334
231	0xbdd7d318	-0.1053831
232	0x3cd46914	0.025929011
233	0xbc3ae1fe	-0.01140642
234	0xbd956075	-0.07293788
235	0x3d04e922	0.032448895
236	0x3dd61812	0.1045381
237	0xbd1492e0	-0.036272883
238	0xbda2e776	-0.07954304
239	0x3ce35a76	0.027753096
240	0xbdd582f6	-0.104253694
241	0xbd4ed01e	-0.050491445
242	0x3db44de4	0.08803919
243	0xbd8b7f68	-0.0681141
244	0xbd5c1575	-0.0537314
245	0xbd1f2bbe	-0.038860075
246	0xbd81fbcc	-0.063468546
247	0x3d1d9194	0.038468912
248	0x3d2aa7cd	0.041663934
249	0xbc677147	-0.0141261285
250	0x3d6d6873	0.05796094
251	0x3db18d9d	0.08669589
252	0x3d816949	0.0631891
253	0xbd05bbbe	-0.032649748
254	0xbce521e1	-0.027970256
255	0x3d037594	0.032094553

layer_stack.3.layer_stack.0.bias f4 [10]
0	0xbdc1ed59	-0.094690986
1	0x3cfa99c7	0.030590905
2	0xbda0d2dc	-0.07852718
3	0xbd1dc664	-0.03851928
4	0xbd154bbd	-0.036449183
5	0xbdc3b6f8	-0.09556383
6	0xbdd516f5	-0.10404769
7	0xbd2e69e6	-0.04258146
8	0x3d74b78c	0.059745356
9	0xbd2241d4	-0.03961356

layer_stack.3.layer_stack.2.weight f4 [10, 10, 1, 1]
0	0xbdc5c9c7	-0.096576266
1	0xb9e05806	-0.00042790192
2	0xbd21898a	-0.039437808
3	0x3e8135c0	0.2523632
4	0xbe97d545	-0.296549
5	0xbdf7fded	-0.121089794
6	0xbdb6ba81	-0.089222915
7	0xbe103bfd	-0.14085384
8	0xbe5d6f79	-0.21624555
9	0x3d89166c	0.0669373
10	0x3e6b09b4	0.2295292
11	0x3d0df7f0	0.03466028
12	0x3e22af32	0.15887144
13	0x3e398503	0.18117146
14	0xbe84447a	-0.25833493
15	0xbdb86028	-0.09002715
16	0x3e831908	0.25605035
17	0x3e02ffa3	0.1279283
18	0xbd224d86	-0.039624713
19	0xbe93d0c0	-0.288702
20	0xbe8b9626	-0.27262992
21	0x3e4883c8	0.1958152
22	0x3d8de2f3	0.06928053
23	0x3e92e1ad	0.28687802
24	0x3e57a155	0.21057637
25	0x3e132589	0.14369787
26	0x3e0d0f0c	0.13775271
27	0x3e7a873d	0.24465652
28	0x3e984e05	0.29747024
29	0xbd07671c	-0.033057317
30	0xbce85d87	-0.02836491
31	0xbe52d18c	-0.20587748
32	0x3e7682ca	0.2407333
33	0xbe82e008	-0.25561547
34	0xbe0a9192	-0.13532093
35	0xbdd13052	-0.102142945
36	0x3e81dede	0.25365347
37	0x3ea0edde	0.31431478
38	0x3e8ed51d	0.27896968
39	0x3d5b1a12	0.05349166
40	0xbd667531	-0.056264106
41	0xbd903788	-0.07041842
42	0xbe3918dd	-0.18075891
43	0xbe5a09b5	-0.21292765
44	0x3e6360e7	0.22204934
45	0xbdb71a39	-0.089405484
46	0xbe825ba2	-0.25460535
47	0xbe3caf00	-0.18426132
48	0xbe58c589	-0.21169104
49	0x3e5c54b0	0.2151668
50	0xbd8d3089	-0.06894023
51	0x3e5c165c	0.21492904
52	0xbd3f4bf1	-0.046703283
53	0x3e8be1f9	0.2732084
54	0x3e8c6c48	0.27426362
55	0x3da704f0	0.08155239
56	0xbe934fb5	-0.2877175
57	0xbe77e8ba	-0.24209872
58	0xbd47bc2c	-0.04876344
59	0x3ea076fc	0.31340778
60	0xbd53b4da	-0.051686145
61	0x3dd4ba08	0.10387045
62	0xbdbdf961	-0.09276081
63	0x3e8223cd	0.2541794
64	0xbbd636a3	-0.006537275
65	0x3ccde74b	0.025134703
66	0xbce590e0	-0.028023183
67	0x3e9c0e5d	0.30479708
68	0xbcf98b6c	-0.03046199
69	0xbe1a5286	-0.15070543
70	0xbdf75880	-0.12077427
71	0xbd14d93f	-0.036339995
72	0x3e8bfc58	0.2734096
73	0x3ddf9ba6	0.109183595
74	0x3e903466	0.28164977
75	0xbea0d713	-0.3141409
76	0xbe2a1c36	-0.16612324
77	0x3c95e7be	0.01829898
78	0xbd58dcde	-0.05294501
79	0xbdb7da41	-0.089771755
80	0x3e81a3d1	0.25320294
81	0x3e6348c9	0.22195734
82	0xbe1cb9d0	-0.15305257
83	0x3daf7711	0.08567632
84	0xbcd3a0c6	-0.025833499
85	0x3db8fb30	0.09032285
86	0x3e66fdfd	0.22557826
87	0x3e791c84	0.24327284
88	0xbe57bd10	-0.21068215
89	0x3e2c5089	0.16827597
90	0xbe843333	-0.25820312
91	0xbe71d602	-0.23616794
92	0xbe8892dd	-0.26674548
93	0x3dcf2fe0	0.10116553
94	0x3e6f2258	0.23352945
95	0x3de002d6	0.10938041
96	0xbdb42ab0	-0.087972045
97	0xbc053651	-0.008130626
98	0xbe26206e	-0.16223308
99	0x3e4ca30d	0.19984074

layer_stack.3.layer_stack.2.bias f4 [10]
0	0xbe0d931f	-0.13825653
1	0xbe39a906	-0.18130884
2	0xbd8eff56	-0.06982295
3	0xbe37e24f	-0.17957424
4	0xbdbea91a	-0.09309597
5	0xbdb48fb4	-0.08816472
6	0x3e04831e	0.12940642
7	0x3b966419	0.0045895693
8	0x3e2c1579	0.16805066
9	0x3e0b00ac	0.13574475

layer_stack.3.layer_stack.4.weight f4 [10, 10, 1, 1]
0	0x3dac3e7c	0.084103554
1	0x3df9880b	0.12184151
2	0xbe82a5a6	-0.25517005
3	0x3ea04726	0.31304282
4	0xbd4c5dfc	-0.049894318
5	0x3e7c494b	0.24637334
6	0xbd992e06	-0.074794814
7	0xbe2dc31b	-0.16968958
8	0x3dea53d0	0.11441767
9	0x3be01783	0.0068387403
10	0x3e22f070	0.15912032
11	0x3dbc9dd3	0.0920979
12	0x3dd0de5c	0.10198662
13	0x3d433037	0.047653403
14	0x3d8d2a87	0.06892877
15	0x3e638841	0.22219945
16	0xbcacac37	-0.021078212
17	0x3e5d6456	0.21620306
18	0xbe06687f	-0.131258
19	0xbd383211	-0.044969622
20	0x3c48946f	0.012242421
21	0xbe21b5a7	-0.15791951
22	0xbe60a096	-0.21936259
23	0xbe61663d	-0.22011657
24	0x3d75a027	0.059967186
25	0xbd94affb	-0.07260128
26	0xbe12f8fd	-0.14352794
27	0x3e19fa35	0.15036853
28	0x3d6e35f4	0.058156922
29	0x3e7854ed	0.24251147
30	0x3e6c3a2c	0.23069066
31	0x3e080735	0.13284
32	0x3db6c945	0.08925108
33	0xbe0c1b90	-0.1368239
34	0xbd9f9e4d	-0.07793865
35	0x3e99b7c6	0.3002302
36	0x3d49b0f9	0.04924104
37	0x3e7aec9f	0.24504326
38	0xbe4dbe44	-0.20092112
39	0xbe89be23	-0.26902875
40	0xbe6eba12	-0.23313168
41	0x3e979804	0.29608166
42	0x3e512c2c	0.20427006
43	0xbdd2a685	-0.10285667
44	0xbd68a96c	-0.0568022
45	0x3e6b742a	0.22993532
46	0xbe21cd5f	-0.15800999
47	0xbe119a52	-0.14219025
48	0xbe8bde6d	-0.27318135
49	0x3db4050f	0.08790027
50	0x3ddda03e	0.108215794
51	0x3d2b1d18	0.041775793
52	0x3ceac825	0.02865989
53	0xbbec68ef	-0.0072146575
54	0xbddd2698	-0.10798377
55	0xbe11bf93	-0.14233236
56	0x3e126fbc	0.14300436
57	0xbe172d96	-0.14763483
58	0x3cf0cc41	0.02939427
59	0x3e49d8c1	0.19711591
60	0x3cbd2d19	0.023092793
61	0x3d8dfafb	0.06932636
62	0x3e3358d5	0.17514355
63	0xbe1f0655	-0.15529759
64	0x3e6121f6	0.21985611
65	0xbe1d2018	-0.15344274
66	0xbe9129fb	-0.2835234
67	0x3ddfe17a	0.10931678
68	0xbe1230bf	-0.14276408
69	0x3e9df388	0.30849862
70	0xbd9b85ba	-0.07593866
71	0xbe988840	-0.2979145
72	0x3e85648f	0.26053283
73	0xbe6c7ec9	-0.2309524
74	0xbe8c3555	-0.2738444
75	0xbd3d8d82	-0.04627753
76	0x3e93d4bb	0.28873238
77	0x3da2d080	0.079499245
78	0x3e30b6e7	0.17257272
79	0xbdc516c1	-0.096234806
80	0x3a9b8dee	0.001186786
81	0xbdf8381c	-0.12120077
82	0xbb0e4903	-0.0021711
83	0x3dd83526	0.10557012
84	0x3e3e0c5d	0.18559404
85	0x3dafadda	0.085780814
86	0xbe44f88d	-0.1923544
87	0xbd86dd3c	-0.06585166
88	0x3d730451	0.05933029
89	0xbd7de44f	-0.06198531
90	0x3ac25a03	0.0014827851
91	0xbe0bab87	-0.13639651
92	0x3d13fa45	0.036127347
93	0xbe5cfa3e	-0.21579835
94	0x3e865040	0.262331
95	0x3e98fc94	0.29880202
96	0xbd4362bc	-0.047701582
97	0xbcc5d969	-0.02415152
98	0xbe9b3c01	-0.30319217
99	0xbc4ffe6e	-0.012694938

layer_stack.3.layer_stack.4.bias f4 [10]
0	0xbd80c40e	-0.062873945
1	0x3a3523a4	0.0006909913
2	0xbe896f83	-0.2684289
3	0x3d60151d	0.054707635
4	0xbdb14d9d	-0.08657382
5	0xbe67b2a5	-0.22626741
6	0xbe1efab3	-0.15525322
7	0xbe41f6e0	-0.18941832
8	0xbca3fa86	-0.02001692
9	0xbe77e7f3	-0.24209575
