state_tests/nets/dubconv3.pth (torch, 26371 bytes, 18 tensors)

layer_stack.0.layer_stack.0.weight f4 [24, 1, 3, 3]
0.23878682 0.25861344 -0.05221491 0.2955303 -0.20985574 -0.12901676 0.28334835 0.3095287
-0.04826336 0.31457803 0.19803457 -0.13882518 -0.30024004 -0.2764634 -0.295021 0.07728187
-0.3209682 0.07951405 0.11052239 -0.053350776 -0.31588525 0.020739056 0.10939591 -0.1812181
-0.25510967 -0.20960735 -0.007939726 -0.117892094 0.022843141 -0.09995233 0.30767816 0.122823045
-0.008812707 0.14344187 -0.13696486 -0.18124256 -0.12264118 -0.06571689 -0.18604429 0.3318866
0.11052914 0.044664834 -0.122144565 -0.17592955 0.31812483 0.29666364 -0.05186045 0.282327
0.30927607 0.023955343 -0.30903423 0.26320454 0.2909844 -0.30826005 0.06908535 0.13344944
-0.30230725 -0.21874937 0.0592556 -0.27435324 0.14415166 0.3090494 0.11777659 0.32383108
-0.285376 0.027783869 0.0730122 0.1919547 0.26492885 -0.14064662 0.31591797 0.18115151
-0.29390305 -0.20652305 0.074080296 -0.049525637 0.12367346 -0.11204027 0.25370446 0.26564434
0.232865 0.21499234 0.26493087 -0.097098045 0.10072607 -0.020733234 -0.0060459077 -0.013649242
-0.28431767 0.08320958 0.13382919 0.12069613 0.25311443 -0.09100309 -0.24520642 -0.21919955
0.24610595 -0.12497971 -0.0799523 0.18430714 -0.23759016 0.21384273 0.17729379 0.2157938
0.2269734 -0.11456303 0.07139467 -0.31728137 -0.2093577 0.1360767 -0.09752297 0.13879827
0.26757613 0.22979271 -0.26708782 -0.32384753 0.25894088 -0.0065429984 0.25596997 0.27744728
0.32945493 0.29523596 -0.29970825 0.19284974 0.06358871 0.03404557 0.17980415 -0.17102578
-0.28624985 0.0315055 0.013599675 -0.0820481 -0.24803329 -0.010028516 0.074096255 -0.23337483
-0.21714275 0.14599347 0.25374752 0.025127534 0.06099081 -0.28427455 -0.23429821 -0.22065745
0.04128964 -0.32370612 0.3085035 0.2693271 -0.19874215 0.020187996 -0.2179313 -0.06064304
0.22697344 -0.1901854 0.18105568 0.25605738 0.1672232 -0.054615937 -0.19258143 0.32093424
-0.24711037 -0.0686773 0.28367704 0.26513112 0.25245062 -0.043488454 -0.18520817 0.14932929
-0.16958643 0.21174638 0.095916696 -0.07042594 -0.20132269 0.28137094 0.114626035 0.015472597
-0.12613064 -0.08915283 0.32968536 -0.2959131 -0.22208993 -0.09896684 0.3273832 -0.24444702
0.14052534 0.07124745 -0.23296171 0.12320549 -0.12611167 -0.32063743 0.26564258 -0.026475936
-0.21071589 0.0034433003 0.32693732 -0.23022103 -0.15260936 0.20745237 0.27032217 -0.022279756
-0.26887998 0.082567334 -0.1800561 -0.05026721 -0.18275703 -0.04580401 0.01806841 -0.248825
-0.291619 -0.013436238 0.012897491 -0.14456467 -0.2407417 -0.2225306 -0.14764214 -0.25492927
00000000: 8884 743e fb68 843e 4ddf 55bd bf4f 973e
00000010: 6ce4 56be f81c 04be 0913 913e 8c7a 9e3e
00000020: cdaf 45bd 5f10 a13e 93c9 4a3e 3028 0ebe
00000030: 10b9 99be 9c8c 8dbe fe0c 97be f545 9e3d
00000040: f255 a4be 43d8 a23d 9059 e23d 5886 5abd
00000050: b6bb a1be f4e4 a93c f60a e03d 3d91 39be
00000060: bc9d 82be 4fa3 56be a015 02bc 6971 f1bd
00000070: 8a21 bb3c cfb3 ccbd fe87 9d3e a68a fb3d
00000080: 2c63 10bc 6de2 123e 8440 0cbe a697 39be
00000090: 4d2b fbbd 9496 86bd 6582 3ebe 0aed a93e
000000a0: 1a5d e23d 79f2 363d ee26 fabd e026 34be
000000b0: 42e1 a23e 4ce4 973e a06b 54bd 2a8d 903e
000000c0: 6f59 9e3e ff3d c43c bc39 9ebe bfc2 863e
000000d0: e8fb 943e 43d4 9dbe 9f7c 8d3d f8a6 083e
000000e0: 04c8 9abe d6ff 5fbe 00b6 723d 0778 8cbe
000000f0: 7e9c 133e b93b 9e3e da34 f13d 30cd a53e
00000100: ce1c 92be ff9a e33c 6c87 953d c68f 443e
00000110: c1a4 873e ab05 10be 00c0 a13e c87f 393e
00000120: 767a 96be c77a 53be 69b7 973d 65db 4abd
00000130: 8348 fd3d 5e75 e5bd 8de5 813e 8902 883e
00000140: 2a74 6e3e f426 5c3e 05a5 873e 57db c6bd
00000150: 7849 ce3d bed8 a9bc c01c c6bb 12a1 5fbc
00000160: 1692 91be c969 aa3d 850a 093e 882f f73d
00000170: 3798 813e d45f babd 6417 7bbe d975 60be
00000180: 3303 7c3e 5df5 ffbd 08be a3bd 03bb 3c3e
00000190: d64a 73be 97f9 5a3e 818c 353e 0df9 5c3e
000001a0: b76b 683e 06a0 eabd 5e37 923d b472 a2be
000001b0: dd61 56be b157 0b3e 1fba c7bd 2221 0e3e
000001c0: bdff 883e c84e 6b3e bcbf 88be 58cf a5be
000001d0: e693 843e a666 d6bb 7f0e 833e 920d 8e3e
000001e0: 51ae a83e 2b29 973e 5c73 99be 677a 453e
000001f0: cc3a 823d 5e73 0b3d 941e 383e 6221 2fbe
00000200: 578f 92be e90b 013d 2cd1 5e3c d608 a8bd
00000210: 70fc 7dbe a54e 24bc c7bf 973d d0f9 6ebe
00000220: ab5a 5ebe 507f 153e 32eb 813e 42d8 cd3c
00000230: 80d1 793d 6f8c 91be dfeb 6fbe 07f4 61be
00000240: 531f 293d cfbc a5be 2cf4 9d3e 3ee5 893e
00000250: 1083 4bbe 4c61 a53c 6229 5fbe d664 78bd
00000260: ba6b 683e f6bf 42be a966 393e f419 833e
00000270: 8f3c 2b3e f6b4 5fbd 1134 45be 7e51 a43e
00000280: 800a 7dbe afa6 8cbd 1e3e 913e 44bf 873e
00000290: 3541 813e f320 32bd 36a7 3dbe c7e9 183e
000002a0: 11a8 2dbe 0bd4 583e f96f c43d 7a3b 90bd
000002b0: 8927 4ebe da0f 903e 0ec1 ea3d c780 7d3c
000002c0: 6428 01be c295 b6bd 85cc a83e ec81 97be
000002d0: 8b6b 63be 20af cabd c59e a73e 5250 7abe
000002e0: e0e5 0f3e 2fea 913d 848d 6ebe 2953 fc3d
000002f0: 6b23 01be 972a a4be 4e02 883e 10e4 d8bc
00000300: e8c5 57be fea8 613b 5464 a73e 10bf 6bbe
00000310: a145 1cbe 656e 543e ab67 8a3e 0984 b6bc
00000320: a3aa 89be 1019 a93d a060 38be fde4 4dbd
00000330: a924 3bbe fc9c 3bbd 3404 943c fbcb 7ebe
00000340: 164f 95be ab23 5cbc 0050 533c c308 14be
00000350: fe84 76be 10df 63be 802f 17be 1786 82be

layer_stack.0.layer_stack.0.bias f4 [24]
0.07350721 0.31027567 -0.068502225 0.16847442 -0.015731147 0.3219707 0.004786059 0.038942564
0.26420254 -0.04239263 0.16771899 0.082451135 0.12109064 0.10708877 -0.13960688 0.14709069
0.036938746 -0.11329178 -0.1282972 -0.22576448 0.028802913 0.074137755 0.13840117 -0.10897462
00000000: f38a 963d 74dc 9e3e e54a 8cbd 8f84 2c3e
00000010: 9bde 80bc 58d9 a43e 5fd4 9c3b 3d82 1f3d
00000020: 8e45 873e e5a3 2dbd 87be 2b3e 24dc a83d
00000030: 5ffe f73d 5b51 db3d 1bf5 0ebe f19e 163e
00000040: 154d 173d 8505 e8bd 5760 03be ce2e 67be
00000050: 16f4 eb3c 89d5 973d 09b9 0d3e 162e dfbd

layer_stack.0.layer_stack.2.weight f4 [24, 24, 1, 1]
-0.15682955 0.18658945 0.09388587 0.12793635 0.060969833 -0.068471074 0.19792281 0.15396737
0.063644506 0.122596875 -0.08868187 -0.1363738 -0.12036015 -0.00022258883 0.12328156 0.03015758
0.14084637 0.06765143 0.11184315 -0.053006746 0.20346753 0.2015594 0.1367879 -0.0027832408
0.010206492 0.07655283 0.14562789 0.017158603 0.009208913 0.045498278 -0.08183218 -0.11719626
0.1025057 0.08065189 -0.1298665 -0.08837385 0.15597127 -0.083680585 0.003778759 0.04241967
0.1579416 0.051443037 -0.11979489 -0.13115561 -0.12987004 0.10903049 -0.19047086 0.13670415
-0.17211056 0.18741249 -0.04937305 0.16889103 -0.12860522 0.023342323 0.13317764 -0.17990737
0.13546555 -0.14543532 -0.13073361 0.13310167 -0.006460718 0.15624759 -0.076147586 0.070276365
-0.019214218 0.05493889 0.00894548 0.05916148 0.031249657 -0.012493082 -0.15198429 0.002994991
0.1845927 0.09182514 0.079344414 0.14366661 -0.18963641 0.049980327 0.025403628 -0.05611513
0.17010485 -0.00435728 -0.15898976 -0.16819927 0.15399934 0.20356064 0.1305685 -0.08277065
0.14414051 0.14215928 0.17820917 -0.15598536 -0.04847624 -0.14754891 0.08156064 -0.11912037
0.15456752 0.15425622 0.037675753 -0.0071506756 0.0770678 -0.15924206 0.050772756 0.055928003
-0.19168672 -0.062814124 -0.10655975 0.17427732 0.018878024 -0.121301346 0.014751076 0.15514667
0.13627099 -0.19424948 -0.022337193 -0.17735684 0.056686897 -0.11101145 -0.026075924 0.14761528
-0.14703092 -0.10083157 -0.046859086 0.14991918 -0.072231576 -0.09785213 -0.118222035 -0.15784392
-0.19839476 -0.1372086 0.16230029 0.080916956 0.11954622 -0.09695438 0.028747907 -0.10014727
0.110850364 -0.19679274 -0.0031377033 -0.15855867 -0.05647999 0.13821295 -0.05887893 0.1617341
0.0028897128 -0.007950993 -0.12908415 0.07120469 -0.08108006 -0.099136524 0.017338209 -0.011766878
0.14214018 -0.12743774 0.13969482 -0.094135545 0.20371044 0.04669567 0.17269751 0.021775477
-0.09984175 -0.11153041 0.12541741 0.20132774 0.0663604 -0.099710874 0.13769886 -0.032435212
0.1353315 -0.12036024 0.03616796 0.15347806 0.028145941 -0.175225 0.1913346 -0.17965864
-0.12283085 0.009335459 0.007598584 0.15072246 0.13503926 0.17810105 -0.12829387 -0.04105594
0.055574153 -0.18745472 -0.12156398 0.15424587 -0.013155554 -0.20260517 0.19899997 -0.044601228
0.072647505 0.0035195218 0.05803852 0.07281029 -0.1783728 0.111680515 -0.09080383 -0.12614582
-0.08721002 0.07358455 0.17793678 0.091836594 0.056238793 -0.13178807 0.03369985 -0.15203835
-0.11436709 0.047784597 -0.15980512 0.17505755 -0.06333111 -0.021962151 -0.07760428 0.067871615
-0.16316877 -0.15893522 -0.13417198 0.16544984 0.15785816 -0.18566166 0.1912664 0.039385844
0.13282038 -0.048244677 -0.11850023 -0.18597694 0.042381875 -0.08091748 -0.0072323224 -0.12326138
0.028083803 0.07810868 -0.0034514714 -0.026907561 -0.0040600803 0.18575053 -0.1393873 0.105858125
-0.045821484 -0.09660482 0.19268185 0.15299422 0.18141861 0.08710971 -0.015527528 0.1751621
0.06527426 0.118759915 0.073469415 0.099063136 -0.016178232 -0.09843711 0.17153375 0.022336466
00000000: ed97 20be 4e11 3f3e 3c47 c03d bf01 033e
00000010: 81bb 793d 903a 8cbd 47ac 4a3e 9fa9 1d3e
00000020: 0d58 823d 1214 fb3d d79e b5bd 93a5 0bbe
00000030: 627f f6bd bc66 69b9 0b7b fc3d 070d f73c
00000040: 083a 103e d58c 8a3d 050e e53d 9a1d 59bd
00000050: cb59 503e 9665 4e3e 2112 0c3e 0867 36bb
00000060: 2139 273c bbc7 9c3d 7a1f 153e 3390 8c3c
00000070: fbe0 163c 675c 3a3d a197 a7bd 9804 f0bd
00000080: 82ee d13d d12c a53d b9fb 04be 59fd b4bd
00000090: efb6 1f3e ba60 abbd 0ea5 773b 3fc0 2d3d
000000a0: 71bb 213e efb5 523d 0657 f5bd a84d 06be
000000b0: a7fc 04be 614b df3d cb0a 43be 2cfc 0b3e
000000c0: c03d 30be 0fe9 3f3e 653b 4abd c5f1 2c3e
000000d0: 16b1 03be 6638 bf3c b85f 083e a339 38be
000000e0: 7bb7 0a3e ffec 14be 08df 05be ce4b 083e
000000f0: 6eb4 d3bb 5eff 1f3e 44f3 9bbd 0eed 8f3d
00000100: 2367 9dbc 9a07 613d 1090 123c 4f53 723d
00000110: 48ff ff3c c9af 4cbc c5a1 1bbe 9c47 443b
00000120: de05 3d3e d20e bc3d 537f a23d 571d 133e
00000130: 0c30 42be 2cb8 4c3d 451b d03c fbd8 65bd
00000140: f72f 2e3e 84c7 8ebb 36ce 22be 6e3c 2cbe
00000150: 01b2 1d3e 3372 503e c0b3 053e a983 a9bd
00000160: 9299 133e 3492 113e 777c 363e a0ba 1fbe
00000170: 068f 46bd 1017 17be 4409 a73d 61f5 f3bd
00000180: f346 1e3e 58f5 1d3e e451 1a3d 3750 eabb
00000190: b9d5 9d3d 5a10 23be 18f7 4f3d c314 653d
000001a0: 8649 44be b1a4 80bd 003c dabd c175 323e
000001b0: 16a6 9a3c d76c f8bd 7fae 713c c5de 1e3e
000001c0: 9f8a 0b3e 56e9 46be 7dfc b6bc 089d 35be
000001d0: 8530 683d f959 e3bd 2d9d d5bc 7628 173e
000001e0: 468f 16be c880 cebd 50ef 3fbd 6a84 193e
000001f0: 26ee 93bd b366 c8bd 651e f2bd d6a1 21be
00000200: ff27 4bbe 6980 0cbe 0c32 263e cab7 a53d
00000210: a6d4 f43d 0590 c6bd bb80 eb3c 031a cdbd
00000220: 8405 e33d 0984 49be eda1 4dbb 345d 22be
00000230: 9057 67bd b287 0d3e 082b 71bd a09d 253e
00000240: 5661 3d3b e244 02bc a32e 04be c4d3 913d
00000250: 4d0d a6bd 1708 cbbd dc08 8e3c ddc9 40bc
00000260: 328d 113e 0a7f 02be 290c 0f3e 23ca c0bd
00000270: 7899 503e f543 3f3d 9ed7 303e 7c62 b23c
00000280: d579 ccbd 0e6a e4bd 6c6d 003e dc28 4e3e
00000290: f6e7 873d 3735 ccbd ee00 0d3e c9da 04bd
000002a0: 5794 0a3e 6e7f f6bd db24 143d 5a29 1d3e
000002b0: 5192 e63c 2f6e 33be 38ed 433e 6ff8 37be
000002c0: be8e fbbd c1f3 183c 8bfd f83b fd56 1a3e
000002d0: bb47 0a3e 1f60 363e 785f 03be 462a 28bd
000002e0: b9a1 633d 21f4 3fbe 89f6 f8bd a1f2 1d3e
000002f0: 658a 57bc bb77 4fbe a6c6 4b3e c7af 36bd
00000300: 37c8 943d c7a7 663b cdb9 6d3d 901d 953d
00000310: 5ca7 36be c1b8 e43d 5cf7 b9bd 5f2c 01be
00000320: 2b9b b2bd 7fb3 963d 0f35 363e d314 bc3d
00000330: a65a 663d 74f3 06be db08 0a3d f1af 1bbe
00000340: 4b39 eabd c8b9 433d f4a3 23be 4942 333e
00000350: beb3 81bd f8e9 b3bc feee 9ebd 4600 8b3d
00000360: b715 27be eabf 22be 6164 09be af6b 293e
00000370: 92a5 213e 171e 3ebe 57db 433e 0d53 213d
00000380: 1102 083e 369c 45bd 40b0 f2bd bd70 3ebe
00000390: 9e98 2d3d 10b8 a5bd 1efd ecbb 7670 fcbd
000003a0: 0110 e63c 72f7 9f3d 1532 62bb 3f6d dcbc
000003b0: 6c0a 85bb 6335 3e3e 8bbb 0ebe 25cc d83d
000003c0: 4faf 3bbd bfd8 c5bd 644e 453e 84aa 1c3e
000003d0: cdc5 393e 9366 b23d 2c67 7ebc b25d 333e
000003e0: 83ae 853d 6638 f33d 2277 963d 9de1 ca3d
000003f0: 3688 84bc 6599 c9bd 8ba6 2f3e f7fa b63c

layer_stack.0.layer_stack.2.bias f4 [24]
0.039092418 0.11679929 -0.15653498 0.18451259 0.011436651 0.15004389 -0.08907258 -0.053984195
0.09158854 0.1882442 0.17439553 -0.122109815 0.09271985 0.13142274 -0.00031580927 -0.14250228
0.10903875 -0.11819216 -0.0010185322 0.14917699 0.09134863 0.07879299 0.030842131 -0.10768796
00000000: 5f1f 203d 7734 ef3d b54a 20be def0 3c3e
00000010: cb60 3b3c 1ba5 193e af6b b6bd 881e 5dbd
00000020: c692 bb3d 16c3 403e be94 323e b614 fabd
00000030: e8e3 bd3d af93 063e 3493 a5b9 1eec 11be
00000040: b54f df3d bb0e f2bd 4580 85ba dac1 183e
00000050: fe14 bb3d 385e a13d a3a8 fc3c 818b dcbd

layer_stack.0.layer_stack.4.weight f4 [24, 24, 1, 1]
-0.0077298484 0.0037975174 -0.1885793 -0.06657713 0.06526152 0.051482484 0.09580199 -0.12040803
-0.057065222 0.010740067 -0.20114909 0.18616004 -0.16956618 0.053635724 0.13471799 0.028340986
0.034123342 -0.07622673 -0.005964229 -0.0014333047 -0.16025229 0.18356973 0.17358845 0.049292848
0.09715634 -0.16341367 -0.001486471 -0.021122279 -0.10707595 -0.06203862 0.039673083 -0.15424585
0.00088241685 -0.0006924485 -0.1324308 -0.14980453 -0.019699056 -0.19577311 0.16037506 0.17709628
0.1393466 -0.0037353674 -0.17638482 -0.015282691 -0.11480685 0.048200734 -0.074250214 0.16032262
-0.0021654377 0.009647209 -0.1252177 0.12416482 0.004266027 0.06643307 -0.175984 -0.15772475
-0.01795902 -0.18695875 -0.065358065 0.140907 -0.028030362 -0.111342505 0.08044354 -0.11965704
-0.14179003 0.01896599 -0.20053907 0.1918171 -0.027359147 0.0027306075 -0.15945223 -0.07031105
-0.123995915 0.1933224 -0.05214401 0.13664396 0.098202094 -0.016259132 0.1284951 -0.09669041
0.05024314 0.16526204 -0.1341187 0.11382518 0.15492171 -0.06404601 0.17593123 -0.19924915
0.14335611 0.13307966 -0.08383904 0.0728026 -0.16331887 0.13563092 0.17955148 0.18470147
0.16162385 0.11762262 -0.08729025 0.08839817 -0.0714412 -0.13771659 -0.0986407 -0.13366997
0.16699521 0.07889178 -0.03379174 0.1357409 0.024505211 -0.005214784 -0.00043924485 -0.12540552
0.038087133 -0.16695149 0.18746793 0.18944772 0.072777584 0.13864613 0.1912026 0.017811704
0.13725086 -0.14513364 -0.105002955 0.1463657 -0.0477744 -0.004425637 0.027831083 0.07774791
0.067905255 -0.06489422 -0.12349793 0.12374403 -0.15798476 0.17309994 -0.17316799 -0.0339902
-0.13559629 -0.10574632 0.14031413 -0.02155778 0.13639244 0.051532783 -0.10869276 -0.14884551
0.10303281 0.0045951987 0.14457357 -0.19409913 0.023361852 -0.16539918 -0.13757518 -0.17248596
-0.13215488 0.15738635 0.13775107 0.15301403 -0.14827497 0.086344644 -0.08640397 0.12587297
0.02867829 -0.08423734 0.024413258 -0.08314852 -0.097759224 0.15437543 -0.16119124 -0.023611082
-0.17125098 -0.18060659 -0.18554243 0.08777532 0.118527114 -0.14087233 0.14492255 0.20105232
-0.18518227 -0.038346767 0.13230214 -0.004764401 0.004409375 -0.018907344 -0.1677428 0.18447997
-0.16042477 -0.10448538 -0.0007037247 -0.07003384 0.09061487 -0.035987195 0.07039517 0.10238155
0.15481497 -0.16182664 -0.14046498 0.1867868 -0.20336097 0.1639539 0.0846754 -0.048270028
-0.1030608 0.023028458 0.18347003 0.054875303 0.04980574 0.17333964 -0.056789313 0.13464099
-0.023844998 -0.106471315 -0.17323828 0.14511326 0.014077768 0.019789718 -0.17468666 -0.14141294
-0.028115578 -0.009477726 -0.19641769 -0.1545619 -0.06139594 -0.0069621294 0.2005362 -0.09620435
-0.13653867 0.038745202 0.14264677 0.04244528 -0.1625945 -0.026773682 0.04918347 -0.03566064
-0.065386 -0.05321638 0.20028688 -0.10091906 0.18418966 0.20356306 -0.14350328 0.028899068
-0.0056266203 -0.16842496 -0.0110629555 0.0021391385 0.20379885 0.108493246 -0.082377225 -0.019365558
0.16875932 0.19418103 -0.09249979 -0.10521452 -0.042961087 -0.1690977 0.0724166 -0.026660336
00000000: ab4a fdbb c5df 783b ef1a 41be 9759 88bd
00000010: d5a7 853d 4cdf 523d d533 c43d 7c98 f6bd
00000020: 39bd 69bd 1bf7 2f3c 07fa 4dbe bda0 3e3e
00000030: c2a2 2dbe 22b1 5b3d 83f3 093e 5b2b e83c
00000040: ebc4 0b3d c31c 9cbd 946f c3bb badd bbba
00000050: 2d19 24be b4f9 3b3e 2cc1 313e 4ce7 493d
00000060: e7f9 c63d ea55 27be b1d5 c2ba a108 adbc
00000070: a34a dbbd 351c 7ebd 3e80 223d a0f2 1dbe
00000080: fe51 673a 6f85 35ba f19b 07be 5c66 19be
00000090: ea5f a1bc bf78 48be 5c39 243e ba58 353e
000000a0: e0b0 0e3e 11cd 74bb 399e 34be 4164 7abc
000000b0: db1f ebbd 226e 453d 7f10 98bd 9d2b 243e
000000c0: 04ea 0dbb 540f 1e3c 1239 00be 204a fe3d
000000d0: 07ca 8b3b 100e 883d 2635 34be 9982 21be
000000e0: cb1e 93bc 1d72 3fbe 73da 85bd ed49 103e
000000f0: ee9f e5bc 8a07 e4bd 95bf a43d c00e f5bd
00000100: 6831 11be 905e 9b3c 1d5a 4dbe b46b 443e
00000110: 4a20 e0bc fef3 323b 7247 23be 3dff 8fbd
00000120: 92f1 fdbd 4ff6 453e f594 55bd 65ec 0b3e
00000130: 2e1e c93d df31 85bc 3894 033e 9f05 c6bd
00000140: c0cb 4d3d 743a 293e 6a56 09be 2d1d e93d
00000150: cca3 1e3e 8e2a 83bd 5127 343e f807 4cbe
00000160: f2cb 123e 0946 083e cdb3 abbd 8819 953d
00000170: 103d 27be d5e2 0a3e 58dc 373e 6222 3d3e
00000180: b980 253e 21e4 f03d 3bc5 b2bd 1a0a b53d
00000190: c44f 92bd 9405 0dbe 2304 cabd c8e0 08be
000001a0: cb00 2b3e 0392 a13d 3569 0abd aaff 0a3e
000001b0: 27bf c83c c7e0 aabb 724a e6b9 4e6a 00be
000001c0: 4101 1c3d 55f5 2abe 98f7 3f3e 95fe 413e
000001d0: 6a0c 953d 40f9 0d3e 9dca 433e dae9 913c
000001e0: 7d8b 0c3e ea9d 14be ca0b d7bd e4e0 153e
000001f0: 17af 43bd ef04 91bb 03fe e33c 4c3a 9f3d
00000200: e911 8b3d 43e7 84bd 7cec fcbd 836d fd3d
00000210: c2c6 21be 1c41 313e f352 31be 4f39 0bbd
00000220: c1d9 0abe 8791 d8bd 82ae 0f3e f199 b0bc
00000230: 76aa 0b3e 0a14 533d 4f9a debd f56a 18be
00000240: de02 d33d 5293 963b 180b 143e ecc1 46be
00000250: 5b61 bf3c 675e 29be 82e0 0cbe 29a0 30be
00000260: 9c53 07be e329 213e 9e0e 0d3e b6af 1c3e
00000270: 65d5 17be 76d5 b03d 91f4 b0bd d8e4 003e
00000280: bcee ea3c a084 acbd 50fe c73c c549 aabd
00000290: fd35 c8bd 9814 1e3e 510f 25be 076c c1bc
000002a0: 6b5c 2fbe eff0 38be d6fe 3dbe 8cc3 b33d
000002b0: 58be f23d d640 10be 9466 143e a9e0 4d3e
000002c0: 6ca0 3dbe 8011 1dbd 367a 073e b11e 9cbb
000002d0: 857c 903b 93e3 9abc c5c4 2bbe 51e8 3c3e
000002e0: 6446 24be 6efc d5bd 2a7a 38ba e76d 8fbd
000002f0: 4a94 b93d 4f67 13bd 582b 903d 6bad d13d
00000300: d187 1e3e e2b5 25be 0dd6 0fbe 0a45 3f3e
00000310: dc3d 50be 88e3 273e 4c6a ad3d cbb6 45bd
00000320: 8a11 d3bd 2da6 bc3c 91df 3b3e edc4 603d
00000330: 1b01 4c3d f27f 313e e99b 68bd 54df 093e
00000340: 9656 c3bc a20d dabd 6065 31be 9298 143e
00000350: 70a6 663c 0c1e a23c 0fe1 32be 8ece 10be
00000360: a452 e6bc 7748 1bbc b821 49be 7a45 1ebe
00000370: 4f7a 7bbd 9322 e4bb 5d59 4d3e c906 c5bd
00000380: cbd0 0bbe 4ab3 1e3d ff11 123e 1adb 2d3d
00000390: 2c7f 26be 7b54 dbbc 9b74 493d e410 12bd
000003a0: 18e9 85bd 6bf9 59bd 0118 4d3e a7ae cebd
000003b0: 379c 3c3e d672 503e 86f2 12be bdbd ec3c
000003c0: 835f b8bb 9877 2cbe 6641 35bc ca30 0c3b
000003d0: a5b0 503e b531 de3d 64b5 a8bd 85a4 9ebc
000003e0: 3ecf 2c3e 64d7 463e 8870 bdbd b67a d7bd
000003f0: f7f7 2fbd f327 2dbe 284f 943d c766 dabc

layer_stack.0.layer_stack.4.bias f4 [24]
0.20203264 0.037484627 -0.12802969 -0.15449107 -0.04947263 0.19072317 0.051473454 -0.1116356
0.04764649 -0.15791012 -0.03626567 0.09835777 0.021085193 -0.14369705 -0.09602535 0.16277292
0.1035469 -0.092465736 0.063241765 -0.11843538 -0.013466429 -0.06881165 -0.079546764 0.022775888
00000000: a5e1 4e3e 7b89 193d 371a 03be e832 1ebe
00000010: d0a3 4abd ef4c 433e d4d5 523d 35a1 e4bd
00000020: f728 433d 31b3 21be 508b 14bd cc6f c93d
00000030: dbba ac3c 5225 13be f0a8 c4bd f2ad 263e
00000040: 6610 d43d ad5e bdbd e684 813d 408e f2bd
00000050: 4ca2 5cbc 1fed 8cbd 6ae9 a2bd 8094 ba3c

layer_stack.2.layer_stack.0.weight f4 [10, 24, 3, 3]
0.0666801 0.0626464 0.024635527 0.021123204 0.0013333868 0.0442888 0.050648846 0.05802045
-0.000590365 -0.010664772 0.002185413 0.014556547 -0.05413793 0.04810208 -0.0035920956 0.03789907
0.05691809 0.035554927 0.06256727 0.0012053272 0.024350503 0.03973226 0.0064831004 -0.04312986
-0.021104302 -0.045668926 -0.05925275 -0.0041339626 0.0060355053 -0.054781646 -0.0072988877 0.050025605
0.044769067 0.043332353 0.06853423 0.005326968 0.04413724 0.019469278 -0.017487803 0.04870734
-0.016075825 -0.06445944 -0.0027028155 0.01723952 0.023793682 -0.019430459 0.037489332 0.04871914
-0.019814376 0.05056576 -0.06762377 -0.026434027 0.00549054 -0.035391454 0.0054959613 0.030062921
0.034235217 0.06715576 -0.037380833 -0.034998927 0.023841726 0.06228906 0.008731635 -0.05961034
0.0089773405 -0.03454366 0.05646363 0.062081236 -0.018348884 0.022171384 0.027010739 0.0077687926
0.037866663 -0.04554477 0.018377788 0.023815263 0.041964054 -0.029300367 0.03970326 0.058985885
-0.05617912 0.03469201 0.014828029 0.03672464 -0.016932026 0.04810448 0.058824375 -0.010873974
0.04942507 0.064838976 0.0071649244 0.0005519851 0.0455274 0.022603167 0.0057334094 0.047514614
-0.048592564 -0.04573615 0.030389002 -0.033256363 -0.016768591 0.02280964 -0.033085246 0.05252829
0.016588842 0.003956031 -0.0054428303 -0.054378714 -0.028261757 0.005827758 -0.05473742 -0.025738345
-0.021013737 -0.004116345 -0.065251864 -0.0031208019 -0.0021851682 -0.060755923 -0.021467846 -0.06453301
0.05238004 0.035361085 -0.015688153 -0.03705491 0.024130546 -0.055566486 0.04155302 -0.0442372
0.031706974 0.06323027 0.057359993 0.0030047405 0.050498094 0.045415875 -0.029924432 0.046535347
0.008875962 0.062141053 0.067355156 -0.0043858862 -0.058635715 0.03883935 0.00465322 0.045107767
-0.013517398 -0.038849235 0.02201743 -0.058409013 -0.0061935964 0.026027385 -0.03645553 0.022304986
-0.000496782 -0.035444323 0.05193735 -0.020030774 0.054001387 0.06479577 -0.02621311 0.008334275
0.017589027 0.0338252 0.061051022 0.033560507 -0.048853785 -0.0116024455 0.0021547612 -0.06246006
0.06411947 0.04894168 -0.018282425 -0.029173063 -0.02975203 -0.046037544 -0.050728425 -0.03724966
-0.015430575 0.003890204 -0.05240933 -0.04305491 0.006197638 -0.018349925 0.010410287 -0.028572978
0.04758148 0.058691334 0.063344374 -0.05828801 -0.02216191 0.029371697 0.062925726 -0.020094227
-0.03917975 -0.035571467 0.022733033 -0.0052150656 -0.0028458592 0.044700906 -0.00077749725 -0.013823927
0.006247005 0.015712751 -0.062773824 0.05789935 -0.024702858 -0.005366389 -0.04107966 -0.052789386
-0.035860237 -0.025154643 0.011738725 0.054663286 0.03459079 -0.0010355057 -0.009427689 0.04728431
0.039824847 -0.014808992 0.016411474 0.051961333 -0.020487733 0.0070971153 -0.05980272 0.016874338
0.06353701 -0.018079998 0.014838711 0.018647237 -0.0354141 0.00817032 -0.029261928 -0.004878882
0.03652784 0.039530005 -0.017754043 0.041331835 -0.046081807 -0.062666275 -0.06170564 -0.027399296
-0.007136795 0.03186133 0.04740628 -0.06414674 -0.02400145 0.008042577 -0.01973638 -0.058880966
0.029775681 -0.041945413 -0.013398582 -0.021914007 0.017513838 0.0152397035 -0.06607291 0.06478592
00000000: 948f 883d c14c 803d 72d0 c93c 920a ad3c
00000010: 09c5 ae3a 2c68 353d 2a75 4f3d daa6 6d3d
00000020: b9c2 1aba 4cbb 2ebc 2539 0f3b 957e 6e3c
00000030: bcbf 5dbd b006 453d 5d69 6bbb 0e3c 1b3d
00000040: f122 693d 0ba2 113d 4523 803d 12fc 9d3a
00000050: b57a c73c 4bbe 223d 3070 d43b f0a8 30bd
00000060: eee2 acbc 570f 3bbd 03b3 72bd 3176 87bb
00000070: 7dc5 c53b b862 60bd 822b efbb a6e7 4c3d
00000080: c55f 373d 447d 313d ad5b 8c3d d98d ae3b
00000090: 40c9 343d 097e 9f3c 9542 8fbc 5981 473d
000000a0: 73b1 83bc 5003 84bd b821 31bb e539 8d3c
000000b0: f8ea c23c a02c 9fbc 6a8e 193d b98d 473d
000000c0: c251 a2bc 0b1e 4f3d 557e 8abd 2c8c d8bc
000000d0: fde9 b33b a1f6 10bd 7717 b43b 8446 f63c
000000e0: 3a3a 0c3d f688 893d a51c 19bd 095b 0fbd
000000f0: b94f c33c d022 7f3d 220f 0f3c f929 74bd
00000100: b215 133c a77d 0dbd 6846 673d e548 7e3d
00000110: 6650 96bc c3a0 b53c a045 dd3c 5b91 fe3b
00000120: 131a 1b3d 278d 3abd 048d 963c 3a18 c33c
00000130: 80e2 2b3d 5307 f0bc e39f 223d 2f9b 713d
00000140: 141c 66bd 3619 0e3d 43f1 723c 936c 163d
00000150: 08b5 8abc 3409 453d d4f1 703d c128 32bc
00000160: f171 4a3d 4cca 843d bec7 ea3b 18b3 103a
00000170: f07a 3a3d 472a b93c 53df bb3b af9e 423d
00000180: ff08 47bd d455 3bbd 5bf2 f83c d337 08bd
00000190: 495e 89bc 48db ba3c 6584 07bd e727 573d
000001a0: 53e5 873c 98a1 813b c559 b2bb 37bc 5ebd
000001b0: 3385 e7bc c7f6 be3b 5834 60bd 39d9 d2bc
000001c0: 0025 acbc 68e2 86bb c5a2 85bd 5e86 4cbb
000001d0: 0a35 0fbb 34db 78bd 56dd afbc e229 84bd
000001e0: 748c 563d c9d6 103d 7184 80bc e4c6 17bd
000001f0: 6cad c53c af99 63bd 8033 2a3d 1132 35bd
00000200: 2cdf 013d df7e 813d 50f2 6a3d 2eeb 443b
00000210: 17d7 4e3d ff05 3a3d 1524 f5bc d99b 3e3d
00000220: 7c6c 113c 9e87 7e3d 80f1 893d 7bb7 8fbb
00000230: 012c 70bd 0316 1f3d 0a7a 983b ecc2 383d
00000240: 1478 5dbc 6020 1fbd e65d b43c 4a3e 6fbd
00000250: a7f3 cabb 6237 d53c 6552 15bd f2b8 b63c
00000260: 7a3a 02ba 112e 11bd 42bc 543d 9417 a4bc
00000270: 8f30 5d3d a5b3 843d e0bc d6bc 7c8c 083c
00000280: dd16 903c 4b8c 0a3d a310 7a3d be76 093d
00000290: e81a 48bd 2f18 3ebc e536 0d3b 1fd6 7fbd
000002a0: 1251 833d 1277 483d 06c5 95bc 59fc eebc
000002b0: 87ba f3bc dd91 3cbd 9cc8 4fbd 1993 18bd
000002c0: 86d0 7cbc cbf2 7e3b 2aab 56bd 585a 30bd
000002d0: 8e15 cb3b 9552 96bc e98f 2a3c e111 eabc
000002e0: cce4 423d 5366 703d b2ba 813d 69bf 6ebd
000002f0: e58c b5bc ea9c f03c 34df 803d a69c a4bc
00000300: f27a 20bd 63b3 11bd a03a ba3c 24e3 aabb
00000310: 9881 3abb 4c18 373d f5d0 4bba c17d 62bc
00000320: adb3 cc3b 07b8 803c 908f 80bd de27 6d3d
00000330: a65d cabc 89d8 afbb 2543 28bd af39 58bd
00000340: 2fe2 12bd 1c11 cebc c853 403c 9ce6 5f3d
00000350: 12af 0d3d ceb9 87ba 9876 1abc 31ad 413d
00000360: 611f 233d 6aa1 72bc 5b71 863c 68d5 543d
00000370: e4d5 a7bc eb8e e83b b2f3 74bd 0d3c 8a3c
00000380: b11f 823d 811c 94bc 111e 733c 17c2 983c
00000390: 600e 11bd cedc 053c b6b6 efbc 07df 9fbb
000003a0: 379e 153d 37ea 213d ed70 91bc 924b 293d
000003b0: 47c0 3cbd 2d57 80bd 0ebf 7cbd 7d74 e0bc
000003c0: c7db e9bb 0781 023d 162d 423d 5e5f 83bd
000003d0: b09e c4bc 03c5 033c 30ae a1bc 2b2d 71bd
000003e0: 21ec f33c f4ce 2bbd ba85 5bbc 0185 b3bc
000003f0: 2e79 8f3c f3af 793c 3c51 87bd 7bae 843d

layer_stack.2.layer_stack.0.bias f4 [10]
0.012788165 -0.04538605 0.04111928 0.043676727 0.055304926 -0.005076082 -0.050888076 0.07066166
0.059086204 0.050885525
00000000: 7485 513c b9e6 39bd b16c 283d 5ee6 323d
00000010: 6b87 623d 4355 a6bb 0470 50bd 0fb7 903d
00000020: 6004 723d 576d 503d

layer_stack.2.layer_stack.2.weight f4 [10, 10, 1, 1]
-0.016872432 -0.13322629 -0.26202306 -0.08074322 -0.1294995 -0.23417674 -0.073721334 0.2872015
0.06460957 -0.31458908 0.111981325 -0.14345956 0.28863603 0.25345188 0.08763474 0.06460668
0.2020208 0.24705072 -0.21148655 -0.16270444 -0.03293775 0.065406375 -0.026673064 -0.14195167
0.06650618 0.11260896 -0.28748947 0.2733997 -0.02503281 0.09477504 -0.048788697 0.051032476
0.048187084 -0.12913108 -0.09902493 -0.18252409 0.05843181 -0.18433778 -0.028724466 0.079444736
0.314642 -0.17654036 -0.17208987 0.060898673 -0.2704278 -0.08810241 0.30674052 -0.28303868
-0.18795255 0.26979834 -0.007799185 0.21214496 0.1318806 -0.0028107692 0.1040039 -0.19708788
0.106949024 0.18111022 -0.25503042 0.31253082 -0.07232941 -0.19946204 -0.10859435 0.112131715
0.0042314827 0.18210964 -0.088808514 0.011296445 0.027652355 0.25893596 -0.23863605 -0.21116501
-0.06948106 0.31524175 -0.08452495 -0.24945675 -0.314663 -0.0171271 0.23921171 0.22089992
0.3057099 0.20263653 0.16482137 0.14554818 0.14093712 0.1610125 0.110209584 0.071381554
0.060021818 -0.012258998 0.20053972 -0.13034655 0.28586006 0.27575603 -0.07409263 0.25962448
-0.20811635 0.08035983 -0.285727 0.18877648
00000000: 0e38 8abc 796c 08be e327 86be b45c a5bd
00000010: 849b 04be 07cc 6fbe 36fb 96bd 130c 933e
00000020: 0652 843d d211 a1be 7756 e53d 10e7 12be
00000030: 1ac8 933e 72c4 813e d879 b33d 8250 843d
00000040: 8ade 4e3e ddfa 7c3e ee8f 58be fe9b 26be
00000050: bce9 06bd c7f3 853d 7881 dabc c75b 11be
00000060: 6434 883d 879f e63d d231 93be 0cfb 8b3e
00000070: 9c11 cdbc 6b19 c23d a8d6 47bd 6e07 513d
00000080: d25f 453d f03a 04be 95cd cabd 98e7 3abe
00000090: 3256 6f3d 0bc3 3cbe 924f ebbc ecb3 a23d
000000a0: c218 a13e ffc6 34be 5438 30be e370 793d
000000b0: 8375 8abe 096f b4bd 180d 9d3e 72ea 90be
000000c0: a276 40be 0223 8a3e 4e90 ffbb 873c 593e
000000d0: b50b 073e e234 38bb ffff d43d 68d1 49be
000000e0: 1708 db3d f574 393e 5993 82be 0a04 a03e
000000f0: 7121 94bd c73f 4cbe b766 debd 50a5 e53d
00000100: 40a8 8a3b f37a 3a3e 3de1 b5bd b914 393c
00000110: 3187 e23c 4193 843e 025d 74be a43b 58be
00000120: 164c 8ebd 5e67 a13e 6b1b adbd 9771 7fbe
00000130: 821b a1be 224e 8cbc eaf3 743e 9733 623e
00000140: 0286 9c3e f37f 4f3e efc6 283e 950a 153e
00000150: d251 103e 76e0 243e 90b5 e13d 7e30 923d
00000160: 70d9 753d f7d9 48bc 495a 4d3e 9179 05be
00000170: 405c 923e e52f 8d3e e0bd 97bd 80ed 843e
00000180: 741c 55be b293 a43d cf4a 92be 9f4e 413e

layer_stack.2.layer_stack.2.bias f4 [10]
0.022015484 -0.05127831 0.2268353 -0.08833398 0.09565487 0.0071902676 -0.055497494 0.2319834
-0.0023296785 -0.17530781
00000000: d159 b43c 3509 52bd 8347 683e 72e8 b4bd
00000010: b3e6 c33d 569c eb3b 5751 63bd 0e8d 6d3e
00000020: 85ad 18bb e483 33be

layer_stack.2.layer_stack.4.weight f4 [10, 10, 1, 1]
0.04085269 0.014215303 -0.27729902 -0.07815375 0.2767806 0.23630205 0.030686535 0.30359808
-0.17562518 0.23894674 -0.018653974 0.09264067 0.19827816 -0.14861383 -0.21626028 0.06543178
0.28207138 0.09841861 -0.06849906 -0.112625435 0.11287495 0.034722857 -0.25747666 -0.013602199
-0.034428746 0.124993384 0.064118 0.10299649 0.23969175 -0.3149064 0.25504956 0.2932544
0.0730633 0.30469483 -0.28448716 0.21507868 0.15628646 -0.29866752 -0.27263087 -0.2142961
0.21062662 -0.18375799 0.25435302 -0.26671204 0.14440843 -0.22136725 0.28832912 0.14080355
-0.2648597 -0.17231674 0.053841133 -0.14717561 0.2637091 -0.24831007 -0.25128368 -0.11548454
0.23310095 -0.07166897 -0.2911876 0.04172023 -0.2971292 -0.15758853 0.19628115 0.18730055
0.0101424325 -0.19742738 -0.040978193 -0.29200324 0.07378006 -0.052961256 -0.21795541 0.2668045
-0.25398678 0.23939572 -0.06366511 0.08236982 0.23119675 0.11316799 0.0018377375 0.030821113
0.22853693 0.27295002 -0.06840889 -0.063063644 -0.13509761 -0.18403664 -0.2260346 -0.24168801
0.15810382 -0.2785591 -0.070186615 0.016421579 -0.21817705 0.0019817841 0.045437142 -0.04545452
-0.27883923 0.1776134 -0.13264869 -0.23708695
00000000: 2655 273d 4de7 683c 23fa 8dbe 130f a0bd
00000010: 30b6 8d3e 2af9 713e 5462 fb3c 3571 9b3e
00000020: 16d7 33be 74ae 743e 38d0 98bc 64ba bd3d
00000030: 6e09 4b3e 392e 18be 5673 5dbe 1901 863d
00000040: a96b 903e b28f c93d 3c49 8cbd 2aa8 e6bd
00000050: fb2a e73d 8e39 0e3d fbd3 83be c2db 5ebc
00000060: 2805 0dbd 88fc ff3d 4c50 833d d3ef d23d
00000070: c171 753e 693b a1be db95 823e 7125 963e
00000080: 36a2 953d f600 9c3e 4da8 91be 963d 5c3e
00000090: 8f09 203e f3ea 98be 4696 8bbe 7070 5bbe
000000a0: 81ae 573e 0e2b 3cbe 8f3a 823e 7b8e 88be
000000b0: cedf 133e 19ae 62be e09f 933e ce2e 103e
000000c0: b19b 87be cd73 30be 8588 5c3d 34b5 16be
000000d0: e104 873e ff44 7ebe 41a8 80be 2983 ecbd
000000e0: 04b2 6e3e 2ec7 92bd 8b16 95be d5e2 2a3d
000000f0: 5221 98be e35e 21be edfd 483e b7cb 3f3e
00000100: 722c 263c 672a 4abe c0d8 27bd 7381 95be
00000110: 001a 973d e7ed 58bd b42f 5fbe 999a 883e
00000120: 8e0a 82be 2724 753e da62 82bd 82b1 a83d
00000130: d7be 6c3e 9fc4 e73d 3de0 f03a 8f7c fc3c
00000140: 9605 6a3e 1bc0 8b3e f619 8cbd 8327 81bd
00000150: 0757 0abe 1a74 3cbe 9d75 67be 107d 77be
00000160: f8e5 213e 4c9f 8ebe 00be 8fbd 8c86 863c
00000170: ce69 5fbe d2e0 013b 4c1c 3a3d 852e 3abd
00000180: 04c4 8ebe 4ae0 353e 0fd5 07be ecc6 72be

layer_stack.2.layer_stack.4.bias f4 [10]
0.0026666075 -0.2121546 0.008096548 0.085270695 -0.28448564 0.24433182 0.12353315 0.20358947
-0.19240811 -0.10695263
00000000: 40c2 2e3b 0e3f 59be 62a7 043c 67a2 ae3d
00000010: 1aa8 91be 1f32 7a3e f3fe fc3d c279 503e
00000020: a206 45be fb09 dbbd

layer_stack.3.layer_stack.0.weight f4 [10, 10, 3, 3]
0.09772164 -0.06191087 -0.029934349 0.092233315 0.08376215 0.030407246 0.104353465 0.05607769
0.0061927456 0.015119829 -0.023010476 0.071588315 -0.07368156 0.10022274 0.009513451 0.05666414
0.063530244 -0.021826027 0.083274506 -0.071397685 -0.07358527 -0.011719144 -0.023969255 -0.008108611
0.07162731 -0.014397436 -0.00962065 0.10015304 -0.0022816693 -0.0017448558 0.028685406 0.08263942
-0.082758 -0.07146702 0.051166315 0.084025994 -0.101190954 -0.0832084 0.0815144 -0.009763296
0.08318281 -0.08820851 0.044486646 0.033874407 0.09564934 -0.04335418 -0.10417147 0.029959861
-0.029116856 -0.098804384 0.08227829 -0.05148071 0.055337004 0.06188004 -0.09439779 -0.09737521
0.03125783 -0.0038098027 0.007915309 -0.0649245 -0.098411955 0.012383307 -0.0954704 0.0022793037
-0.06981821 0.013083569 0.053781785 0.07135231 0.044099346 -0.064846605 -0.027810792 0.05985646
0.016246261 0.052699827 -0.0007661597 0.10478198 -0.044377048 0.067424804 -0.10114238 -0.023262795
-0.08502524 -0.033312127 0.09161003 0.008491527 -0.014409851 -0.03367309 0.05759785 -0.04551347
-0.011291896 0.011361221 -0.037905175 0.004253889 0.031051807 -0.041035097 0.06572626 0.03717998
0.03371289 0.06812591 -0.014545189 0.06568415 -0.092536554 0.05874474 0.060745448 -0.096829996
-0.051065728 -0.07536923 -0.061283562 0.049802303 -0.07038648 -0.003710632 -0.038129814 0.05149569
0.09312948 0.064614356 0.100568034 0.07631886 -0.04712216 0.027094005 0.016298017 -0.07606299
0.06586558 -0.087304644 0.033498574 0.0022259704 0.062136255 0.08322946 -0.05010035 -0.03155831
-0.049219865 -0.012967917 -0.021020787 -0.048709683 0.08087706 0.07617481 0.031955425 0.02891021
-0.006419211 -0.048432566 0.023532249 -0.09372379 -0.09789669 0.0063210996 -0.0029167545 0.08240542
-0.08552837 -0.07515346 0.011177012 0.036689777 0.07643074 0.07228358 0.07460707 0.01739724
0.05584674 -0.051125936 -0.056624424 -0.0041290363 -0.10887384 0.093972534 0.070228375 -0.056605868
0.09438754 -0.046438 -0.06491102 -0.027142612 0.09109278 -0.06621347 0.003652 -0.06684671
-0.082415886 -0.053397015 -0.042581875 -0.098191746 0.026665278 0.0073292074 0.082210645 -0.0064910585
-0.017165875 -0.09335195 -0.0845802 0.07738406 -0.028888788 0.03069107 0.040296678 -0.0023623006
0.09142942 0.06203683 0.03710523 0.080247134 0.08215703 -0.07901585 -0.028570523 -0.10506066
0.04025412 -0.054321077 0.06252309 -0.021372728 -0.015274577 -0.05094762 0.06685212 0.03389901
-0.036721542 0.015170608 0.0073637883 0.010302744 -0.09259802 -0.06596529 0.07618338 -0.0931627
-0.03653607 -0.041275516 -0.009486083 0.014202654 -0.038467392 0.008318799 -0.015453313 0.009180936
0.033632074 0.06439874 -0.03888925 -0.03149273 0.061574575 0.06767201 -0.059500355 -0.03499184
-0.09468961 -0.0059087733 -0.020430159 0.05580788 -0.10291279 0.08619785 0.04088835 0.086239874
0.08486905 -0.06197341 -0.0450917 -0.044899944 -0.044599723 -0.09840878 0.10316569 -0.025432814
-0.00481701 -0.08732324 -0.00823878 0.10152278 0.026254088 -0.055299822 -0.04535778 -0.030598827
-0.029826107 0.036680277 0.07641694 0.044838373 0.07963161 -0.08463402 0.08343679 0.027970495
00000000: 4822 c83d 4196 7dbd e138 f5bc d2e4 bc3d
00000010: 7d8b ab3d 9e18 f93c 45b7 d53d b8b1 653d
00000020: 84ec ca3b 29b9 773c 7780 bcbc e59c 923d
00000030: 5ce6 96bd 9441 cd3d 4ede 1b3c a818 683d
00000040: 251c 823d 7fcc b2bc d38b aa3d f338 92bd
00000050: e0b3 96bd a701 40bc 2c5b c4bc fbd9 04bc
00000060: 57b1 923d 39e3 6bbc ee9f 1dbc 091d cd3d
00000070: 0f88 15bb a5b3 e4ba a8fd ea3c db3e a93d
00000080: 077d a9bd 4d5d 92bd c593 513d d215 ac3d
00000090: 343d cfbd 2a69 aabd 06f1 a63d 3bf6 1fbc
000000a0: c05b aa3d aaa6 b4bd a137 363d e4bf 0a3d
000000b0: cde3 c33d 2794 31bd da57 d5bd 626e f53c
000000c0: 7986 eebc f459 cabd 8581 a83d 70dd 52bd
000000d0: 0ea9 623d ed75 7d3d a153 c1bd a76c c7bd
000000e0: 3608 003d e2ad 79bb 36af 013c 23f7 84bd
000000f0: 358c c9bd 5be3 4a3c fc85 c3bd 5f60 153b
00000100: dafc 8ebd 775c 563c 4a4a 5c3d 2921 923d
00000110: 84a1 343d 4cce 84bd 75d3 e3bc 0c2c 753d
00000120: e116 853c c6db 573d 1bd8 48ba ef97 d63d
00000130: b5c4 35bd 0416 8a3d bc23 cfbd 9e91 bebc
00000140: b721 aebd 4c72 08bd 0a9e bb3d 0c20 0b3c
00000150: 4c17 6cbc cbec 09bd b9eb 6b3d 556c 3abd
00000160: a501 39bc 6a24 3a3c 7542 1bbd 3564 8b3b
00000170: 5c60 fe3c 6b14 28bd 7d9b 863d 094a 183d
00000180: 8716 0a3d 9985 8b3d f24e 6ebc 6985 863d
00000190: ce83 bdbd 539e 703d 38d0 783d ce4e c6bd
000001a0: 4c2a 51bd 2f5b 9abd 7904 7bbd 80fd 4b3d
000001b0: c926 90bd 132e 73bb 022e 1cbd 25ed 523d
000001c0: abba be3d 8854 843d 9df6 cd3d 104d 9c3d
000001d0: 2b03 41bd 3ff4 dd3c 6b83 853c eac6 9bbd
000001e0: 89e4 863d c7cc b2bd cd35 093d 96e1 113b
000001f0: 9682 7e3d 3574 aa3d 0636 4dbd 4943 01bd
00000200: c59a 49bd 6377 54bc c933 acbc ce83 47bd
00000210: dfa2 a53d 8a01 9c3d b1e3 023d 1bd5 ec3c
00000220: 3f58 d2bb 3a61 46bd b4c6 c03c 42f2 bfbd
00000230: 0f7e c8bd 3a21 cf3b 0527 3fbb 2cc4 a83d
00000240: 8029 afbd 0fea 99bd c91f 373c 0548 163d
00000250: b887 9c3d 6a09 943d 97cb 983d a884 8e3c
00000260: 8dbf 643d 6e69 51bd 03ef 67bd de4c 87bb
00000270: 3ff9 debd ac74 c03d e5d3 8f3d 8edb 67bd
00000280: 414e c13d c635 3ebd 12f0 84bd 2f5a debc
00000290: da8e ba3d ee9a 87bd 6556 6f3b eee6 88bd
000002a0: a9c9 a8bd d4b6 5abd 556a 2ebd c118 c9bd
000002b0: 2471 da3c d929 f03b 0e5e a83d f2b2 d4bb
000002c0: 739f 8cbc 4f2f bfbd 6238 adbd 897b 9e3d
000002d0: 2ea8 ecbc d76b fb3c 210e 253d d4d0 1abb
000002e0: 593f bb3d 551a 7e3d a7fb 173d 9c58 a43d
000002f0: f241 a83d 10d3 a1bd bb0c eabc 0b2a d7bd
00000300: 81e1 243d c77f 5ebd 1b0c 803d dc15 afbc
00000310: 3842 7abc 74ae 50bd c4e9 883d b0d9 0a3d
00000320: 5469 16bd 248e 783c ef4b f13b d7cc 283c
00000330: 08a4 bdbd cf18 87bd 0806 9c3d 16cc bebd
00000340: d9a6 15bd 8410 29bd 846b 1bbc 40b2 683c
00000350: fc8f 1dbd 924b 083c e42f 7dbc a36b 163c
00000360: c9c1 093d 7de3 833d 564a 1fbd 85fe 00bd
00000370: 9f35 7c3d 9f97 8a3d a5b6 73bd 9b53 0fbd
00000380: a0ec c1bd 629e c1bb 265d a7bc ce96 643d
00000390: f1c3 d2bd 8088 b03d 8b7a 273d 889e b03d
000003a0: d3cf ad3d d5d7 7dbd 13b2 38bd 01e9 37bd
000003b0: 33ae 36bd 8b8a c9bd 8948 d33d 7a58 d0bc
000003c0: 02d8 9dbb 87d6 b2bd f3fb 06bc 2deb cf3d
000003d0: d012 d73c 1182 62bd 14c9 39bd 64aa fabc
000003e0: e155 f4bc 0f3e 163d 7c80 9c3d 71a8 373d
000003f0: e615 a33d 9a54 adbd e8e0 aa3d 6122 e53c

layer_stack.3.layer_stack.0.bias f4 [10]
0.034945015 -0.0057073142 -0.08925995 -0.07497288 0.039026387 0.04947287 -0.10281095 0.09072375
0.049337734 -0.0986011
00000000: 8122 0f3d 6c04 bbbb eccd b6bd 628b 99bd
00000010: 22da 1f3d 10a4 4a3d 8c8e d2bd 60cd b93d
00000020: 5d16 4a3d 60ef c9bd

layer_stack.3.layer_stack.2.weight f4 [10, 10, 1, 1]
0.15455312 0.18657865 0.02593087 -0.03850612 0.30670246 0.22625172 -0.117109485 -0.29938155
-0.06216255 -0.10703783 0.07895695 -0.2020412 -0.104831785 0.034127355 -0.25945422 -0.013373521
0.10491291 -0.25756952 0.0007946434 0.04077214 0.23825143 0.23606496 -0.024492191 0.013879651
-0.29095098 0.17440726 -0.2793214 0.08867675 -0.04932971 0.13419722 -0.21426268 0.10727533
0.30946702 -0.19096544 -0.047496233 0.06439056 -0.30138895 0.25938147 0.2634499 0.13536765
0.18544187 -0.07641795 0.20757796 0.16949444 0.24917871 -0.24623005 -0.24010462 0.25019217
-0.09577827 0.31437176 0.1805659 -0.112393595 -0.19615798 -0.25621206 0.08795769 0.2932374
-0.27572742 0.18231754 0.28173152 0.046514645 0.061016113 0.2882759 -0.2531732 -0.016897809
0.10983274 -0.2945791 0.14264262 -0.00479125 -0.14833766 0.20594032 0.20612974 -0.2365199
-0.23110345 0.095654115 -0.025948212 0.29426536 0.28666955 0.12989724 -0.27227402 -0.20940708
0.1892815 0.15990618 -0.22212346 0.20769784 -0.06937436 0.070493035 0.08956118 0.19339496
0.005413186 0.19870515 0.112543605 0.2735325 -0.028268177 0.08081326 0.1301112 -0.1364214
-0.10968821 -0.2502053 -0.1376952 -0.08278049
00000000: 2c43 1e3e 790e 3f3e fa6c d43c 98b8 1dbd
00000010: 1b08 9d3e 88ae 673e 19d7 efbd 8a48 99be
00000020: 289e 7ebd a636 dbbd 2eb4 a13d e3e3 4ebe
00000030: 0cb2 d6bd 20c9 0b3d 2fd7 84be 9d1c 5bbc
00000040: 94dc d63d 27e0 83be 9e4f 503a b000 273d
00000050: 2ff8 733e 03bb 713e d9a3 c8bc 7a67 633c
00000060: 87f7 94be d197 323e 3703 8fbe 289c b53d
00000070: f30d 4abd ff6a 093e ad67 5bbe 2bb3 db3d
00000080: 7672 9e3e 728c 43be 698b 42bd 33df 833d
00000090: a74f 9abe a6cd 843e e8e2 863e d19d 0a3e
000000a0: 79e4 3d3e 0481 9cbd 518f 543e f38f 2d3e
000000b0: b428 7f3e bb23 7cbe fcdd 75be 3019 803e
000000c0: 6627 c4bd 56f5 a03e 44e6 383e 9d2e e6bd
000000d0: a3dd 48be 3a2e 83be 2923 b43d 3623 963e
000000e0: 252c 8dbe 73b1 3a3e 1d3f 903e 2486 3e3d
000000f0: 08ec 793d e698 933e eb9f 81be 466d 8abc
00000100: fdef e03d 12d3 96be e810 123e ebff 9cbb
00000110: d4e5 17be 05e2 523e ad13 533e 4632 72be
00000120: 62a6 6cbe 4ee6 c33d 5891 d4bc f3a9 963e
00000130: 5ac6 923e c803 053e 8067 8bbe cf6e 56be
00000140: 02d3 413e 72be 233e 5574 63be beae 543e
00000150: 2514 8ebd a75e 903d da6b b73d 5409 463e
00000160: 1861 b13b 5d79 4b3e 437d e63d 740c 8c3e
00000170: aa92 e7bc 6c81 a53d df3b 053e 0db2 0bbe
00000180: 36a4 e0bd e91a 80be f8ff 0cbe d188 a9bd

layer_stack.3.layer_stack.2.bias f4 [10]
0.11918623 0.09204621 -0.017090784 0.09395267 0.005106738 -0.29597786 -0.15331626 -0.08609717
0.11940445 0.16043444
00000000: e917 f43d b982 bc3d f901 8cbc 426a c03d
00000010: 6c56 a73b 698a 97be f0fe 1cbe b753 b0bd
00000020: 528a f43d ed48 243e

layer_stack.3.layer_stack.4.weight f4 [10, 10, 1, 1]
-0.298875 0.27261472 -0.09418556 -0.077786624 0.06387061 0.24616344 -0.01392191 0.24784029
-0.24674197 -0.053244207 0.28474092 0.18821836 -0.072973005 0.23906952 0.18074474 -0.27714306
-0.017355002 0.013371378 -0.2224914 -0.14117892 0.27028868 -0.006538142 -0.11791334 -0.24866398
0.16132686 0.0730486 0.2613382 0.2506465 0.1042307 -0.23023075 -0.17750615 0.23094745
-0.14159074 0.2835361 -0.28407195 -0.040360034 -0.13243634 0.25117254 0.07639779 0.21870175
-0.24742512 -0.014770813 -0.008748378 -0.10943876 -0.16901626 -0.0018805292 0.066351295 -0.051877763
0.04836515 0.079579994 -0.0073598674 0.16272467 -0.019554375 -0.10086478 0.23049094 0.020865109
0.065911144 -0.20861253 -0.15006822 -0.10153534 -0.14251441 0.17281447 0.09329939 -0.028054623
0.2918668 0.19254553 -0.11836232 -0.01787824 0.30956045 0.25331008 0.1820622 -0.21174628
0.010941933 -0.20088224 0.11485099 -0.23863834 -0.09600206 0.3061828 0.01382523 0.2639808
-0.123605005 -0.20025098 0.14219102 0.1543479 -0.12796795 0.20003949 -0.104892135 -0.30751106
0.21211976 0.13695933 0.0043641017 0.08643973 -0.11150492 -0.24385835 -0.22058915 0.051467203
-0.25446567 0.11454694 -0.28582442 -0.006911986
00000000: 2506 99be 2894 8b3e 5ce4 c0bd 984e 9fbd
00000010: 98ce 823d 4512 7c3e b918 64bc d8c9 7d3e
00000020: eda9 7cbe 9916 5abd 90c9 913e 50bc 403e
00000030: df72 95bd a4ce 743e 2615 393e b2e5 8dbe
00000040: 142c 8ebc a013 5b3c c9d4 63be 3591 10be
00000050: 4763 8a3e e93d d6bb 8d7c f1bd c5a1 7ebe
00000060: de32 253e 819a 953d 1fce 853e bd54 803e
00000070: e876 d53d 9cc1 6bbe 2cc4 35be 7d7d 6c3e
00000080: 2afd 10be a52b 913e e171 91be 9050 25bd
00000090: 649d 07be b099 803e 7276 9c3d 5af3 5f3e
000000a0: 035d 7dbe 4801 72bc 5b55 0fbc 6e21 e0bd
000000b0: 9912 2dbe 177c f6ba 30e3 873d c77d 54bd
000000c0: 891a 463d d6fa a23d 0b2b f1bb 4ca1 263e
000000d0: 7f30 a0bc 3292 cebd d105 6c3e 4eed aa3c
000000e0: 6cfc 863d 869e 55be 7cab 19be c3f1 cfbd
000000f0: 4cef 11be 47f6 303e c013 bf3d cfd2 e5bc
00000100: 916f 953e a82a 453e f267 f2bd 6375 92bc
00000110: b57e 9e3e dcb1 813e 836e 3a3e 04d4 58be
00000120: cb45 333c 13b4 4dbe ff36 eb3d 9c5d 74be
00000130: ba9c c4bd fec3 9c3e 3883 623c 7e28 873e
00000140: 9f24 fdbd 980e 4dbe 869a 113e 600d 1e3e
00000150: 080a 03be 27d7 4c3e b0d1 d6bd 1772 9dbe
00000160: ec35 593e 113f 0c3e bd00 8f3b 5007 b13d
00000170: b15c e4bd 01b6 79be 1fe2 61be 46cf 523d
00000180: 5349 82be 9697 ea3d 9457 92be f17d e2bb

layer_stack.3.layer_stack.4.bias f4 [10]
0.050190255 -0.035609584 -0.2936742 -0.08231613 0.02527072 -0.15173931 -0.27901995 -0.027331702
-0.045083195 -0.31442037
00000000: 4c94 4d3d 5bdb 11bd 775c 96be 5c95 a8bd
00000010: 8a04 cf3c 8d61 1bbe b4db 8ebe bce6 dfbc
00000020: 28a9 38bd b5fb a0be
