state_tests/nets/dubconv4.pth (torch, 26371 bytes, 18 tensors)

layer_stack.0.layer_stack.0.weight f4 [24, 1, 3, 3]
0.28517213 0.31285354 -0.14060049 0.12506583 0.04474974 0.06676862 -0.10023946 -0.07519321
-0.049561813 -0.092610285 0.30983484 -0.072249815 -0.29586685 -0.3158613 -0.0950404 -0.037832752
-0.028693208 0.29141325 0.12870328 -0.3042212 -0.27897432 -0.0816846 -0.26369733 -0.15047416
-0.13706705 -0.07649255 -0.22544762 0.057860713 0.12674792 -0.30828682 0.14383611 -0.18698223
0.19158554 0.19560762 -0.07132157 -0.1778066 0.0148232 -0.012975355 -0.15473542 -0.20780995
-0.2611929 0.004287081 -0.051015567 0.24619159 0.2400591 0.045257293 -0.2894839 -0.061851654
-0.07101223 0.24054737 0.019401183 -0.26774618 0.11824245 0.23048851 0.16803102 0.09020834
-0.21333855 -0.19597265 -0.060782686 -0.1987258 0.24200846 0.2752789 0.28068098 -0.22352572
-0.2930192 -0.295624 0.10838487 0.31816864 0.23652036 -0.050020956 -0.037285093 0.28592944
-0.2732504 -0.16591386 0.12101564 0.0021341557 -0.27687785 -0.17320396 -0.050844483 -0.13306756
0.1689229 0.035411194 -0.11550641 -0.115981564 0.24769539 0.1744414 0.2582962 0.07405287
-0.25356162 -0.17044123 -0.24178751 0.18487515 -0.27283484 -0.12904227 -0.045498878 0.30156067
0.17108083 0.06317557 -0.27521777 0.13898519 0.32279456 -0.1536709 -0.17512009 0.007282826
-0.16109504 0.049354874 0.17694077 -0.18439919 -0.023965953 0.21995758 0.13526927 -0.19746341
-0.1987327 -0.033833526 -0.15483712 -0.04720548 -0.29104418 -0.048599843 -0.114346884 -0.026653906
0.0790718 0.1779022 -0.057366453 0.19722952 0.2001686 -0.3208848 -0.24918683 -0.057638496
-0.16298364 -0.024375789 -0.22163554 -0.10616254 0.09453743 -0.21643454 -0.29317728 -0.18263756
0.026357478 0.00016629667 0.08673129 -0.11010901 0.30736515 0.29662332 0.111954786 -0.19494027
-0.15156291 0.21592773 0.16779013 -0.24458043 -0.10575163 -0.05339213 0.17318147 -0.04742291
-0.24668759 0.13299088 -0.33302012 0.027778216 -0.18244193 0.2234242 0.26557803 0.30322567
0.29904994 -0.21183741 -0.22432858 -0.28250453 -0.2981714 0.03372442 0.27410126 -0.115291126
-0.27117547 -0.044063628 0.28124774 -0.1860721 0.026128134 0.18848282 0.022507736 -0.3228356
0.018669875 0.15710862 -0.31521577 0.14022674 0.033211898 0.019376975 -0.25391173 0.18366122
-0.052340873 -0.12039572 0.19164096 0.21503334 0.03270836 0.09006418 -0.1370561 0.33139795
-0.0926072 0.17528068 0.2866155 -0.012045443 -0.17029311 -0.24823996 -0.16217089 -0.1648067
0.021115271 0.12825772 -0.09044456 0.2198957 0.06281482 -0.07722991 0.17314053 -0.10603999
-0.17730878 0.24840447 0.070014454 0.10461613 -0.30711454 0.26927602 -0.20134397 0.030968754
00000000: 1502 923e 572e a03e 93f9 0fbe 4211 003e
00000010: 814b 373d fcbd 883d 594a cdbd e6fe 99bd
00000020: 5401 4bbd 76aa bdbd aca2 9e3e b6f7 93bd
00000030: dc7b 97be 93b8 a1be 8ba4 c2bd 84f6 1abd
00000040: 050e ebbc 1e34 953e cbca 033e e2c2 9bbe
00000050: b9d5 8ebe 414a a7bd 5603 87be e615 1abe
00000060: 4e5b 0cbe 20a8 9cbd bedb 66be 5bff 6c3d
00000070: 35ca 013e c5d7 9dbe c649 133e 4578 3fbe
00000080: 002f 443e 5d4d 483e 0b11 92bd ef12 36be
00000090: 02dd 723c 9596 54bc f672 1ebe 22cc 54be
000000a0: 13bb 85be a47a 8c3b b3f5 50bd a619 7c3e
000000b0: 0dd2 753e b65f 393d 3c37 94be 2958 7dbd
000000c0: dc6e 91bd 0d52 763e 3bef 9e3c 0716 89be
000000d0: 1929 f23d 2e05 6c3e 5310 2c3e 26bf b83d
000000e0: 6c75 5abe 0ead 48be 44f7 78bd c77e 4bbe
000000f0: 11d1 773e 5bf1 8c3e 6bb5 8f3e ede3 64be
00000100: 9d06 96be 075c 97be e3f8 dd3d 00e7 a23e
00000110: 6532 723e c6e2 4cbd 41b8 18bd 5865 923e
00000120: 7ae7 8bbe 53e5 29be 0cd7 f73d 31dd 0b3b
00000130: efc2 8dbe 615c 31be 4e42 50bd dd42 08be
00000140: 20fa 2c3e 540b 113d a08e ecbd be87 edbd
00000150: dca3 7d3e c4a0 323e 663f 843e 08a9 973d
00000160: d4d2 81be 2588 2ebe 2597 77be e94f 3d3e
00000170: 02b1 8bbe a823 04be 085d 3abd 2966 9a3e
00000180: d02f 2f3e 3162 813d 58e9 8cbe 2252 0e3e
00000190: 5445 a53e e85b 1dbe ae52 33be c6a4 ee3b
000001a0: 19f6 24be 5628 4a3d f62f 353e 24d3 3cbe
000001b0: 3f54 c4bc 8f3c 613e 0784 0a3e d933 4abe
000001c0: 9680 4bbe 0695 0abd 9f8d 1ebe 895a 41bd
000001d0: be03 95be a110 47bd b32e eabd 4b59 dabc
000001e0: 65f0 a13d ff2b 363e 16f9 6abd 89f6 493e
000001f0: fff8 4c3e 034b a4be d52a 7fbe 5816 6cbd
00000200: 2fe5 26be bcaf c7bc 6df4 62be bf6b d9bd
00000210: d79c c13d 04a1 5dbe 551b 96be 5705 3bbe
00000220: a3eb d73c ec5f 2e39 2da0 b13d d580 e1bd
00000230: f75e 9d3e 03df 973e 8d48 e53d 6c9e 47be
00000240: 4f33 1bbe 291c 5d3e 2dd1 2b3e 4b73 7abe
00000250: 5094 d8bd b5b1 5abd 7c56 313e 863e 42bd
00000260: ac9b 7cbe c32e 083e 9d81 aabe 248f e33c
00000270: 0fd2 3abe 50c9 643e d8f9 873e 6540 9b3e
00000280: 131d 993e e8eb 58be 64b6 65be 6fa4 90be
00000290: eca9 98be 9e22 0a3d 0057 8c3e c11d ecbd
000002a0: 83d7 8abe 107c 34bd b4ff 8f3e af89 3ebe
000002b0: ab0a d63c a401 413e 2562 b83c b54a a5be
000002c0: 91f1 983c 15e1 203e f663 a1be 9997 0f3e
000002d0: 3309 083d 76bc 9e3c b800 82be b011 3c3e
000002e0: 6263 56bd 0892 f6bd 873d 443e b331 5c3e
000002f0: 34f9 053d 9273 b83d 6f58 0cbe feac a93e
00000300: d8a8 bdbd c77c 333e 44bf 923e 405a 45bc
00000310: 5161 2ebe 9e32 7ebe 2010 26be 16c3 28be
00000320: eff9 ac3c fe55 033e ff3a b9bd 572c 613e
00000330: 0ea5 803d b72a 9ebd c04b 313e 7f2b d9bd
00000340: 6f90 35be be5d 7e3e bd63 8f3d fb40 d63d
00000350: 1e3e 9dbe 8cde 893e 1d2d 4ebe 2fb2 fd3c

layer_stack.0.layer_stack.0.bias f4 [24]
0.04539254 0.113374606 0.044747435 0.27765915 0.07298896 -0.01018145 -0.27118903 0.14287874
0.18950666 -0.31300393 -0.0139783295 -0.19635378 -0.24788684 -0.019278603 0.2961145 0.23288056
-0.17352457 0.0052198274 0.29188225 0.28394616 0.2681907 -0.1874396 -0.06627108 0.06848147
00000000: 87ed 393d f230 e83d 1649 373d 5729 8e3e
00000010: 3c7b 953d 19d0 26bc 4ad9 8abe ce4e 123e
00000020: 090e 423e 0d42 a0be 5d05 65bc f710 49be
00000030: 0cd6 7dbe 29ee 9dbc 529c 973e 3e78 6e3e
00000040: 6db0 31be 160b ab3b 9771 953e 6461 913e
00000050: 4b50 893e 2bf0 3fbe 22b9 87bd 0340 8c3d

layer_stack.0.layer_stack.2.weight f4 [24, 24, 1, 1]
0.1955412 -0.09061288 -0.19854963 0.06919378 0.030580197 -0.04632831 0.03152745 -0.0673369
0.15292443 -0.050503645 0.011233093 0.13724007 0.06062039 -0.10749186 -0.10997902 -0.054756258
0.065160744 -0.17512383 0.015330088 0.057936776 0.121840775 0.003945849 -0.184221 -0.08531409
-0.0788369 -0.15171635 0.11713777 0.1044222 0.016445905 0.09123674 0.11127854 0.07017931
0.03085065 0.17952192 0.19275126 0.17260844 -0.014130988 0.045067813 0.15999635 -0.1296181
0.007995237 0.03669983 0.19526091 -0.15248127 -0.1915353 -0.12476231 0.02954385 0.056646917
-0.18134534 0.10055776 0.025328733 0.13488209 0.08563004 0.15178753 0.16493279 0.19701272
0.15831397 0.20173308 0.073299095 0.0064920597 -0.18977866 0.16638064 0.17127591 -0.17103727
0.14570278 -0.059599575 0.16969703 -0.06898333 -0.17229453 -0.15275514 -0.12570503 0.10355157
0.022192296 0.13246207 0.093062006 -0.14880307 -0.15126608 -0.18348154 -0.056684032 0.12162336
-0.20214532 -0.083248466 0.12027504 -0.15859304 -0.029728657 -0.17442407 0.18232481 0.025073951
-0.08258359 0.06477441 -0.11590944 -0.20307426 -0.005321155 -0.086119875 0.18996614 -0.086903185
0.030536404 -0.10566661 -0.059505105 -0.14373386 0.024170488 0.14373328 0.06344523 0.07645534
0.08914321 0.12794758 0.19732134 0.075880304 -0.06301667 0.09634578 0.14935504 -0.0111775845
0.067527734 0.0027309086 0.0036119146 0.0068581873 -0.17929259 -0.18215322 -0.09048942 -0.07249566
0.044905964 -0.16532175 -0.15159748 0.15667331 -0.027884463 0.13049194 0.16854966 -0.13360119
0.08429026 0.15091327 -0.0617342 0.03269434 -0.16998565 0.11038224 -0.09491495 -0.018460585
-0.13864355 -0.021854697 -0.02031599 -0.13868184 -0.1838364 -0.014535227 0.02378666 -0.18461248
0.048916902 -0.18567477 0.048040148 0.06923612 -0.143243 -0.18832237 -0.14931726 -0.1637011
-0.12038106 -0.19892746 0.055110767 -0.055884913 -0.19340372 0.071745604 -0.19824497 -0.10350423
-0.06955858 -0.19036058 0.032810412 0.09035581 0.097636946 -0.02455738 0.04873033 -0.16086377
-0.08272924 0.18959567 0.056465548 0.09982974 -0.06781064 -0.074521564 0.13486424 -0.06885446
-0.08288332 -0.0715177 0.0057245125 0.08109583 -0.06945876 -0.07697195 0.07800268 -0.11030475
0.13526712 -0.012085407 0.13078895 0.1727607 -0.11031504 -0.075945176 0.039878026 -0.09447533
0.19959202 -0.13935943 0.15040372 0.12391274 0.092331216 0.016335469 0.010397602 0.11543421
0.12910275 -0.07142973 -0.07107182 0.08279805 -0.13746333 -0.111389555 -0.14982748 0.06435835
0.09573985 0.15510446 0.04941885 0.09955402 -0.00033560433 0.19999267 -0.13619663 -0.03350068
0.16145547 -0.06098876 -0.18799917 -0.11444559 0.038235474 0.0518894 -0.18372343 0.007199058
-0.092899665 0.062438123 -0.043723788 0.12918042 -0.06972034 -0.018130772 0.0007523201 -0.1313051
0.14304182 -0.030965928 0.004926715 0.18574485 -0.020600593 -0.068954505 -0.015500872 -0.045198444
0.084654704 -0.074109204 -0.20372334 -0.18007928 0.20393668 0.10338608 -0.025850998 -0.07522803
0.10329734 -0.16873747 0.10536345 -0.09053606 -0.1694314 -0.15034452 0.02785721 -0.060680896
00000000: f43b 483e 3f93 b9bd 9850 4bbe 78b5 8d3d
00000010: 5283 fa3c c1c2 3dbd ed22 013d eee7 89bd
00000020: 3998 1c3e e9dc 4ebd 020b 383c a988 0c3e
00000030: 164d 783d b124 dcbd ae3c e1bd 1948 60bd
00000040: ff72 853d a953 33be 0d2b 7b3c 1d4f 6d3d
00000050: a887 f93d 2e4c 813b 6ea4 3cbe 27b9 aebd
00000060: 3e75 a1bd 885b 1bbe ede5 ef3d 4edb d53d
00000070: 90b9 863c 54da ba3d 01e6 e33d 2cba 8f3d
00000080: 81ba fc3c 98d4 373e 9660 453e 44c0 303e
00000090: a985 67bc 0799 383d 15d6 233e 9bba 04be
000000a0: 74fe 023c 9052 163d 7af2 473e 0d24 1cbe
000000b0: d421 44be 6283 ffbd f205 f23c 9906 683d
000000c0: 98b2 39be 3af1 cd3d 347e cf3c 881e 0a3e
000000d0: cd5e af3d 316e 1b3e 24e4 283e b4bd 493e
000000e0: 0f1d 223e 1e93 4e3e d61d 963d 58bb d43b
000000f0: 5655 42be b05f 2a3e f462 2f3e 6524 2fbe
00000100: 1c33 153e af1e 74bd 0fc5 2d3e 2247 8dbd
00000110: fa6d 30be d86b 1cbe d2b8 00be d812 d43d
00000120: 9ecc b53c 23a4 073e 4b97 be3d d55f 18be
00000130: 7fe5 1abe 96e2 3bbe 842d 68bd ab15 f93d
00000140: 2fff 4ebe 2c7e aabd c352 f63d 3766 22be
00000150: 8389 f3bc 399c 32be 5bb3 3a3e e367 cd3c
00000160: 9621 a9bd 72a8 843d ee61 edbd b3f2 4fbe
00000170: 155d aebb 9e5f b0bd 7c86 423e 4cfa b1bd
00000180: 7b27 fa3c bc67 d8bd a0bb 73bd f82e 13be
00000190: 3001 c63c d12e 133e 93ef 813d 9e94 9c3d
000001a0: b790 b63d b104 033e 9b0e 4a3e 2267 9b3d
000001b0: e20e 81bd f050 c53d 87f0 183e 3022 37bc
000001c0: fb4b 8a3d 0bf9 323b dfb5 6c3b a5ba e03b
000001d0: 7a98 37be 6086 3abe 8452 b9bd 9b78 94bd
000001e0: 51ef 373d 1b4a 29be 5f3c 1bbe f86e 203e
000001f0: f56d e4bc ae9f 053e 4898 2c3e c0ce 08be
00000200: 5fa0 ac3d 0289 1a3e 00dd 7cbd 80ea 053d
00000210: b810 2ebe 1510 e23d c562 c2bd a73a 97bc
00000220: 93f8 0dbe 9f08 b3bc b86d a6bc 9d02 0ebe
00000230: 9c3f 3cbe 2925 6ebc 3edc c23c 0e0b 3dbe
00000240: 175d 483d 8721 3ebe bfc5 443d abcb 8d3d
00000250: 4bae 12be 94d7 40be a0e6 18be 43a1 27be
00000260: 588a f6bd a4b3 4bbe d4bb 613d 94e7 64bd
00000270: a00b 46be 5cef 923d bb00 4bbe 07fa d3bd
00000280: bb74 8ebd e2ed 42be 3664 063d 780c b93d
00000290: e1f5 c73d 8f2c c9bc 7499 473d 79b9 24be
000002a0: f36d a9bd 5e25 423e 6b48 673d 8973 cc3d
000002b0: 4ee0 8abd c39e 98bd da19 0a3e 9103 8dbd
000002c0: bbbe a9bd df77 92bd b194 bb3b 9215 a63d
000002d0: 6540 8ebd 78a3 9dbd debf 9f3d 75e7 e1bd
000002e0: 7783 0a3e df01 46bc 8aed 053e 2ee8 303e
000002f0: daec e1bd 2589 9bbd 2457 233d 487c c1bd
00000300: da61 4c3e 3db4 0ebe 6f03 1a3e f6c5 fd3d
00000310: 2618 bd3d f6d1 853c b45a 2a3c c568 ec3d
00000320: 8333 043e c049 92bd 1a8e 91bd 0692 a93d
00000330: 30c3 0cbe 3520 e4bd 606c 19be 50ce 833d
00000340: 4113 c43d b4d3 1e3e 6c6b 4a3d fae2 cb3d
00000350: 0df4 afb9 e1ca 4c3e 2177 0bbe 0238 09bd
00000360: 9554 253e 5acf 79bd db82 40be 7362 eabd
00000370: cd9c 1c3d fb89 543d ff21 3cbe 13e6 eb3b
00000380: 2e42 bebd 1ebf 7f3d b717 33bd df47 043e
00000390: 8ac9 8ebd fc86 94bc 5937 453a d874 06be
000003a0: 8e79 123e 42ac fdbc 4870 a13b e633 3e3e
000003b0: 93c2 a8bc 0538 8dbd 5ff7 7dbc 0122 39bd
000003c0: 725f ad3d 91c6 97bd da9c 50be b466 38be
000003d0: c7d4 503e 15bc d33d 79c5 d3bc 2711 9abd
000003e0: 8e8d d33d 84c9 2cbe cbc8 d73d f86a b9bd
000003f0: 6d7f 2dbe eaf3 19be ce34 e43c 888c 78bd

layer_stack.0.layer_stack.2.bias f4 [24]
0.14253835 0.17578873 0.19481406 0.1105835 -0.19204897 -0.13871284 -0.16974628 0.10048211
-0.009784843 -0.0165693 0.1994257 -0.064399086 -0.16149306 0.01854767 0.11269515 0.105982766
0.17512704 0.11953508 0.14569171 0.1280176 0.15860952 0.14819989 -0.15053314 -0.1743459
00000000: 93f5 113e f601 343e 567d 473e 9a79 e23d
00000010: 7ca8 44be bd0a 0ebe f8d1 2dbe 91c9 cd3d
00000020: 9b50 20bc 57bc 87bc 4036 4c3e abe3 83bd
00000030: 705e 25be 49f1 973c b7cc e63d 7e0d d93d
00000040: 8154 333e cfce f43d 3530 153e 0c17 033e
00000050: 896a 223e b6c1 173e 5c25 1abe bb87 32be

layer_stack.0.layer_stack.4.weight f4 [24, 24, 1, 1]
0.06168285 -0.11469065 -0.08276544 -0.05359886 0.19468808 0.13814485 0.1338184 0.18264192
0.09844671 0.1705299 0.09041492 -0.12848021 -0.020961586 -0.10713043 -0.027632277 0.1305632
0.014804745 -0.087655574 0.12014944 0.1278458 -0.09737243 0.19596764 -0.19475338 -0.05043813
0.11255779 0.049007893 -0.13574149 0.009418036 0.04382145 0.0628471 -0.07831293 -0.13558884
-0.14302933 -0.030596985 0.18785964 -0.025865814 0.06972975 0.09049604 -0.09225827 0.034398388
-0.1669612 -0.09193082 -0.058580242 0.15777393 -0.073037855 -0.05739157 -0.045839056 0.1592996
0.15002653 0.10015372 -0.09756113 -0.018805282 -0.009368151 -0.08092554 -0.0794967 0.055519674
0.10942327 -0.039849333 0.11224624 -0.04091245 0.030416079 -0.1489053 0.04737558 0.104233265
-0.06835519 -0.05119219 -0.16584128 0.0018394591 -0.045874555 0.17286667 -0.18730637 0.021475075
-0.17902723 0.056362987 0.17233908 0.13106443 0.14291045 -0.13118951 -0.07707262 -0.08354938
-0.1811053 0.16011116 -0.0049897493 -0.18365923 0.09956103 -0.013750882 -0.16987836 -0.038508292
-0.036232177 0.07166024 -0.19455145 -0.11570201 0.052056275 0.20246977 -0.15630832 0.106238194
-0.18002033 0.19773088 -0.0394625 -0.1924538 0.15774213 0.12737723 0.15727639 0.18417463
0.09014534 0.132799 0.05622188 0.12600769 0.18287168 -0.0774685 -0.14052913 -0.16190687
-0.12510097 -0.14788489 0.09259673 0.15342522 0.0064437916 0.14801493 0.109486006 -0.09706941
-0.11543466 0.059270076 -0.037175283 -0.12747185 0.095006846 0.072361074 0.10812136 0.17130157
0.0047472776 0.058636155 0.07391782 0.08766037 -0.027836537 -0.05761924 -0.19005662 -0.19806428
0.11092494 -0.10487063 -0.15773293 0.0010771499 -0.038683377 0.120629705 -0.05334401 -0.023765454
-0.026447808 -0.19510877 0.018123765 -0.03932283 0.01155569 -0.16494295 0.0005239124 0.06604717
0.19454929 0.12856877 -0.05503116 0.049805902 0.061262656 -0.15937747 -0.05448252 -0.029794129
-0.036887113 -0.085540555 0.024580412 0.020984782 0.20274419 0.060686022 0.17022048 0.13207756
-0.06513444 -0.14999166 0.066701815 0.14239821 -0.06194544 0.19865437 -0.03804683 0.15515397
0.078439996 -0.04741199 -0.037376627 0.08693265 0.09745886 0.03210398 -0.14662573 -0.09362858
0.018956998 -0.15231511 -0.07578361 0.083131306 -0.05542787 0.07429188 0.13926674 -0.124715514
-0.14167544 0.07750437 -0.08099141 -0.20299742 0.16883218 0.0122090075 -0.008477777 0.059648614
0.09342227 0.09439211 -0.05788061 0.08994386 0.18742774 0.09858553 -0.115630314 0.15696432
0.09129801 0.12492298 -0.047653373 0.06825248 -0.12611829 0.12881225 0.1658534 -0.19264057
0.09977643 -0.09089575 0.10768594 -0.023057146 0.18801725 -0.10232298 -0.1129346 -0.0423146
0.09294027 0.0780865 -0.12425027 -0.07807166 0.18015972 -0.083919615 0.028880222 0.045853607
0.06320602 0.10531074 0.06193625 0.009717904 0.065240435 0.17579141 -0.100279815 -0.14894097
0.1657267 0.08031783 -0.18410467 -0.15203848 -0.032047763 -0.19407915 -0.008768976 0.17052731
0.07905363 -0.14643018 -0.113387085 0.03765927 -0.14055693 0.035817906 0.16161439 -0.016785162
00000000: 28a7 7c3d eee2 eabd ed80 a9bd 7a8a 5bbd
00000010: 505c 473e d875 0d3e b107 093e 7c06 3b3e
00000020: 6e9e c93d 649f 2e3e 752b b93d 5190 03be
00000030: a2b7 abbc 3367 dbbd 165d e2bc 5cb2 053e
00000040: 9a8f 723c c484 b3bd e910 f63d 02ea 023e
00000050: 326b c7bd beab 483e 6e6d 47be 3698 4ebd
00000060: b384 e63d 80bc 483d d1ff 0abe 1b4e 1a3c
00000070: 1f7e 333d fbb5 803d 8862 a0bd cdd7 0abe
00000080: 4876 12be 87a6 fabc 475e 403e 8be4 d3bc
00000090: 79ce 8e3d fd55 b93d e7f1 bcbd 53e5 0c3d
000000a0: e0f7 2abe 3a46 bcbd d6f1 6fbd 7d8f 213e
000000b0: df94 95bd 6c13 6bbd bcc1 3bbd 6f1f 233e
000000c0: 8ea0 193e 651d cd3d 21ce c7bd 890d 9abc
000000d0: e07c 19bc 4abc a5bd 2acf a2bd 9968 633d
000000e0: 4f19 e03d 0e39 23bd 5be1 e53d d093 27bd
000000f0: 242b f93c a27a 18be e50c 423d 4078 d53d
00000100: cefd 8bbd e7ae 51bd 4cd2 29be 011a f13a
00000110: f5e6 3bbd f603 313e 3ecd 3fbe 7fec af3c
00000120: ea52 37be e0dc 663d a879 303e c135 063e
00000130: 1e57 123e 8b56 06be 40d8 9dbd f01b abbd
00000140: ab73 39be 2ef4 233e 0d81 a3bb 2a11 3cbe
00000150: a7e6 cb3d 614b 61bc 98f4 2dbe dfba 1dbd
00000160: 3168 14bd 9bc2 923d 7f38 47be 2df5 ecbd
00000170: f638 553d 3c54 4f3e 4a0f 20be 6993 d93d
00000180: 4057 38be f779 4a3e 6ea3 21bd 9c12 45be
00000190: 2787 213e 2d6f 023e 100d 213e 4698 3c3e
000001a0: 1f9e b83d 76fc 073e ea48 663d 2908 013e
000001b0: b742 3b3e cea7 9ebd dee6 0fbe eaca 25be
000001c0: 781a 00be 236f 17be 5ba3 bd3d 801b 1d3e
000001d0: 7126 d33b 3a91 173e 333a e03d 54cc c6bd
000001e0: 0269 ecbd 2ec5 723d 1c45 18bd fb87 02be
000001f0: f392 c23d 0b32 943d bb6e dd3d ae69 2f3e
00000200: 0d8f 9b3b 772c 703d 3a62 973d 4887 b33d
00000210: 7309 e4bc 2702 6cbd 349e 42be 5dd1 4abe
00000220: 9d2c e33d 6ac6 d6bd be84 21be 272f 8d3a
00000230: 7672 1ebd b50c f73d 407f 5abd c5af c2bc
00000240: 13a9 d8bc 98ca 47be 4a78 943c fa10 21bd
00000250: 1454 3d3c cee6 28be 2a57 093a bd43 873d
00000260: ee37 473e 88a7 033e 5b68 61bd 4601 4c3d
00000270: 8dee 7a3d d933 23be 1029 5fbd d112 f4bc
00000280: f116 17bd e32f afbd dc5c c93c 47e8 ab3c
00000290: 2c9c 4f3e e891 783d 474e 2e3e 573f 073e
000002a0: 3565 85bd 6a97 19be f69a 883d d6d0 113e
000002b0: 80ba 7dbd 0d6c 4b3e fed6 1bbd afe0 1e3e
000002c0: 26a5 a03d 1333 42bd 3c18 19bd bf09 b23d
000002d0: 8398 c73d 777f 033d 0e25 16be 57c0 bfbd
000002e0: b54b 9b3c 7ef8 1bbe 7034 9bbd bf40 aa3d
000002f0: 5608 63bd 5726 983d f19b 0e3e d96a ffbd
00000300: 5e13 11be 9cba 9e3d d3de a5bd 8ede 4fbe
00000310: 58e2 2c3e 4a08 483c 60e6 0abc 1b52 743d
00000320: 2d54 bf3d a750 c13d 3814 6dbd 7d34 b83d
00000330: 0fed 3f3e 36e7 c93d 96cf ecbd 41bb 203e
00000340: 73fa ba3d 9fd7 ff3d 2f30 43bd f5c7 8b3d
00000350: 2725 01be 5ce7 033e 79d5 293e 9243 45be
00000360: 9657 cc3d 8d27 babd 728a dc3d 57e2 bcbc
00000370: 9887 403e b68e d1bd 414a e7bd 1352 2dbd
00000380: 7857 be3d d1eb 9f3d ed76 febd 09e4 9fbd
00000390: ca7b 383e 0cde abbd 3796 ec3c fed0 3b3d
000003a0: 2872 813d 28ad d73d deb0 7d3d d837 1f3c
000003b0: c79c 853d aa02 343e 815f cdbd fb83 18be
000003c0: 43b4 293e ad7d a43d ef85 3cbe faaf 1bbe
000003d0: 8444 03bd afbc 46be c0ab 0fbc b69e 2e3e
000003e0: dfe6 a13d cbf1 15be 7d37 e8bd 9b40 1a3d
000003f0: 28ee 0fbe ccb5 123d 3e7e 253e 0981 89bc

layer_stack.0.layer_stack.4.bias f4 [24]
0.1379005 0.17935267 -0.018561732 -0.14893946 0.17972922 0.0229319 0.05126581 -0.19321401
0.14117834 -0.163129 0.075242534 -0.20031823 0.124269865 0.021695897 -0.17661275 -0.035574414
-0.20237769 -0.17532563 -0.06858413 -0.05812749 0.03708552 0.11434311 -0.12498955 0.15734024
00000000: ca35 0d3e 3aa8 373e c60e 98bc 9683 18be
00000010: f00a 383e aedb bb3c 19fc 513d e5d9 45be
00000020: 0e91 103e 4a0b 27be c218 9a3d 3920 4dbe
00000030: 3381 fe3d 98bb b13c f9d9 34be 7ab6 11bd
00000040: 193c 4fbe 9088 33be d675 8cbd 1717 6ebd
00000050: fce6 173d b82c ea3d 85fa ffbd cd1d 213e

layer_stack.2.layer_stack.0.weight f4 [10, 24, 3, 3]
0.0571947 0.002408988 -0.06035496 0.06238312 0.014496887 0.053037785 0.0010075694 -0.050527178
-0.00028720673 -0.0661057 -0.013353135 -0.029878018 -0.020039903 0.053852703 -0.059902947 -0.022831008
0.01863892 0.005540666 -0.044919737 -0.024709215 0.03636878 -0.021284468 0.06333121 -0.026877953
-0.039897885 0.035149705 -0.0398707 0.025433173 0.027373724 -0.038574755 -0.03304783 0.01455506
0.0037567506 -0.0088324575 0.01741363 -0.06653981 0.008003013 -0.053421564 0.059444167 -0.01749365
0.05459403 0.04621122 -0.009907007 -0.05585299 -0.009893579 -0.058140192 0.00020942248 -0.051679514
-0.026261104 0.043148737 0.01503576 -0.008455317 0.04148687 -0.067948624 0.04950464 0.057253547
0.013147431 0.064182065 0.057212383 -0.064626426 -0.06774762 0.013236106 0.050177198 -0.03128056
0.026469484 -0.021418797 -0.032421675 0.008366743 -0.04426808 0.06534509 0.008610776 0.03427469
0.0037301313 0.02349305 0.039507505 -0.06508646 -0.021691225 0.028444935 0.038810883 -0.0052513015
-0.06538775 0.0038535094 -0.035230026 0.026875643 0.022779308 0.059655163 -0.027933538 0.028766418
-0.048820812 0.049859162 -0.056558497 -0.05536994 0.018120209 -0.0067426935 0.044211984 0.0068406556
0.03961426 -0.06565795 0.041821998 -0.05935858 -0.06292669 0.005330724 -0.020456756 -0.026495539
0.019583235 -0.04501107 -0.042253025 0.027781848 -0.0074829264 -0.0042366255 -0.043319397 -0.062334403
0.020354355 -0.03245574 -0.04520481 -0.043654412 -0.014995779 -0.059007272 -0.023326796 -0.03525694
-0.061222024 0.0666082 0.0233925 -0.028916629 0.02286264 -0.030057453 -0.021482874 0.060433216
0.029222965 0.059128482 -0.06414768 0.04591612 0.044234805 0.0042357296 -0.05407201 -0.022925563
-0.06689099 -0.014251289 -0.006776973 -0.007305723 -0.024166977 -0.06453522 0.033005007 0.021837154
0.020953279 0.067236006 -0.009607916 0.046387155 -0.04020626 0.04146353 0.046931222 -0.058763355
-0.060366396 0.033529975 0.048467565 0.040652007 -0.003478012 0.036042318 -0.036369547 0.0063031525
-0.034308374 -0.030698895 -0.01517769 -0.018079976 -0.015188513 0.03811928 -0.06130571 0.00065444753
-0.0220419 0.06082174 0.049918965 0.059864778 -0.067331344 -0.06408395 0.046042487 -0.04004564
-0.038810313 -0.06582725 0.021559589 -0.017668257 -0.06697927 -0.040444538 -0.021558285 0.007939105
0.042918753 0.06269596 0.043107122 -0.053418923 -0.06738547 0.0129965935 0.048195753 -0.009450491
0.026104122 0.04783842 0.0131177865 -0.026157835 -0.06712117 -0.055633962 -0.022002185 -0.03214973
-0.06116544 -0.063145384 0.06256311 -0.005802884 -0.0027685324 -0.02052096 -0.0074633337 0.031823438
-0.06483452 -0.03341299 0.06458955 0.05947501 0.029909223 -0.028166145 0.04364814 0.057812013
0.002497971 -0.038334575 0.023149334 0.002921389 -0.0590534 0.027592722 0.0013216251 -0.045320455
0.03140701 0.056565773 0.037035983 0.050863046 -0.057034917 -0.039465815 -0.046244696 -0.06072669
0.061350524 -0.03723116 0.037672225 0.051864613 0.050519567 0.018741718 0.05665352 -0.05042858
0.0071470407 0.008532141 -0.06394991 -0.010838129 -0.052631114 0.005929879 -0.06780347 0.010237178
-0.064632215 -0.032314427 0.0012672014 -0.0656361 -0.0056766 -0.0016983863 -0.051897265 -0.024508208
00000000: fd44 6a3d 1de0 1d3b c336 77bd 7185 7f3d
00000010: 5a84 6d3c 263e 593d 6b10 843a 96f5 4ebd
00000020: 3c94 96b9 6d62 87bd 1cc7 5abc bfc2 f4bc
00000030: b92a a4bc a794 5c3d cb5c 75bd 1808 bbbc
00000040: a6b0 983c 7a8e b53b c2fd 37bd fb6a cabc
00000050: 6ef7 143d c45c aebc cbb3 813d 272f dcbc
00000060: f76b 23bd 23f9 0f3d 764f 23bd 3b59 d03c
00000070: dc3e e03c 9000 1ebd 295d 07bd 5978 6e3c
00000080: d133 763b 03b6 10bc 07a7 8e3c 0646 88bd
00000090: 121f 033c 92d0 5abd ba7b 733d d84e 8fbc
000000a0: fd9d 5f3d fa47 3d3d 0051 22bc 1bc6 64bd
000000b0: ae18 22bc 6924 6ebd 6b98 5b39 e6ad 53bd
000000c0: 8721 d7bc bbbc 303d 8c58 763c 2b88 0abc
000000d0: 23ee 293d a628 8bbd 61c5 4a3d b282 6a3d
000000e0: 5368 573c e371 833d 8857 6a3d dc5a 84bd
000000f0: 44bf 8abd 41dc 583c 9b86 4d3d 0b20 00bd
00000100: 88d6 d83c 7976 afbc 97cc 04bd aa14 093c
00000110: 7252 35bd a6d3 853d 3614 0d3c 9e63 0c3d
00000120: 3875 743b 7f74 c03c 9fd2 213d 0d4c 85bd
00000130: ccb1 b1bc 5a05 e93c 29f8 1e3d 1c13 acbb
00000140: 03ea 85bd 298b 7c3b 5c4d 10bd 4f2a dc3c
00000150: ac9b ba3c f958 743d e0d4 e4bc 8da7 eb3c
00000160: 55f8 47bd 1f39 4c3d e2a9 67bd 97cb 62bd
00000170: d570 943c d0f1 dcbb a017 353d 9427 e03b
00000180: 9042 223d ad77 86bd 8b4d 2b3d fb21 73bd
00000190: b5df 80bd 5bad ae3b ed94 a7bc 2c0d d9bc
000001a0: 056d a03c 875d 38bd 8211 2dbd c296 e33c
000001b0: 5633 f5bb 64d3 8abb ae6f 31bd 5c52 7fbd
000001c0: 2dbe a63c 4ff0 04bd ae28 39bd f8ce 32bd
000001d0: dbb0 75bc 9cb1 71bd d617 bfbc 9569 10bd
000001e0: f2c3 7abd e169 883d a1a1 bf3c 91e2 ecbc
000001f0: 6e4a bb3c 0c3b f6bc dafc afbc d288 773d
00000200: 0065 ef3c b530 723d dc5f 83bd 8b12 3c3d
00000210: 8e2f 353d e0cb 8a3b 9d7a 5dbd 64ce bbbc
00000220: 25fe 88bd 3d7e 69bc 5f11 debb d964 efbb
00000230: d3f9 c5bc 0b2b 84bd 4230 073d d5e3 b23c
00000240: 36a6 ab3c 08b3 893d 856a 1dbc 7500 3e3d
00000250: 52af 24bd aad5 293d f43a 403d d8b1 70bd
00000260: c142 77bd ba56 093d ed85 463d b882 263d
00000270: 5cef 63bb 1ca1 133d 3cf8 14bd ad8a ce3b
00000280: f086 0cbd 407c fbbc d9ab 78bc 751c 94bc
00000290: 3ed9 78bc f622 1c3d b21b 7bbd 3b8f 2b3a
000002a0: 3791 b4bc 3820 793d d477 4c3d c534 753d
000002b0: 04e5 89bd 723e 83bd 0c97 3c3d e606 24bd
000002c0: 90f7 1ebd 70d0 86bd bc9d b03c 05bd 90bc
000002d0: 6d2c 89bd 2ca9 25bd 009b b0bc 0513 023c
000002e0: 93cb 2f3d bd66 803d 1891 303d cdcd 5abd
000002f0: 6501 8abd aaef 543c e968 453d 3bd6 1abc
00000300: 50d8 d53c 38f2 433d fceb 563c f548 d6bc
00000310: d376 89bd 70e0 63bd ed3d b4bc 6faf 03bd
00000320: 9d88 7abd 5e52 81bd 1621 803d 1f26 bebb
00000330: 4470 35bb 931b a8bc fb8e f4bb 4b59 023d
00000340: f6c7 84bd 0fdc 08bd 8747 843d 119c 733d
00000350: 3004 f53c b0bc e6bc 64c8 323d 4acc 6c3d
00000360: 00b5 233b b704 1dbd aca3 bd3c c674 3f3b
00000370: fae1 71bd 220a e23c 613a ad3a f1a1 39bd
00000380: a3a4 003d 83b1 673d 0bb3 173d c555 503d
00000390: 729d 69bd e8a6 21bd 146b 3dbd 8dbc 78bd
000003a0: b04a 7b3d b37f 18bd 314e 1a3d fd6f 543d
000003b0: 9bed 4e3d 3b88 993c 850d 683d 338e 4ebd
000003c0: b931 ea3b 65ca 0b3c 2cf8 82bd 6892 31bc
000003d0: b993 57bd 6e4f c23b 8cdc 8abd d6b9 273c
000003e0: e55d 84bd 225c 04bd 3918 a63a 386c 86bd
000003f0: c602 babb 639c deba 3a92 54bd 70c5 c8bc

layer_stack.2.layer_stack.0.bias f4 [10]
-0.0069973427 0.0008832193 -0.00017832866 -0.0071191373 0.03610603 0.05030944 0.0027826708 0.05411447
-0.06208277 0.057831198
00000000: f749 e5bb d887 673a bcfd 3ab9 a747 e9bb
00000010: ebe3 133d 4511 4e3d 785d 363b 22a7 5d3d
00000020: 814a 7ebd 68e0 6c3d

layer_stack.2.layer_stack.2.weight f4 [10, 10, 1, 1]
-0.10245245 0.24086343 0.054329798 0.21281476 0.06105324 0.15141755 0.28920448 -0.0069002276
-0.24532463 0.16683882 -0.2796311 -0.059387814 0.0049393424 -0.0134232305 -0.29035032 0.22719811
-0.17098837 0.17810085 0.30594826 0.1410754 -0.2401148 -0.29672658 0.27618346 -0.10585666
-0.15150651 0.08028733 -0.032760404 0.007423527 -0.17707339 0.031091439 -0.053584915 -0.12278721
0.09958302 0.19254315 -0.0948849 -0.12568845 -0.26850587 0.14447579 0.20217013 -0.23880605
-0.09885772 0.20631231 0.29180616 0.1881898 0.10795773 0.23245542 -0.31055474 0.23179281
0.18339606 0.21908303 -0.0042731497 0.12269254 -0.06110979 -0.071881235 -0.18448293 -0.1871807
-0.22424088 -0.1359851 -0.1662187 -0.25235906 0.015352105 0.14917889 -0.21949363 0.0015751887
0.17660998 -0.004441876 0.30917034 0.07207065 -0.048612215 -0.26920068 -0.13766907 -0.23842503
0.25677186 0.23553954 0.17304339 0.13841982 -0.176957 0.24008705 0.16349559 0.10694743
-0.27492487 0.2596761 0.21435967 0.16368222 0.14139013 0.17797858 0.11467409 0.029799953
-0.115824915 0.10385928 0.24438722 -0.29402715 -0.10518507 0.049280822 -0.15243544 -0.18714325
0.10610148 -0.29447547 -0.12693469 -0.09322893
00000000: 97d2 d1bd e7a4 763e ec88 5e3d 1dec 593e
00000010: f612 7a3d 340d 1b3e 9c12 943e 4e1b e2bb
00000020: 6136 7bbe ccd7 2a3e cf2b 8fbe a340 73bd
00000030: 35da a13b 1ced 5bbc cca8 94be 9fa6 683e
00000040: 9317 2fbe 1260 363e 40a5 9c3e 1276 103e
00000050: a7e0 75be 8cec 97be eb67 8d3e 60cb d8bd
00000060: 8624 1bbe af6d a43d c62f 06bd 0f41 f33b
00000070: ba52 35be 79b3 fe3c db7b 5bbd dc77 fbbd
00000080: 2ff2 cb3d 082a 453e 0453 c2bd 79b4 00be
00000090: 9a79 89be 76f1 133e b005 4f3e 9389 74be
000000a0: eb75 cabd 8943 533e 9e67 953e d4b4 403e
000000b0: f118 dd3d cb08 6e3e 0801 9fbe 185b 6d3e
000000c0: 2dcc 3b3e 4d57 603e c705 8cbb 3a46 fb3d
000000d0: 424e 7abd 7836 93bd 18e9 3cbe 4cac 3fbe
000000e0: 679f 65be ae3f 0bbe 3c35 2abe 3535 81be
000000f0: 6587 7b3c 5ac2 183e f0c2 60be 9076 ce3a
00000100: 3fd9 343e 288d 91bb 934b 9e3e c799 933d
00000110: 9a1d 47bd acd4 89be 1ff9 0cbe b125 74be
00000120: 9a77 833e 4731 713e 4932 313e edbd 0d3e
00000130: 3734 35be 61d9 753e 636b 273e 4107 db3d
00000140: f4c2 8cbe 44f4 843e 1a81 5b3e 509c 273e
00000150: 93c8 103e 0440 363e 40da ea3d 081f f43c
00000160: 9d35 edbd 2db4 d43d a540 7a3e ba8a 96be
00000170: 456b d7bd b0da 493d 0918 1cbe 7ba2 3fbe
00000180: bc4b d93d 7dc5 96be 2bfb 01be cfee bebd

layer_stack.2.layer_stack.2.bias f4 [10]
0.24753442 0.2696605 -0.0054601496 0.16547757 0.12806793 0.31423005 -0.05999003 0.31891623
-0.048862353 0.04630638
00000000: aa79 7d3e f110 8a3e 0eeb b2bb f472 293e
00000010: 3d24 033e c3e2 a03e 1bb8 75bd fd48 a33e
00000020: e423 48bd c2ab 3d3d

layer_stack.2.layer_stack.4.weight f4 [10, 10, 1, 1]
-0.21243429 -0.26229852 0.18447657 -0.05787398 -0.16059835 -0.12110756 0.02826615 0.16677788
0.24017122 0.014422615 -0.15753788 -0.02326598 0.16544655 0.29456043 0.095598444 0.30132702
0.040131122 -0.13653865 -0.012867291 0.30526304 -0.27904585 -0.10770131 0.13614808 -0.2992483
-0.122766495 0.23828605 0.19468202 0.041205615 0.12596028 -0.07515774 -0.052595217 -0.14096405
-0.1652087 0.26286462 0.11610741 0.09512571 0.0650116 0.013809644 0.00076448364 0.12688094
0.051047042 0.13601175 0.0567216 0.067993 -0.21280941 0.20759821 -0.25040781 0.17083517
0.30000588 0.27411386 0.039624095 -0.22156896 -0.15992658 0.1743839 -0.2480138 0.08807941
-0.19331759 0.2582238 -0.07393242 0.2374345 -0.30770156 -0.041333586 0.1557106 0.008393296
-0.24158598 0.045183506 0.23474126 -0.02281875 0.114837945 0.23608643 0.04979435 -0.16952592
-0.0834207 -0.1838849 0.057136193 -0.28197935 -0.25426367 0.07620241 0.047042985 -0.02859363
-0.015969332 0.06666596 -0.031751066 0.085339956 0.22059155 0.28952584 0.05542583 -0.015024991
-0.21916121 -0.0677511 0.29782978 -0.014475812 -0.28435582 -0.11554715 0.21424283 -0.18501538
0.037130438 -0.19101945 0.058944356 -0.065358214
00000000: 6088 59be fe4b 86be 6de7 3c3e 440d 6dbd
00000010: e573 24be 3e07 f8bd 6a8e e73c d2c7 2a3e
00000020: 72ef 753e d54c 6c3c 9c51 21be 4c98 bebc
00000030: d26a 293e a0d0 963e 1ec9 c33d 8947 9a3e
00000040: 8860 243d cad0 0bbe 55d1 52bc 704b 9c3e
00000050: 19df 8ebe 8192 dcbd 676a 0b3e 1337 99be
00000060: 006d fbbd 4201 743e b95a 473e 38c7 283d
00000070: bbfb 003e 4dec 99bd 156e 57bd e158 10be
00000080: 782c 29be 3196 863e b9c9 ed3d 45d1 c23d
00000090: cd24 853d d841 623c a167 483a 14ed 013e
000000a0: b416 513d aa46 0b3e e954 683d ea3f 8b3d
000000b0: b6ea 59be a094 543e 7435 80be 6aef 2e3e
000000c0: 5f9a 993e a758 8c3e e04c 223d f9e2 62be
000000d0: cbc3 23be b191 323e 54f7 7dbe fa62 b43d
000000e0: 0cf5 45be e935 843e e169 97bd 0822 733e
000000f0: 0f8b 9dbe 684d 29bd 9972 1f3e 0984 093c
00000100: 5162 77be 5712 393d 0360 703e 63ee babc
00000110: 2830 eb3d a4c0 713e 29f5 4b3d 3498 2dbe
00000120: 79d8 aabd 534c 3cbe a407 6a3d 995f 90be
00000130: d92e 82be 0210 9c3d 25b0 403d 303d eabc
00000140: 1ed2 82bc 2a88 883d 680d 02bd b7c6 ae3d
00000150: c0e2 613e bb3c 943e 3206 633d 612b 76bc
00000160: cc6b 60be 17c1 8abd 257d 983e f52b 6dbc
00000170: 1697 91be fca3 ecbd 7962 5b3e ac74 3dbe
00000180: 1616 183d 9a9a 43be a36f 713d 87da 85bd

layer_stack.2.layer_stack.4.bias f4 [10]
0.035652947 0.020168662 -0.19262882 -0.17070498 0.25987494 0.034952212 0.2961184 -0.15262601
-0.29596627 0.18788876
00000000: d308 123d c038 a53c 7d40 45be 49cd 2ebe
00000010: 540e 853e 0d2a 0f3d d59c 973e fe49 1cbe
00000020: e488 97be e965 403e

layer_stack.3.layer_stack.0.weight f4 [10, 10, 3, 3]
0.07571158 -0.06194617 0.08037472 -0.10242859 0.082936324 0.057773884 -0.020836972 -0.08637459
0.009627707 0.069991894 0.04099402 -0.000795346 -0.073602706 0.045054756 0.07464695 -0.08442575
0.08630726 -0.04880374 -0.073280245 0.07131649 0.10472252 -0.10147527 -0.07456362 -0.0884674
0.09605013 -0.06854054 0.03958938 -0.0014700898 0.07383869 -0.027237553 -0.016834522 0.0069423337
-0.03413651 0.07405722 0.021847853 -0.024788117 0.08900263 0.063301 0.03568311 -0.07078273
0.053499132 0.091453984 0.037206266 0.09544334 -0.04160987 0.069302276 0.090657026 -0.0552693
-0.026566058 0.051737145 0.048223674 0.085217066 0.02507133 0.027272908 -0.06843941 0.00719181
-0.044107854 -0.069778584 0.007495132 0.0135848895 -0.031097934 0.068277515 0.05448257 -0.027157882
-0.08524816 0.08677577 -0.076789014 -0.09867724 0.08875692 0.06622255 0.0811202 -0.008852286
0.05691376 -0.04630186 0.034770813 -0.0719121 -0.04521722 -0.054405805 -0.0046299896 0.094741605
-0.053265527 -0.06131723 -0.09858688 0.10287258 -0.03193528 0.108103566 -0.09047903 0.015136676
-0.01015958 -0.050984655 0.0033467375 0.028675964 -0.043315116 -0.10157033 -0.091297954 -0.087765954
0.09417652 -0.025170045 0.08031052 0.10236081 0.047803495 -0.08734144 -0.00073244335 0.022410655
0.016510025 -0.027427755 0.015773827 -0.050121922 0.040434744 0.06211374 -0.08462605 0.05511077
0.06825641 0.043460682 -0.070512 0.03617877 -0.013899581 0.04764596 -0.0057929005 0.016933389
-0.09971284 -0.0165346 0.07360679 -0.049068905 -0.101524875 -0.0004052139 -0.081041254 0.05963438
0.056232102 -0.0972338 0.040822215 -0.07103835 0.082954876 -0.03392735 -0.076746024 -0.012207826
-0.009523947 0.0047663343 -0.093183674 0.0057150046 0.07706351 -0.08901856 -0.026999993 -0.066156276
0.022330113 0.009159093 -0.018565038 -0.03991211 -0.0077567855 -0.04162619 -0.05201987 -0.020247785
0.034214504 0.01795189 0.077804685 0.07615299 -0.08967395 -0.040362544 0.10153624 -0.015361366
0.08146387 -0.041571103 -0.023121707 0.08000495 0.02055587 0.028405659 -0.095267884 0.03451966
-0.037353516 -0.08202461 0.07964528 0.018034343 0.09931873 -0.09835342 -0.06394434 -0.015624137
-0.0010514762 -0.103189774 -0.037929423 0.10024864 -0.013870065 -0.07734546 0.0064677233 -0.06654941
0.073894225 0.010959547 0.05281196 0.015080091 -0.05275126 0.021751633 0.07557183 -0.013259001
0.08483414 0.06939482 0.045046773 -0.07154884 -0.036202177 -0.05275823 0.017166078 0.03994858
0.08143485 0.010984237 0.064961925 -0.0052202432 -0.081196316 -0.048946343 -0.095496304 0.08516185
0.07933793 0.10052882 0.08129186 0.101382054 0.04952613 0.018255835 0.055430677 -0.00747008
0.032324325 -0.0033749368 -0.010632836 0.0012503007 -0.10237227 0.06885155 0.05705313 0.098247916
-0.057773177 0.07793502 0.017644959 0.075670816 0.006596964 0.03664582 0.021344531 0.094130956
0.07772081 0.09057326 -0.045937274 -0.0998233 -0.00045054322 -0.033001687 0.06190385 -0.0701726
-0.028389137 -0.072706506 -0.03830889 0.08938812 -0.07505407 0.09636186 0.010746345 -0.009472711
0.050950333 0.104025215 0.050240815 0.07975511 -0.07774146 0.029340848 -0.025525983 0.038285516
00000000: ac0e 9b3d 44bb 7dbd 809b a43d 15c6 d1bd
00000010: 85da a93d 4fa4 6c3d 4cb2 aabc 29e5 b0bd
00000020: 88bd 1d3c e957 8f3d 58e9 273d c47e 50ba
00000030: 04bd 96bd 568b 383d 80e0 983d 68e7 acbd
00000040: dcc1 b03d 6ee6 47bd f413 96bd 610e 923d
00000050: c378 d63d 44d2 cfbd d0b4 98bd 652e b5bd
00000060: eeb5 c43d fc5e 8cbd 7928 223d 07b0 c0ba
00000070: bd38 973d 4a21 dfbc 8de8 89bc 847c e33b
00000080: bad2 0bbd 50ab 973d 45fa b23c 7310 cbbc
00000090: 0347 b63d f4a3 813d 7428 123d 89f6 90bd
000000a0: e821 5b3d 3a4c bb3d 9965 183d cc77 c33d
000000b0: 1c6f 2abd 5aee 8d3d 64aa b93d 1062 62bd
000000c0: 10a1 d9bc 54ea 533d 3086 453d 4986 ae3d
000000d0: 6462 cd3c 6f6b df3c f629 8cbd 46a9 eb3b
000000e0: 70aa 34bd 13e8 8ebd b999 f53b 2893 5e3c
000000f0: 18c1 febc 15d5 8b3d 1e29 5f3d 357a debc
00000100: 9696 aebd 7fb7 b13d 8f43 9dbd 4b17 cabd
00000110: 30c6 b53d b09f 873d 5922 a63d 2e09 11bc
00000120: 671e 693d 05a7 3dbd d76b 0e3d a746 93bd
00000130: b135 39bd 9fd8 5ebd 2bb7 97bb e307 c23d
00000140: f42c 5abd c727 7bbd ebe7 c9bd dcae d23d
00000150: 91ce 02bd 6765 dd3d 124d b9bd d2ff 773c
00000160: 5e74 26bc 49d5 50bd f054 5b3b dbe9 ea3c
00000170: 316b 31bd 1b04 d0bd 6cfa babd a3be b3bd
00000180: 9fdf c03d 6931 cebc d879 a43d 8ba2 d13d
00000190: 99cd 433d 12e0 b2bd 7101 40ba 8d96 b73c
000001a0: 0840 873c 2cb0 e0bc 1d38 813c a54c 4dbd
000001b0: e79e 253d fa6a 7e3d 6c50 adbd d5bb 613d
000001c0: 04ca 8b3d d403 323d 9868 90bd 3130 143d
000001d0: 11bb 63bc 6928 433d 5fd2 bdbb e4b7 8a3c
000001e0: 3f36 ccbd 9273 87bc 28bf 963d 7afc 48bd
000001f0: 46ec cfbd e472 d4b9 f5f8 a5bd 2e43 743d
00000200: a253 663d 8422 c7bd 3235 273d 8e7c 91bd
00000210: 3fe4 a93d 68f7 0abd 052d 9dbd 5503 48bc
00000220: 540a 1cbc e92e 9c3b 15d7 bebd ef44 bb3b
00000230: 79d3 9d3d 5d4f b6bd 172f ddbc f17c 87bd
00000240: a4ed b63c 0510 163c b515 98bc e17a 23bd
00000250: a22c febb 3980 2abd ca12 55bd afde a5bc
00000260: 8224 0c3d d80f 933c 1058 9f3d 19f6 9b3d
00000270: faa6 b7bd 3253 25bd 3bf2 cf3d 3dae 7bbc
00000280: 88d6 a63d 7646 2abd bc69 bdbc a3d9 a33d
00000290: c964 a83c fcb2 e83c cf1b c3bd 7d64 0d3d
000002a0: 0000 19bd 85fc a7bd 111d a33d c2bc 933c
000002b0: 9e67 cb3d 856d c9bd 40f5 82bd 61fc 7fbc
000002c0: b0d1 89ba 2955 d3bd e25b 1bbd 294f cd3d
000002d0: 453f 63bc 4c67 9ebd 32ef d33b 0f4b 88bd
000002e0: db55 973d ac8f 333c 5b51 583d 7c12 773c
000002f0: b511 58bd 7b30 b23c 67c5 9a3d 483c 59bc
00000300: 86bd ad3d df1e 8e3d f782 383d 3388 92bd
00000310: bc48 14bd 0419 58bd e09f 8c3c 1fa1 233d
00000320: 51c7 a63d 3bf7 333c c20a 853d 930e abbb
00000330: 414a a6bd f67b 48bd 9193 c3bd 5669 ae3d
00000340: ed7b a23d 0ee2 cd3d 597c a63d 65a1 cf3d
00000350: e9db 4a3d 438d 953c 470b 633d 93c7 f4bb
00000360: 8366 043d 0b2e 5dbb 5935 2ebc 21e1 a33a
00000370: 8da8 d1bd 0b02 8d3d 8bb0 693d 3436 c93d
00000380: 91a3 6cbd 659c 9f3d 298c 903c 4df9 9a3d
00000390: 582b d83b ed19 163d bada ae3c bbc7 c03d
000003a0: 172c 9f3d 797e b93d b928 3cbd 2970 ccbd
000003b0: e336 ecb9 c72c 07bd e48e 7d3d a7b6 8fbd
000003c0: 5690 e8bc 26e7 94bd c8e9 1cbd 1e11 b73d
000003d0: f3b5 99bd 5e59 c53d 7011 303c 6e33 1bbc
000003e0: 4cb1 503d 2c0b d53d 50c9 4d3d a656 a33d
000003f0: ea36 9fbd 385c f03c de1b d1bc 46d1 1c3d

layer_stack.3.layer_stack.0.bias f4 [10]
0.03692019 -0.029352266 0.08490386 0.0788094 -0.04548809 -0.07532663 -0.06743336 0.03241784
-0.0163184 -0.06909298
00000000: a039 173d 2a74 f0bc 13e2 ad3d d366 a13d
00000010: b851 3abd d944 9abd 801a 8abd 92c8 043d
00000020: 2aae 85bc 9f80 8dbd

layer_stack.3.layer_stack.2.weight f4 [10, 10, 1, 1]
-0.31021723 -0.2789027 -0.027535563 -0.28972235 -0.17123319 -0.3085447 -0.23552331 0.06269921
0.28960618 -0.18219031 -0.04502575 0.100021884 0.024462717 -0.10427878 -0.1384074 -0.023908231
0.058689978 0.16659543 -0.24208273 -0.26972675 -0.13391748 -0.03104951 0.30077633 0.19410108
0.064780466 0.22665605 -0.04317859 -0.11676948 -0.15111992 -0.05201653 -0.019819325 -0.12006193
0.29820043 -0.019169591 -0.24449661 0.016550126 -0.079318985 0.17454162 -0.12947102 0.11830166
0.14331216 0.29730627 -0.115591936 0.26550123 -0.22122067 -0.20024022 0.2560969 0.2519261
0.19139141 -0.24423422 0.048139412 -0.30212852 -0.28708792 0.20452978 0.08272799 0.009716044
-0.11352979 0.24170609 0.12390522 0.3098213 0.29970983 0.054708377 -0.30845082 0.14577052
-0.108096346 0.112215474 0.12037686 -0.116137475 -0.29304448 -0.0982572 -0.2562011 0.252431
-0.23796958 -0.027045911 0.080534734 0.15245163 -0.2183096 0.16366978 -0.2609639 -0.039385773
-0.25067645 -0.22425202 0.07079373 -0.22337988 -0.11169828 -0.13342746 0.20351507 0.10251701
0.30666816 0.18269198 0.1905896 -0.3062854 -0.20445783 0.11162779 -0.08802986 -0.26166543
-0.16335171 0.28066275 0.23297612 0.2797086
00000000: cbd4 9ebe 56cc 8ebe 4392 e1bc 7d56 94be
00000010: c157 2fbe 92f9 9dbe 062d 71be 7268 803d
00000020: 4347 943e 1990 3abe ec6c 38bd 46d8 cc3d
00000030: 0966 c83c 1d90 d5bd abba 0dbe 32db c3bc
00000040: e764 703d fe97 2a3e 89e4 77be a019 8abe
00000050: aa21 09be 8b5b febc 5bff 993e 6fc2 463e
00000060: 9fab 843d 8618 683e 08dc 30bd d624 efbd
00000070: 2ebf 1abe 490f 55bd 235c a2bc 07e3 f5bd
00000080: baad 983e 8c09 9dbc 525d 7abe 2194 873c
00000090: fe71 a2bd 0abb 323e 0d94 04be 2448 f23d
000000a0: 6cc0 123e 8738 983e 77bb ecbd c7ef 873e
000000b0: ac87 62be c60b 4dbe 221f 833e 75fc 803e
000000c0: 1cfc 433e 8918 7abe d52d 453d 97b0 9abe
000000d0: 30fd 92be 4170 513e 4b6d a93d 0b30 1f3c
000000e0: 4e82 e8bd cd81 773e 05c2 fd3d e6a0 9e3e
000000f0: 9173 993e e415 603d 44ed 9dbe de44 153e
00000100: 9e61 ddbd 3ad1 e53d 2588 f63d 7cd9 edbd
00000110: ed09 96be 123b c9bd ca2c 83be a33e 813e
00000120: 4cae 73be 638f ddbc 65ef a43d 481c 1c3e
00000130: 8d8c 5fbe 0d99 273e 0f9d 85be fa52 21bd
00000140: aa58 80be 52a2 65be 4efc 903d b2bd 64be
00000150: 11c2 e4bd 35a1 08be 4166 503e 70f4 d13d
00000160: 9c03 9d3e 9b13 3b3e ec29 433e 71d1 9cbe
00000170: 655d 51be 1c9d e43d 0049 b4bd 03f9 85be
00000180: ac45 27be 07b3 8f3e 4b91 6e3e f735 8f3e

layer_stack.3.layer_stack.2.bias f4 [10]
0.091842934 -0.054793134 0.15948533 -0.10433838 -0.2725294 0.20686162 0.21936283 -0.042594828
0.06756408 -0.17452268
00000000: 2618 bc3d c46e 60bd 1f50 233e 5caf d5bd
00000010: f988 8bbe 88d3 533e a6a0 603e ea77 2ebd
00000020: 095f 8a3d 13b6 32be

layer_stack.3.layer_stack.4.weight f4 [10, 10, 1, 1]
0.21141466 -0.09710808 0.14777417 -0.3006735 0.13147451 -0.34518814 -0.0025011622 0.0029451477
0.28206256 0.29879144 0.30571878 -0.033743445 -0.09571243 -0.066475265 -0.07113284 -0.094900675
-0.18667117 -0.026903195 0.06894062 0.03461804 -0.014304735 -0.12781498 -0.25352454 0.24791084
-0.12156185 -0.13003626 0.22732854 0.22243407 -0.074591756 0.012802001 0.18765712 -0.0982989
0.00960814 0.041132126 -0.28238997 0.056801133 -0.1167567 -0.06402267 -0.1653725 0.29662558
0.2512525 -0.13867915 0.09771323 -0.2325694 -0.21193726 -0.10277079 0.26433176 0.14823821
-0.21171707 0.23181352 0.25247368 0.19291598 0.16122167 0.18456255 -0.22687085 -0.050892033
-0.2600835 -0.009970065 -0.090581134 -0.029779641 -0.1157913 -0.012089467 0.15434831 -0.19565216
0.19318324 0.1367966 -0.14090262 -0.04196874 -0.1728767 0.033495404 -0.0007484888 0.028018488
-0.24605167 -0.31465247 0.25289387 0.13520001 -0.13559297 0.031796273 -0.01160328 0.052347645
0.16443077 -0.052153014 0.26978043 -0.09740679 0.16135415 -0.2141367 0.30033192 0.1863761
-0.23264028 0.13303724 0.12031179 0.16040082 -0.040228967 -0.13381024 -0.30235893 -0.03189116
-0.08982328 -0.057928342 0.21052632 0.28545347
00000000: 167d 583e 9ae0 c6bd 1d52 173e e1f1 99be
00000010: 41a1 063e 80bc b0be 8aea 23bb 6103 413b
00000020: 816a 903e 31fb 983e 2c87 9c3e 9136 0abd
00000030: e104 c4bd 2f24 88bd 18ae 91bd 495b c2bd
00000040: ba26 3fbe 1764 dcbc bd30 8d3d a5cb 0d3d
00000050: 685e 6abc eee1 02be f8cd 81be 57dc 7d3e
00000060: 6bf5 f8bd 3a28 05be d0c8 683e c2c5 633e
00000070: 90c3 98bd 7cbf 513c 3029 403e ef50 c9bd
00000080: 766b 1d3c 297a 283d 6b95 90be 4ea8 683d
00000090: 231e efbd 511e 83bd 6957 29be 4fdf 973e
000000a0: 2ba4 803e e801 0ebe e01d c83d ac26 6ebe
000000b0: 1506 59be 7e79 d2bd 7e56 873e c2cb 173e
000000c0: 5ccc 58be 8660 6d3e 3b44 813e c48b 453e
000000d0: 4b17 253e f7fd 3c3e d550 68be 2a74 50bd
000000e0: aa29 85be 7c59 23bc 9a82 b9bd 6ff4 f3bc
000000f0: fd23 edbd e612 46bc 7c0d 1e3e 0a59 48be
00000100: d4d1 453e 6814 0c3e c748 10be 6ae7 2bbd
00000110: 9706 31be 7a32 093d 3c36 44ba 0787 e53c
00000120: f8f4 7bbe 211a a1be 4e7b 813e df71 0a3e
00000130: e2d8 0abe cf3c 023d af1b 3ebc 7c6a 563d
00000140: 8a60 283e 669e 55bd a920 8a3e 367d c7bd
00000150: 063a 253e a746 5bbe 1bc5 993e 60d9 3e3e
00000160: 4139 6ebe ea3a 083e 0766 f63d 1d40 243e
00000170: 21c7 24bd 8d05 09be cace 9abe 4ea0 02bd
00000180: 45f5 b7bd 4546 6dbd 3694 573e f526 923e

layer_stack.3.layer_stack.4.bias f4 [10]
0.03171632 -0.06491401 0.012270407 0.008372923 -0.07685474 -0.028041707 -0.28666857 0.04197388
-0.15236512 0.024581613
00000000: f9e8 013d a3f1 84bd d109 493c 962e 093c
00000010: 0566 9dbd b9b7 e5bc 39c6 92be ceec 2b3d
00000020: 9a05 1cbe 615f c93c
