state_tests/nets/dubconv5.pth (torch, 26371 bytes, 18 tensors)

layer_stack.0.layer_stack.0.weight f4 [24, 1, 3, 3]
00000000: 2182 223e 97eb 8f3e 6f8a 97be bdb5 e63d
00000010: 802b 76be 676d 98be 1a0f edbc b145 fa3d
00000020: 3108 93be c4cf 953e c771 a13d 0d03 333d
00000030: 58a8 113e a89b 163e 41b8 8d3e 69cd d9bb
00000040: d8cd 75be 4cb9 99be 84aa 27be ff0e b63d
00000050: 1028 373e df05 983d bdc1 983e 330b 44be
00000060: 7bfd 8cbe e589 813b b9d7 27be 1088 a3be
00000070: 4233 573e 2a41 16bc eaa3 08ba 4390 87be
00000080: 0de6 953e 1d65 14bd 53a5 64be 8cb1 983e
00000090: 9b15 9dbe e7d9 8cbd d8fa 863e e721 8bbb
000000a0: bb02 12be e07c a43e 380f 27be 2b21 a23e
000000b0: 2a09 ad3d 5821 2e3e 9e6e 933e f7c7 0c3e
000000c0: 4329 d73d 7dd6 3abe 142e a3be d4f7 80be
000000d0: 6c0b 6bbe eca7 6bbe 89e8 6b3e 80f6 62be
000000e0: 173e 653e 5167 4f3d e692 a9be 1d21 643e
000000f0: 40ba 22be e1de a63d f0da f3bd 4afb 5c3e
00000100: 4e3d b3bb ce2a 093b 42a7 95be 95d4 a03e
00000110: e793 db3d a306 49be c93d 283e e6a8 3c3e
00000120: e3ad 073e 7c82 f93d 47fe af3c bb5b 88bd
00000130: e8d0 1cbe c815 96be a44b 00bc b058 2fbe
00000140: 40fd 403a 0767 b03d dc0f 003e 9252 423e
00000150: a233 81bd ec93 2f3e 3936 a43d 4483 8fbe
00000160: b859 9a3e 4341 633d c05d 0d3c cec9 93be
00000170: 5d66 6e3e 9f86 72bd 0cba ad3d 074a 94be
00000180: 2099 abbd 57b2 56be 2ef7 773e 9c7b 253e
00000190: c45c 4abe 91cc ae3c b9f4 14be 4fd6 c0bc
000001a0: 5935 7cbe 0921 8b3d 7699 92be 2b9b 843e
000001b0: 506d b3bd f3cf 99be 5f84 423d d72a 54bd
000001c0: 2475 56bd 7d7f a63e 2052 923e 02d0 86bc
000001d0: 41a4 053e bfc4 f63d 62d2 50be 6c4c 213e
000001e0: ed8d 083e bf0a 0b3c 8869 bdbc 6121 25be
000001f0: 0ebe 723e ba9e 5b3d c792 98be dddc a33e
00000200: 08e7 7dbe 79ff 083e 4a81 cf3d c514 973e
00000210: 1c62 a13e 3344 a6bb 797e 223e edb2 6c3e
00000220: cf35 a53d ac28 7e3d 2cb5 4ebe 8eea 8a3e
00000230: bbd6 51be b93d fcbb 9b35 253e e2f5 413e
00000240: d867 81be b9c5 72bd 2c5e 613e b46a f53c
00000250: d631 983e 2f4a a13e 1b6d a53e bd23 443c
00000260: f889 a23e e8cb 4d3e e3b9 14be fb9d 323e
00000270: 2bff c93c d909 38be 4916 323c ddb2 0c3e
00000280: ae83 9e3e 5f80 f0bc 6cba 003e 45d4 b93c
00000290: 00ef e6bd 44aa 0abe 16f9 bcbd 5868 98be
000002a0: 86e4 5a3e ad88 96be df3f 61be 057c 8fbb
000002b0: fbdf 96be aedc 0c3d 5e46 aebc 6b67 32be
000002c0: 2bf4 29be 4be9 0bbd 9cfc 843e 385a 0b3c
000002d0: 7290 4f3e 258a d9bd 65f1 bbbd 1f61 10be
000002e0: 1df4 8e3e 0384 923e e5ef bdbd 7e5e 7c3e
000002f0: f908 d43d c4e5 5b3e f4ff 9cbe b3f8 47be
00000300: 616c 13be be2a 8fbe ffbe 463e 9767 5d3d
00000310: a48f 133e 391f 8d3e ae62 023e ef04 a3be
00000320: 6865 fc3d cf1f 703e f265 1fbd 8683 993e
00000330: d27d a23e 667f 03be 833b 8e3c c786 78be
00000340: 4582 4b3e 36de a03e ee29 aabe f0ea 2abe
00000350: c2db 093e 3e87 c33d 60e3 0d3c 95e9 ec3d
0.15869953 0.28109428 -0.29597804 0.112651326 -0.24040031 -0.29770967 -0.028937865 0.12220324
-0.28717187 0.29260075 0.078830294 0.04370408 0.14224374 0.14707816 0.27679637 -0.0066468013
-0.24004304 -0.30024183 -0.1637364 0.08889579 0.17886376 0.07422995 0.2983531 -0.19144897
-0.2753714 0.003953206 -0.16390885 -0.31939745 0.21015647 -0.00917081 -0.00052124134 -0.2647725
0.29277077 -0.03622924 -0.22328691 0.29822958 -0.30680546 -0.06877499 0.26363254 -0.004245985
-0.14258854 0.32126522 -0.16314399 0.3166593 0.084490135 0.17004907 0.28795332 0.13748156
0.10505917 -0.18245883 -0.31871092 -0.25189078 -0.22953576 -0.23013276 0.23037924 -0.22164345
0.22386967 0.05063564 -0.33119887 0.22278257 -0.15891361 0.081479795 -0.119069934 0.21580234
-0.0054699546 0.0020930055 -0.2922917 0.31412187 0.107215695 -0.19631438 0.16429819 0.18423805
0.13249926 0.12183091 0.021483554 -0.06658121 -0.15314066 -0.29313493 -0.007830534 -0.17123675
0.0007361956 0.08613401 0.1250605 0.1897681 -0.06308676 0.17146271 0.08018155 -0.28029835
0.30146575 0.05548216 0.008628309 -0.28864902 0.23281236 -0.059210416 0.08482751 -0.28962728
-0.08378816 -0.20966469 0.24215385 0.16160434 -0.1976195 0.02133778 -0.1454648 -0.02353969
-0.24629726 0.0679341 -0.28632706 0.25899634 -0.08761084 -0.30041465 0.04748952 -0.051798668
-0.052357808 0.3251914 0.2857828 -0.016456608 0.13050939 0.12049245 -0.20392755 0.15751809
0.1333539 0.008486449 -0.02312161 -0.16126014 0.23705313 0.05361817 -0.29799482 0.32004443
-0.24795163 0.13378705 0.10132082 0.29508033 0.31520164 -0.005074048 0.15868558 0.2311513
0.08066904 0.062050506 -0.20186299 0.27132076 -0.2049207 -0.0076977876 0.1613373 0.18941453
-0.2527454 -0.059270594 0.2200858 0.029958107 0.29725522 0.3150191 0.32309803 0.011971411
0.31745887 0.20097315 -0.14524035 0.17443077 0.024657806 -0.17972507 0.010869571 0.13740106
0.3095984 -0.029358087 0.12571114 0.022684226 -0.112760544 -0.13541514 -0.09227197 -0.29767108
0.21376237 -0.2940115 -0.21997021 -0.004378798 -0.2946776 0.034390144 -0.021273788 -0.17422263
-0.16597049 -0.034158032 0.25973976 0.008505397 0.20269945 -0.10622052 -0.09176902 -0.14099549
0.2792062 0.28616342 -0.09274272 0.24645421 0.10353274 0.21474367 -0.30664027 -0.19528465
-0.14396812 -0.27962297 0.19408797 0.05405387 0.14410263 0.27562883 0.12732956 -0.31839702
0.12324029 0.23449634 -0.038915582 0.29983157 0.31736618 -0.12841567 0.017362362 -0.24270163
0.19873913 0.31419533 -0.33235115 -0.16691184 0.13462737 0.0954728 0.008660167 0.1156799

layer_stack.0.layer_stack.0.bias f4 [24]
00000000: f65b 3b3e 57cf 03bd 36ac 61be 9957 9bbe
00000010: 961d ff3d 7d47 a5ba 52ea e9bc c01d 55be
00000020: 881c 80be 2025 9c3e 3b7e cd3c c1ad 49bd
00000030: 9de5 99bb f20e c2bd 71bc 18be 9495 8e3e
00000040: 31bc bc3c afa9 303d 344b 023e d251 48be
00000050: 4c7c 943d 4608 59be 133c 893e 7f25 69be
0.18296799 -0.032180157 -0.2203835 -0.3034027 0.12456815 -0.0012609806 -0.028554115 -0.2081213
-0.25021768 0.30497074 0.025084605 -0.04923797 -0.0046965615 -0.09475507 -0.14915635 0.27848494
0.023038955 0.043130573 0.12724 -0.19562462 0.0725027 -0.21194562 0.26803645 -0.2276821

layer_stack.0.layer_stack.2.weight f4 [24, 24, 1, 1]
00000000: d981 44be 93a4 80bd 0082 d23d 685b 273c
00000010: 6dcc 67bc db82 b5bc 8de0 12be 2cf8 0e3e
00000020: 48cd 11be 8d07 0ebe 2b44 363e fc31 053e
00000030: 9533 ed3b 1987 db3c fa02 f3bd 34ed 913d
00000040: 493b 22be 0262 3f3b 339e 04be b51c 25be
00000050: 8b4b 2b3e f9be 0cbe 41e4 d13d 88cb 813d
00000060: 6818 6b3d 9608 30be 5d38 a43d b4f3 503d
00000070: 47dd d4bd d51c 0b3e 263e 293e ec08 0abc
00000080: 47cb c63d 625c e13d 8698 03be ac80 173e
00000090: 29b2 ccbd baab d63d 62a5 c8bb 48c7 c5bd
000000a0: 5987 383e f8c9 e2bd 4727 053e 8d3a 903d
000000b0: 5205 14be 4e8b 31bc 9fb7 42be 4642 283e
000000c0: 655b d73c 5757 47be dc69 31be d321 f1bd
000000d0: e4e0 2b3d 47b1 d13b 1857 4a3e 7cfa 04bc
000000e0: 0b49 27bd 6820 293e d0af b13c 5f7a 17be
000000f0: bbea 0d3e 0124 153e f5d7 e73b 3f4e 75bd
00000100: 7ceb debc d0f6 123d a527 d5bd d350 ac3d
00000110: 2483 183e 176b 37bc 3022 7dbd 5433 8bbd
00000120: f774 6bbd 0e82 abbd a832 cbbd b4cd 37bd
00000130: 0dff 693b ee1d 3cbd ca49 813d 1e34 42bd
00000140: 5c1c 25be fd7f 0d3e 26b3 303e a5c7 8fbc
00000150: 3a39 c53d bda2 153c 1081 eabd 2f28 05be
00000160: 0572 2bbe 543a 2a3e 55f7 aa3d cdf2 243e
00000170: c4a8 d8bd 0a38 34be 15d0 403e 5f2a 4cbe
00000180: 1397 393e d634 68bd b0d3 c63d 7ea4 93bd
00000190: dbd5 fd3d dcda 90bd c5c4 88bd 8bbb acbd
000001a0: 54ce 033c 1961 ab3d 1bf3 1fbe b3c8 1fbe
000001b0: ce60 ffbc 9020 0abd 7244 8bbd 554a 31be
000001c0: 20c8 4bbe 80f9 efbd 9af1 c5bd 8291 b1bd
000001d0: b277 cb3d 7b39 e7bd 92d3 013e 7dc1 d03d
000001e0: 9a3d 38bd b20f 31be 06e2 41be b71e 1a3e
000001f0: c428 40be 4a4c e2bd fdc2 c03d 72b0 9cbd
00000200: 099e 853c 2576 1ebe a5dd f6bd 987b 433e
00000210: a542 76bd da40 0b3e 87d4 1ebd 3c6d cd3d
00000220: 84ad 613c 98a9 163e 1cef 313d 17be 643c
00000230: ee3d b5bd 80b7 89bd 4a0a 21be 9551 c5bb
00000240: 02a2 89bd 788c dcbd c179 23bd 24d1 d339
00000250: 5a5e 293d ff29 e8bd af13 19bd 0fb3 a7bc
00000260: e574 843d 464d aa3c 7030 23be 7e02 423e
00000270: a0f8 03be 0369 323e 7f6e 33be d439 393d
00000280: 7072 93ba b48f b93d 0d7b 19be ae62 87bd
00000290: 8e94 173b 0d8e 81bd 3293 113e f06b 363e
000002a0: f727 8cbd 095a 1bbe 7802 50bc 2070 33be
000002b0: bd8c 4fbe 34ba 313e 26e8 f13d 9284 a0bd
000002c0: 4ed3 1ebe ce76 b13d 3304 d63d dc2e 50be
000002d0: 746d 07be cb74 143e e8a9 c83d 429c 8f3b
000002e0: 4130 2d3e 4ee8 9b3d 80d3 ff3d db4d cabd
000002f0: 012a 0cbe df96 013d 620d b3bd 7e26 2fbe
00000300: a6d3 7b3d 0c23 39bd dae1 313a 9044 003e
00000310: fe97 acbd b890 dd3d fc46 be3c ed08 f6bd
00000320: 2b30 db3d 67af 13bd 62f7 bcbd bbdc 15be
00000330: 8dbf d5ba 1fae 1b3e 8cc3 a9bd 1c95 103e
00000340: 0b59 48be 6d5b 0f3e 1a40 d6bd 5662 b93b
00000350: e626 143e 8a50 0abe b954 1cbe a402 26be
00000360: 6d2a 2cbe c65f c7bb 8251 fdbd a48e 243e
00000370: e6b3 773d 0569 21be 2aa0 883c 68c7 50be
00000380: 3cf3 4ebe 26fb 3b3e c839 32be 16ab 29be
00000390: ea06 9ebd 49f9 223e 4fcf 83bc bca1 c73d
000003a0: cd5f 0ebc efe1 323e 3bf9 983c 204c 0f3d
000003b0: 500c 1d3e 3ec3 123e b291 04be ea41 f53d
000003c0: 8e1f 06bd faba 0e3e 19b5 193e 394e 26be
000003d0: 7cfc f0bd 36f5 35be 9cc8 17bd 594d a1bd
000003e0: 290f 5dbd cb1f 15bd c11a 14be 2aa6 153e
000003f0: ad9c 69bd 7a13 b7bd b47b 4bbe 3117 b43d
-0.19190158 -0.0628139 0.10278702 0.010214664 -0.01414786 -0.022157123 -0.14343472 0.13961858
-0.14238465 -0.13870068 0.17799442 0.13007349 0.007238815 0.026797818 -0.11865802 0.07125321
-0.15842928 0.0029202704 -0.12950973 -0.16124232 0.16728036 -0.13744725 0.10248614 0.06337649
0.057396322 -0.17190775 0.08018563 0.051013663 -0.10393768 0.13585217 0.16527614 -0.008424979
0.09706741 0.11003949 -0.12851152 0.14795178 -0.09994919 0.10481973 -0.006123231 -0.096571505
0.18020381 -0.11073679 0.13003264 0.07042418 -0.14455155 -0.0108364355 -0.19015358 0.16431531
0.026288697 -0.19466911 -0.17325538 -0.117740296 0.04196252 0.006399307 0.19759786 -0.008116361
-0.040841144 0.16516268 0.02169028 -0.14792775 0.13859074 0.14564516 0.0070753046 -0.059889074
-0.027211897 0.03587991 -0.10407952 0.084138535 0.14893776 -0.011194966 -0.061800182 -0.067968994
-0.057484593 -0.08374415 -0.09921771 -0.04487391 0.0035705 -0.04592698 0.06312902 -0.047412984
-0.161241 0.13818355 0.1725584 -0.017551253 0.09630056 0.009133038 -0.11450398 -0.1300361
-0.16742714 0.16623813 0.08347956 0.16108246 -0.105790645 -0.17599502 0.18829377 -0.19938038
0.18124036 -0.056691013 0.09708345 -0.07209109 0.12394305 -0.07072994 -0.06678156 -0.084342085
0.008044798 0.08368129 -0.15620081 -0.15603904 -0.03117409 -0.03372246 -0.06800164 -0.17313512
-0.1990056 -0.1171751 -0.096652225 -0.086703315 0.099349394 -0.112902604 0.12678364 0.10193155
-0.044980623 -0.17291144 -0.18933877 0.1505078 -0.18765551 -0.11049707 0.09412191 -0.07650842
0.016310709 -0.15474756 -0.12053994 0.19090116 -0.06012215 0.13598958 -0.0387769 0.100306004
0.0137742795 0.14713132 0.043440923 0.013961337 -0.08849703 -0.06724453 -0.15726581 -0.006021688
-0.06720354 -0.1076898 -0.039911035 0.00040400878 0.041349746 -0.11336135 -0.037372287 -0.020471124
0.06467608 0.0207888 -0.15936446 0.18946263 -0.12887812 0.17422871 -0.1752262 0.045221165
-0.0011249315 0.09060612 -0.14988346 -0.066106185 0.0023129317 -0.06325922 0.14216307 0.17814612
-0.0684356 -0.15171064 -0.012695901 -0.17523241 -0.20268531 0.17356187 0.11811857 -0.07837786
-0.15510294 0.08665238 0.1045002 -0.20330375 -0.13225347 0.14497678 0.09798032 0.004382641
0.16912939 0.07612668 0.12491512 -0.09878131 -0.13687898 0.031638023 -0.08742787 -0.17104527
0.06148114 -0.04519944 0.00067856687 0.12526155 -0.08427428 0.108186185 0.023227207 -0.12013421
0.10702547 -0.03605595 -0.09226872 -0.14634983 -0.0016307697 0.1520314 -0.08289251 0.1411938
-0.19565217 0.1399972 -0.10461445 0.0056574745 0.14467964 -0.13507286 -0.15266694 -0.16211945
-0.16813059 -0.006084415 -0.12369062 0.16070038 0.0604743 -0.15762718 0.016677935 -0.20388567
-0.20209974 0.18357524 -0.17404854 -0.1656917 -0.077161625 0.15915407 -0.016090063 0.09747645
-0.008689833 0.17469 0.01867353 0.034984708 0.15336728 0.14332291 -0.12946203 0.11975463
-0.032744937 0.13938513 0.1501049 -0.16240777 -0.117669076 -0.17769322 -0.03705655 -0.07876081
-0.053969536 -0.036407273 -0.14463331 0.14614168 -0.057034183 -0.08939262 -0.19871408 0.08793486

layer_stack.0.layer_stack.2.bias f4 [24]
00000000: 3cf2 a53d 90e5 2bbe 179e 1fba d319 0abe
00000010: 2db2 073e c2f4 1f3e adac 8fbd fb5d ddbd
00000020: c142 423e df54 553c 5250 033e 8769 3f3c
00000030: 29be a23c af9d 83bd 67f6 cc3d 554d 133e
00000040: 408a 043e dc90 5cbd 4156 493e 6b79 47be
00000050: 9557 223c 31ff 253e 1d80 1abe 9b9b 44be
0.08102843 -0.1678679 -0.0006088926 -0.13486414 0.13251562 0.15620711 -0.07015357 -0.10808941
0.18970777 0.013020723 0.12823609 0.0116828745 0.019866066 -0.0642656 0.10007935 0.14384969
0.12943363 -0.053849086 0.1966181 -0.19479911 0.0099085765 0.16210629 -0.15087934 -0.19199984

layer_stack.0.layer_stack.4.weight f4 [24, 24, 1, 1]
00000000: e41f 213e 657c 253d a941 0fbe 3131 803d
00000010: 63a1 333e a09a 1f3e 69a0 043e 9720 7d3d
00000020: ff18 3c3e c6d8 493e eba7 b83d d5aa 98bd
00000030: ced5 24bc 2b26 41be ad22 06be d3e0 063e
00000040: f64d 24be 1831 4ebd d44f 2ebe 2ff8 bd3d
00000050: bb94 ffbd 5fa3 a53d 0278 a83d 6a28 47be
00000060: 6290 3a3c f18e 0abe aa78 08be eb85 453e
00000070: c4e6 dcbd db88 0ebe 0f37 07be b886 2dbd
00000080: 5c90 d1bc 7259 293e c98b 2cbe 3f7f bcbd
00000090: af5d 4e3e ba8d e93d 329a dd3c cf2a 2c3e
000000a0: 42bf c8bd ac6f 793d cbc4 03be 46ba 103e
000000b0: fd5e 163e 6e46 31bc f035 a9bc 05cf 3ebe
000000c0: 0acd 2fbe 6277 e13d 9ebc 96ba d8c8 cdbd
000000d0: 90d2 48be 0141 25be 0c05 4f3e cfdf 093d
000000e0: 0b8a a63c 514b d93d 1265 69bd 477f d03c
000000f0: 08d2 04be c47c aa3d 0b9f cdbd 8e17 4a3e
00000100: a72e 0b3c 3f64 f4bc d0e9 ed3d 3bf0 163e
00000110: 5ace a53d ca86 50bd f2c1 233c 1b25 49be
00000120: 49ad 8c3d 6985 33bd ce22 96bd c130 b93d
00000130: 54fe abbd c4fc 293e eb99 4bbe 1d80 41bd
00000140: 39ae 79bd 2929 4dbd ed7d c8bd 9232 83bc
00000150: 87f9 9dbd ae5e 9e3d 6f61 a3bd ba82 fa3d
00000160: 574e 3d3e ed88 35be eacf 47bc 859c 8b3d
00000170: 337c cfbb 0f94 473e abf7 cb3d ce99 2e3e
00000180: ac6d d8bd 2fbf 863d ac21 293e cd4b 3f3e
00000190: cbe4 c53d b679 70bd 108b bdbd eb1d fdbd
000001a0: 3510 8fbc f89a 293e 5305 443b 1760 263e
000001b0: 4303 ad3c 4876 043e 9aef ae3b 3952 023e
000001c0: 05fc 8d3d 17ea 3ebe 72ba 0bbe 996a 3d3e
000001d0: 21bd af3d 08ad e83d e7fe 293e c358 543c
000001e0: c1f7 5dbd c9ed 193e b482 993d ad95 1cbd
000001f0: cbeb 353e eba4 09be ee2e 49bd b8b0 eb3d
00000200: c462 943d c5d4 253d 057e 05be 61d2 0fbe
00000210: ac60 bb3d 9e69 fe3d af2b 603d 8c45 3d3e
00000220: 4280 2b3e 0836 e73d 05d3 4f3e 01a0 2e3e
00000230: ae16 853d 7209 323e 0387 bc3c 7beb 6a3d
00000240: 3d3e 43be ceb2 443d db5e babd 17e4 843d
00000250: 4ebe c43d 1a91 febd 397a 79bd 1f5d de3c
00000260: cf9a 04be fd44 623d 235f b4bd b444 033e
00000270: a7df a2bd 3658 e93d d708 803d e86b f23d
00000280: 5662 873d 420c 323e fc51 893d b92f a83d
00000290: 89d2 623d 3263 28bd 40a0 58bd 13c2 08be
000002a0: 9f69 1e3d 4d42 e5bd 2ba0 d7bc c549 9d3d
000002b0: 5e48 c93d 6292 503e 98e9 6a3d caf7 a1bd
000002c0: 97bf 3dbe 0591 153e d358 883d ac30 cb3c
000002d0: 704d 5f3d c9f5 283c 787e 2f3e 316f c6bd
000002e0: 95ac 2f3d c808 433e 460c 32be b0d6 0dbe
000002f0: 1876 0ebe d846 e9bc 2b6a 2bbe 7d19 1f3e
00000300: 4399 0f3e ab43 15bd d385 b03d d04a c8bd
00000310: deb0 b0bd ae5f cfbc 22d5 fabd 2c98 083e
00000320: c826 143b 94ca 9b3d 3f7e 9dbc a8ed 653d
00000330: c473 dbbb 06fe 503d 7a79 ab3c deb7 91bd
00000340: a482 df3d ed93 d63d 7f9c 983d d88a 27bd
00000350: 865e e63d ced9 9d3c 89dc e8bd 2961 c7bc
00000360: 45bd c2bb 82bb 02be 7eec 463e c2b6 41be
00000370: 72ab 0bbc 0c1b 643d f2b5 79bd 84e1 d83d
00000380: b4bc 123d 5190 27bc 65bd 403e b0eb 3f3e
00000390: cc6c 42be 69d6 483d 1495 8c3d 4206 1bbe
000003a0: 92ee a8bd 9820 7bbd 8a71 4bbc 0655 3bbe
000003b0: b1d0 763c 8ee4 27be 48a7 48be cae0 5c3d
000003c0: 3f20 1bbd fb6d ddbc 11a2 3cbe 5164 1fbe
000003d0: 4eec d8bd e0f0 2c3d d374 1fbe a816 aabd
000003e0: 4106 03be 096a 513d 2d9f 1bbe 97e8 8c3c
000003f0: 1ef2 c93d 44eb 713d 872d 31be a325 0cbe
0.15734822 0.040401835 -0.13989891 0.062593825 0.17542033 0.15586329 0.12951817 0.06179866
0.1836891 0.19711599 0.09016403 -0.074544586 -0.010060741 -0.18862216 -0.13099165 0.13171701
-0.16045365 -0.05033979 -0.1702264 0.09275853 -0.1247954 0.08087801 0.08226015 -0.1944901
0.011386963 -0.1353109 -0.1332728 0.19289367 -0.107862025 -0.13919394 -0.13204597 -0.042364806
-0.025581531 0.16538027 -0.16850199 -0.09203958 0.20152925 0.11403985 0.027051065 0.16813205
-0.098021045 0.060897514 -0.1286804 0.14133558 0.14684673 -0.010820014 -0.020655602 -0.18633659
-0.1716806 0.110090986 -0.0011500304 -0.100480735 -0.19611573 -0.16138078 0.20216769 0.033660706
0.020329496 0.106100686 -0.056981154 0.025451316 -0.12970746 0.083245784 -0.10040101 0.19735548
0.0084950095 -0.029832957 0.11616862 0.14740078 0.08095999 -0.050909795 0.009994971 -0.19643061
0.06868989 -0.0438284 -0.07330857 0.09042502 -0.083981186 0.16600329 -0.19882934 -0.04724132
-0.060957167 -0.05008808 -0.097896434 -0.016015325 -0.07713609 0.077329025 -0.07977568 0.12231965
0.18486916 -0.17728014 -0.012195567 0.06816963 -0.0063319444 0.19490074 0.09959348 0.1705086
-0.10567793 0.06579434 0.16516751 0.1868126 0.096627794 -0.058709823 -0.0925504 -0.12359222
-0.017463783 0.16563022 0.00299104 0.16247593 0.02111972 0.12935746 0.0053386213 0.12726678
0.069328345 -0.18643986 -0.13645342 0.18497695 0.08580995 0.11361128 0.16601144 0.012960616
-0.054191355 0.15032114 0.07495633 -0.03822868 0.17765729 -0.13441817 -0.04911702 0.11508316
0.072454005 0.040486116 -0.13036354 -0.14045097 0.09149298 0.12422489 0.05472916 0.18483561
0.16748145 0.112896025 0.20295341 0.17053224 0.064984664 0.17386416 0.023013597 0.057353478
-0.19066711 0.048022084 -0.091001235 0.06488817 0.0960661 -0.1243002 -0.060907576 0.027144013
-0.1294968 0.055241574 -0.088072084 0.12819177 -0.079528145 0.11393778 0.06251686 0.11836988
0.06610553 0.17387488 0.067050904 0.082122274 0.055376563 -0.041110225 -0.0528872 -0.13355283
0.038674947 -0.111942865 -0.026321491 0.07680086 0.09828256 0.2036834 0.05735168 -0.0790859
-0.18530117 0.14606102 0.06657567 0.024803482 0.05451721 0.010312506 0.17138088 -0.09689177
0.042889196 0.19046319 -0.17387494 -0.13851428 -0.13912237 -0.028476164 -0.16739719 0.15537067
0.14023308 -0.036441486 0.08619275 -0.09779894 -0.08627485 -0.025314178 -0.12247683 0.13339299
0.0022606123 0.07606998 -0.019225238 0.05613485 -0.00669715 0.051023506 0.020931948 -0.07115148
0.109135896 0.10477433 0.07451724 -0.040903896 0.11248498 0.019268896 -0.11370189 -0.024338322
-0.005942973 -0.12766841 0.19426152 -0.18917373 -0.0085247625 0.055689856 -0.060964532 0.10589889
0.035824493 -0.010227279 0.18822248 0.18742251 -0.18986815 0.049032602 0.06864372 -0.15139106
-0.08248629 -0.06131038 -0.012417207 -0.18294153 0.015064404 -0.1639578 -0.19595063 0.053925313
-0.03787255 -0.027029982 -0.18421198 -0.15565611 -0.105919465 0.042221904 -0.15571909 -0.083051026
-0.12795354 0.051126514 -0.1519744 0.017200751 0.09860633 0.059062257 -0.17302524 -0.13686232

layer_stack.0.layer_stack.4.bias f4 [24]
00000000: b129 233d cbed b73d 5fb9 643d 1528 8e3d
00000010: ed7e 2bbd 2cf3 21bd a25e 593c e576 343e
00000020: b432 ea3c 622e 29be 0ed5 8f3d c8cb 44be
00000030: 3a69 16be 2c3b 1ebe 55de 353e 2080 9fbd
00000040: d9a3 dd3d 3ce5 4f3d d8c6 02bd b3ae c63d
00000050: 09cc 0e3e 9d92 d13d 855d cb3d b56c d63d
0.039834682 0.08980902 0.055840846 0.06941239 -0.041869093 -0.039538547 0.013267191 0.1762348
0.02858863 -0.165216 0.07023059 -0.19218361 -0.14688578 -0.1545226 0.17760594 -0.0778811
0.10822267 0.050755724 -0.031927913 0.0970129 0.1394502 0.102330424 0.09929947 0.10469953

layer_stack.2.layer_stack.0.weight f4 [10, 24, 3, 3]
00000000: cde8 7f3d 5da0 e83c cd0f 99bc a7b4 0dbd
00000010: a330 8e3c ed22 f3bc b8ee 2ebd 4fab c03c
00000020: 0418 853d 56cb 52bd 565e eabc 3203 fdbc
00000030: 6f6a bbbc ff5c 20bc e49c 67bd 8f45 07bd
00000040: 4c83 a93c 91f9 44bd 7df8 59bc 5435 c4bc
00000050: c6c8 3ebd 5a94 b7bc db30 cdbc bff6 1f3d
00000060: db70 0dbd 0417 58bd 9dc7 62bc 0acf 133d
00000070: 96b5 9f3c b725 8a3c 9e94 0dbd 0812 733c
00000080: 35ef 1abd b1c3 103d e0b3 b83c ccef 37bd
00000090: 2194 7cbd 80dd 883d a9f1 17bc 051c 2a3d
000000a0: 84ae 9c3b 6c77 883d 0854 7abd 45b1 b4bb
000000b0: 0dd7 54bd eaec 723b 84ba dbbc 6957 71bd
000000c0: 7d2d 83bc 4401 c0ba c2ad 2dbc 590e 16bc
000000d0: 69c5 643d ca5c 3ebd e25b 6b3b e099 42bd
000000e0: b775 43bd 519e 3abd 649c 3e3d 4039 4f3c
000000f0: d820 1fbd 1f63 d03c 9366 01bd fa13 37bd
00000100: e1cc 36bc 05d8 ca3c bebd 68bc 9408 583d
00000110: f1cb 4f3d 792b 173a 983d 563d fbea 773d
00000120: d6e2 593c d5ee f53c b65f 45bd 815c 85bc
00000130: 10c1 d93c 8eaa cabc dd42 ddbb d9ef 55bd
00000140: 6142 84bd b9be 483d 8388 babc 7757 853d
00000150: fdd1 ccbc cfca 6abc b981 e13c b02b 7dbd
00000160: 08ea de37 afbc 86bd 6a25 e13c 9c55 92bb
00000170: 0306 713d c23d 73bc a584 75b9 3fb2 c3bc
00000180: c2b8 8e3c 9dc9 743b 0367 f6bc 114f 433d
00000190: 8798 773d 3313 f4bb 5e53 463d 2158 ff3a
000001a0: b21d 70bd de28 773c 9ad8 c13b 6b97 2e3d
000001b0: d92d 45bd ed5d 073c 6c55 da3c 9608 633d
000001c0: 2c39 5bbd ce1f 82bb 076e 1dbc 0578 1cbd
000001d0: 6f55 833d faab 053d 8e21 8abd a1c5 913c
000001e0: f5c3 503d 4c8b 763d f3f3 9b3c 2609 843d
000001f0: 8cbd 44bd d714 843d 651c 2d3d 4ed1 88bc
00000200: d4e3 64bc 0f43 623d 1f1b f43c d974 32bd
00000210: 22bf 7a3d 6666 a83c 30bc 81bd 2749 c03c
00000220: 5828 c73c b942 fdb8 4187 debb f880 62bd
00000230: 6110 d33c f561 fb3c cc16 73bb c8cb 5c3d
00000240: 645b c33c ec81 a73b 0cfd 78bb 5256 343d
00000250: 09bf 87bd 9f7e 8abd 9290 32bd f8c6 68bc
00000260: 109e bd3c 2b85 0c3d 2a7d 1cbd 90fc 90bc
00000270: 99f1 a93c 2681 0abd f373 4cbb fd9c 163d
00000280: d8e4 303d a615 313d e070 7f3c 06bc 13bc
00000290: 02f5 293c d2a6 21bd 4b16 7dbd 8309 403d
000002a0: 1ce7 aabb ed1c c7bc f884 99ba e9ea ea3c
000002b0: ffb3 ac3b 741d 223d d439 203d 4f0c 123d
000002c0: 36ae 8abb af27 573c 7e46 833d 3f70 8bbd
000002d0: 5d30 893d 71de 673d e823 f1bc 4a3a c03c
000002e0: ec39 4a3d dd8d 13bd 8c10 df3c 0587 733c
000002f0: 33d0 5ebd 6d52 f53c 6489 023d 67ef 7f3d
00000300: 6b34 03bc f5ea c7ba e81f 4abd 147d 1cb9
00000310: f06e 73bd 8a83 86bc bdab e03c d028 52bd
00000320: 6794 05bd a669 cb3c 0e46 19bd 8012 fd3b
00000330: fcfc 523d e1da 7b3d 09c6 f9bc 5e71 913c
00000340: 3c12 76bd d071 5dbd 57bb 43bd 609e 04bd
00000350: 4bab cd3c 0553 b83c 2709 22bd b811 873d
00000360: 02a7 83bd d7ec 6cba 2b45 0fbc b609 14bd
00000370: ffb0 893d 4e6e 093c 7a57 88bd 0663 bbbb
00000380: 9db5 dfbc 76d3 313d 0331 873d c459 e9bc
00000390: 4161 fb3c 0442 423d 1ca9 123c 287d 083d
000003a0: 2f4c 37bd 0a42 8b3d a6d9 8b3c d280 683d
000003b0: a425 3b3d e9ee 8d3c f694 b2bc 90aa 3bbd
000003c0: c977 5d3c 7b97 983c 4bc2 2bbd 9593 60bd
000003d0: 5928 b1bc 762a 81bd 3331 53bd 0cdd 703d
000003e0: fdfa 79bd 1dcc 20bc cb57 b03c 5f07 b73c
000003f0: 7d5a c13c 9431 333d aa0d f13c dac4 083d
0.062477876 0.02839678 -0.018684292 -0.03459611 0.017357176 -0.02967974 -0.04270813 0.023519186
0.06498721 -0.051463448 -0.028609436 -0.030885313 -0.0228779 -0.009787797 -0.056546107 -0.03302532
0.02069249 -0.048089568 -0.013303873 -0.02395121 -0.04657819 -0.022409607 -0.02504771 0.039053675
-0.034531455 -0.052756324 -0.013841537 0.03608612 0.019495767 0.016863687 -0.03456556 0.014835842
-0.03782578 0.035342876 0.022546709 -0.044906422 -0.061664704 0.06682873 -0.009273925 0.041530628
0.004781546 0.06663403 -0.061115295 -0.0055142962 -0.0519629 0.0037067481 -0.026822336 -0.05892125
-0.016012901 -0.0014648815 -0.010600509 -0.009158694 0.055852327 -0.04647521 0.003591292 -0.047510028
-0.047719683 -0.04556114 0.046535864 0.012647927 -0.03884968 0.02543789 -0.031591963 -0.044696786
-0.011157245 0.02476121 -0.014205394 0.052742556 0.050731603 0.0005766671 0.052304834 0.06052683
0.013298711 0.03002111 -0.04818698 -0.01627946 0.026581317 -0.02473953 -0.0067523555 -0.05223069
-0.06457973 0.049010012 -0.022770172 0.06510823 -0.025002474 -0.01433058 0.027527677 -0.06180924
2.6573442e-05 -0.06578957 0.02748366 -0.004465772 0.058843624 -0.014846267 -0.00023414435 -0.023888705
0.017422084 0.0037351616 -0.030078417 0.047682825 0.060448196 -0.007448578 0.04841935 0.001948122
-0.05862207 0.015085427 0.0059157135 0.042624872 -0.048139427 0.00826214 0.02665206 0.05542811
-0.05352132 -0.0039710766 -0.009608752 -0.038200397 0.064127795 0.032634713 -0.06744681 0.017794432
0.05096813 0.060191438 0.019037222 0.064470574 -0.04803233 0.064492874 0.042263407 -0.016701367
-0.013970334 0.055239733 0.029798089 -0.043568466 0.061217435 0.02055664 -0.06334722 0.023472382
0.02431123 -0.00012076408 -0.006791026 -0.055298775 0.025764646 0.030686358 -0.0037092445 0.05390528
0.02384729 0.0051119234 -0.0037992625 0.044027634 -0.06628234 -0.06762432 -0.043594904 -0.014207594
0.02314666 0.034306686 -0.038205303 -0.017698556 0.020745086 -0.03381457 -0.003119704 0.03677081
0.043186992 0.043233536 0.015590876 -0.009016996 0.010373356 -0.039465733 -0.06178884 0.04688407
-0.0052155387 -0.024305785 -0.0011712601 0.028676467 0.0052704806 0.03957887 0.03911765 0.03565627
-0.0042321933 0.01313202 0.0640993 -0.068085186 0.06698678 0.05660862 -0.029436067 0.023465294
0.049371645 -0.036023963 0.02722957 0.014863734 -0.054397773 0.02994653 0.031869307 0.06248417
-0.008008103 -0.0015252518 -0.049346834 -0.00014923915 -0.05943197 -0.016420145 0.027425641 -0.051308453
-0.03261223 0.02483065 -0.037420325 0.0077231526 0.051510796 0.061488036 -0.030489938 0.017754253
-0.060075983 -0.05406362 -0.047786083 -0.0323776 0.025106093 0.022500524 -0.03955951 0.065951765
-0.064283386 -0.00090379774 -0.008744518 -0.036142074 0.067232125 0.008388115 -0.0665731 -0.0057185916
-0.02730828 0.043414555 0.06601145 -0.028485186 0.030686023 0.04742624 0.008951452 0.033322483
-0.04475039 0.06799705 0.017071556 0.056763478 0.045690194 0.017325835 -0.021799546 -0.045816958
0.013517329 0.018626919 -0.04193334 -0.054828245 -0.021625685 -0.06306927 -0.051560592 0.058804557
-0.061030377 -0.009814289 0.021526238 0.022342382 0.023602718 0.043748453 0.02942546 0.033390857

layer_stack.2.layer_stack.0.bias f4 [10]
00000000: 677a 023c aa5d 2bbc 6384 31bd e75b 81bd
00000010: 6cc7 143d 5922 71bd e163 72bd 10de 9c3b
00000020: ed5b 883d 8141 b03c
0.007963753 -0.010459343 -0.043339144 -0.06316357 0.036322996 -0.058870647 -0.059177283 0.004787214
0.066581585 0.02151561

layer_stack.2.layer_stack.2.weight f4 [10, 10, 1, 1]
00000000: df7b cbbd 4c92 3d3e 734f 203e b6d7 943e
00000010: 0acb 77be a80c 0fbe 3f42 9abe ebb8 063e
00000020: 14cc 8b3e 101b f93d e090 91be 1b85 60bc
00000030: 0574 92be 9e07 99be 5e71 373e 732b 923d
00000040: f043 d53c d816 5bbe d9c4 25be e15d d83d
00000050: 97f5 61be 53e0 f7bc 4309 973e 14c6 cebd
00000060: 566b 50bd 4ce8 93be 6b32 f93c 97d9 5b3e
00000070: 5ec9 bfbd 389c ecbd 25ac fc3d e58a 39be
00000080: 210d afbd 3057 69bd 09ea 5ebd 3aa3 a3bd
00000090: 64de 973e 5b33 bebc 24f5 87bc fc72 713d
000000a0: 2091 a73c a32b edbd e833 4c3e dbfa 8f3e
000000b0: dffb 45be 3684 85be a9dc 6a3d e36a e53d
000000c0: b486 cabc c354 87be 4407 99be f100 a23e
000000d0: 266b 87be 235c a5bb 415e 753e a9ac 043e
000000e0: 8191 86bd 7b1e 463e f9c0 0dbe 50f1 fbbd
000000f0: 1e18 843d 47eb 2a3e d577 23bd 9d20 8bbe
00000100: 53a6 80be 7c52 c9bd a7b7 033e 3f43 84be
00000110: 7680 ae3d cb6a 85bd da8b 0a3e 57e6 4ebe
00000120: 1ad2 a23d fd25 26be 4e50 e1bd 90de 57be
00000130: 20df 513e e0ed 4dbe 2780 853e eaf8 d23d
00000140: cf23 893e beb6 9dbd c44a 913e 4149 1abe
00000150: 2a91 033d 37b2 a03e 5b51 313e e1ea 9e3d
00000160: 3ae3 b2bd eabb a0be 619a b7bd f7e7 673c
00000170: 8652 2e3e 8d88 df3d 62ff 8b3e 4c21 6fbe
00000180: f18a 933e 38b5 8fbe 5a03 8fbe 88f9 92be
-0.09935736 0.18512839 0.15655307 0.29070824 -0.24198547 -0.13969672 -0.30128667 0.13156478
0.27304137 0.12163365 -0.28430843 -0.01370361 -0.2860414 -0.29888624 0.1791434 0.071371935
0.026033372 -0.21395433 -0.16188373 0.10564781 -0.22066341 -0.030258333 0.29499254 -0.10096374
-0.050883614 -0.28888166 0.030419549 0.21469723 -0.093645796 -0.11553234 0.123375215 -0.1811939
-0.08547426 -0.056967914 -0.054422412 -0.07990117 0.29661858 -0.023217848 -0.016596384 0.05894755
0.020454943 -0.11580589 0.19941676 0.28121075 -0.19334362 -0.2607743 0.057339344 0.11202028
-0.024722435 -0.26431856 -0.29888356 0.31641343 -0.26448935 -0.005046384 0.23961736 0.1295649
-0.065707214 0.19347565 -0.13843144 -0.12301886 0.064499125 0.16691314 -0.039909203 -0.2717332
-0.25126895 -0.09830186 0.12863027 -0.25832555 0.08520596 -0.0651451 0.13529912 -0.20205055
0.0795023 -0.16225429 -0.11001645 -0.21080995 0.20495272 -0.20110273 0.26074335 0.10301383
0.26785132 -0.07700871 0.28377354 -0.15067007 0.03212086 0.31385967 0.17316191 0.07759643
-0.08734746 -0.31393367 -0.08964992 0.014154426 0.17023668 0.10914717 0.2734328 -0.23352545
0.2881694 -0.28067946 -0.27932245 -0.28706002

layer_stack.2.layer_stack.2.bias f4 [10]
00000000: 8f47 83be 65ec 183e bc97 b63d dd83 1a3e
00000010: cd47 59be 6baf 7b3e 7590 a1bd 0855 d1bd
00000020: cefa 9a3e e76f 4f3e
-0.25640532 0.14933927 0.0891566 0.15089364 -0.21218796 0.24578635 -0.07888881 -0.102212965
0.30269474 0.20257531

layer_stack.2.layer_stack.4.weight f4 [10, 10, 1, 1]
00000000: e3be 803e fe99 663e 9fce f63d 09eb 953e
00000010: e58f ac3c 9e17 583d b010 a5bd 3d1e 6e3e
00000020: 2be8 41be 3e4b 193e 4c8f 893e 4a45 a93d
00000030: 6d4e 303e a393 87be a0a2 033e 0880 de3d
00000040: 1c1e 2a3e 4472 ad3d ed8e 2a3d 3bbb e9bd
00000050: b424 503e aa11 84be dfed 9d3e 5e58 27be
00000060: 0e18 5bbe 50e3 ff3d 4f65 573e e7a4 58bc
00000070: cf51 343e c680 8f3d 0b19 473e 9f6c 37be
00000080: 7551 86be 774f b5bd e356 0a3e c3c6 613d
00000090: 931b 97be 6f8a 743e 6dbb f43d f4da a03e
000000a0: 83a3 993e 8a93 983e b4f3 29be 63f0 8c3e
000000b0: c326 dfbd 3747 c43d 326b 45be 6ccf 2d3e
000000c0: 5d77 3f3d f186 cd3d 66f4 6e3e b73e 1d3e
000000d0: ceac 2bbd 4459 4ebe 8e47 0f3e 00ae 29be
000000e0: d8e7 333e ee3f 02be 7ad1 ca3d 4239 763e
000000f0: e240 1dbe 92e0 73be 9abe ab3d 7aca 603d
00000100: 183d 10bc 5508 4e3e 9bcd 68be 76f6 47be
00000110: e8a8 8b3d 4372 293e bbba 6a3d 4925 64bd
00000120: 66e5 78bd fc47 50be 9aa2 613d 89c1 3d3c
00000130: 26aa 4ebe 78f5 203c aadc 6fbe 9daa 65bc
00000140: 754e 89bd ddeb 543e e1d8 94be 0639 e23d
00000150: b23a 3c3c 09e3 7e3e ce1b d53d 1e97 243e
00000160: 0b53 9bbe b39e c73d 848d 6f3e fed6 593e
00000170: 0095 833e c085 35be 506d dd3c d249 4c3c
00000180: c211 f63d 8e80 1abe 317a 22be bfe8 dabd
0.25145635 0.22519681 0.120511286 0.2928088 0.021064708 0.052756898 -0.080598235 0.23253722
-0.18936221 0.14970109 0.2686714 0.08265169 0.17217417 -0.26479825 0.12855005 0.10864264
0.16613048 0.0846906 0.04164021 -0.114126645 0.20326501 -0.25794727 0.30845544 -0.16342303
-0.21395895 0.12494528 0.2103474 -0.0132229095 0.17609333 0.070069835 0.19443147 -0.1791253
-0.26234022 -0.08853047 0.13509707 0.055121195 -0.29513225 0.23880933 0.11949811 0.31417048
0.30007562 0.29800063 -0.16596872 0.2752715 -0.10896065 0.09583896 -0.19279173 0.16973656
0.046744693 0.10035504 0.23335418 0.15355955 -0.041912846 -0.2015124 0.1399214 -0.16570282
0.1756891 -0.127197 0.09903236 0.2404528 -0.15356782 -0.23816136 0.08385964 0.054880597
-0.008803628 0.20120366 -0.22734682 -0.19527611 0.06819326 0.16547494 0.057306986 -0.05569962
-0.060765646 -0.2033996 0.05508671 0.011581787 -0.20182094 0.009824149 -0.2342402 -0.014017728
-0.067044176 0.207931 -0.29071715 0.110460326 0.011488603 0.24891295 0.10405694 0.16073272
-0.30336794 0.09747066 0.23393828 0.2127342 0.25699615 -0.17726803 0.027029663 0.012468772
0.12015106 -0.15088102 -0.15866925 -0.10688924

layer_stack.2.layer_stack.4.bias f4 [10]
00000000: bad2 07be ff9f 943e c478 07be cbec 953d
00000010: 6ab5 19be 525e f93d 62db 72bc b507 41be
00000020: e89d 693e 0f2e d7bd
-0.1326398 0.29028317 -0.13229662 0.07320555 -0.1501061 0.12176193 -0.014822813 -0.18850596
0.22814143 -0.10506832

layer_stack.3.layer_stack.0.weight f4 [10, 10, 3, 3]
00000000: 279e 57bd 8323 943d bbe4 56bd 983f 9ebd
00000010: 6c22 1d3d dea2 9dbd ec76 89bd ab8f b9bc
00000020: 38c0 5cbd 065d 1a3c 8003 f23c 5926 cd3c
00000030: 5866 033d ee65 d93a cb77 6b3d aee3 933d
00000040: 0c11 cc3c c7af bd3d 8bab 10bc 1c3a b4bd
00000050: a0d9 bcbd 1e95 4a3d c558 763d 9cbd 033d
00000060: 7615 31bc 2527 fb3c 4e29 113d 9835 01bc
00000070: a055 1ebc eaaf b83d 5768 a1bd 1a44 b43d
00000080: baeb e83c 23a8 c43c 71e3 27bd 9cca 983d
00000090: 5592 853d 5343 6a3d 0209 a0bd baa5 6e3d
000000a0: b473 a83d b981 28bd 5128 b8bb 2f94 d23d
000000b0: 7285 bf3d dac7 38bd b2c2 a53d de59 503d
000000c0: 51b0 7b3d 733f 8abd e0f6 36bd c98a 163d
000000d0: 7d38 813d 1303 e8bc dcc3 31bc 7ff8 96bd
000000e0: 5087 863a e093 a13d d050 80bd f409 113d
000000f0: 1d14 9dbd efca b73d 50e4 10bc 3a4f f63c
00000100: b512 79bc e119 ce3d 1641 59bc 6274 d2bd
00000110: 2957 53bd 575d cfbd 9333 5bbd 36c3 cb3d
00000120: 5ea2 b1bd 9cf1 c13d d3de d0bd 83d1 c0bd
00000130: ae0a 56bc 1737 82bd 1ce8 9a3d f62e d2bd
00000140: cf0b 87bd 4f82 c93c 764d c03d 22f0 86bd
00000150: 8aad f2bc 7a80 123c e85b 053c 697d d13c
00000160: 9f66 72bd a480 9c3d 5e70 203d ed8f 21bd
00000170: 95b1 ac3d c917 963d f9ca 913d a948 b23d
00000180: 5a16 71bd cbf8 c7bc c326 dbbc 22ee cdbc
00000190: 02cc a4bd d7b5 533d 3d17 90bd a9fc 14bd
000001a0: b111 c13c f689 95bc 6b55 52bd 1463 7c3d
000001b0: acab 2c3d e323 403d dd70 a43d 30b2 d4bc
000001c0: 230e bfbd 588d b1bd 3a1c 823d 95b7 8cbd
000001d0: 1cd0 b3bc 0796 4ebd dd49 913d 229f 613d
000001e0: 7274 ac3c b7ef 1dbd 00b1 76bd 62c6 c83d
000001f0: f8a3 383d 3a73 743d ec7b 4ebd 290b 9ebd
00000200: 3f40 62bd 429c 00bb 1782 cc3d e592 d8b9
00000210: 9805 4fbc efbd a2bd 2086 6939 7858 123c
00000220: c897 6abd 2cee eabb c299 003d 8faf 203d
00000230: d29f a8bd c102 49bd 8237 f8bc 7d51 c63d
00000240: bc50 cf3d 41b6 12bc 6bbe a6bc 0bb9 453d
00000250: e021 603d 2480 3b3d 5c8b b2bc 4db3 e7bb
00000260: 637c 2a3d 6e01 903d 182f 5b3d 0318 aa3d
00000270: c728 693d ca37 5e3d cff0 86bd 70fc 7ebd
00000280: 0b7e f7bc 2767 0fbc 118f adbd ed55 d73c
00000290: 1a00 38bc f2fe 25bc 16ae cebd 8a7c c8bd
000002a0: 2995 0bbd 09f2 863d a61b b23d 9661 8bbd
000002b0: 1d17 893d 4097 69bd 139c 85bc 24e1 b2bc
000002c0: f04a 7e3d 1dbb 6ebc c965 d33d 21d3 7e3d
000002d0: 891d cfbd d652 893d 236e 7a3d 3b75 a6bc
000002e0: 3d58 89bd 65ed 3cbd da55 113c be86 c8bd
000002f0: 5d59 bc3d 1d93 843d 9e20 5f3d bfbd 67bc
00000300: ddda c1bd d534 f5bc 867b 59bd 0571 95bd
00000310: 2875 97bd 463d b43d 1fee 7abd 0505 18bd
00000320: 1cae 4abb b1ae ba3d 14fa b1bd d025 abbd
00000330: 2006 27bd 788a d43c 8f8e 5bbd 5af1 a5bd
00000340: 1a7b 9a3d 7091 a8bd 02db 743d 4578 a8bb
00000350: e127 9e3d 8bbe c6bd 8af1 ccbd 458e bc3d
00000360: d0f6 393d dc9a 223c 7206 bcbd dd40 723d
00000370: b2fd a63c e028 aebc 27b8 2cbc a351 ad3d
00000380: f574 7bbd 341c 073d 5f3d 1ebd e20c cfbd
00000390: 4550 0d3d 0b5c 9b3d ae48 253c d7c1 bb3c
000003a0: 3410 02bd 7945 933d 73a7 393d 816d 0c3d
000003b0: 4a95 8bbd bc46 983c 488d 08bd 7c93 cabd
000003c0: 52cb 483d 7254 903d 00e7 b53d ae90 aabd
000003d0: 7b0d 8e3b aad8 c93d 13cf 9ebd bfb6 a4bd
000003e0: 1fbe 3d3c 8269 16bd 25e5 c03d 55c3 3fbd
000003f0: 64d8 b43d e4a0 f13c cbb6 c8bd 192c a93b
-0.05264106 0.07233336 -0.052464228 -0.07726973 0.038362905 -0.0769708 -0.06712136 -0.022651514
-0.05389425 0.009421593 0.029542685 0.0250427 0.032080024 0.0016586164 0.05748729 0.07221161
0.024910472 0.092620425 -0.0088299615 -0.08800146 -0.09221196 0.049458615 0.06014325 0.032163247
-0.010808339 0.030658314 0.03543978 -0.007886313 -0.009663969 0.09017928 -0.07881229 0.08802052
0.028432716 0.024005955 -0.04098839 0.0746052 0.06522051 0.05719311 -0.07814218 0.058263518
0.082251936 -0.04113934 -0.0056200405 0.1028217 0.093516245 -0.04511247 0.08093776 0.050866954
0.061447445 -0.06750383 -0.044669032 0.03675345 0.063096024 -0.028321778 -0.010849919 -0.073716156
0.0010263715 0.07889533 -0.06265414 0.035409883 -0.07669852 0.089742534 -0.008843496 0.030067075
-0.015202214 0.1006353 -0.013260147 -0.102761045 -0.051596794 -0.10125225 -0.053515982 0.09949343
-0.08673547 0.094699115 -0.1019875 -0.09414961 -0.01306407 -0.06358164 0.075638026 -0.10262863
-0.06594049 0.024598269 0.093897745 -0.065887704 -0.029623765 0.008941764 0.008139588 0.025572496
-0.0591799 0.07641724 0.03916966 -0.0394439 0.084323086 0.073287554 0.07118792 0.08705265
-0.058859207 -0.024410626 -0.026751881 -0.025137965 -0.08046724 0.051687088 -0.07035682 -0.036373768
0.023568006 -0.018254261 -0.051350992 0.061617926 0.042155907 0.046909224 0.080293395 -0.025963873
-0.09328868 -0.08669537 0.0635304 -0.06870953 -0.02194982 -0.050436046 0.070941664 0.0550834
0.02105162 -0.038558688 -0.060227394 0.098034635 0.045078248 0.0596802 -0.05041115 -0.077169724
-0.05523705 -0.0019624387 0.0998575 -0.00041308175 -0.012635611 -0.07946383 0.00022270577 0.008932225
-0.057273656 -0.0071695056 0.031396635 0.039229926 -0.08233608 -0.049074892 -0.030299906 0.096835114
0.10122821 -0.0089545855 -0.02035447 0.048272174 0.054719806 0.0457765 -0.021794967 -0.007070935
0.04162253 0.07031523 0.05351171 0.08305361 0.056923654 0.054252423 -0.06588899 -0.062252462
-0.03021147 -0.008752621 -0.084745534 0.02628609 -0.011230493 -0.0101315845 -0.10091798 -0.09789379
-0.034077797 0.06589133 0.0869668 -0.068057224 0.06693862 -0.05702901 -0.016309774 -0.021835871
0.062083185 -0.0145709785 0.10322148 0.062213067 -0.10113055 0.06705253 0.06114019 -0.020319572
-0.06706283 -0.046124835 0.008870566 -0.09791325 0.09196732 0.06473372 0.054474466 -0.01414436
-0.09465573 -0.029932419 -0.053096317 -0.072969474 -0.07395393 0.088007495 -0.061262246 -0.037114162
-0.0030926531 0.09115351 -0.08690277 -0.083568215 -0.040777326 0.025944933 -0.05360275 -0.08102675
0.07543011 -0.08230865 0.059779175 -0.0051412904 0.0772245 -0.09704312 -0.100070074 0.09206823
0.045401394 0.009924617 -0.09180917 0.05914389 0.020384643 -0.021259725 -0.010541952 0.084628366
-0.061390836 0.03298588 -0.038632747 -0.10109879 0.03450038 0.07585915 0.010088129 0.022919578
-0.031753734 0.07190985 0.045325708 0.03428412 -0.06815584 0.018588416 -0.03333786 -0.09891412
0.049022026 0.07047357 0.088819504 -0.08328377 0.004335103 0.098557785 -0.0775434 -0.080426686
0.011580973 -0.036721714 0.09418706 -0.046817143 0.08830336 0.029495664 -0.0980049 0.0051627276

layer_stack.3.layer_stack.0.bias f4 [10]
00000000: 686a 55bd 9c28 693a 84a3 bebd 4c06 d1bd
00000010: 566e 0b3d 4e89 d53b 4b26 db3d 4817 d2bd
00000020: e3ae fd3c 84ec 3ebd
-0.05210343 0.0008894296 -0.09308532 -0.10206279 0.03404077 0.006516612 0.10700663 -0.10258347
0.030967182 -0.046612278

layer_stack.3.layer_stack.2.weight f4 [10, 10, 1, 1]
00000000: 6c8a 92be 0031 edbd 814f 00be 4707 45be
00000010: 91cc bcbd ed28 433d cfac 11be 962f 8abe
00000020: 32cb 973e b98b 593e 8a59 d0bb 6512 78bd
00000030: b48d fa38 3f17 8bbe 9c28 5fbe c796 2d3d
00000040: 660d d13d 5aea 9fbe fc1f 90be 1084 9b3e
00000050: 44ea 88bd 927b 07be 725f 773d 47a8 4a3e
00000060: 44ad 31be 0113 023e 82b4 9cbd 4502 1e3c
00000070: 3456 833e f8b6 f13d e2ab 843e 9fb7 5bbe
00000080: 7f98 21be 76c7 a73d 8c92 06be 61f0 913b
00000090: 8c81 4bbe c615 a33c 5ba9 743e 1cd6 a0bd
000000a0: 4e79 27be 966f 10be 334e ffbd 3c9a 0d3e
000000b0: b576 74bd e18b c23b 6a33 713b 599f 413e
000000c0: 4f7e 50be ddb9 96bb 3c97 7d3e c708 823d
000000d0: 58c7 12be 6e9f 3e3e 283e 1c3e 9925 853d
000000e0: 4851 60bc 54ff 093e 0135 61be bd18 aaba
000000f0: 250d 5ebe 8d12 98be 6378 e33d 7fcf 923e
00000100: e831 693e ecf6 26be 4743 70bd 5354 8f3e
00000110: 87b4 babd 615a f73c c0c0 59bd 96aa e3bd
00000120: 4bad 6a3c 3a35 553e 22b1 5ebe 80a7 363d
00000130: 39d5 47bd bbdd 45bd 40ba e93d 3efe 97be
00000140: 8029 62be 0938 853c 8dd9 a13e fc75 d33d
00000150: 980d d3bd b711 02be eff2 28be 3182 8c3e
00000160: 2562 8c3b 546a 95be 5f5e 10be 2e5b 8fbe
00000170: 7a79 7fbe 535c 933e 372a ecbd c14c 913e
00000180: 2dd4 c6bc 13cd 533e 6e96 01bd d7d2 c43d
-0.28621233 -0.11581612 -0.12530328 -0.19241057 -0.092187054 0.04764645 -0.14226077 -0.2698943
0.29647213 0.21244706 -0.00635833 -0.060564417 0.00011947323 -0.27166173 -0.21792835 0.04238012
0.10207634 -0.31233484 -0.28149402 0.30374193 -0.066853076 -0.13230732 0.060393758 0.19790755
-0.17351252 0.12702562 -0.07651617 0.009644096 0.25651705 0.11802477 0.25912386 -0.21456765
-0.15780829 0.08192341 -0.1314184 0.004453704 -0.19873637 0.019907843 0.23892729 -0.07853338
-0.16354868 -0.14105067 -0.12466087 0.13828367 -0.05968352 0.005937085 0.0036804327 0.18908443
-0.20360683 -0.0045997933 0.24764723 0.063493304 -0.14333856 0.18615505 0.15258086 0.06501312
-0.013691254 0.13476306 -0.21992876 -0.0012977343 -0.21684702 -0.29701653 0.11106946 0.28673932
0.22772944 -0.1630513 -0.05865791 0.27994022 -0.09116464 0.030194463 -0.053162336 -0.11116521
0.014323543 0.20821086 -0.21747258 0.044593334 -0.04878733 -0.04830716 0.114124775 -0.2968616
-0.22086143 0.016262071 0.3161129 0.10325238 -0.10305327 -0.1270207 -0.16498922 0.27443078
0.0042841607 -0.29182684 -0.140985 -0.27999252 -0.24948683 0.28781375 -0.11531489 0.2837887
-0.024271095 0.20683698 -0.0316376 0.09610527

layer_stack.3.layer_stack.2.bias f4 [10]
00000000: 9124 44be a2db efbc 4033 24be 247e 3b3e
00000010: e03a 053d 2a76 933d 1ffd 8a3e 8b1a 8bbe
00000020: 269f 0fbe f89e 763e
-0.19154574 -0.029279534 -0.16035175 0.18309838 0.03252685 0.072002724 0.2714624 -0.27168688
-0.14025554 0.2408408

layer_stack.3.layer_stack.4.weight f4 [10, 10, 1, 1]
00000000: 3c37 48bc 97fd 83be 240e 233e e33e d83d
00000010: db57 463e 9cc5 8b3e 84e0 973e 64fb 883e
00000020: 5012 293e aa50 31be 742a 353e 8b93 3e3e
00000030: 5453 193e ac21 4f3e a4aa 8b3d 468d 8abe
00000040: a0a1 6c3e ee9b 8f3b 84ed c5bd 2730 3e3e
00000050: ea79 fbbc 9fc1 93be f1c8 91be 01bd 83be
00000060: 1dca 5d3e ebdb 16bd 83ec 063e 5614 3e3e
00000070: 0cc2 063e 7b8c 39be 8755 163e c403 cbbb
00000080: 89d8 893e e7c1 473e ce80 5b3e 838a 113e
00000090: fc62 88be f993 9abe 3337 ecbd 5248 0dbe
000000a0: 96ee 913d 2a40 2ebe 19a4 293e 6f08 afbd
000000b0: 692a b8bd da3a 813e aa22 9cbe b4b8 49bd
000000c0: ef8b 893e a516 23be c2d2 97be ad15 5e3d
000000d0: 7d4d 863d a4a9 41be d0b9 81be 28d5 093b
000000e0: 9a83 aabc 3fe0 6b3e 957d 493e 0678 babd
000000f0: 061a 1b3e b51c 833e 7abe 5c3e eb2a c33d
00000100: 9e01 82be 1172 91be d506 15bd 5d45 19be
00000110: 0063 0abe c096 aabe 2efd 3fbd 61f6 783b
00000120: c075 02bd 9144 703e b8f6 16be e108 643e
00000130: 80d4 04be 3d8f 29be fe3e 953e 8aab 30be
00000140: 1e16 503d 7833 b03d a4ea 5a3d 344b 6b3e
00000150: fd4d fcbd b15e 973d 86e6 bebd b346 adbd
00000160: 9d2d 58be 5ade 89bd 257f 36bd 2133 90be
00000170: b939 893e c50f 0f3d eca7 a2bd cf3a 6dbe
00000180: 82e4 b9bd 91cf 34be 5ce9 853e d8a6 0a3d
-0.0122202 -0.2577941 0.15923363 0.1055887 0.19369452 0.272992 0.2966348 0.26754296
0.16510892 -0.17315927 0.17691976 0.1861097 0.14973193 0.20227689 0.068196565 -0.27060908
0.2310853 0.004382602 -0.09664443 0.18573056 -0.030697782 -0.2885866 -0.2847362 -0.25730136
0.21659131 -0.036830824 0.1317616 0.18562445 0.1315996 -0.18119995 0.14681064 -0.0061955173
0.26923016 0.19507562 0.21435854 0.14212994 -0.2663802 -0.3019102 -0.11533966 -0.1379712
0.07125585 -0.17016664 0.16566505 -0.085465305 -0.08992464 0.25240213 -0.30495197 -0.049248412
0.26864573 -0.15926607 -0.29652983 0.05421989 0.065577485 -0.18912369 -0.25337076 0.0021031592
-0.020814706 0.23034762 0.19676812 -0.09104924 0.15146646 0.2560784 0.21557036 0.0952967
-0.2539186 -0.28407338 -0.03638347 -0.14967866 -0.13514328 -0.33318138 -0.04687231 0.003798865
-0.031850576 0.23463656 -0.14742553 0.22269012 -0.12971687 -0.16558547 0.29149622 -0.17252937
0.050802343 0.08603567 0.053446427 0.22977906 -0.123195626 0.07391108 -0.093213126 -0.084607504
-0.2111115 -0.06731863 -0.04455485 -0.28164008 0.2680185 0.03492715 -0.07942185 -0.23166965
-0.090767875 -0.17657305 0.26154602 0.03385052

layer_stack.3.layer_stack.4.bias f4 [10]
00000000: 5d81 dcbc 381d 3bbd ff49 cb3d f723 023e
00000010: d94b 343e 6265 063e 9579 263e 4e80 28be
00000020: 8090 863d 08c9 bd3d
-0.026917154 -0.045682162 0.09926223 0.12709032 0.17607059 0.13124612 0.16257317 -0.16455194
0.0657053 0.09266859
