state_tests/nets/dubconv2.pth (torch, 26371 bytes, 18 tensors)

layer_stack.0.layer_stack.0.weight f4 [24, 1, 3, 3]
000000 01 02 01 bd b9 42 63 be 75 35 7b be 58 06 60 be
       -0.03149605 -0.22193421 -0.24532111 -0.2187742
000010 4a 05 98 3d fe 07 99 be 95 c5 19 be 8f d8 a7 3e
       0.07422884 -0.2988891 -0.15016778 0.3278241
000020 74 94 70 3e e1 c5 44 3d eb d6 75 3e dc 94 a4 be
       0.2349413 0.048040275 0.24007766 -0.3214482
000030 4b 54 6c 3d 41 42 69 be 4b 8b 9b 3e 3f e3 0d 3e
       0.057697576 -0.2277918 0.3037971 0.13856219
000040 ca 1f 74 be ae 75 9a 3e 9b 54 1e 3e 52 4c 18 be
       -0.23840252 0.30167907 0.15461962 -0.14872864
000050 ba d1 49 3e 24 1b 19 3a 7e 8c a9 be 52 3b 80 3e
       0.1970891 0.0005840531 -0.33115 0.25045258
000060 17 45 36 3c 91 34 a7 be 12 cb 55 be e7 66 70 3d
       0.011124871 -0.32657292 -0.20878246 0.058691885
000070 e2 9d e8 bd 7b 69 56 bd fe 94 1a 3e 33 f0 25 be
       -0.11358239 -0.052346688 0.15095899 -0.1620491
000080 76 f1 44 bd 25 ad 62 3e 7a 54 60 3b ca 50 86 3e
       -0.048081838 0.22136362 0.003423004 0.26233512
000090 d0 4f 8c bd b0 3c 1d 3e ba b9 86 3e fd 00 c9 3d
       -0.068511605 0.15355182 0.26313573 0.098146416
0000a0 81 38 3c 3e af 65 a4 3e 03 1a 49 be 59 72 93 be
       0.1838093 0.32108828 -0.19638829 -0.28798178
0000b0 40 2d 73 be 0f 18 08 be c5 00 81 3d b2 8b 10 3e
       -0.2374773 -0.13290428 0.06298975 0.1411579
0000c0 3d 09 90 3e a8 cc 67 bc b0 19 05 be 36 f4 8f be
       0.28132048 -0.014147915 -0.1299808 -0.28116006
0000d0 2e a0 cc 3d af 47 71 be 04 86 29 be 3f 6d 33 3e
       0.09991489 -0.23562501 -0.16555029 0.17522143
0000e0 20 1e ff 3d ad a8 8b 3e a3 bb 61 3e a4 30 4e 3d
       0.12456918 0.27277127 0.22044234 0.050339356
0000f0 2e 7b 14 be 22 12 2b 3e 8c 90 69 be 12 5a ec 3b
       -0.14500114 0.16706136 -0.22809047 0.0072128857
000100 a4 9b a6 be 0b d9 a1 3e 91 c0 8a 3e 29 6e 77 bc
       -0.3254062 0.31610903 0.27100042 -0.015101948
000110 7e f0 96 3e bf 94 97 bd e0 8b 97 3e 6e 65 a7 3e
       0.29480356 -0.07401418 0.29598904 0.32694572
000120 79 48 31 3e 5e 5e a3 be fb 06 08 3e f2 49 25 3e
       0.17312802 -0.31907934 0.13283913 0.16141489
000130 96 d2 69 3d f9 2a 3c 3d f6 f7 8e be d6 65 4d be
       0.057085596 0.04593942 -0.27923554 -0.20058379
000140 da 2d 27 be 99 80 99 be 6a 3e 91 3e 0b 04 a6 3e
       -0.16326085 -0.29980925 0.2836793 0.3242496
000150 1e ae 47 3e 86 f1 ec bd be 84 19 be 52 41 37 be
       0.19500014 -0.115695044 -0.14992043 -0.17896011
000160 11 25 51 3e 6d cb 78 be 3d 0f c3 bd fe 55 df 3d
       0.20424296 -0.24296351 -0.09524391 0.109050736
000170 b5 b6 79 3e 87 f5 e8 3d 23 35 86 bd 9c 11 45 bd
       0.24386103 0.113749556 -0.06553104 -0.048112497
000180 c5 5e 47 3e 37 aa 4c be 15 03 7d be 5f e8 29 bd
       0.19469745 -0.19986807 -0.24708207 -0.041481372
000190 7d 6a a3 be ec 21 33 be b7 9e aa be be 35 e0 3c
       -0.31917182 -0.17493409 -0.33324215 0.027369376
0001a0 71 8e a6 3e c1 49 3d 3e 25 a5 9c be 93 5f 07 3e
       0.3253055 0.18485166 -0.30594745 0.13220052
0001b0 1a b2 a7 3e f3 6e 40 be 30 e3 ce bd df f6 24 be
       0.32753068 -0.18792324 -0.10101926 -0.16109799
0001c0 1d fb 27 bd 2e 82 1b bd c7 66 05 bd 54 fd 8a be
       -0.041010965 -0.037965946 -0.03256872 -0.271464
0001d0 5d 39 59 3e 99 60 6d be 60 6d 8f 3d ce 61 b5 bc
       0.21213289 -0.2318138 0.070032835 -0.022141363
0001e0 61 75 9c 3e f1 ef 21 3e e7 5f c7 3d e2 4f 74 be
       0.30558303 0.15814187 0.09735089 -0.23858598
0001f0 e1 1c 44 3e 7a 0e 18 be 34 37 75 3e ee 7b 7e 3e
       0.19151641 -0.14849272 0.2394684 0.24851963
000200 5f b6 83 be 5a a2 16 be 16 12 d0 bd d2 a1 a2 be
       -0.25725076 -0.1471037 -0.101596996 -0.31764084
000210 43 d7 35 be 50 60 8c be d8 0c 73 be 34 d4 86 be
       -0.17757897 -0.2741723 -0.23735368 -0.26333773
000220 b7 ed 6f 3d ef ea 99 3e 6b 7f df bc 74 10 a5 3e
       0.058576312 0.30062053 -0.027282437 0.32239115
000230 66 20 07 3e 10 1f 97 3e 8f ad 8a bd 6f 60 93 be
       0.13195953 0.29515886 -0.06771385 -0.2878451
000240 57 44 d4 3d 4f 41 af 3d f7 5c 7a bd 15 45 4c be
       0.10364597 0.085573785 -0.061123814 -0.19948228
000250 c0 88 3a be 48 64 1c be a7 34 9e 3e ce b5 e7 3c
       -0.18216228 -0.1527263 0.30899546 0.028284933
000260 46 57 17 be c2 b4 96 be 5b 4f 18 3d 43 7c 52 3e
       -0.14779386 -0.29434782 0.037185054 0.20555215
000270 21 e0 95 be 70 3e 76 3d 26 9f 05 3e d4 6a 99 bd
       -0.2927256 0.06011814 0.13048992 -0.07491079
000280 1f 0c d6 3d 55 76 09 be e7 c6 f7 3b d0 43 60 3b
       0.10451531 -0.13424046 0.007561553 0.0034220107
000290 9a c5 c5 bc 2a d9 5a 3e e9 0d 3d 3e e2 c1 91 bd
       -0.024142075 0.21371904 0.18462338 -0.07117058
0002a0 7e e7 3c 3e b1 8b a8 3e a1 3b b1 bc f4 8a 14 be
       0.18447682 0.32919076 -0.021634879 -0.14506131
0002b0 7a 95 91 be e2 c1 94 3e c4 e9 cb bd 61 cb d7 bd
       -0.28434354 0.2905417 -0.09956697 -0.10536838
0002c0 59 65 82 3e a9 27 20 3e 3e 41 18 be 86 bf a7 be
       0.25467947 0.15640129 -0.14868638 -0.32763308
0002d0 74 02 f6 3d 90 17 a8 3e 6b 40 80 bb b1 46 5d be
       0.12012187 0.32830477 -0.003913929 -0.21608998
0002e0 7b fc 97 3d e7 46 97 3d f5 83 93 3e 71 bf be 3d
       0.07421204 0.073865704 0.28811613 0.09313858
0002f0 df 74 fd bd 01 cd 4e 3d 8b bc 9b be 13 9c cf 3d
       -0.12375807 0.050488476 -0.30417284 0.10137191
000300 97 a1 08 3d 63 4a 17 3e 24 00 79 be f1 a2 41 3e
       0.03335723 0.1477447 -0.2431646 0.18909813
000310 3c b8 9c bd 7c 17 82 3c 12 7f 3e bd 62 67 56 3e
       -0.076523274 0.015880339 -0.046507902 0.20937875
000320 85 f3 ec 3d 67 c9 80 3d d8 31 9b 3e 0a 2c 18 3d
       0.11569885 0.062884144 0.30311465 0.037151374
000330 04 9e 15 3e 6c 73 3d be 7f 58 cc bc 2e 1c 0e be
       0.1461106 -0.18501061 -0.024944542 -0.13877937
000340 b6 3a 4a bd b6 d4 c2 bd 06 47 a1 3e b8 21 24 be
       -0.049372397 -0.09513228 0.314995 -0.16028488
000350 0e ec 74 be ab f8 5a bd e3 af 8c be 28 ba 7e be
       -0.23918173 -0.053459805 -0.2747794 -0.248757

layer_stack.0.layer_stack.0.bias f4 [24]
000000 56 79 68 3e a6 b2 54 be 91 25 96 3d e2 87 b6 bd
       0.22702536 -0.20771274 0.07331384 -0.08912636
000010 c4 43 78 bd 73 09 6d 3e 4b b3 2d be 29 2f 61 be
       -0.0606115 0.23148136 -0.16962926 -0.21990646
000020 16 ac 71 3e 97 2c 26 3e 59 90 8e be 48 e6 22 3e
       0.23600802 0.16227947 -0.27844504 0.15908158
000030 89 dc 8e be 5a cc 1b be dd aa 89 bd 7e 9a 99 3e
       -0.2790263 -0.15214673 -0.06722043 0.3000068
000040 f6 b2 aa bd 7e ad 57 be f1 ee a2 3e 87 2a ea bd
       -0.08334915 -0.21062276 0.31822923 -0.11433893
000050 27 22 95 3e 4a ab 86 3d 38 0a 6e 3e 88 7a 89 be
       0.2912762 0.065756395 0.23246086 -0.26851296

layer_stack.0.layer_stack.2.weight f4 [24, 24, 1, 1]
000000 00 50 a0 bd 23 96 37 3d 24 d0 41 be 5c 9b cc 3c
       -0.07827759 0.044820916 -0.18927056 0.024976425
000010 98 e1 b8 bc f2 6f 1c be f0 f1 2e 3e a3 9a b6 3d
       -0.022568509 -0.15277079 0.1708448 0.08916213
000020 0d 25 b1 bd 8b b2 95 bd fe 1a ca 3c c3 28 14 be
       -0.08649645 -0.07309445 0.024671074 -0.14468674
000030 01 a0 25 3e af ca f5 3d ad e3 a2 3d 4d 0f 17 be
       0.16174318 0.120015495 0.07953582 -0.1475193
000040 bf 90 50 3e 01 b6 ff 3b bd 06 02 3e bc 45 3b bd
       0.20367716 0.007803679 0.12697883 -0.0457208
000050 5c 14 91 3d d7 cc 82 3c 26 a0 9e 3d 1e b6 40 3e
       0.07083961 0.015966816 0.0774539 0.18819472
000060 1f c3 e7 bd d7 15 34 3c bd ec 34 be ef 7e 49 3e
       -0.11316513 0.010991535 -0.17668433 0.19677328
000070 dd ca 04 be e4 83 49 be 6d ec 29 3e 65 37 f1 bd
       -0.12968011 -0.19679219 0.16594096 -0.11778144
000080 06 fc fd bc be b6 20 3e 50 9f 02 3c 16 86 1a 3d
       -0.031003963 0.1569471 0.007972553 0.03772553
000090 17 43 8a bd 72 54 16 3d 85 e5 af 3d a7 ff f7 bd
       -0.067510776 0.036701627 0.08588699 -0.12109309
0000a0 e4 12 c6 3c d3 15 c5 bc 9f 31 a2 3d cd f5 01 3e
       0.02417893 -0.024058258 0.07919621 0.12691422
0000b0 d7 3b 9c bd f7 40 3e 3d e1 b8 9e 3d 70 36 c0 bd
       -0.07628601 0.046448674 0.077501066 -0.09385383
0000c0 8a ec 17 3d 32 b8 32 be 81 ff a2 bd ba 86 03 be
       0.037090816 -0.17453077 -0.0795889 -0.12844363
0000d0 6a 81 a5 bd ac 51 c6 bd 43 3d 77 bd 6a da 26 3e
       -0.080813244 -0.096835464 -0.060361158 0.16294256
0000e0 59 8b aa bc a3 be 18 bd f3 74 bb bd 1f 4e 8b bc
       -0.0208184 -0.03729118 -0.09153166 -0.017005024
0000f0 d1 56 ce bd 7b 59 37 bd ff 45 31 3e 0b 42 05 bc
       -0.10075153 -0.04476307 0.17311858 -0.008133422
000100 30 e6 d2 3d 60 da e8 3b 34 f3 e4 bd 87 b7 1d 3e
       0.10297811 0.0071061105 -0.111792 0.15402041
000110 f4 57 11 3d 0e bb 9b 3d 0f fa 19 be 0f 94 39 be
       0.03548427 0.07604037 -0.15036796 -0.18122886
000120 e7 11 12 be c4 eb 11 bd 13 f9 49 bd ae f3 0e 3e
       -0.14264642 -0.035625234 -0.0493098 0.13960144
000130 9c d5 b7 bd 16 f0 ff 3d d5 7a c2 3d d7 67 8a 3d
       -0.0897629 0.12496965 0.094960846 0.06758087
000140 e5 90 c3 bd d0 16 0a 3e 8e 40 b0 3d e0 24 a4 bd
       -0.09549121 0.13485265 0.08606063 -0.08014846
000150 3f 2a e2 bd f8 97 f7 bc c1 dd 5a bd 8d c8 11 3e
       -0.11043214 -0.030223832 -0.053434137 0.1423666
000160 22 2e 3e 3e ec cb 05 3e 6a 0f 2e 3e f9 64 0c 3e
       0.18572286 0.13066071 0.16998067 0.13710393
000170 08 e9 3c 3e d2 e1 e1 3d 21 8e bb bd 77 81 04 3e
       0.1844827 0.110294 -0.09157968 0.12940012
000180 f4 b6 af 3d 73 75 01 3d 05 64 3c bd 98 6d 70 3d
       0.085798174 0.03160615 -0.045993824 0.058698267
000190 e5 93 10 be d6 ec 06 be b0 3b 27 be 48 6a 56 bd
       -0.14118917 -0.13176283 -0.16331363 -0.05234745
0001a0 07 58 d1 bc c8 de 0c be b9 b5 c4 3d 05 75 60 bd
       -0.02555467 -0.1375686 0.09604973 -0.0547991
0001b0 c7 c9 6b bd c6 81 57 3d 0e b5 30 be da 21 3d 3e
       -0.057565477 0.052613996 -0.17256567 0.18469945
0001c0 ae ba d9 bd b2 a2 96 3c 74 e3 c8 3c 1b 03 e3 3c
       -0.106313094 0.018388126 0.02452252 0.027711442
0001d0 f8 37 5d 3c 14 95 b0 bd fb 69 27 3d dd a3 5a bc
       0.0135021135 -0.086221844 0.040872555 -0.013344732
0001e0 5a d0 b1 bd e7 64 89 bd a6 79 98 3d 2d d0 a2 bd
       -0.08682318 -0.06708699 0.074450776 -0.07949863
0001f0 35 4d 2e be 6e 26 b3 bd 9c 12 0b 3e d3 c2 59 bd
       -0.1702164 -0.08747564 0.13581318 -0.053164314
000200 d4 ac 44 be 32 3f 73 3c 67 c7 a6 3d a9 92 3a bd
       -0.19206554 0.01484661 0.08143502 -0.045550022
000210 97 9a 25 3e e6 05 0a 3e 61 4e 54 3d c6 24 30 3e
       0.16172253 0.13478813 0.05183256 0.17201528
000220 0d f7 f4 3c 1c 38 2d be 5f c9 5e bc 93 70 dd 3d
       0.02990296 -0.16915935 -0.013597815 0.108124875
000230 69 c5 de bc 02 54 43 3e e5 6b 0d be 0e 4b e4 bd
       -0.027193742 0.19075015 -0.1381069 -0.11147128
000240 d2 38 2a be 3c 0b 27 3e 3c a9 35 bd 14 0a 39 3e
       -0.16623238 0.1631288 -0.044350848 0.18070251
000250 eb 60 3c be da 82 35 3e 8d b7 ff 3c 3b ad 0d 3d
       -0.18396346 0.17725697 0.031215454 0.034589034
000260 07 6f 4f 3e 5b 1b b5 bd b1 42 3a 3e 16 8b 4e bd
       0.20257197 -0.08843108 0.18189503 -0.05042561
000270 22 c2 47 be fd fb c2 bd 1c ac 1e 3e 3e 50 45 3b
       -0.1950765 -0.09520719 0.15495342 0.0030107643
000280 69 53 38 3d 17 64 4e 3d 26 91 c3 bd 45 58 16 3e
       0.04500142 0.050388422 -0.09549169 0.1468211
000290 f1 f6 19 be 7f 42 47 3e 12 f3 fa bd c3 5c e9 bd
       -0.15035607 0.1945896 -0.12253393 -0.11394646
0002a0 2c 76 2a 3e b6 78 44 be 42 bb 19 3d d2 29 27 3d
       0.16646641 -0.19186673 0.0375321 0.040811367
0002b0 3f 1e 4d 3e f4 b6 c4 3d 8d c9 35 3e 9d 31 ba bc
       0.20031069 0.09605208 0.17752667 -0.022728736
0002c0 8d 5f 03 3e fb 19 c5 3d 62 60 33 be 55 45 0f 3e
       0.12829418 0.09624096 -0.17517236 0.13991292
0002d0 b4 8d 2c be 0e 79 ba 3b d8 53 1d be 22 c5 38 be
       -0.1685093 0.0056907004 -0.15364015 -0.1804395
0002e0 2b 56 09 be e5 59 12 be e0 43 4f 3e 48 de 2d bd
       -0.13411777 -0.14292105 0.20240736 -0.042448312
0002f0 88 ce a8 ba 88 0d 3a be 1e 6b 2f 3e 2d e5 36 3e
       -0.0012878934 -0.18169224 0.17130706 0.17860861
000300 eb 07 f3 bd c6 4c cf 3d 82 80 55 3d 25 6f 1d bd
       -0.118667446 0.10122065 0.052124508 -0.038436074
000310 e7 2f 9d 3d 85 a7 3e be 2a d2 17 3e cc 74 04 3e
       0.07675152 -0.18618591 0.14826265 0.1293518
000320 cc a8 05 bc 96 91 48 3e 47 05 87 3d 3a e9 74 3d
       -0.00815792 0.19586787 0.065928034 0.059792735
000330 31 d7 44 bc 24 a0 09 3e d7 6e 3b be 22 a9 02 3e
       -0.012014196 0.13439995 -0.18304001 0.12759832
000340 98 8e a0 bd 07 a5 41 3e 65 a5 82 3d a5 ce de bd
       -0.078396976 0.18910609 0.06379203 -0.10879258
000350 10 e3 2f be 40 bd 09 3e 20 c7 57 bd a7 c6 84 bc
       -0.17176461 0.134511 -0.052680135 -0.016208006
000360 17 d6 16 3d 2d fb 3e be b4 0b f8 bd f2 af ad bd
       0.036825266 -0.18650503 -0.12111607 -0.084808245
000370 1e 9e a2 bd db 26 19 3e 43 2b f4 bd 77 72 34 bd
       -0.07940315 0.14956228 -0.11922314 -0.044054475
000380 1b 6e 99 3d 38 5a ba 3c 64 c9 80 bc 3b 82 11 3e
       0.07491704 0.022748098 -0.01572103 0.14209835
000390 0f bc 15 3e e0 6d f8 3c a7 66 66 3d 1d 3b 44 3e
       0.1462252 0.03032583 0.05625024 0.19163175
0003a0 dc 98 2e be fa d7 cb 3d 05 d9 1f 3e d9 30 11 be
       -0.17050499 0.09953304 0.1561013 -0.1417879
0003b0 58 f0 c9 3d 27 50 1b be 3b eb 93 bd a0 55 aa 3d
       0.09860295 -0.15167294 -0.07222601 0.08317113
0003c0 a0 a4 23 be c4 09 07 be 15 d1 bc bd 01 e4 2b be
       -0.15980768 -0.13187319 -0.09219567 -0.16786195
0003d0 a4 cc ae bc 49 3a fd bb 96 57 2a be 90 e5 09 3c
       -0.021337815 -0.0077278954 -0.16634974 0.008416548
0003e0 1d 58 2a be 02 27 88 3d e3 b9 3d 3d 81 b2 0a be
       -0.16635175 0.06648065 0.046319854 -0.13544656
0003f0 56 d7 29 3e 26 94 37 be 49 75 e0 3d 25 75 87 3d
       0.1658605 -0.17927608 0.1095987 0.066141404

layer_stack.0.layer_stack.2.bias f4 [24]
000000 09 17 88 bd ee c2 da bd df 9c ad bd 55 d3 37 be
       -0.066450186 -0.10681711 -0.084771864 -0.1795171
000010 f3 78 59 3d 23 bb b0 bd b2 c5 3c 3e fb cf 19 3e
       0.05309386 -0.086294435 0.1843479 0.15020745
000020 87 6d a8 bd 89 5f cb 3d 11 6d 40 be c6 29 8c bd
       -0.08224016 0.09930331 -0.18791606 -0.06843905
000030 22 42 10 be 5c 81 b8 bd c4 81 dd bd fe 8b e5 3c
       -0.14087728 -0.09009048 -0.108157665 0.028020855
000040 f1 3c ee 3d 15 07 e8 bd c8 8e 24 3e ae 67 22 be
       0.116327174 -0.11329476 0.16070092 -0.15859863
000050 88 be 21 3d ae a3 8f bd 2a 30 35 3e 6e ae 49 3e
       0.039488345 -0.07013641 0.17694154 0.19695446

layer_stack.0.layer_stack.4.weight f4 [24, 24, 1, 1]
000000 00 f3 95 3d d9 05 1a bc 67 85 82 bd db ce f6 3c
       0.07321739 -0.009400808 -0.06373101 0.030127933
000010 06 02 fd 3d d1 2b 35 be 63 99 89 bc e1 9f 1c be
       0.123539016 -0.17692496 -0.016796773 -0.15295364
000020 db 2a f3 bd 06 5d e3 3d fa de 8f bc 99 42 9f 3d
       -0.118734084 0.11101727 -0.017562378 0.07776374
000030 62 8f f3 3d e0 b7 29 be c7 19 a3 bd f0 7c d6 3c
       0.118925825 -0.16574049 -0.07963901 0.026182622
000040 d6 83 b6 bb b6 b6 86 3d 34 ad c1 3c e3 6e 0e 3e
       -0.0055699153 0.06577818 0.02364216 0.13909487
000050 17 37 c9 3c be 5f f4 3d 66 d7 0b 3e 26 9c 38 be
       0.024562402 0.11932324 0.13656387 -0.18028316
000060 08 a3 e9 bc ca a3 03 be 0e 79 4a 3e 79 29 31 3e
       -0.028520122 -0.1285545 0.19772741 0.17300977
000070 ad 7f 0a be c9 a0 be 3c 27 ee 45 3b 85 a9 45 3d
       -0.13525267 0.023270028 0.0030201764 0.04825737
000080 98 fe 74 ba 98 c0 0f be bf 06 5d bd f9 cb 23 be
       -0.0009345799 -0.14038312 -0.05396151 -0.15995778
000090 43 1f ce 3c a1 c8 64 bc d2 c6 ef 3d 3c 0f 05 3e
       0.025161391 -0.013963849 0.11707844 0.12994093
0000a0 c3 4b 16 be 2b 36 12 3d ac 98 f8 3c 26 38 00 3d
       -0.14677338 0.03569619 0.030346237 0.031303547
0000b0 49 0e df bd cb 2a 89 bd 5e 45 33 3e ae 2d 31 3c
       -0.108913966 -0.06697615 0.1750693 0.010814114
0000c0 fe ef ae bd e5 24 12 bc b8 42 1f 3e 41 46 e1 3d
       -0.085418686 -0.008919929 0.15552795 0.10999728
0000d0 fe fe da 3d 2d 9f 27 be 6b 35 70 3c d9 b0 0e be
       0.10693167 -0.16369314 0.014661173 -0.1393465
0000e0 93 40 4c 3e 7e 93 47 3e 28 0c 6b 3d 49 9c 32 3e
       0.19946508 0.19489858 0.05738464 0.1744243
0000f0 b0 ad dc 3c 2a 07 1b be 6e dc e1 bb d3 8d 01 be
       0.02693829 -0.15139452 -0.0068927323 -0.12651758
000100 c4 7b 23 3d 02 ba 13 3e d8 53 15 3e e4 b4 36 3e
       0.039912954 0.14426425 0.14582765 0.17842442
000110 9b 25 55 3d 24 57 95 3d 32 97 1f 3e 3c f7 e7 3d
       0.052037816 0.072920114 0.1558502 0.11326453
000120 46 8e 22 bd 7b 6f 4a 3e 49 1c 29 3a c0 cf 8e 3d
       -0.039686464 0.19769089 0.0006451053 0.06973219
000130 3a 6d 1d 3e ed 0c 5c 3d e8 28 2d be 32 9d 05 be
       0.15373698 0.053723264 -0.16910136 -0.13048247
000140 03 cd fc bc fc 9e 03 be 35 f1 3e bd a2 75 97 3a
       -0.030859476 -0.12853616 -0.04661675 0.0011555443
000150 69 4f 10 3e d8 08 56 bd 27 5d dd bd a9 c3 09 3c
       0.14092793 -0.052254528 -0.10808783 0.008408465
000160 49 ec cf 3d 98 2c 28 3e 9a 65 4c 3e 96 73 80 3d
       0.1015249 0.16423261 0.19960633 0.06272046
000170 78 68 0d 3d f9 8e 2c be 0c 40 c6 bd 85 44 c3 bd
       0.034523457 -0.16851415 -0.09680185 -0.095345534
000180 7d 72 d5 bd d9 5b 17 be 44 16 b5 bd e4 46 a8 bd
       -0.104222275 -0.14781131 -0.088421375 -0.08216646
000190 99 d3 fd bc e3 73 2e 3d fc b2 32 3d 71 4c 98 bd
       -0.030984687 0.042590987 0.043627724 -0.07436455
0001a0 58 38 3e 3e 21 1b 3d 3e 37 1e b3 3d a3 34 0c be
       0.18576181 0.1846738 0.087459974 -0.13691954
0001b0 9c b3 b6 3c 42 95 8b bc 6f a0 b9 bc f9 8a 78 3d
       0.022302441 -0.017038945 -0.022659509 0.06067941
0001c0 cd 99 8f bd 14 78 6e 3c f7 f7 1d bd f2 11 fa 3d
       -0.07011757 0.014554996 -0.038566556 0.12210454
0001d0 1b 22 1e bc aa 1f aa 3d ff 52 a5 bd cb 80 95 bd
       -0.009651686 0.08306821 -0.08072471 -0.07299956
0001e0 e3 a0 13 be b9 55 a8 3c d0 a9 1d be 93 6c de 3d
       -0.14416842 0.020548688 -0.1539681 0.10860553
0001f0 e9 1d 4e 3e b9 5d 95 3d bc c4 30 3e 45 8a ff bd
       0.20128597 0.07293267 0.17262548 -0.12477545
000200 a3 ef 34 3e 35 27 3a bd f3 35 35 be 31 f1 0e be
       0.17669539 -0.045447547 -0.17696361 -0.13959195
000210 83 f3 0c bd 97 96 ea bd 69 e2 29 3d ac 40 41 be
       -0.03441192 -0.11454504 0.041475687 -0.18872327
000220 96 98 9a 3d b3 0d ae 3d a6 64 bf bd 66 27 c8 3c
       0.07548635 0.08498707 -0.09345369 0.02443285
000230 69 f2 0d 3d 36 e6 61 3d 8a 96 b8 3b 8d fb 94 bd
       0.03465501 0.055151187 0.00563318 -0.07274542
000240 7a 3c 1b be 8b 9e 0d bd 3c 4a ca bd 14 75 10 be
       -0.15159789 -0.034575026 -0.0987744 -0.14107162
000250 7a d7 40 3d 03 37 5b bd 28 cf 1d be 36 c3 b5 bd
       0.047080494 -0.05351926 -0.15411055 -0.08875124
000260 15 e9 4a 3e a8 32 4f bd 58 28 3c 3e 3c 71 d3 3c
       0.19815476 -0.05058542 0.18374765 0.02581083
000270 a2 7e 1c 3c 6c 0c 23 be 66 2e b2 3b d2 b5 c1 3c
       0.009551676 -0.15922707 0.00543766 0.023646269
000280 cc ab 08 bd 23 fe fe 3c a8 9b b7 3d 96 97 9c bd
       -0.033366963 0.031127041 0.08965236 -0.076461
000290 90 d9 b5 bd 7d bc ac bd 4e f9 14 bd 74 b2 29 be
       -0.088793874 -0.08434389 -0.036370568 -0.1657198
0002a0 fc c9 17 be fd cf 0b be 0a 4c 6c bd ac 3a cb bd
       -0.14823145 -0.1365356 -0.057689704 -0.099233
0002b0 75 9b 29 be cf 14 b1 3d 50 ac 0d 3e 13 a3 aa bd
       -0.16563208 0.08646547 0.13835263 -0.08331885
0002c0 b3 40 17 be e3 22 45 3e 0d 31 b4 bc 7d 2e d3 3a
       -0.14770775 0.1925159 -0.021996045 0.0016111877
0002d0 68 59 a4 3d 5a 44 6f bb ea 79 99 3d 83 80 09 be
       0.080248654 -0.0036509247 0.074939564 -0.1342793
0002e0 ee 0b 19 3e 2a b9 f2 bd bf 96 8a bd fd 04 1c be
       0.14945957 -0.118517235 -0.06767034 -0.15236278
0002f0 fd f5 c6 3d 1f e7 49 bd 8c 94 f7 bd f6 fb 76 bd
       0.09714887 -0.04929268 -0.1208888 -0.060298882
000300 08 2f 9d 3d 47 65 9d 3d c6 d5 30 be ae df 73 bd
       0.07674986 0.07685333 -0.17269048 -0.05953949
000310 3c 30 40 3e a4 6c 06 be e1 cc fe 3d f3 a7 d4 3d
       0.187684 -0.1312738 0.12441421 0.10383596
000320 71 76 d3 bd 5d a0 40 3e 22 1f 9a bd ec 48 39 be
       -0.10325325 0.18811174 -0.07525469 -0.18094224
000330 af ff 12 3e f7 cc b7 bd 55 db 49 3e 06 18 f2 3d
       0.14355348 -0.08974641 0.19712575 0.11820988
000340 b0 64 08 3d a2 b2 40 3e fb d9 11 bb df fe 26 be
       0.033299148 0.18818143 -0.002225517 -0.16308163
000350 e2 f2 97 bd bf c7 a9 b9 d9 b3 16 be 67 c8 50 3d
       -0.07419373 -0.00032383014 -0.14717044 0.05097237
000360 dd d9 0f be 39 49 5e bc e0 14 ec bd 9d ee 3c bd
       -0.14047952 -0.013567262 -0.11527419 -0.046125997
000370 a7 4e 57 bd e5 4f 00 3e 6a 62 49 3e 5a 33 36 be
       -0.052565243 0.12530477 0.19666448 -0.17793027
000380 ce e3 d0 bd 3d f5 26 3b 9b d5 fa bd f7 57 04 bd
       -0.101997 0.0025475763 -0.12247773 -0.032310452
000390 a7 6d 40 be 2b 19 2f 3e d6 99 49 bd f2 44 08 be
       -0.18791829 0.17099445 -0.049218975 -0.1330755
0003a0 fd d3 03 3e 3e a3 40 3e 7f 35 2b 3e d7 36 04 3e
       0.12873836 0.18812272 0.16719626 0.12911545
0003b0 20 1f 2f be 30 37 a4 bd 3d 3a af bc 12 9c 13 bd
       -0.17101717 -0.08018339 -0.021390075 -0.036037512
0003c0 cc 6f 04 3c 9a f1 aa 3d 57 de a9 3d 27 63 3b be
       0.008083295 0.08346863 0.08294361 -0.18299542
0003d0 a3 da b0 3d 69 10 17 be 5d 2a 26 be 4f 19 85 bd
       0.08635452 -0.14752354 -0.16227098 -0.06498968
0003e0 0b 26 1d 3e 06 17 c6 bd cb 75 04 be ae 29 12 be
       0.15346543 -0.0967236 -0.1293556 -0.14273712
0003f0 ce 3c 51 3d a7 90 d0 3c 19 70 d8 3d e1 4f e8 bc
       0.05108338 0.0254596 0.10568256 -0.028358402

layer_stack.0.layer_stack.4.bias f4 [24]
000000 61 e7 2c bd e9 5a ef 3d f7 64 80 3d d1 01 4c 3e
       -0.042212848 0.116872616 0.062692575 0.19922568
000010 dc 0a 72 3d bc ff 39 bd 35 66 b5 bd c9 1e 08 39
       0.059092388 -0.045409903 -0.08857385 0.00012981439
000020 82 e3 40 be 7b 7c 6b 3d 36 fc 91 bd a9 18 24 3d
       -0.18836787 0.05749176 -0.071281835 0.04006258
000030 f3 62 3f 3b 9e 62 8b 3d 89 02 9c 3b 28 b2 fd bd
       0.0029203265 0.06805919 0.0047610444 -0.12387496
000040 b5 21 63 3d ed c8 da bd 42 4a 80 3d ff 56 c9 bb
       0.055452067 -0.10682855 0.062641636 -0.006144404
000050 ec 67 41 bd a7 fe 0d be b9 6b 42 3e 5f 0f 22 be
       -0.04721825 -0.13866673 0.18986405 -0.15826176

layer_stack.2.layer_stack.0.weight f4 [10, 24, 3, 3]
000000 9a 2c 42 bd 57 51 9a 3c e4 b8 25 bb 2a be 40 bd
       -0.047405817 0.018837614 -0.0025287205 -0.047056355
000010 73 5d 2f 3d 9f ac b9 bb 86 8a 67 bd 06 9d b0 3b
       0.04281373 -0.00566633 -0.05652859 0.0053898124
000020 25 7e 62 b9 ef 5f 24 bc aa 6e 76 bd 89 85 1e 3c
       -0.00021600032 -0.010032638 -0.06016413 0.009675392
000030 80 0b 74 3d 00 68 51 bd 02 3f 6d bc 9e 82 34 bd
       0.05958128 -0.051124573 -0.014480354 -0.04406988
000040 cb 33 8b bd c7 fc cd bb 2d 0d 2c bd fa a4 67 3d
       -0.06796988 -0.006286237 -0.042004753 0.05655382
000050 9f f1 69 3d 2d dd 82 3d a1 7b 5e bc bc 6c 2a 3d
       0.057115193 0.06389842 -0.01357928 0.041607603
000060 c2 20 49 3c 89 ca 81 3c 2c fa 48 bd 8f f3 3f bd
       0.0122758765 0.015843647 -0.049066707 -0.046863135
000070 f6 37 15 3d e1 2c 0b bd d3 6c b7 bc 2c 1c af bc
       0.03643032 -0.033978347 -0.022390759 -0.021375738
000080 82 37 f7 bc 44 68 9b bc 3a c7 ff bc 3e 00 68 3a
       -0.030177835 -0.018970616 -0.031222928 0.0008850134
000090 f6 d0 01 3d 0c 44 56 3d 25 8a 69 3d c1 d1 76 bc
       0.03169342 0.05231099 0.05701651 -0.015064658
0000a0 90 04 2c bd 9b e2 4b 3d bc 60 23 3d 95 d9 66 3c
       -0.04199654 0.049776655 0.039887175 0.014089962
0000b0 8d 7b 16 3d 72 7d 70 bd 79 87 9e bc 8d 5a e0 3c
       0.03673892 -0.058713384 -0.019351708 0.027386928
0000c0 80 4d ad 3c 29 f3 41 bd 32 e3 e9 bc 0c 1f fe bb
       0.021155119 -0.047351036 -0.028550718 -0.007755166
0000d0 27 22 5f 3d 98 2f 92 bc 2a 95 95 bc b7 b8 89 bd
       0.05447593 -0.01784496 -0.018259604 -0.06724685
0000e0 d5 78 4f 3d ef 1a 41 3d ae a2 82 bb 95 5c 86 3d
       0.050652344 0.047144827 -0.003986678 0.06560627
0000f0 2a f5 2c bd 93 41 25 bd 75 d2 e9 3c 7d e5 8a bd
       -0.042225994 -0.04034574 0.028542737 -0.06782053
000100 8d 51 14 bd 57 97 65 bd 88 9a 85 3d d3 f4 a9 bc
       -0.036210585 -0.056052532 0.06523615 -0.020746624
000110 f3 fd 66 3c e2 b4 7b 3d 40 ad 83 3d 57 f7 34 3b
       0.014098632 0.0614518 0.06429529 0.0027613246
000120 e6 33 30 bd c1 25 03 bd 16 33 6c 3c 40 cc b1 bc
       -0.043018244 -0.032018427 0.014416477 -0.02170384
000130 6e 78 20 3c b8 76 4e 3d 1c 31 24 3b 65 93 45 3d
       0.009794338 0.050406188 0.0025053686 0.04823627
000140 aa 8e 03 3d 25 ed aa bc 13 f9 89 bd 3f 7f 24 3d
       0.032118477 -0.020865032 -0.0673696 0.040160414
000150 e9 4b fc bc 06 ed b0 bc 64 28 7a bd bb e1 3c bd
       -0.030797916 -0.021597397 -0.061073676 -0.04611371
000160 53 f5 33 3c 09 fd 82 3d 4e 08 11 3d 6a 28 e2 3b
       0.010983783 0.06395919 0.03540831 0.0069017904
000170 f0 f5 e3 3c 2a 71 75 3d bf 92 80 3c 33 a0 e8 3c
       0.027827233 0.059922375 0.015694974 0.028396701
000180 8a 22 7a 3d 9a ee c7 3c e9 bf a7 bb 4d 9d 95 3a
       0.061068095 0.024405766 -0.005119313 0.0011414677
000190 d0 2c ec bc 51 70 68 bd ea 14 2a 3d 7b 0c 54 bd
       -0.028829962 -0.05674774 0.04152385 -0.051769715
0001a0 c8 2f 22 bd 1d bd 29 3d c5 7c 8a 3c 2d a9 7b 3d
       -0.03959635 0.041440118 0.016905198 0.061440635
0001b0 c2 82 30 3c 65 a0 ba 3c e3 40 b5 3c 50 c8 df bc
       0.010773363 0.02278156 0.022125667 -0.027317196
0001c0 c5 c8 84 bd 2b ee 00 3d 88 a8 70 bd ba af 98 3b
       -0.06483606 0.031477135 -0.058754474 0.00465962
0001d0 40 7e af bc c5 cf e6 bc 45 cc 22 3d a3 75 84 bc
       -0.021422505 -0.028175244 0.039745588 -0.016169375
0001e0 3e a4 dd bc 2e 69 24 bd 98 bf 80 3d 8c a3 2c 3d
       -0.027055856 -0.04013937 0.062865436 0.042148158
0001f0 89 c8 65 bd ec f6 1a 3d 2a 5f 21 3d 8a 19 6e 3d
       -0.05609945 0.03783314 0.039397396 0.058129825
000200 16 4f 87 bc e0 62 51 3d 53 9d be 3c 72 e2 60 3d
       -0.016517203 0.051119685 0.023268377 0.054903455
000210 b4 34 75 3d 64 66 71 bd 76 d5 c7 3b f0 7d 9d 3c
       0.059864715 -0.058935538 0.0060984446 0.01922509
000220 0a d6 6b bd d6 03 f9 bb 83 43 06 3d 6c 4d 3d 3d
       -0.05757717 -0.007599334 0.032779228 0.046216413
000230 6e 49 63 3d b6 e9 88 3d 4e 3b bd 3c 0c 86 29 3d
       0.05548995 0.06685202 0.023099568 0.041387603
000240 fe 8e 3b 3c 7c 17 7f bd 0d 83 57 bd 2e b0 8f bc
       0.011447666 -0.062278256 -0.052615214 -0.017540064
000250 92 09 1d 3d d7 45 3e 3b 11 99 60 3d ce 8e 97 3c
       0.038339205 0.0029033327 0.054833476 0.018500712
000260 ca fd 5f 3d 3c b2 7f 3d 9f e8 13 3d e5 75 9a bc
       0.05468539 0.062425837 0.036110517 -0.018855045
000270 1a 85 56 3d fd 8b 33 bd ab c6 08 bd 9b ad 20 3d
       0.05237303 -0.043834675 -0.03339259 0.039228063
000280 1e 69 21 3c ef 84 3c 3d b0 78 93 3b 44 f8 76 bd
       0.009851722 0.046025213 0.004500471 -0.06029536
000290 b6 a9 a5 3c cf 88 41 3d ee 57 65 bc 8f 56 ca 3c
       0.020222526 0.04724961 -0.013998015 0.024699477
0002a0 a1 6e 1d bd 20 4a 84 3d 02 ff 63 3d d4 50 8e 3c
       -0.038435582 0.06459451 0.055663116 0.017372526
0002b0 82 19 42 bd 73 7e 85 bc 68 33 17 bb 71 84 25 3d
       -0.047387607 -0.016295647 -0.0023071412 0.04040951
0002c0 69 09 86 bd 82 4c e2 3c ab 0f 89 3d 58 75 9f 3c
       -0.065447636 0.027624372 0.066924416 0.019465134
0002d0 b0 90 4d bd 14 fe 0b 3b 7f 73 6e bc 21 19 6f bd
       -0.050186813 0.002136116 -0.014553904 -0.058373574
0002e0 6c 76 0d bd 3b 8f 57 3d 31 f6 6d 3d cc c0 05 3d
       -0.034536764 0.05262683 0.058096115 0.03265457
0002f0 a7 9d 09 bb 24 e4 49 bd 9d 24 40 bb 06 62 60 bd
       -0.002099851 -0.049289837 -0.0029318698 -0.054780982
000300 ee 3a 4c 3d cc 9a ad bc 8f 2d e6 bc 50 cd 3e 3c
       0.049860887 -0.021191977 -0.028097896 0.01164563
000310 59 6a 9b 3c 16 5b 72 3d af b0 8b bb 49 e2 26 3d
       0.018971609 0.059168898 -0.0042630057 0.040743146
000320 d6 a1 f3 3c 74 45 c0 bc 16 a2 0b 3d 40 2b 21 3c
       0.029740255 -0.023470618 0.034090124 0.009836972
000330 0a 32 00 bd 69 bf 6e bd 10 25 12 3d 91 a9 15 3d
       -0.03129772 -0.05828801 0.035679877 0.036538664
000340 77 64 3f bb 94 20 42 bc aa 81 1d 3d 72 d2 87 3d
       -0.0029204169 -0.011848588 0.038453735 0.06631936
000350 3a d2 4d 3d b5 04 82 3d b6 27 46 bb 4f 20 81 bd
       0.050249316 0.06348554 -0.0030236072 -0.063049905
000360 74 10 88 bd 9e 97 ad bc dd 28 84 3d cb 98 6d bd
       -0.06643763 -0.02119046 0.064531066 -0.058007043
000370 89 49 13 3c 15 37 64 3d 23 e6 e9 bb 88 12 9a 3c
       0.0089897 0.055716593 -0.00713803 0.018807665
000380 80 c9 00 bd d2 60 50 bd d5 f1 e1 3c 63 20 7f 3d
       -0.031442165 -0.050873585 0.027581135 0.062286746
000390 86 01 29 3c 45 e7 33 3d dc 1c 31 bd b5 31 7c bd
       0.010315305 0.043921728 -0.043240413 -0.06157084
0003a0 c1 99 c4 3c 42 94 57 bc c3 c4 5f 3d f5 0f 36 bd
       0.023999097 -0.013157906 0.054631006 -0.04444881
0003b0 fe 99 2f 3b 29 aa 1f bd a3 ca 94 3c 88 a4 3f 3d
       0.0026794667 -0.038980637 0.018163031 0.04678777
0003c0 26 99 66 bd 61 fa 3a 3d 6c a5 5e bb 41 cf d7 3c
       -0.056298397 0.045648936 -0.003397311 0.026343944
0003d0 80 98 01 bb 61 e1 1a 3c 05 a3 3a bb 75 6d 80 3d
       -0.0019774735 0.009453149 -0.0028478515 0.06270877
0003e0 f6 74 63 3c d1 3e 8b bc fd 70 e5 3b d7 7b 13 3d
       0.013882866 -0.016997727 0.0070019946 0.036006775
0003f0 57 29 8b 3d 94 e3 35 3d 37 ea 42 3d e3 6b 74 bd
       0.06794994 0.04440649 0.047586646 -0.0596732

layer_stack.2.layer_stack.0.bias f4 [10]
000000 fb ef 81 bd cb d7 73 bd 06 6e 98 bc a8 3e b9 3c
       -0.06344601 -0.059531968 -0.01860715 0.022612885
000010 fa 3d 3f bd 70 6d 20 3c 7a d5 09 bc f9 71 af 3c
       -0.046689965 0.009791717 -0.008412713 0.021416651
000020 04 5a ae 3c 4e 09 39 3d
       0.021283157 0.04517489

layer_stack.2.layer_stack.2.weight f4 [10, 10, 1, 1]
000000 86 cb a3 3d e6 5f 2d 3e c7 60 8d 3d 83 fd 40 3e
       0.079978034 0.16931114 0.069032244 0.18846707
000010 4c d6 03 3d 37 05 86 3e c7 d7 6f bd 6a 5e 1e be
       0.03218679 0.26175854 -0.05855539 -0.15465704
000020 dc 9d 2f be fc ee 1d bd d1 45 90 3e 99 3a 92 be
       -0.17150062 -0.03855799 0.28178266 -0.2856033
000030 53 07 99 be 98 3f 6d 3e 1a 23 5b be 62 ec 75 be
       -0.298884 0.2316879 -0.21400109 -0.24015954
000040 07 ab 0f 3d 43 a5 7a 3e 26 b3 47 3e 57 57 a8 bd
       0.035075214 0.24477105 0.19501933 -0.08219784
000050 f2 d1 19 3d 0f 84 8c 3e 4d 7f d1 bd b0 5a d9 bd
       0.037553735 0.27444503 -0.10229359 -0.106130004
000060 15 26 8c be e9 4e 86 3d 14 16 91 bd aa 89 37 be
       -0.27372804 0.0655802 -0.07084289 -0.17923608
000070 f5 01 1e bb cc cb 0c be 5a 69 63 be 4b db 39 be
       -0.0024110053 -0.13749617 -0.22208157 -0.1815006
000080 91 3f 9e 3e 6c a5 57 be 96 1c 79 3d 4a 99 2c 3e
       0.30907872 -0.21059197 0.060818277 0.1685535
000090 26 71 5e bd 49 54 07 be ad a5 70 be 3e fb a1 bd
       -0.054307126 -0.13215746 -0.235007 -0.07909249
0000a0 a3 d3 3e 3e 53 35 81 3d fd 6c 59 3e a7 41 10 3e
       0.1863542 0.06308999 0.21232982 0.14087544
0000b0 dd ea fc 3d 68 a6 84 be 7e c7 43 be 29 e3 66 bd
       0.12349484 -0.25908208 -0.19119069 -0.05636898
0000c0 76 f6 29 be b5 ac fc bb 60 ff ce bd d1 d4 13 be
       -0.16597924 -0.007711018 -0.10107303 -0.14436652
0000d0 ce e9 25 be 95 29 17 bd 90 27 93 3d 93 74 dc 3d
       -0.1620247 -0.03690489 0.0718528 0.10764422
0000e0 1a 95 81 3d 4f 78 a5 3d e8 d7 4b 3c 4f 01 c2 bc
       0.06327267 0.08079588 0.012441613 -0.023682265
0000f0 91 8e b2 bd cf 02 11 3e 88 f2 bb bd e1 f0 c6 3d
       -0.08718599 0.14161228 -0.091771185 0.09713913
000100 90 94 24 be af d6 80 be 70 a5 31 bd 3f e0 3f 3e
       -0.16072297 -0.2516379 -0.043370664 0.18737887
000110 39 d0 61 3e 06 cc da bd cf e0 c3 3d d3 f9 37 3e
       0.22052087 -0.10683446 0.09564363 0.17966394
000120 1a e0 87 3e 87 21 50 be 3b b3 89 be e2 c5 93 be
       0.26538163 -0.2032529 -0.26894554 -0.2886191
000130 71 6b 38 3e 9f 03 1d 3e ca 68 1f bd f0 8c ca bd
       0.18009736 0.15333413 -0.038918294 -0.09890163
000140 e7 54 03 3d 5e ce 94 3d 62 be 0f bd de a3 8a 3e
       0.03206339 0.07265924 -0.035093673 0.27078146
000150 53 78 42 3e 37 88 a6 bd a1 00 60 bb 8d c4 89 3e
       0.18991213 -0.0813145 -0.0034180062 0.2690777
000160 e8 ba 23 3e 70 4d 41 3e 52 1f e7 bc 37 17 b0 3d
       0.15989268 0.18877196 -0.028213177 0.08598178
000170 1d 86 01 be 47 b6 1e 3e 71 b9 2d 3e 9b d2 9c be
       -0.12648816 0.15499221 0.16965272 -0.3062943
000180 06 6b 11 be d9 3d 2a be 9f 4e 94 3b fe 6d 13 3e
       -0.14200982 -0.16625156 0.004525974 0.14397427

layer_stack.2.layer_stack.2.bias f4 [10]
000000 b0 45 95 3e 82 18 ce bd 8b 01 4b bd f9 17 db bd
       0.2915473 -0.10063268 -0.04956202 -0.10697932
000010 ae d1 92 be c0 c3 96 be 85 43 de 3d 46 7e 00 3e
       -0.28675598 -0.2944622 0.10852722 0.1254817
000020 e3 39 cc 3d 38 a1 8b bd
       0.099719785 -0.068178594

layer_stack.2.layer_stack.4.weight f4 [10, 10, 1, 1]
000000 3f e8 a1 3d ed 10 97 3e 93 36 64 3e 2c b4 81 3d
       0.079056256 0.295051 0.22286443 0.06333193
000010 42 bb 30 bd f7 15 92 3d 92 8a 24 3d d9 8a f0 3d
       -0.043147333 0.07133096 0.040171213 0.11745233
000020 be fe 31 3e cb 53 72 be e2 79 ea 3d 42 98 83 be
       0.17382333 -0.23664777 0.114490286 -0.257021
000030 97 f8 83 bc f9 10 30 bd eb a3 60 3a b3 e3 aa bd
       -0.016109748 -0.042984936 0.00085693476 -0.083442114
000040 8c ec 1b be d4 ba 1b 3e 27 d3 28 be 4f 74 e7 3d
       -0.15226954 0.15207988 -0.16486798 0.11301481
000050 2b cc b5 3d 67 ba 64 be e8 88 83 3e 98 11 b8 bd
       0.088768326 -0.22336732 0.2569039 -0.08987731
000060 0a 68 e8 bc 2e fd be 3d ce cb 61 3e 18 9c 37 bb
       -0.028369922 0.09325634 0.22050402 -0.0028016623
000070 df 7e 99 3e 1f 1c a1 3e 43 78 f2 3d 2c e7 c3 bd
       0.29979607 0.31466767 0.11839344 -0.09565577
000080 a6 58 4c bd 73 81 ad bd af 32 9c bc 90 dd 0a be
       -0.04988923 -0.08471956 -0.019067137 -0.13561082
000090 7a 4b e8 bd cd 02 82 be 9a 47 ee bc 3a 57 8f 3c
       -0.11342521 -0.25392762 -0.029086877 0.017497648
0000a0 5f d7 45 3e 68 ea 65 be 9f 8d 98 3e d9 ad 31 be
       0.19320439 -0.224527 0.29795548 -0.17351474
0000b0 cf 33 79 3e 8f 65 36 3b e1 da 81 bd 7a c2 af 3d
       0.2433617 0.002783153 -0.06340576 0.08582015
0000c0 97 88 8c 3e a3 0a 7c 3d 96 a4 49 3d a7 9a 2c be
       0.2744796 0.06153358 0.049229227 -0.1685587
0000d0 a0 9f 0c be 26 82 5e 3d ed 46 75 3e 99 f0 59 3e
       -0.13732767 0.054323338 0.23952837 0.21283187
0000e0 c1 9d 90 bd ee 54 81 bd 94 60 56 3e 9a fd f6 3d
       -0.07061339 -0.06315027 0.20935279 0.120600894
0000f0 0a 94 14 3d ff 0c 29 be cc 69 d1 bd ef 08 2e be
       0.036273994 -0.16508864 -0.10225257 -0.16995595
000100 87 d6 34 be 5d e9 74 3e d5 3e 2e bd ea b7 97 3e
       -0.1765996 0.23917146 -0.04254039 0.29632503
000110 68 e4 8f 3e 1b 73 a1 3e b1 d0 7b 3e 4e af 00 bd
       0.28103948 0.3153313 0.24591328 -0.031417184
000120 a1 fe b5 bd cc c2 85 3e 9b 29 5b bd 8c 6f 79 be
       -0.08886457 0.2612518 -0.053506475 -0.24358958
000130 59 8f d5 bd 64 bb c6 3d 36 fa 88 3e 02 05 95 3c
       -0.10427732 0.09703711 0.26753396 0.018190864
000140 85 e0 99 bd 33 cb 67 3e 97 31 d5 3c 05 54 58 be
       -0.07513527 0.22636108 0.026024623 -0.21125801
000150 e7 f4 98 3b b6 ff 81 3d 6c 06 d5 3d e5 ef 7a be
       0.0046678665 0.06347601 0.104016155 -0.24505575
000160 8e 24 0e be 06 0c c9 bd c8 70 32 be 90 20 95 3e
       -0.13881132 -0.098167464 -0.17425835 0.29126406
000170 c3 ad 35 3e 51 e2 25 be d9 e1 1e be 30 ad 77 3e
       0.17742066 -0.16199614 -0.15515842 0.2418716
000180 31 2c 49 be ad 0a 0e be 1a 5c 70 be e5 73 f4 bb
       -0.19645764 -0.1387126 -0.23472634 -0.007460105

layer_stack.2.layer_stack.4.bias f4 [10]
000000 fe aa 00 3e 1f 3f 39 3e 43 fc 4e be 1d 30 19 3d
       0.12565228 0.18090485 -0.20213418 0.0373994
000010 fc 89 87 bd bf 25 8d bd 09 bb 41 bd ed bc 86 bd
       -0.06618115 -0.06891965 -0.04729751 -0.065790035
000020 08 6d 9b 3e 07 47 ad bd
       0.30356622 -0.08460813

layer_stack.3.layer_stack.0.weight f4 [10, 10, 3, 3]
000000 38 f3 34 3d 68 42 39 3d 16 e0 95 3d 16 e3 04 bd
       0.044177264 0.045229346 0.073181316 -0.03244313
000010 15 96 8b 3d 0e 6e 81 bc dc b5 4a bd e6 ae 38 3c
       0.06815735 -0.015799548 -0.04948984 0.011272168
000020 52 68 61 3d 19 a1 d6 bd f8 70 9d bc a1 00 d9 bc
       0.05503113 -0.10479946 -0.019218907 -0.026489558
000030 c0 60 54 bd 86 a9 17 bd 4e 17 d6 3c 21 a1 9e 3b
       -0.05185008 -0.037026905 0.02613416 0.0048409854
000040 ec 2c a7 bd b5 e7 8c bc 34 37 ca 3d c8 18 73 bb
       -0.08162865 -0.01720033 0.098738104 -0.0037093628
000050 31 ca e3 3b c5 f1 11 3d a4 ea be bd ce 8d 28 3d
       0.0069515933 0.03563096 -0.09322098 0.04115086
000060 76 6c 05 bd cc ac d0 bd 3f d4 64 bd 69 97 0f bd
       -0.03257414 -0.101892084 -0.055866476 -0.035056505
000070 1c 41 a9 3c 62 2f ca 3d f5 36 6f bd 4f cc 99 3c
       0.02066093 0.09872319 -0.05840202 0.01877418
000080 6f 64 ab 3d bd ae 57 bd b5 ff 70 3d 90 ef 21 3c
       0.083687656 -0.052656878 0.05883761 0.009883776
000090 5c 73 94 3c 84 f3 96 bd cf 6c 30 bc ca 65 a0 3d
       0.018121414 -0.07370666 -0.0107681295 0.07831915
0000a0 c7 4c 54 3d 83 f6 18 3d 05 9c 16 bc 40 b5 6f bd
       0.051831033 0.037344467 -0.009192471 -0.058522463
0000b0 d5 4a 0d bd a7 27 5f 3d b0 d4 a6 3d 46 15 3c bd
       -0.034495194 0.054481175 0.08146036 -0.045918725
0000c0 b2 a1 c4 3d 02 64 10 3d df 56 80 3d d3 12 04 bd
       0.096011534 0.035251625 0.06266569 -0.032244515
0000d0 0d d6 44 3d 93 5f d0 bd d3 04 84 3d d4 d9 6c 3c
       0.048055697 -0.10174479 0.06446233 0.014456231
0000e0 e3 29 2f 3d 54 72 73 bd 0d 86 57 3c 26 00 b8 3d
       0.042764556 -0.059435204 0.013154519 0.08984403
0000f0 27 92 9a bd 73 fe 48 bd 5f c3 a0 bd b6 6f 27 3d
       -0.075474076 -0.049070787 -0.07849764 0.04087802
000100 50 25 ab 3d 4a 58 c0 bd 6f b4 a5 3d c6 84 b7 3c
       0.08356726 -0.0939184 0.080910556 0.022402178
000110 d5 63 19 bd 09 4f 2a 3d e1 d5 ae 3c 1e c4 ba bd
       -0.037448723 0.04157928 0.02134222 -0.09119438
000120 b5 74 b0 bd ad 5e c2 bc c7 40 a9 bd 13 9e a4 bd
       -0.0861601 -0.023726786 -0.082643084 -0.08037963
000130 64 63 ba bd cf 78 a0 bc f8 bf 8c 3d 0d 96 ae bd
       -0.091009885 -0.019588856 0.06872553 -0.08524714
000140 8e f6 8c bd 92 3d 1b bd c5 fe 1f bd a5 0c 1f 3d
       -0.06882964 -0.037900515 -0.039061327 0.03883042
000150 ff c9 0b 3d c7 ce 8a 3d af 7d bd 3d 3c 9c aa 3d
       0.034128185 0.06777721 0.09252488 0.083305806
000160 db db ee bc dd 2b 6f 3d 36 7d 3e bd c2 a7 26 3d
       -0.02915757 0.05839144 -0.04650613 0.04068733
000170 a7 74 9a 3d 15 65 3c bc f7 18 ca 3d 35 a2 d2 3c
       0.07541781 -0.011498709 0.09868043 0.025712112
000180 95 78 30 bc 3e bc 34 bc 1b 61 6b 3c e1 f3 cb bd
       -0.0107709365 -0.011031209 0.0143664135 -0.099586256
000190 ac 95 12 3d 2e bc 18 bc 32 ba a0 3d 51 14 d3 bd
       0.03578727 -0.009322209 0.07848014 -0.103066094
0001a0 cd bc 96 3c 9a 97 8b bd 94 47 c5 3d fb bd 75 bd
       0.018400574 -0.06816025 0.09632793 -0.059995633
0001b0 b8 89 4c bd 31 0f 14 bd fc 1a a2 3d 81 af 70 ba
       -0.049936026 -0.0361473 0.07915303 -0.00091814256
0001c0 83 28 b0 3d 16 84 cc 3d c2 12 78 3b c6 8f fc 3c
       0.08601477 0.09986131 0.0037852977 0.030830275
0001d0 51 e8 79 bd 4c bf 55 3d 5c 06 00 bd 01 77 30 bb
       -0.06101257 0.052184388 -0.031256065 -0.00269264
0001e0 c9 23 42 3d 28 e3 a1 bd af c0 ab bc 8d 21 b7 3d
       0.04739741 -0.07904655 -0.020965902 0.08941946
0001f0 02 e1 0d bd ed 66 4f 3d 02 da 89 bd 6f c2 c5 bd
       -0.034638412 0.050635267 -0.06731035 -0.09656226
000200 9b 12 d3 bd e0 01 6b 3b 38 d3 bc bc 4c 13 67 3b
       -0.10306283 0.0035859272 -0.023049936 0.0035259305
000210 92 db a4 bd 59 be 88 bd a1 ba 2f bd 56 dc 4b 3c
       -0.08049692 -0.06676931 -0.042902593 0.012442669
000220 3b c8 09 bd f6 b8 fc 3c e1 82 52 3d 71 3a e5 bc
       -0.03363822 0.030849915 0.051394347 -0.027981969
000230 10 06 6c bb c2 1c a4 3c 16 de 91 3d bc 5b 93 3d
       -0.0036014356 0.020033244 0.07122438 0.07195231
000240 b1 17 7e bd 72 c3 95 bd 78 7b 9a bd da 0e 55 3d
       -0.062034313 -0.07312669 -0.07543081 0.052016117
000250 32 09 98 3d 47 5f a3 bd 6b 7b d2 3d 3c 05 95 bd
       0.07423629 -0.07977157 0.10277446 -0.07276389
000260 27 dd a7 bc 2c 43 c8 3d 84 5a a5 3d 50 25 a9 bd
       -0.020491196 0.09778437 0.08073905 -0.0825907
000270 15 35 bf 3c 89 d8 9b 3d 34 e1 50 3d 0c 79 a3 3d
       0.023340741 0.0760966 0.05099602 0.07982072
000280 41 c7 d0 bd 76 96 c6 bc 2e 5b 97 bd b1 1f 78 3d
       -0.10194255 -0.024241667 -0.07390438 0.0605771
000290 e4 28 24 3d 07 db 88 bd 7a ee dd bc 7e 69 83 bc
       0.04007806 -0.06682401 -0.027091254 -0.016041514
0002a0 4f 56 42 bc c2 43 f8 bc 8d aa ba 3d 39 65 a8 3d
       -0.011861398 -0.030305747 0.09114561 0.08222432
0002b0 56 2d 9c bd 49 3f d3 3d 31 41 be bb 6d dd 52 3d
       -0.07625835 0.10314805 -0.0058061113 0.0514807
0002c0 14 22 c3 3b 15 b4 ab 3b 2b e9 9a 3d bf 85 5f bd
       0.00595499 0.0052399733 0.075640045 -0.05457091
0002d0 00 c2 b0 3d 0a 1e 0c bb ea ff 81 3d 7b d9 22 bd
       0.086307526 -0.002138021 0.0634764 -0.039758187
0002e0 8c 56 6b bd 09 28 7e 3d 06 44 6c bd 70 39 20 bb
       -0.057455584 0.0620499 -0.05768206 -0.0024448298
0002f0 55 fd 04 3d cb bc 21 3d c6 e2 b0 bd bd d8 9c 3c
       0.03246816 0.039486688 -0.086370036 0.019146318
000300 cb ff cb 3d 63 a3 f4 3b 8d a7 cb bc 48 f4 36 3d
       0.09960898 0.0074657663 -0.024860168 0.04466656
000310 84 11 9b b9 d0 b2 80 bc c8 8a 98 bd 4f 64 58 bd
       -0.00029576954 -0.015710264 -0.074483454 -0.052830037
000320 f9 d4 b6 bd 20 c6 cf bd 8a a8 ce bd 64 02 47 bd
       -0.0892734 -0.10145211 -0.1009074 -0.048586264
000330 6b 44 f9 bc b4 ed 0a 3d a2 b7 39 bc a0 d5 80 bd
       -0.030428132 0.033918098 -0.011335285 -0.06290746
000340 19 97 82 bd 7b 0b 4b 3d 0f 25 8a 3d 82 bd cf bc
       -0.06376476 0.049571496 0.067453496 -0.025358919
000350 2c 16 d5 bd 7f 73 57 3d a8 28 0d bd 89 06 ab 3d
       -0.104046196 0.05260038 -0.0344626 0.08350856
000360 ba df d5 3d 2a c8 b4 bd 4e ff 53 3d 67 36 1b bd
       0.10443063 -0.08827241 0.05175715 -0.03789368
000370 34 34 f0 bc dd 72 9d bb ea ed 9b bd 1e 31 4e 3c
       -0.029321767 -0.0048049525 -0.07613738 0.012584953
000380 ac c5 ae bb 95 2a ae 3d 5e b1 ab 3c 9b 54 4c 3d
       -0.005333623 0.08504216 0.020958599 0.049885374
000390 d3 bd 93 3d 21 20 99 3d 1c 48 91 3d 41 c4 ce bd
       0.072139405 0.07476831 0.07093832 -0.10096026
0003a0 7a d2 30 bc 06 a1 6f 3b 40 16 b4 bd 9f 55 89 bc
       -0.010792369 0.0036564483 -0.08793306 -0.01676446
0003b0 cd 08 aa 3d e9 fd 46 bd 72 46 8b bd a1 a1 45 bd
       0.0830246 -0.04858199 -0.06800546 -0.048249844
0003c0 2a 98 f2 bc af 98 ff bc 4f 1a 6f 3d 00 3b a2 bd
       -0.029613573 -0.031200735 0.0583747 -0.079214096
0003d0 df c4 cb bd b2 b0 95 bc 6d b2 a3 bd e5 ec bd 3d
       -0.099496596 -0.018272731 -0.079930164 0.092737
0003e0 b2 ae 02 bd be e8 a9 bd cb 7b 77 bd be 25 5f bd
       -0.031904884 -0.08296345 -0.060420793 -0.054479353
0003f0 5d c6 d1 3d 75 17 b9 3d a3 91 89 bb 46 05 a9 bd
       0.10242913 0.09037677 -0.0041982695 -0.08252959

layer_stack.3.layer_stack.0.bias f4 [10]
000000 db ad c8 bd b7 ab 1f 3c bb 42 ab 3c 80 6b 22 bc
       -0.09798785 0.00974553 0.020905843 -0.009913325
000010 45 fb b3 3d bd 18 21 3d f2 1d 20 bd 0c 3e 6b 3d
       0.0878816 0.039330233 -0.039091058 0.05743222
000020 c3 0d 29 bd 4e 65 23 bd
       -0.04127289 -0.039891534

layer_stack.3.layer_stack.2.weight f4 [10, 10, 1, 1]
000000 73 23 83 3e 49 8b 31 bd e5 23 74 3d b0 c9 91 be
       0.25612983 -0.043345723 0.059604544 -0.28474188
000010 cc 4f 22 3e 99 8e 54 be 7e ca 07 be 95 e7 9b 3e
       0.15850753 -0.20757522 -0.13260838 0.3045012
000020 16 82 8d bd d1 42 fa bd 8d 12 36 be 12 d7 85 be
       -0.069095775 -0.122197755 -0.17780514 -0.26140648
000030 85 5c 64 3a eb fc 64 3d f7 71 a0 3e 54 87 81 3e
       0.0008711296 0.055905264 0.31336948 0.2529856
000040 1f ca cb bc d4 29 8f bd 56 0d 17 bd ae 1f 0a be
       -0.024876652 -0.069904 -0.036877953 -0.13488647
000050 81 a3 f4 bd 09 ec 24 be b8 11 7a bd 67 7f 73 3e
       -0.119452484 -0.16105665 -0.061052054 0.23779069
000060 e6 d6 89 be 42 10 82 3e 5f d2 f6 bd 74 84 61 bd
       -0.26921767 0.2540303 -0.12051844 -0.055057958
000070 e8 4c 03 be 90 c2 62 3d 87 a1 6a bd 4c b8 6a 3e
       -0.12822306 0.05536133 -0.05728295 0.22921866
000080 a7 5d f0 bd d3 27 31 3e f6 f9 8d be 20 1a 84 be
       -0.11736613 0.17300348 -0.27729768 -0.25801182
000090 84 01 16 be b2 98 0a be 3a 28 2a 3e e0 73 66 be
       -0.14649016 -0.13534811 0.16616908 -0.2250514
0000a0 75 9f 29 3e 86 91 8c be ad 82 9b be 7c e0 2b be
       0.16564734 -0.27454776 -0.30373135 -0.16784853
0000b0 a6 d2 9b be cb 8c 7a 3d 89 e0 7d 3e 1d 7e 5e bd
       -0.3043415 0.061169427 0.24792685 -0.05431949
0000c0 cd da 19 be 3b 88 a1 3e 21 f0 23 be 91 70 69 bd
       -0.15024872 0.31549248 -0.1600957 -0.056992117
0000d0 f3 f2 93 be a7 76 cc bb 28 6e 3e 3e 16 f3 71 be
       -0.28896293 -0.0062397304 0.18596709 -0.23627886
0000e0 49 f4 6b 3e 60 9a e4 3c ab 1a 94 3e 7b 0c 09 be
       0.23042406 0.027905643 0.28926596 -0.13383667
0000f0 5d 8f 9c 3e 5d 52 fc 3d 7d 7d 83 3d 50 40 82 3d
       0.30578128 0.12320397 0.06420419 0.06359923
000100 ca 49 a1 3e c3 59 5a 3d 1a bb 95 3e 5f 14 59 3c
       0.3150161 0.05330826 0.2924431 0.013249486
000110 30 e3 58 be b6 8a 2a be 4e 91 90 3e cd 8a 49 3c
       -0.21180415 -0.16654477 0.2823586 0.012301159
000120 87 b7 9b bb 0a 65 aa 3d fd 13 3b be 85 7e 96 be
       -0.004752103 0.08320053 -0.18269344 -0.29393402
000130 a0 d5 3a be 7b 50 25 3d fc 15 20 bd 1e cf 76 3e
       -0.18245554 0.040359955 -0.039083466 0.24102446
000140 0d 8e 52 bd dc dc 2e be 28 8b ea 3c 6c 74 1e 3e
       -0.051405 -0.17076439 0.028630808 0.15474099
000150 86 3a b0 bc e7 7e a7 bd 6f 6f ab bd d9 58 51 3e
       -0.021512281 -0.081785016 -0.08370864 0.20444049
000160 cf d9 7c be 61 2c 80 3e df 77 21 bd cd ce 1f 3e
       -0.24692462 0.25033858 -0.03942096 0.15606232
000170 f4 3a 83 be fa f8 81 be 44 04 23 be 46 08 c3 bd
       -0.25630915 -0.25385267 -0.15919596 -0.095230624
000180 3e 0c 8b 3e ce 9c cb bd 39 db 7a be 41 c7 b3 3d
       0.27157778 -0.099420175 -0.2449769 0.08778239

layer_stack.3.layer_stack.2.bias f4 [10]
000000 e0 c0 1b 3e 39 a0 d7 3d 7f 01 a7 3d 2e 98 3d bd
       0.15210295 0.10528607 0.08154582 -0.046287708
000010 c2 fa 0a be 3a 57 cf bd 33 57 f8 3c 66 47 8f 3e
       -0.13572219 -0.10124059 0.030315017 0.2798416
000020 c1 e1 8e 3e b8 10 5d 3e
       0.27906612 0.21588409

layer_stack.3.layer_stack.4.weight f4 [10, 10, 1, 1]
000000 de 3d a9 bd 63 05 94 be 65 42 96 3c 65 67 3c 3e
       -0.08263753 -0.2891036 0.018342206 0.18398817
000010 57 26 89 3e f9 8a 5e be 50 1a 27 3e 19 30 31 bd
       0.26787063 -0.21732701 0.16318631 -0.04325876
000020 ef 65 92 3d bd 75 e7 3d 01 9e 86 3d 36 25 ea 3d
       0.071483485 0.11301754 0.065731056 0.11432879
000030 48 dd 16 be 60 ba 54 3e 4e d1 e5 bd 72 37 9d be
       -0.1473285 0.20774221 -0.11221562 -0.30706364
000040 f5 19 28 3e 8a 86 0b be d4 90 7c be 79 f5 4b 3e
       0.16416152 -0.13625541 -0.24664623 0.19917859
000050 7e 96 02 be ba 2c 6e 3e 12 ea 8e bd b9 d8 0f bb
       -0.1275272 0.2325925 -0.06978239 -0.0021949245
000060 02 a7 39 be 7a e3 89 3e cd 9b 56 be 22 8a a1 bd
       -0.18130115 0.26931363 -0.20957871 -0.07887675
000070 ab b9 1e be 06 9b 40 bd e9 8c 58 3e 6c 73 87 be
       -0.15500514 -0.047022842 0.21147503 -0.26455247
000080 7c 5c 0f 3d 98 94 6f 3e 53 a5 2a 3d 7d 4a 4a be
       0.03500031 0.23396528 0.04166157 -0.19754978
000090 91 40 8d bd 16 e4 3d be 5f 8e 65 be 55 eb 67 be
       -0.06897081 -0.18544039 -0.22417592 -0.22648366
0000a0 10 30 90 3e 1c 17 9f bd e7 df 9f be fa 49 0c 3e
       0.2816167 -0.0776808 -0.3122551 0.13700095
0000b0 18 1b 8d be fd a4 12 be e6 36 3b 3e e5 16 7a be
       -0.27559733 -0.1432075 0.18282661 -0.24422796
0000c0 3e 6a 23 3e f0 d1 a8 3d 9a ca 9a bd 92 8d 87 3b
       0.15958497 0.082431674 -0.075581744 0.0041367495
0000d0 70 d5 86 be 5f 94 bb 3d 9c cd cb bd 9b 49 e2 bd
       -0.26334715 0.09159159 -0.09951326 -0.110491954
0000e0 56 ea d3 3d c0 7e 78 3c 2c da a1 3e ad ea 62 be
       0.103474304 0.015166938 0.31611764 -0.22159834
0000f0 a1 88 76 be 7b 41 a1 be c1 d7 90 3e a3 55 7e be
       -0.24075557 -0.3149527 0.28289607 -0.24837355
000100 10 59 c2 3c 35 d4 c4 3d ad 77 58 3d f6 c0 2e be
       0.023724109 0.09610788 0.052848507 -0.17065796
000110 f7 01 f6 3d 19 2c 18 3e 51 db 78 3e 9c ff 31 be
       0.120120935 0.14860572 0.24302413 -0.17382663
000120 cc de 5f 3e c0 d2 a1 3e bc 66 8b be f5 b4 8d 3e
       0.21862334 0.31606102 -0.27226818 0.27677122
000130 03 66 0c 3d cb d5 00 be f8 b6 5d 3d 4c f9 33 be
       0.034276973 -0.12581556 0.05412957 -0.17575568
000140 8c 42 82 be 7e 9b 72 3e bb cd 20 3e dd 2c 17 3e
       -0.25441396 0.23692128 0.1570348 0.14763208
000150 41 ae 16 3c 64 32 dd 3d 30 00 97 3e f6 9a 59 bd
       0.009196819 0.10800627 0.2949233 -0.053126298
000160 35 d9 9d be 9e 09 1b be 22 5a a0 be 46 a3 9a 3e
       -0.30829778 -0.15140387 -0.31318766 0.30202693
000170 f1 69 91 3e 27 79 69 be da 7a 37 3d 92 10 4c 3e
       0.2840114 -0.22800122 0.044794895 0.19928196
000180 90 3e 8c be 6f d3 1a 3d 12 30 23 be 0a f2 0d 3e
       -0.2739148 0.037799295 -0.15936306 0.13861862

layer_stack.3.layer_stack.4.bias f4 [10]
000000 0e 13 cf bb 26 25 24 3d 51 10 c3 3c 0f 3e 1a 3e
       -0.00631941 0.04007449 0.023811491 0.15062736
000010 3a 02 07 bd d3 8b b0 bd 4e c1 e6 bd a8 ad 8c be
       -0.032961108 -0.08620419 -0.11267339 -0.2747624
000020 f0 69 01 3e 27 61 a9 bb
       0.12638068 -0.005169052
