state_tests/nets/leakyboi2.pt (torch, 19933 bytes, 12 tensors)

layer_stack.0.layer_stack.0.weight f4 [24, 1, 3, 3]
00000000: 2150 673f 0d02 063f cc6d c63e d2b6 663e
00000010: 44d0 eabe 67ad 343e 387d 91be 3a34 c2be
00000020: d107 86bf c811 d03e ea7c 46bf 9203 19bf
00000030: 4aeb 3d3d 75b5 7abe 52de 283f eb59 133e
00000040: 7537 eabe 5c5e 5e3f b308 2fc0 41db 07c0
00000050: 92bc 80bf 4cd7 1ac0 0e97 4dc0 6b8e aebf
00000060: bf2e b43e d0ed a5bf d1e9 853f ba65 2b3f
00000070: 0349 183e b3e4 29bf ea0e 1e3f 9b3a 15bf
00000080: 3227 35bf ca28 8cbf 3bca 50bf 2253 7dbd
00000090: 3d5b 05bf 6702 38be 8617 8a3d e0ec 133f
000000a0: ceeb f0be 69ff 4dbe 75e1 f4bc dfb2 563e
000000b0: ce17 133f 3906 04c0 b3bc 56bf 615e cd3e
000000c0: 4b93 e5bd b1c2 eabf 5d04 15bf 47a4 943f
000000d0: bb21 8e3f f53c 8fbf a7b1 86bf a26f 0dbf
000000e0: eb12 b63f 3a04 0cbe b498 88be 9582 843f
000000f0: bdf1 4d3e 3526 1b3f d7f1 72bf e14c 27c0
00000100: b85c 2b3e 3721 ab3e 2022 813e 759b 763f
00000110: 7110 923e 5888 e7bf 4df8 e83d 35f9 0f40
00000120: caa0 073f 36b9 4b3f 751b 4a3d f8af 2a3f
00000130: 042c 623f 383b 863e d613 5abe 5332 03bf
00000140: 504c da3c 803f b53e b392 33bf 7128 623e
00000150: 9414 063f 48a3 003f 03c4 30bf 7ae2 b5bc
00000160: 2771 0b3f b4b2 593f 14ce c1be fe88 8f3f
00000170: b384 be3f 6c94 b0bf e52a 87bf 83f6 b53f
00000180: 4cf1 b8bf b966 efbe 53c2 b73b dbb2 d93e
00000190: 09c9 7dbe a248 503e 9c31 cd3f 18db 43bf
000001a0: e24d a63e 7558 83bf 20bb e5be 5ba5 2f3f
000001b0: 5da4 e4bf c5e1 0bc0 7a31 76bf 09ad 443f
000001c0: e81a 903f 147c 05bf 1dab 2dbf bf6e f23e
000001d0: 4235 8dbe b569 043f 5ecd 913f dcb7 b4bf
000001e0: 2b57 56bc fc78 cabf 0b58 69c0 94bb b5bf
000001f0: 0689 47c0 cfc8 d8bf b877 f7be 4cc6 bcbf
00000200: 930c e43f 96ff 1b3e 488a 03c0 c219 0b40
00000210: b868 ab3f 05b8 ecbe 209b 03bf 4ba3 8f3d
00000220: 2b9a 9abe 41c4 e43e 3bcc c5be b69b 423f
00000230: c94d 0a3f 40cc 673f fb31 c33c fcbc 3ebd
00000240: b5df 2f3d f21a b23e be16 8dbf 4d0f 60be
00000250: 311b ed3f a8d0 313f 4b78 5d3e 9016 95be
00000260: bcee ed3e b1e2 25be 6555 133e f88d cdbe
00000270: 4dd8 d03f fe21 cdbe 1310 4fbf 391b e23e
00000280: 84eb 533f 5f1d bcbf e80f 67be 1993 513e
00000290: b86d 50be e3ed 84bd 784d b7bc e32d 3bbe
000002a0: 00b3 823d ffa1 32be 43d1 3bbe f14c cdbe
000002b0: 2fa9 17be d50a a93e e7ea 263c c1f7 53be
000002c0: 12ea 823f 6b39 663f 5695 1e3e 0a2c 42be
000002d0: f7d4 0a3f 367e 533f 229f 793e 9215 a13f
000002e0: 3c8a 4dbf 559e 73be a45b b0bf 8b20 efbf
000002f0: 19d0 bbbc 6044 94be 8157 f93c c69f 303e
00000300: 33e4 4f3f 5765 d3bd e601 7b3f 1e13 e63d
00000310: e907 12bf abd5 f53e ac1c 87be 7cde 283f
00000320: 8992 0d3f dc04 8c3f 84dc ce3c fd71 68bf
00000330: 282f eebe ee0f 063f 40cb 843e c0e6 4f3c
00000340: 96c7 31c0 c3ce ae3f d428 15be a44d 5fc0
00000350: b672 debe b959 323f 9fc4 f2bf bc41 a1bf
0.9035664 0.5234688 0.38755643 0.22530678 -0.4586202 0.17644273 -0.28415847 -0.3793047
-1.0471135 0.40638566 -0.77534354 -0.5977107 0.046366967 -0.24483283 0.65964234 0.1438977
-0.45745435 0.8686273 -2.734906 -2.1227572 -1.0057547 -2.4193907 -3.2123446 -1.3637213
0.35191914 -1.29632 1.046198 0.669521 0.14871602 -0.6636459 0.6174151 -0.5829255
-0.7076293 -1.0949948 -0.8155858 -0.06184686 -0.52092344 -0.17969666 0.06742768 0.5778332
-0.47054905 -0.20116962 -0.029892663 0.20966671 0.574582 -2.0628798 -0.8388168 0.40111068
-0.112097345 -1.8340665 -0.5820978 1.1612633 1.1104044 -1.1190478 -1.0522965 -0.55248463
1.4224523 -0.13673487 -0.26679003 1.035235 0.20111747 0.60605174 -0.9490027 -2.6140673
0.16734588 0.33423778 0.25221348 0.9633096 0.2852817 -1.8088484 0.113754846 2.2495854
0.5297972 0.79579484 0.04934259 0.66674757 0.8834841 0.26217055 -0.2129663 -0.51248664
0.026647717 0.3540001 -0.7014572 0.2208574 0.5237515 0.5024915 -0.6904909 -0.022202719
0.5446953 0.85038304 -0.37852538 1.1213682 1.4884247 -1.3795295 -1.0559965 1.4215854
-1.4448638 -0.4675806 0.005607882 0.42519268 -0.2478372 0.20340207 1.6030765 -0.76506186
0.32481295 -1.026137 -0.44869328 0.6861169 -1.786266 -2.1856549 -0.96169245 0.7682653
1.1258211 -0.52142453 -0.67839223 0.47350118 -0.27579695 0.51723796 1.1390798 -1.411861
-0.013082306 -1.5818172 -3.6459987 -1.4197869 -3.1177382 -1.6936282 -0.48333526 -1.4748015
1.7816337 0.15234217 -2.055315 2.1734471 1.3391333 -0.46234146 -0.51408577 0.070135675
-0.30195746 0.4468098 -0.38632378 0.76018846 0.5402494 0.90546036 0.023827543 -0.04656695
0.042937953 0.34786183 -1.1022565 -0.21880837 1.8523923 0.6945901 0.2162792 -0.29118776
0.46471202 -0.16199757 0.14388044 -0.40147376 1.631601 -0.40064996 -0.808839 0.44161394
0.82781243 -1.4696463 -0.22564662 0.2046627 -0.20354354 -0.06490686 -0.022375807 -0.18279223
0.06381798 -0.17444609 -0.18341546 -0.40097764 -0.14810632 0.33016077 0.010187841 -0.2069998
1.0227683 0.8993136 0.15486655 -0.18962112 0.5423121 0.8261446 0.2437711 1.2584708
-0.80289054 -0.23790868 -1.3777966 -1.8681806 -0.022926377 -0.28958416 0.030437233 0.17248449
0.8120758 -0.103220634 0.9804977 0.11234115 -0.5704332 0.48014578 -0.26389062 0.65964484
0.5530172 1.0938983 0.025251634 -0.9079893 -0.46520352 0.52368057 0.25936317 0.012689292
-2.7778068 1.3656849 -0.14566356 -3.4891138 -0.43446892 0.69668156 -1.8966254 -1.2598186

layer_stack.0.layer_stack.0.bias f4 [24]
00000000: 0211 23be 4fd3 8e3e 71b7 e43e 3214 a33e
00000010: bd25 afbe 0665 a53e e9b7 003e 456d 6cbc
00000020: 7050 b0bf c1ac 82be 18cf 6c3e 4628 6dbe
00000030: 260f d83e b54d 963e aaaa 30bf 10e3 a4be
00000040: dc57 67bf b154 203e 9a5a 4cbe d708 8fbe
00000050: 911f d93d 2cfc fabd d03e 61be e258 123f
-0.15924457 0.2789559 0.44671205 0.31851345 -0.3420848 0.32303637 0.12570156 -0.014430349
-1.3774548 -0.25522426 0.23125875 -0.23159894 0.42199057 0.2935616 -0.6901041 -0.32204485
-0.9036844 0.15657307 -0.19956437 -0.27936432 0.10601724 -0.12255129 -0.21996617 0.57166874

layer_stack.0.layer_stack.2.weight f4 [24, 24, 1, 1]
00000000: 80f2 073e 675f dcbd 06ca 39be 942c 91bd
00000010: e2f8 3a3e 9f83 bf3d 2193 dabd 2e8a 143e
00000020: 8a33 30bc ffb3 00be ca2f 3bbe 2de4 0abe
00000030: bcd4 3abe 32af 46be e086 c5bc e176 4abd
00000040: 7f0d ccbc 6d54 0dbe 4838 d1bd 34dd b3bd
00000050: 30c8 9a3d a387 9e3d aada 99bb 51d2 1e3d
00000060: efc8 c1bd 3dce 773c 8fc9 683e e94a d6be
00000070: ced8 b8be fe45 31bc e0c5 d8be 9856 753f
00000080: 03c9 3bbc d63b d3bf be83 9c3f c828 00be
00000090: a788 89be 714f edbc 29f5 2ebf 3dec 6dbf
000000a0: 591c 90be 3d64 4dbf 2e8b a3bd 3240 28bf
000000b0: 42be 843e 073f 3ebd d685 8ebf 254f 6d3f
000000c0: 6968 2f3e f1f5 d5bd 70db cbbd 8ec8 5a3e
000000d0: 7fd2 003e 2566 263e 5d0b 9fbd 1f8a a7bd
000000e0: e5f6 5dbe ddbb 27be 94d9 93bd b893 86be
000000f0: ad9c 17be fabc 893e 1449 4c3d 9acf 183c
00000100: 2546 1c3e a700 30be ca6c 0abe 49e0 5dbb
00000110: 567f 45ba 3379 1ebc 705e 423d d97b 07bb
00000120: b6d7 52bf 7d69 a43e 79f1 88bf d38e 30bf
00000130: 3658 033f 6807 a43d 1ec9 7cbe 01d5 24bf
00000140: 3b26 9dbd 508d 963e 524c acbf f4e0 463e
00000150: 3202 3ebe 1221 bbbf b6c3 89bf e7d0 0b3e
00000160: dc4a 283d 3e31 7bbf 1088 7bbb 6856 c53d
00000170: c743 1abe d664 2cbd 1168 c53d cb5f b6bf
00000180: c59f 1ebe e5a6 32bd 67b8 43be 11e9 cc3b
00000190: 7d7b c83c dcb1 bdbd c57b 023d 3164 43be
000001a0: 2364 3a3c a1d7 a6bd 440a 54bd 8ccd 4fbd
000001b0: 8b2b 013e 1e15 d83e 7989 75be 35a9 bcbd
000001c0: 30c5 653b 60c7 d8be a715 ec3d 809e a63d
000001d0: 199a 743e 4cf7 81be 5bbd 4abe a298 90be
000001e0: 0057 42bf 94be 11bd 6e10 92bf 16a6 bebe
000001f0: b646 95be b382 38bf cf5d 833d 493b dabe
00000200: 4c12 a03e 6844 11bf 2f10 bf3e 5680 dbbe
00000210: afe4 af3b 6662 cdbf 19a1 febc 6b39 643d
00000220: abe6 8fbe c27d 193b f011 a13d 39ee 003c
00000230: bc21 a1bf 193d 9a3e 5fc9 1dbe fa05 5fbe
00000240: 9257 de3e 9283 b8be f1a8 80be 9778 08be
00000250: 3529 4fbd d770 a1bf d1a1 cfbd 0286 e23e
00000260: af1b c2bc 5b09 893e 6fbf 3a3d a9fd 623d
00000270: e4f3 33bf 8708 d3be 79c0 3ebf 8d28 d53e
00000280: c839 adbc 4562 c3bc fc20 70bd 0a4e 923d
00000290: fa13 04be 8730 d83e 4b0b f43e 7eb8 52bf
000002a0: a45e 1c3e 2952 3bbe 0acb 6cbf 7d31 0f3e
000002b0: e764 203e b18e 26be 8629 84bd 6331 2fbf
000002c0: 9767 abbe fa0a 7a3d 8ce5 50bf 3773 6fbe
000002d0: 2552 4ebe 3462 3ebf 7bdf 28bf dd35 79be
000002e0: a978 42be 11cf babb 5b54 4ebc 80d4 bb3d
000002f0: dd22 65be 49a5 6abe 1d37 debd d877 25bf
00000300: b898 963d f0c4 da3c 50a0 41bd 1879 b5bd
00000310: 59fa e0bd 4256 ecbd d572 5cbd c739 14bd
00000320: 1993 a6bd 44d3 d6bd f535 e9bd 0898 7ebd
00000330: 2f62 b53d 1f79 8bbd 9f7c 11bc 1226 b6bd
00000340: 056a d2bd 399c 05be 22a5 eb3d 21ad 01be
00000350: a198 a23d a756 ac3d 4ec9 3dbb 8fa7 0dbc
00000360: 84a8 7ebe ed05 26be 45e6 a5bf 7404 f83d
00000370: 97f4 293e 095d 5f3d a8d0 e9bc dc55 36bf
00000380: e537 033e c596 da3d e042 313e 79b5 143f
00000390: 7fca 6abf daaf 593f e23f acbe 1db0 3abe
000003a0: 9661 0ebf 269f 143e 3ccd a9bd 5daf ff3c
000003b0: 00b6 213f 59b6 d43e 7a54 d63d 794b e2be
000003c0: 241a 82be 67c3 1b3f 54cd d0be f9fc 163e
000003d0: f73a 813e 1dec 6d3e a06c 14bf 4282 54bf
000003e0: 88bd bfbe 37e7 03bb a23b 94bf 7be6 cebe
000003f0: 3d53 90bd b4b4 62bf 70e6 a23e 55cf b13c
0.132761 -0.10760384 -0.18143472 -0.07088581 0.18259004 0.093512766 -0.10672594 0.14505836
-0.010754475 -0.12568663 -0.18279949 -0.13563605 -0.18245214 -0.19402769 -0.024112165 -0.049429778
-0.02490878 -0.13801737 -0.10215813 -0.087824255 0.07557714 0.077407144 -0.0046952562 0.038774792
-0.09462153 0.015124855 0.22733139 -0.41854027 -0.3610291 -0.01081991 -0.42338467 0.95835257
-0.011461499 -1.6502635 1.2227705 -0.12515557 -0.2686207 -0.028968545 -0.68342835 -0.92938596
-0.28146628 -0.80231076 -0.07985531 -0.65722954 0.25926405 -0.046446826 -1.1134593 0.9269889
0.17129673 -0.104473 -0.09953964 0.21365568 0.12580298 0.16249903 -0.07765839 -0.081806414
-0.21676214 -0.16380258 -0.07219234 -0.26284575 -0.14805861 0.2690199 0.04987438 0.00932684
0.15261133 -0.17187749 -0.13518062 -0.0033855608 -0.0007533928 -0.009672451 0.047453344 -0.0020673184
-0.823604 0.3211173 -1.0698692 -0.6896793 0.51306474 0.08009225 -0.24686095 -0.6438752
-0.076733075 0.29404688 -1.3460791 0.1942175 -0.18555525 -1.4619467 -1.0762851 0.13653909
0.041087016 -0.9812201 -0.003838066 0.09635621 -0.15064918 -0.042088352 0.0963899 -1.4247984
-0.15490635 -0.043616194 -0.19113313 0.0062533696 0.024472946 -0.092624396 0.031856317 -0.19081189
0.0113764135 -0.08146597 -0.051767603 -0.050733134 0.12614267 0.4220361 -0.23978223 -0.09211961
0.003506016 -0.4233961 0.11527567 0.081357 0.23886909 -0.25383985 -0.19798796 -0.2824145
-0.75914 -0.03558214 -1.1411264 -0.3723609 -0.2915551 -0.7207443 0.06414377 -0.42623356
0.3126396 -0.56745005 0.37317035 -0.4287135 0.0053678374 -1.6045654 -0.031082677 0.05571882
-0.28105673 0.0023420905 0.078647494 0.007869297 -1.258842 0.3012474 -0.15408848 -0.21779624
0.43426186 -0.3603788 -0.25128892 -0.13327251 -0.050576407 -1.2612561 -0.10138286 0.44242865
-0.023694841 0.2676495 0.04559272 0.05541769 -0.7029402 -0.41217443 -0.7451244 0.416325
-0.021145716 -0.02385057 -0.058625206 0.07143791 -0.12898245 0.42224523 0.47664866 -0.8231276
0.15270478 -0.1829306 -0.92497313 0.13983722 0.15663491 -0.1626537 -0.064532325 -0.68434733
-0.3347747 0.061045624 -0.8160026 -0.23383795 -0.20148523 -0.74368596 -0.65966004 -0.24336953
-0.1899134 -0.005700954 -0.012593354 0.091713905 -0.2237658 -0.22914614 -0.10850356 -0.6463599
0.073533475 0.026705235 -0.047272027 -0.088609874 -0.1098525 -0.1153989 -0.05382045 -0.036187913
-0.081335254 -0.104895145 -0.113872446 -0.062156707 0.08856618 -0.068102114 -0.00887981 -0.0889398
-0.10274128 -0.13047875 0.11506106 -0.126637 0.07939268 0.08414965 -0.0028959098 -0.008645906
-0.24868971 -0.16213198 -1.2960898 0.12110224 0.1659721 0.054532085 -0.028541878 -0.7122476
0.12814291 0.10673288 0.17310667 0.58089405 -0.91715235 0.85033953 -0.3364249 -0.18231244
-0.55617654 0.14513835 -0.082910985 0.03121155 0.63168335 0.4154537 0.104653314 -0.44198206
-0.2541057 0.60845035 -0.40781653 0.14744939 0.252403 0.23234601 -0.5797825 -0.8301126
-0.37449288 -0.0020126828 -1.1580698 -0.40410218 -0.070471264 -0.8855698 0.31816435 0.021705309

layer_stack.0.layer_stack.2.bias f4 [24]
00000000: 2ff8 0ebe 8b1b 46be 56f8 3ebe 14d8 e73f
00000010: 386f 8fbb b0f4 953f 4fed 243f 2ac3 8b3d
00000020: a869 0abe a2e3 2a3f c621 b63e 4ea4 47be
00000030: 8fd9 2fbe 9a14 ca3e 9b6c 6f3f 8f4d c73e
00000040: 1103 da3f 6895 5d3f 144d 5ebf 2c14 b7be
00000050: 69da 77be 7eb5 a13e 33b1 d93c 7772 8d3e
-0.13961862 -0.19346444 -0.1864942 1.8112817 -0.004377272 1.1715298 0.64424604 0.06824334
-0.13516867 0.6675359 0.35572642 -0.19496271 -0.17172836 0.39468843 0.93525094 0.3892636
1.7032186 0.865561 -0.8683636 -0.35757577 -0.2420441 0.3158378 0.026573753 0.27626392

layer_stack.0.layer_stack.4.weight f4 [24, 24, 1, 1]
00000000: 967f 063d b6c0 343e bbbf 3ebe e37e f2be
00000010: d91f 1d3e 2f8d 16bf 8916 86be f228 73bd
00000020: 7865 003e a981 a9be 1df6 eabe 5458 1a3e
00000030: fc5b 5d3d 84e5 05be 2197 a5bd 1a3e d0be
00000040: f958 3fbf 8d2e 11bf 0763 9c3d 7a11 84be
00000050: c142 49be 8ffb c1be fa69 7cbe 782a d7be
00000060: 8a3c ceba 2689 dabe 705d 5c3e 6aab 173e
00000070: 0aa6 c53e 69a3 383e 0b82 523f 8c4a 433f
00000080: 0057 02be d663 513e 204a 953e 877e 073d
00000090: 8393 1a3d f4b9 e4be fafd 3b3e e4ad 1a3f
000000a0: 0420 ae3d a8b9 7f3b dd08 403d dda1 13bc
000000b0: d27e c23d 2d27 8cbe 95df 9b3e d38d 66bb
000000c0: a824 12be b81b 723d 8c0f cbbd 6614 ca3e
000000d0: c97f 0dbe 1e58 233f 3313 1b3e f50f 523e
000000e0: 6160 f53d 2162 00bf 0b2d dcbd 0f7f dd3d
000000f0: a4af 023e 22ee 1cbf d35b b83e b132 c2bd
00000100: 6b01 86be a067 b63b 96e5 323e fd33 8d3e
00000110: 888b 243d e172 cb39 581b 25bf 6390 2b3e
00000120: 729a e43d 07fc 713e 49b7 4d3e 3609 263c
00000130: 052e d23d e69c 563e 548e 70bf 4dcb 473b
00000140: ac7e 34be f0dd 5abe 7c8f 20bf e718 aabd
00000150: c507 c03d a554 14be e6d1 403d db17 1cbe
00000160: 348b bebe 5160 343e 06e1 22be 943d b73f
00000170: ab0d 80bb 4766 bc3e fea5 f93d f3fe a6bf
00000180: 0d05 a23d fa66 0cbf 08f9 92bb c011 9e3d
00000190: ab4a 613e ac7c ce3e 382c a63d 06eb 71bd
000001a0: 7ac0 b4bd 7d23 2f3f d09c 3cbf d239 8abd
000001b0: 28bb c43c b451 2bbf d0e5 c93d dd32 373e
000001c0: f713 a8be e336 e03e ca06 6dbf 3085 7cbc
000001d0: 815e f1bd ee35 933e 4bb2 8cbe 3633 0dbf
000001e0: db6f 84bd e8c7 dabe 2714 af3d 0566 81bf
000001f0: d0b6 21bc 75ec b6bd a00b d0be 14a1 e1be
00000200: 5ad6 c5bb 1a55 42bf 8b35 27bf eadc 1abe
00000210: 1a08 013e b67c a63e 4891 13bf 212d b3be
00000220: c2a7 323f 10e1 35bf 518e 01bf a378 a4bd
00000230: 4759 1c3e fc80 15bd d032 cd3e 4810 28be
00000240: 8a16 2d3e e131 1ebf 4465 423e a4b9 13bd
00000250: 09b7 943e b7e5 b2be 16bc bbbe 27fb 4bbe
00000260: 636d 073e 81c2 1e3e d513 f5be 8d1e 9bbd
00000270: 6e1d b83d 7a9d e83e 97d0 b2be 4000 adbd
00000280: ca11 dc3e 1dad c9be 3ccf b3be 30e9 99bd
00000290: 4c24 2e3e 6e78 90be 0bf2 1abf 3393 a3be
000002a0: 90c6 063e 7e1a 4e3e a410 38bd 00d7 81bf
000002b0: 56be 793d 206f 4c3f 8994 883e a092 72be
000002c0: 25e9 4d3e 2b05 18bf 6bd0 2abf 9b01 a23d
000002d0: acbe 36be 6ba7 8fbf 4236 3bbd fe29 e53d
000002e0: b707 95be 8ce4 483d 11ad 7ebe f788 373e
000002f0: 4d3c a53c 8ae2 cfbe ca85 51be 898d 633d
00000300: fd4d a63d 82f3 15bd cdae 8e3d 7613 2fbe
00000310: 58f9 a6bd 7b92 3f3d 01d6 e5be 9499 b9bc
00000320: e211 643d 97ec 2e3e 53a4 84be 2416 513e
00000330: 8c01 b7bd eea1 f3be d63f 883d bd87 83be
00000340: 3502 593e 30cd f7be ab2c 98be f513 dbbe
00000350: f2c7 ccbd 7fb9 443e 2b18 a33d 166b 27be
00000360: 03fe 413d 6658 323f d90a 573e db7d 29bf
00000370: 6452 5a3e 1d3e 43be 5ac7 18bf 2681 51be
00000380: 9b7b 04be 2b63 183f d60f 723e eea0 86bb
00000390: 2ed7 06be 3423 50bf 11ed e13e ea03 10be
000003a0: e7ef 7d3e ebf5 243f 2bc4 31bf e679 0f3f
000003b0: 99a4 42be 3262 a03e 06b9 cc3e b78a b43d
000003c0: 696c 013e e667 2abf f552 a83d d00e 7e3f
000003d0: c4ed 6f3e f6f1 e03e ef21 05bf 6464 b53e
000003e0: 2d7b 13be 3199 15bf ffbe 48bf b350 0ebd
000003f0: 4f35 213e e10a b73e f77f 01bf b8dd ac3e
0.03283652 0.17651638 -0.18627827 -0.47362432 0.1534418 -0.5880918 -0.26189068 -0.05936522
0.12538707 -0.33106735 -0.45890895 0.15072757 0.0540428 -0.13075835 -0.08085466 -0.4067238
-0.74745136 -0.56711656 0.076360755 -0.25794584 -0.19654371 -0.37887236 -0.24649802 -0.4202459
-0.0015734595 -0.4268276 0.21520019 0.14811483 0.3860324 0.18031086 0.8222968 0.76285625
-0.127285 0.2044824 0.29158115 0.03307965 0.037738334 -0.4467312 0.18358603 0.60421586
0.085022 0.0039020572 0.046883453 -0.009010759 0.09496845 -0.2737364 0.30444017 -0.0035179749
-0.14271796 0.059108466 -0.09915075 0.39468688 -0.13818277 0.6380633 0.15144043 0.205139
0.119812734 -0.5014973 -0.10750779 0.1081525 0.12762314 -0.6130086 0.36007556 -0.09482325
-0.26172957 0.0055665523 0.17470393 0.27578726 0.04017213 0.0003880477 -0.6449485 0.16754298
0.111622706 0.23631297 0.20089449 0.010134032 0.10262684 0.2095829 -0.93967175 0.0030486167
-0.17626446 -0.21373725 -0.6271894 -0.08305531 0.09376482 -0.14485414 0.047075175 -0.15243475
-0.3721558 0.17614867 -0.15906152 1.4315667 -0.0039078793 0.3679678 0.121898636 -1.3046554
0.079111196 -0.5484463 -0.0044852532 0.07718229 0.2200114 0.40329492 0.08113903 -0.059062026
-0.088257745 0.68413526 -0.73676777 -0.067493096 0.024015024 -0.66921544 0.098582864 0.17890497
-0.32827732 0.43791875 -0.92588484 -0.015412614 -0.11785603 0.28752083 -0.27479777 -0.55156267
-0.06466647 -0.4273064 0.08548766 -1.0109259 -0.009870246 -0.08931819 -0.4063387 -0.44068205
-0.0060375156 -0.75911105 -0.65316075 -0.15123335 0.12600747 0.32517022 -0.57643557 -0.34995368
0.6978723 -0.71046543 -0.5060778 -0.08030822 0.15268432 -0.036499962 0.4007783 -0.16412461
0.16903129 -0.6179486 0.18983942 -0.036065713 0.29045895 -0.34940884 -0.36666936 -0.19920026
0.13225321 0.15503885 -0.47866693 -0.075741865 0.08989988 0.45432645 -0.34924766 -0.08447313
0.42982322 -0.39389887 -0.35119045 -0.0751518 0.17006034 -0.2821688 -0.6052558 -0.31948242
0.13161683 0.20127293 -0.044937745 -1.0143738 0.060972534 0.79857063 0.26675823 -0.23688745
0.20108469 -0.59382886 -0.6672427 0.079104625 -0.17846173 -1.1222967 -0.04570604 0.1118965
-0.29107448 0.049046084 -0.24870707 0.17923342 0.020170355 -0.40602523 -0.20461193 0.0555549
0.08120344 -0.03660918 0.06966934 -0.17097268 -0.08153027 0.046770554 -0.44889835 -0.02265624
0.055681117 0.1708244 -0.2590662 0.20418602 -0.08935842 -0.4758448 0.06652801 -0.25689498
0.21192248 -0.48398733 -0.2972158 -0.42788664 -0.09999074 0.19211386 0.07963594 -0.16349444
0.047361385 0.69666135 0.21000232 -0.66207665 0.21320492 -0.19066663 -0.59679186 -0.20459422
-0.12937777 0.5952632 0.23638853 -0.00410854 -0.13168022 -0.81303716 0.4412618 -0.14063993
0.24798547 0.6443774 -0.69439954 0.5604538 -0.19008102 0.31324917 0.39984912 0.0881552
0.12639011 -0.66564786 0.08218948 0.9924135 0.23430544 0.43934602 -0.52004904 0.35428154
-0.14402457 -0.58436877 -0.78416437 -0.03474493 0.15742992 0.35750487 -0.50585884 0.33762908

layer_stack.0.layer_stack.4.bias f4 [24]
00000000: c340 263f b97e a43e 41e0 053e b001 87be
00000010: bc6e ecbd 3d31 5a3f b63e 093e ec60 133e
00000020: fc8f 0f3f af4c 3fbe 6914 8fbe eb31 063d
00000030: b2ef 68be 7574 b3bc 225a c03e bdb7 bdbe
00000040: 30d2 00be c8cf f0bc 021a fa3e 4368 dcbe
00000050: be85 02be b6a1 373f 90b2 28be 030f efbf
0.6494257 0.32127932 0.13073827 -0.26368475 -0.115445584 0.8523138 0.13402829 0.14392442
0.5607908 -0.18681596 -0.2794526 0.03276245 -0.22747687 -0.021906117 0.37568766 -0.37054244
-0.1258018 -0.029395953 0.48847967 -0.43048295 -0.12746331 0.71731126 -0.16474366 -1.8676456

layer_stack.2.layer_stack.0.weight f4 [10, 24, 3, 3]
00000000: 936e 2b3e e7bc 87be 5ee3 1d3d 7190 183f
00000010: 7542 0cbd 99ac 323e 722c 603e 5a7d 11be
00000020: 6b09 32bd 3fa2 9bbf 5e9a 39bf f082 9a3e
00000030: b343 ecbf c954 ccbe 2969 42bf c9c4 563d
00000040: ee52 2abf 41a1 43bd 2ccd 64bc ded2 e2be
00000050: 7271 3abd b3d2 713e bad7 24be b70f 8cbf
00000060: 549e 3bbe d632 9f3d 5241 47bf a0e2 b93d
00000070: eeb9 73bd 4896 de3e 0850 a6bc 78bc c13d
00000080: 9893 a13d eb28 233e c0c5 373e 75cb 743e
00000090: 6244 11be 2f7b a9be 365e 1abd b601 3bbe
000000a0: 1a15 08bd 1cc9 85be cd29 07be 6602 aa3e
000000b0: 028f 1bbd 7616 8a3e ff10 0dbf 1369 f6bd
000000c0: e05e 5e3f cad4 b13d 677a 393e 5ce0 083f
000000d0: 9958 9fbd 24dc 69bd 2d2d 1d3c f7f2 99bd
000000e0: 8903 23bc 75e6 333d e101 633d 70b2 f43d
000000f0: b0ce c43d 8be1 24be 46b1 b6bd 80d2 683e
00000100: 6bda 75be a867 083f 9c4b 3b3e f9db b93c
00000110: e987 abbf b510 82be 7aa1 d33e bd31 3fbf
00000120: aaac 7fbd fafe c4be b5e6 b2be e987 053f
00000130: 6748 153d 9ca1 593d bfc5 5f3f 71c9 8ebb
00000140: 647d b2bd 901b 9ebd b243 36bf 606e 903e
00000150: 6c5f 55bf 8371 153e 02d0 3dbf 6729 01be
00000160: ebba 113d 054b cfbd 8fec 33be bcb7 95be
00000170: e00c fabd c020 e43d 8228 483e d058 38be
00000180: 530b fb3d 9d28 263f d279 e93c 2520 04bf
00000190: 469f 0cbe 73eb 093f 29ee 95bd 4ef6 9d3e
000001a0: fa59 cd3d 6de1 e03e b609 dabd 614f 543f
000001b0: 2667 8ebe 4006 83be 8828 39be 93ba b2be
000001c0: e2f1 24be ff61 813e ac6b ae3e ed6a 7ebe
000001d0: 28c2 f5be 3a2b 23be cfcd e0be 3276 afbd
000001e0: a07e 98be 8491 d6bd 409a b03e 1c9c e23e
000001f0: 55f3 7fbe ca5a 07bf b90a e1be b9d8 edbe
00000200: 9bb4 32be 06c7 82be 37ce bfbd 4a23 7a3e
00000210: f3d1 0d3e 3145 cd3e 2acb cabe ae22 e5be
00000220: 0414 f43b 7420 7c3e 290d f7be 164a 293f
00000230: 9ab3 4b3e af78 403b 29fe dcbc 953e 3a3c
00000240: 7174 773e 893c 20be 9dfb 35bd bfc4 573e
00000250: c372 193e 1df6 ccbe af51 053f 4235 a13e
00000260: 6ee2 303f b37c f6be 324e 443c 0572 57bd
00000270: c847 bcbf 70bf 13be 1f57 943d 1983 0d3f
00000280: 5b7d 0ebe dc20 d9be 95e9 17bf 9f65 fbbe
00000290: 17de 883b 5320 813e 2c38 cfbd 8165 b6be
000002a0: fc1c 9dbe 3b96 ae3e 0e0f 10bf e203 513d
000002b0: d75b dfbe a565 343f 1f33 9abc 1770 97be
000002c0: bcd6 89bf 5f44 4bbe 1d7a b93e b645 86bd
000002d0: f108 44bd a39e 563d 22a0 13be cca7 14be
000002e0: 2e2d ca3d f7d8 00be 9070 a7bd 6c81 b63e
000002f0: fe83 793e 29fb 193e cf31 eebe 258e 383c
00000300: 67d4 6c3f a0f7 abbd ff60 ad3d f40e 3f3f
00000310: 3c65 34bd 1168 18bd 9752 4cbd 4d7a e83e
00000320: d153 9e3d 7dce 273e 7adb 523e 7965 303e
00000330: 8da5 ba3e cbb6 c4bf 4ef4 f5bc b0bc 873e
00000340: 616c 87be 4f59 b0bd 597e 743d 8fcb 973c
00000350: f6d1 4abe c8d6 ebbe 0edf c43d fe40 253e
00000360: 90cf acbe 3db9 ae3d 0f9f 47bf 20b8 9bbf
00000370: 4d66 e3be 316e 68bf 5d5f 11be 88db 6d3e
00000380: 91d3 29bf 84ea 1d3f 4cf1 5bbf 35a0 9dbd
00000390: 8b9f d43f 312c 663f 90f6 87bf d40c 103f
000003a0: 148b 033d f453 e5bf 8de4 3f3e e6f0 d83d
000003b0: 1b9f 0ebf dde0 203f e8f9 0dbe cdc5 59bf
000003c0: 2214 3e3e ca9e 0abe 65f7 b1bf 8958 383d
000003d0: f1a9 a5be c24d 7bbd eabc 0f3b 84e4 a23d
000003e0: 0be6 a93d 99fa 0dbe 46fd 273d 48b1 8bbc
000003f0: 2ea5 153f fe28 aabd b316 2cbf 3b51 f23e
0.167414 -0.2651131 0.038546912 0.595954 -0.034243066 0.17448653 0.21891955 -0.14207974
-0.043466013 -1.2158889 -0.7250117 0.30178022 -1.845816 -0.39908436 -0.7594171 0.052433763
-0.6653279 -0.047761206 -0.013964932 -0.44301504 -0.045518346 0.23615532 -0.16097918 -1.0942296
-0.18322116 0.07773368 -0.77834046 0.090764284 -0.05950349 0.4347403 -0.020301834 0.09459776
0.078894794 0.15933578 0.1794653 0.23905738 -0.14186242 -0.33101794 -0.037687503 -0.18262371
-0.03322325 -0.26129997 -0.1319954 0.33204955 -0.03797818 0.2697026 -0.5510406 -0.1203176
0.8686352 0.086831644 0.18113099 0.53467345 -0.077805705 -0.057094708 0.00959329 -0.07517045
-0.009949573 0.043920953 0.055421714 0.11948097 0.09609735 -0.16101663 -0.08920531 0.2273655
-0.24009101 0.53283167 0.18290561 0.022687899 -1.3400851 -0.2540337 0.41334134 -0.7468527
-0.062420525 -0.38475782 -0.3494164 0.5216051 0.036446 0.05313264 0.8741111 -0.00435751
-0.087153226 -0.07720101 -0.71197045 0.2820921 -0.8334873 0.14594083 -0.7414552 -0.1261345
0.03557865 -0.10121731 -0.17570709 -0.2924174 -0.12209487 0.11139059 0.19546703 -0.1800263
0.12258019 0.6490572 0.028500471 -0.5161155 -0.13732633 0.5387489 -0.07320816 0.30851978
0.10026927 0.43921986 -0.106463835 0.8293362 -0.2781307 -0.25590706 -0.18081868 -0.3490797
-0.16107896 0.25270078 0.34066522 -0.24845476 -0.47999692 -0.15934458 -0.4390702 -0.08567466
-0.29784107 -0.10476974 0.34492683 0.44259727 -0.24995168 -0.5287291 -0.43953493 -0.4645441
-0.17451708 -0.25542468 -0.09365504 0.24427524 0.1384962 0.4009185 -0.39608127 -0.4475302
0.007448675 0.24621755 -0.48252228 0.6612867 0.19892731 0.0029368808 -0.026976662 0.01136746
0.24165513 -0.15648092 -0.04442941 0.21071146 0.14985184 -0.4003152 0.52077764 0.31485945
0.69095504 -0.48142013 0.011981534 -0.052598972 -1.4709406 -0.14428496 0.072431795 0.55278164
-0.13915007 -0.42407882 -0.5934079 -0.49100968 0.004176866 0.25219974 -0.10118136 -0.35624316
-0.30686176 0.34098992 -0.5627297 0.051029094 -0.43624756 0.704676 -0.018823205 -0.29577705
-1.0768657 -0.198503 0.36225978 -0.06556265 -0.04786009 0.05239738 -0.14416555 -0.14517134
0.098718986 -0.12582766 -0.081757665 0.35645616 0.24366757 0.15037216 -0.46522376 0.011264359
0.925116 -0.0839684 0.08465766 0.7463219 -0.044041857 -0.03720862 -0.04988345 0.45405808
0.077308305 0.16387363 0.20591536 0.17226209 0.3645443 -1.5368284 -0.03002372 0.26511145
-0.26449874 -0.08610784 0.059690807 0.018529681 -0.19806656 -0.46062303 0.09612857 0.16138074
-0.33752108 0.08531425 -0.7797708 -1.2165565 -0.44413987 -0.9079314 -0.14196534 0.23228276
-0.6633845 0.6168597 -0.85915065 -0.07696573 1.6611189 0.8991118 -1.062212 0.56269574
0.032115057 -1.7916245 0.18739529 0.10592823 -0.55711526 0.62843114 -0.13864863 -0.85067445
0.18562368 -0.13537136 -1.3903624 0.04500631 -0.32356218 -0.061353453 0.002193267 0.07953742
0.0829583 -0.13865127 0.041013025 -0.017052308 0.5845517 -0.083086 -0.67222136 0.473276

layer_stack.2.layer_stack.0.bias f4 [10]
00000000: 69b7 8b3f 3791 e53e 60e9 933c 04ad 013f
00000010: ec24 8ebe 984b dfbf 07fc 7c3f c10d 80be
00000020: d198 d4be 9993 0b3f
1.0915347 0.44837353 0.018055618 0.50654626 -0.27762544 -1.7444944 0.98822063 -0.25010493
-0.4152284 0.5452209

layer_stack.2.layer_stack.2.weight f4 [10, 10, 1, 1]
00000000: 911e 40bf e09d d43f 5716 c83e e23c d53e
00000010: c90c 61bf 7da3 06c0 1daa 95bf 4d0f aa3d
00000020: 75a9 30be 5600 c9bd b215 84be 871e 963c
00000030: d942 583f d13a 15c0 7270 0440 42a2 1abf
00000040: 9f8e 473f 411c 13c0 3af7 b1be a566 6a3d
00000050: 5c6d cf3e 2d28 c4bf d507 b3bf 9786 0a40
00000060: 7f5a b3bf 79d0 ac3f 426c 01c0 d1ef 0fc0
00000070: 6e79 bf3f fbad 74bf 0aa4 adbe 7ba6 80bf
00000080: d3ea f13a b5d3 cdbd ad93 0c40 4c06 91be
00000090: 2f9c 00c0 656e a93e 0da3 e6bf 2331 f73f
000000a0: d099 4440 f07d 21c0 fd75 3ac0 b956 b9bf
000000b0: f2fa c93f 1593 2d3e 6667 b8be 9f8a fbbf
000000c0: 24ba e5bf 79c5 923f e0e2 e93f 7f1b f5be
000000d0: 72b4 4a3f 7405 ec3d 6954 0abf f64b c1be
000000e0: 7900 74bf 7af3 2fbf 487e a53f 1104 17c0
000000f0: a079 2fbf f675 47c0 8716 06bf f170 a73c
00000100: 9e8b b53e 9dba 07c0 cf66 0140 2065 1d40
00000110: 24bb 0fc0 0637 663f 49cf 89bf 2d3a 12c0
00000120: 877e cbbf 8ddb 57be 30ad fe3e 411c 4140
00000130: dcb2 4bc0 a6a7 04bf 51ac db3f 4713 3cc0
00000140: 7457 2b3f 8aa7 02bd 480c 2c3f f718 31bf
00000150: 92bf 943f c90e 0940 5fd4 71c0 fcf9 813e
00000160: 09cb 90bf 3744 0cc0 93f5 b93e 3348 57be
00000170: 2710 05c0 1966 b6bf cc04 c23e ccf4 a1be
00000180: 63d1 c2bf 6455 28bf 2460 0340 b2fc 66be
-0.7504664 1.661068 0.39079544 0.41648012 -0.87910134 -2.1037285 -1.169254 0.083037
-0.17252143 -0.09814517 -0.25797802 0.018325103 0.84477 -2.3317149 2.069363 -0.60403836
0.77952 -2.2985995 -0.3475893 0.057226796 0.40513122 -1.5324761 -1.3986765 2.1644647
-1.4011992 1.3501121 -2.0222325 -2.2490122 1.4958932 -0.95577973 -0.33914214 -1.0050806
0.0018456824 -0.100501455 2.1965134 -0.28325117 -2.0095327 0.33092037 -1.8018509 1.931187
3.071888 -2.5233116 -2.9134514 -1.4479591 1.5779707 0.16950639 -0.36016387 -1.9651679
-1.7947431 1.1466514 1.8272362 -0.4787254 0.7918159 0.115244776 -0.5403505 -0.37753266
-0.9531322 -0.6873089 1.2929163 -2.3596232 -0.6854496 -3.1165748 -0.52378124 0.020439597
0.35458082 -2.120765 2.0219 2.4592972 -2.2457972 0.8992771 -1.0766383 -2.2848008
-1.5897988 -0.21079846 0.49741507 3.0173495 -3.1827917 -0.5181831 1.7161962 -2.9386766
0.6693032 -0.03189806 0.6720624 -0.6917872 1.1620963 2.1415274 -3.778587 0.25386035
-1.1311961 -2.1916635 0.3632017 -0.21023636 -2.0791109 -1.4249908 0.37894285 -0.31632078
-1.522015 -0.65755296 2.052743 -0.22557333

layer_stack.2.layer_stack.2.bias f4 [10]
00000000: 29e3 48bf 10ee babf 9cc3 cbbf 72d6 0cbe
00000010: 6816 8cbe 6652 73bd e404 26c0 2671 38bf
00000020: 1de7 d9bf 43d5 763e
-0.7847162 -1.4603901 -1.591907 -0.1375368 -0.27360845 -0.059404753 -2.5940485 -0.7204765
-1.7023655 0.2410479

layer_stack.2.layer_stack.4.weight f4 [10, 10, 1, 1]
00000000: e102 9cbf d645 3240 0fb3 3e3f fb90 f93f
00000010: bde8 76be e84a fb3f 69c7 d53f b54a 2f3f
00000020: 7080 573f fdd9 bb3f 2b36 f43f b3e5 053f
00000030: 4240 a7bf 4887 2e40 0cd4 4cc0 5769 0540
00000040: 5f72 31c0 1670 18bf d829 3040 a619 5140
00000050: b6df ba3e b1a2 3e40 cc7e e2be b97b cd3f
00000060: 205e 1a40 5b33 12c0 e1db 7bc0 1543 e4bd
00000070: 08f8 683f c9ae 7540 b5e0 e73e 3d87 0b40
00000080: 92d6 14bf 4485 ce3f c634 493f de1c 2840
00000090: 5f1a a4bd e65d 00bf 25f4 5340 e017 523f
000000a0: be06 19be f9ef 8540 5e62 6ac0 fc2f d2bf
000000b0: 784a 7840 2a09 e83d 1822 a5bf 46e2 c43e
000000c0: 3dc6 d93f 3e9d 5c40 fc8d 98bf 217e b3bf
000000d0: 8b98 6740 cd50 d63f d1d6 e23e 1e53 4440
000000e0: 2d61 04be 9d34 1d40 dbea cc3e 77bb 34c0
000000f0: b39a ccbf 8ddb 3a40 89c0 b93f 2ea0 89bc
00000100: 1e99 ee3f eec7 023e 1ec3 dd3f 7e9f 89bf
00000110: 25cd fc3f 08e8 3240 d836 8fbf 50e7 07bf
00000120: c1fc b240 23ee 8cbe 222f b3bd 545a 1940
00000130: 0c7b e6bf 9ef9 10c0 3fa6 303f 2be7 32c0
00000140: 24c3 55be fa3b 09c0 6651 eb3e d111 3c3f
00000150: 9a36 7f40 ec59 803f e896 953f 575d 5f40
00000160: 2294 16c0 4568 1140 f3ef 8e3f efe8 c9bf
00000170: 9f33 8340 d713 dc3f 8ff5 74c0 1695 ff3f
00000180: 18d2 043f 8ca2 63c0 9d11 4c40 e61c cf3f
-1.2188379 2.7855124 0.7449197 1.949737 -0.2411222 1.9632235 1.670148 0.6847337
0.84180355 1.46759 1.9079031 0.5230362 -1.3066485 2.727007 -3.2004423 2.0845544
-2.7726057 -0.5954603 2.752554 3.2671905 0.36498803 2.97868 -0.44237363 1.6053382
2.411995 -2.2843845 -3.9352953 -0.111456074 0.91003466 3.838793 0.45288625 2.1801293
-0.5813991 1.613442 0.7859615 2.626762 -0.080128424 -0.5014328 3.3117764 0.8206768
-0.14943978 4.1855435 -3.6622539 -1.6420894 3.8795452 0.11329873 -1.290103 0.38453883
1.7013623 3.4470973 -1.191833 -1.4022866 3.6186855 1.6743408 0.44304517 3.067573
-0.12927695 2.4563363 0.4002293 -2.823942 -1.598471 2.9196503 1.4511882 -0.016800012
1.8640478 0.1277158 1.732517 -1.0751798 1.9750105 2.795412 -1.1188612 -0.5308733
5.5933537 -0.27525434 -0.08749224 2.3961382 -1.8006301 -2.2652354 0.6900367 -2.7953594
-0.20875221 -2.1442857 0.4596054 0.73464686 3.9877076 1.0027442 1.1686678 3.490072
-2.3527913 2.271989 1.1166977 -1.5774211 4.1000514 1.7193555 -3.8274877 1.9967372
0.5188308 -3.556796 3.188575 1.6180694

layer_stack.2.layer_stack.4.bias f4 [10]
00000000: 5d2d b43f 8824 363f 3652 3540 ae84 bfbe
00000010: 5c3f a3bf ac66 26bf f859 f83f b850 f03d
00000020: e9ad 1a3c 9991 6bbf
1.4076344 0.7114949 2.8331428 -0.37405914 -1.2753711 -0.65000415 1.9402456 0.11734146
0.0094408775 -0.9201904
