state_tests/nets/leakyboi.pt (torch, 19919 bytes, 12 tensors)

layer_stack.0.layer_stack.0.weight f4 [24, 1, 3, 3]
000000 a2 f5 c9 bd c7 d8 db bc d9 3f c9 3d 7c 93 9d be
       -0.09861304 -0.026836766 0.09826631 -0.30776584
000010 99 65 c4 3d 1b 83 20 3d d2 97 86 be e0 bb 27 3e
       0.09589691 0.039187532 -0.26287705 0.16380262
000020 0e f2 a2 be 06 09 3c be a1 56 73 be f4 28 dd 3d
       -0.31825298 -0.18362817 -0.23763515 0.10798827
000030 7d 4f df bd a5 91 2c 3e 0e fc 02 3d 98 b6 29 be
       -0.10903833 0.16852434 0.03197866 -0.1657356
000040 da 71 8c be 15 1f 55 3e 24 d2 8b be 0d 44 49 3e
       -0.27430612 0.20812638 -0.27308762 0.19654866
000050 ab 74 91 be b6 86 9f bd 40 0b 80 be 4a 64 ad 3d
       -0.28409323 -0.07789366 -0.25008583 0.08466394
000060 31 e5 4d be 30 4c 8b 3e f0 a8 d9 3c cd 45 46 be
       -0.20106961 0.27206564 0.026569813 -0.19362564
000070 eb 12 20 be 3a 3a 6a 3e 08 51 aa 3e 27 53 a6 be
       -0.15632217 0.22873774 0.33264947 -0.32485315
000080 c3 c5 72 3c ac 96 9c be 84 2a a3 be 63 3e 7f be
       0.014817658 -0.30583704 -0.31868374 -0.24926142
000090 5f 42 4e bd 18 35 7d 3e 24 39 f0 bd c5 fe 47 3d
       -0.050356265 0.24727285 -0.11729649 0.04882695
0000a0 4e 31 a6 bd 12 56 a2 3e 6c 9d a3 bd 51 3d a3 be
       -0.08114873 0.3170629 -0.0798901 -0.31882718
0000b0 c8 91 95 bd 36 4b 64 bc aa fb 58 be 38 40 92 be
       -0.07303196 -0.013933947 -0.21189752 -0.2856462
0000c0 64 d6 a4 bd 7f 64 26 bd 70 4d a0 be 8a 83 67 3e
       -0.08048704 -0.040623184 -0.3130908 0.22608772
0000d0 ed c7 d9 bd a7 ff 78 be ca 93 f7 bd 20 3f 86 3d
       -0.10633836 -0.24316274 -0.120887354 0.06555009
0000e0 ae 63 6c bd 55 6a f3 3d 04 d1 99 3d f3 52 fd 3c
       -0.05771225 0.118855156 0.0751057 0.030923342
0000f0 83 d0 8d be 19 04 cd 3d fb c9 9b 3d a0 9e 44 be
       -0.27698144 0.10010547 0.07606884 -0.19201136
000100 3f 43 47 3e d5 94 83 be 1a 62 9c bd fa e3 97 3e
       0.19459246 -0.25699487 -0.07635899 0.2966612
000110 52 c3 9b 3d 02 15 20 be ff ef 8d bd 3d 7a 9f 3e
       0.07605614 -0.15633014 -0.06930541 0.31147948
000120 52 9e 55 3e 8e 4c d6 bd c7 44 d9 3d e1 9b 55 be
       0.20861176 -0.104638204 0.10608821 -0.20860244
000130 8f b1 15 bd dc 55 31 3e 93 06 d9 bd 54 07 94 3a
       -0.036546286 0.17317909 -0.10596957 0.0011293688
000140 36 f0 59 3e 05 48 a1 3d c2 5f 21 bd 92 d4 44 3e
       0.2128304 0.07875065 -0.039397962 0.19221714
000150 76 75 5d be 96 15 aa be 4e 31 76 3e d5 dc 8e 3e
       -0.21626839 -0.33219594 0.24042246 0.27902856
000160 e1 69 d6 3d fd 5f 8f be 36 d8 70 3e 74 6b 08 3e
       0.104694135 -0.2800292 0.23519978 0.1332224
000170 8d cf 5d be f8 9d 6c 3e 62 91 45 3d 98 cc 87 3e
       -0.21661206 0.23107135 0.04823435 0.2652328
000180 a5 4a 85 be 97 fc 7a be c8 5b 94 be 9c ff 26 bd
       -0.26033512 -0.24510418 -0.28976274 -0.04077111
000190 b7 a6 3b be 44 c5 9a be a6 10 00 bd 85 7c 7c 3e
       -0.18325315 -0.30228627 -0.031265877 0.24656875
0001a0 29 54 48 3e 48 33 a3 ba 40 ca 1f bd b3 3f b7 ba
       0.19563355 -0.0012451196 -0.03901124 -0.0013980776
0001b0 43 c2 5b 3e 77 0a 49 bd 1e 6b 86 3e 67 55 36 bc
       0.21460824 -0.049082246 0.262536 -0.01112876
0001c0 f6 24 37 3e a0 30 d4 bc 8e 2f 77 be 08 98 0c bd
       0.17885193 -0.025902092 -0.24139234 -0.034324676
0001d0 99 5e a3 3e 8c bc 99 bd 85 44 93 be 20 7e 42 be
       0.3190811 -0.075066656 -0.28763214 -0.18993425
0001e0 6a cf a0 3e b7 d4 17 bd a1 67 a7 3e f2 74 12 bd
       0.31408244 -0.037068095 0.3269625 -0.03575606
0001f0 ed 63 1e bc 50 16 39 bd ea ef 85 3e 94 ff 8d 3e
       -0.009667379 -0.045187294 0.26159602 0.27734053
000200 e1 bb 16 3e 40 fe 63 be 6c 82 7d be 80 68 f7 bd
       0.14720108 -0.22264957 -0.24756783 -0.12080479
000210 e5 3a 83 3d cb 7a aa 3e 8b 7c 98 be 97 df 02 bc
       0.064077176 0.3329681 -0.2978252 -0.007987878
000220 23 10 6c be 2b d8 70 be 46 43 30 be fb 53 60 be
       -0.2305303 -0.23519962 -0.17213163 -0.21907036
000230 da 1d 99 be 00 56 a7 bd 37 d3 8b be 32 06 98 be
       -0.29905587 -0.081707 -0.27309582 -0.29692227
000240 41 c9 8c be ba dd 09 be f7 b4 5f 3e 3f b9 3b be
       -0.27497295 -0.13463488 0.21846376 -0.18332385
000250 4a ae 8c bd c5 db 70 3e 57 20 bd bd c3 6b 28 3e
       -0.068691805 0.23521335 -0.09234684 0.16447358
000260 85 68 43 be a3 61 76 be 6b 95 21 3e b4 43 a6 3d
       -0.1908284 -0.24060683 0.15779655 0.08118382
000270 b0 af 24 3e f3 e2 6c be 2e 42 56 be 5e c5 16 bd
       0.16082644 -0.2313345 -0.20923683 -0.036809318
000280 56 3e 1b be 1e 74 68 be 43 7e ab bc c0 82 a9 be
       -0.15160498 -0.22700545 -0.02093423 -0.33107567
000290 ac 0b 1c bd 93 52 5c 3e ea cd 80 be 40 a7 29 3e
       -0.03809707 0.21515875 -0.251571 0.16567707
0002a0 0c ca 29 be 3d 55 34 3e e5 d8 97 be a9 c4 82 3e
       -0.16580981 0.17610641 -0.29657665 0.25540665
0002b0 e8 67 78 be df c9 8a be b6 0c 9a be 36 df e8 bd
       -0.24258387 -0.2710714 -0.30087823 -0.11370699
0002c0 07 2c 89 be b1 9c 01 be 5a 7d 5d 3d e2 cb 22 3e
       -0.26791403 -0.1265743 0.054074623 0.15898088
0002d0 6c 5b 92 be c2 58 5c 3d cb 5b 2a be 63 8a a8 be
       -0.28585374 0.053795584 -0.16636579 -0.3291808
0002e0 f2 a1 53 3d cf b4 e3 bc b6 a0 77 3e 08 f5 4c 3e
       0.051668115 -0.027796177 0.241824 0.20015347
0002f0 80 82 09 be d3 05 4b bd 0c 43 8a 3e bd 51 7c be
       -0.13428688 -0.0495661 0.27004278 -0.24640556
000300 62 24 bf bd 75 58 62 be 15 27 87 be 46 9d b4 bd
       -0.09333111 -0.22104056 -0.26397005 -0.0881906
000310 10 1f 0f be b7 9b 96 bc dd 7e 91 bd 6f a4 42 3e
       -0.13976693 -0.018384797 -0.071042754 0.19008039
000320 03 bb 39 be 67 5f fd bc a8 be 83 3e 69 1a 34 be
       -0.18137746 -0.03092928 0.25731397 -0.175882
000330 79 ce 7d 3e 8c 38 48 bd 03 3e 52 3e 05 9a 81 bd
       0.24785794 -0.048882052 0.20531468 -0.06328205
000340 c4 70 20 be 8b ef 9b 3e d5 5f 7f be ac b0 16 be
       -0.15668017 0.30456194 -0.24938901 -0.14715832
000350 94 50 74 3e 16 29 73 3e ee a6 5d 3e b4 8c 81 3e
       0.23858863 0.23746142 0.2164571 0.2530266

layer_stack.0.layer_stack.0.bias f4 [24]
000000 50 35 85 be 13 fd 5f be 01 b5 16 3d 1a de ae bd
       -0.26017237 -0.21873884 0.036793713 -0.08538456
000010 28 3e 96 3e d7 85 9e 3d f2 29 a6 3e c8 74 0d 3e
       0.29344296 0.07740372 0.32453877 0.1381408
000020 4d a6 e1 bb b6 f1 02 bc 8b 0b 33 bd 3b c5 a9 3e
       -0.0068862797 -0.007992199 -0.04371218 0.33158287
000030 eb 30 5a be 1f 98 29 bc 43 5f 0d 3d 33 64 d4 bd
       -0.21307723 -0.01035121 0.034514677 -0.10370674
000040 0e 06 89 3b 26 3b 23 be 90 f0 58 3e 8e 4d cd 3c
       0.00418163 -0.15940532 0.21185517 0.025061395
000050 39 86 17 be 90 18 a2 3e eb b9 9f 3d 7d e3 85 be
       -0.14797296 0.31659365 0.07799133 -0.26150122

layer_stack.0.layer_stack.2.weight f4 [24, 24, 1, 1]
000000 be 9e 4e be 85 fd 43 3e 29 11 2a be e4 9a a4 3d
       -0.20177743 0.19139679 -0.16608109 0.080373555
000010 a3 5d 4d be cf 0e 9a 3d 63 6c 11 3e 18 4b 24 3e
       -0.20055251 0.07522356 0.14201503 0.16044271
000020 9b ab 5f 3d ee df e5 bd 86 c1 27 3d f1 2b 28 be
       0.054607015 -0.11224352 0.040956043 -0.16423012
000030 e4 37 33 3e 00 a0 13 3e f3 df 0d 3e 91 c0 96 3d
       0.1750179 0.14416504 0.13854961 0.07360948
000040 08 e4 72 bd c5 b8 d0 bb 07 4f 89 3d 9a d8 60 bd
       -0.0592995 -0.0063696825 0.067045264 -0.054894067
000050 ff a5 45 3e ad 72 9c 3d 1f 8c 51 bd f6 c4 a8 3d
       0.19301604 0.0763906 -0.05115902 0.08240692
000060 46 d3 3e 3e 25 c0 29 bd b7 61 a7 bd a2 3e fd bd
       0.18635282 -0.04144301 -0.081729345 -0.12365462
000070 db 8b 13 3e 30 40 76 bd d2 52 32 be 96 c5 07 3e
       0.1440882 -0.060119808 -0.17414406 0.13258967
000080 25 60 0b be 7d 5b 67 3d 1a 6a 03 3e ab 91 1d be
       -0.13610895 0.056483734 0.12833443 -0.15387599
000090 17 ef b6 3d 9d c3 e9 3d df a8 a7 bd f7 02 47 3e
       0.089323215 0.114142634 -0.081865065 0.19434725
0000a0 aa fb ee bd d3 23 27 3e 08 01 0d be 01 c9 f4 bd
       -0.11669095 0.1632226 -0.13769925 -0.11952401
0000b0 6f c4 b6 3d bb e3 41 bd 98 61 33 bd 25 78 e6 bd
       0.089241855 -0.04733632 -0.043794245 -0.112533845
0000c0 48 9a 92 3c 78 55 5f bd e5 18 1c 3e f2 ae 25 be
       0.017895833 -0.05452487 0.15243872 -0.16180018
0000d0 8f dc 58 bd 2c 78 a3 3d 4a b2 14 bd 71 5e 19 be
       -0.052944716 0.07981905 -0.036302842 -0.14977433
0000e0 56 09 30 3e 09 85 20 be 72 5e 7c bd 2d 9c 2f 3c
       0.17191061 -0.15675749 -0.061613508 0.010718388
0000f0 f0 db f3 bd f5 15 89 3b 13 e0 36 3d d1 ab 17 bc
       -0.11907184 0.0041835257 0.044647288 -0.009257273
000100 eb fd e9 bc 59 69 05 be ac a5 0d be 4f 69 1f 3e
       -0.02856346 -0.13028468 -0.1383273 0.15567516
000110 8b 08 86 3d 28 c9 0b 3b f2 53 92 3d 5f 53 76 3c
       0.06544598 0.0021329615 0.071449175 0.015034526
000120 dc fb 31 3e 9c b4 18 3d 78 17 4a 3e f3 62 a4 3d
       0.17381233 0.037281618 0.19735515 0.080266856
000130 bb ca 5b 3c 43 68 8b 3d 85 5d 75 bd 0b d3 1b be
       0.013415034 0.06806996 -0.05990364 -0.15217225
000140 11 0b 45 3e f8 1d 39 be 5a 54 ac 3d 63 40 16 be
       0.19242503 -0.18077838 0.08414526 -0.14672999
000150 93 4c 49 3e 86 77 d8 3c c8 60 9b bd 65 3d 4a 3e
       0.19658117 0.02642418 -0.07586819 0.19749983
000160 ad 2d 6c bc 79 33 2b 3d 13 b5 18 be 7d e3 50 be
       -0.014415187 0.041797135 -0.14912824 -0.2039928
000170 2e 2a de 3d c0 b6 db bd d2 79 88 bd 2b dc 00 be
       0.10847889 -0.10728216 -0.066638604 -0.12583987
000180 97 28 04 bd 19 8d 7c 3d 3c b7 fa 3d e1 d0 e4 3d
       -0.032265272 0.061658 0.122419804 0.11172653
000190 25 e3 34 3e 47 b4 1c be bd a4 7b bd 19 ac 4c 3e
       0.17664774 -0.15303145 -0.061436404 0.19987525
0001a0 d6 0b 38 3e 01 43 66 bb 08 58 e9 3d 45 1f 09 be
       0.17973265 -0.0035135152 0.11393744 -0.13390835
0001b0 6f 7d c2 bd 0c 45 1c be a0 a4 90 3c b1 ad 25 3c
       -0.09496581 -0.15260714 0.017656624 0.010112212
0001c0 41 0f 99 3d 42 c7 b2 bd f6 36 05 be 7d ab d7 3d
       0.074736126 -0.08729412 -0.13009247 0.10530756
0001d0 6d 8e ab bd d6 6c 34 3e 51 80 ea 3d 65 ca e5 bd
       -0.08376775 0.17619643 0.11450256 -0.11220244
0001e0 0f 62 c2 3d ae b8 34 bd fe d9 3a 3d 6a 6b 01 3d
       0.094913594 -0.044121437 0.04561805 0.03159658
0001f0 fd 67 47 3d 42 d5 8f bd fb 95 9c bd 85 26 d4 bd
       0.048683155 -0.070230976 -0.07645794 -0.103589095
000200 ff 1d 0c 3e a8 0f 6d bd 6f 5d 8d 3d 2d a7 e3 bc
       0.13683318 -0.05787626 0.06902587 -0.027789677
000210 7c d8 6c bd 69 74 04 3e fa c1 e9 bd 86 fd d5 3d
       -0.057823643 0.12935032 -0.11413951 0.104487464
000220 7d fb 59 bd a6 71 69 3d 22 a3 37 3d 99 ac 4f bd
       -0.053218354 0.05699315 0.04483331 -0.05070171
000230 a2 8f 4a 3e 0b f7 4a be f0 70 0a 3e 4a d4 88 3d
       0.19781354 -0.19820802 0.13519645 0.06681116
000240 2b 6c 11 be a6 3e 58 bd 5a f4 4f 3e 6d ec ce bd
       -0.14201419 -0.05279412 0.20308056 -0.101036884
000250 f7 16 80 3c 51 46 28 be db 24 d7 bc c9 ff 43 3c
       0.01563595 -0.16433074 -0.026262691 0.011962839
000260 4b 2a 24 3e 2c 4a 85 bd 7a cf 45 be 8d 33 0e be
       0.16031758 -0.06508288 -0.19317427 -0.13886853
000270 97 1c 3b be 80 b1 31 be e0 4b 0d bc 50 a3 e4 bd
       -0.18272625 -0.17352867 -0.008624047 -0.11163962
000280 b8 5e 7d bb a0 79 8b 3d a8 80 0c bd 90 d6 9e 3b
       -0.0038661193 0.068103075 -0.034302384 0.004847355
000290 70 2e fb 3d 1c 03 f1 3c 3f 99 6d bd 3d 80 ce 3d
       0.122647166 0.029420428 -0.058007475 0.10083053
0002a0 b5 e8 36 be 14 72 12 be 4e 8f 50 3e ba 5e 43 be
       -0.17862208 -0.1430133 0.20367166 -0.19079104
0002b0 05 9e 05 be b4 1c 1c 3e c8 d2 8b bd 56 ad 3e 3e
       -0.13048561 0.15245324 -0.06827313 0.1862081
0002c0 1c c6 f1 3d f7 4c 2c 3d 07 ca a5 bc 85 89 10 3e
       0.118053645 0.042065587 -0.020237936 0.1411496
0002d0 2a d1 35 be 92 bb 43 be ad 76 c4 bd 41 11 4c 3d
       -0.17755571 -0.19114521 -0.09592948 0.049821142
0002e0 f8 d4 41 bd e7 bd d2 bd ca bd 07 be 65 7f d4 3a
       -0.047322243 -0.10290127 -0.13255993 0.0016212283
0002f0 cf fe 00 3e 5a c4 e1 3d d6 17 0a bd 77 e3 e7 3d
       0.12597202 0.11023779 -0.033714138 0.11322682
000300 5d 05 3e be 70 f7 f1 bd 14 93 15 be a2 8a 2c be
       -0.18556733 -0.11814773 -0.14606887 -0.16849759
000310 fa 25 29 bc 18 5b 25 be 37 0a 54 bd 32 28 26 be
       -0.010323996 -0.16148031 -0.051767554 -0.16226271
000320 93 9f 47 3e ec 71 50 bc aa dd 23 3e f8 88 2a be
       0.19494466 -0.012722474 0.16002527 -0.16653812
000330 f8 57 10 3b e0 5d 1f 3d d1 c4 2b 3e cf 05 42 3e
       0.002202509 0.038907886 0.16774298 0.18947528
000340 4d 9e f6 3b e5 57 09 3e 35 da 15 3e 74 68 97 3c
       0.007526195 0.13412435 0.1463402 0.018482424
000350 ad 7f cb 3d 3a b7 22 3e 68 dc c9 3c 44 20 27 be
       0.099364616 0.15890208 0.02464123 -0.16320902
000360 5f 26 14 3d a2 6d 02 3e b6 02 31 3e f7 ed 30 be
       0.036169406 0.12737134 0.1728619 -0.17278276
000370 ff ee 5c 3d d5 a2 10 3e 16 a6 6f bd db 7a 53 bd
       0.053938862 0.14124615 -0.058508 -0.051630836
000380 ff 08 39 3e 4c ea f1 3c f4 94 13 3e c0 d0 44 3e
       0.18069838 0.029530667 0.1441229 0.19220257
000390 e3 87 8b 3c cc 59 79 3d db 33 df 3d 15 f4 b6 bd
       0.01703257 0.060876653 0.108985625 -0.08933274
0003a0 51 3b df bd 26 aa 4b be 83 df 74 3d 0c 7a 13 bd
       -0.108999856 -0.19889125 0.05978347 -0.036005065
0003b0 15 10 30 3d e3 c8 21 3e b9 04 ca 3b 8b f0 07 3e
       0.042984087 0.15799288 0.0061651138 0.13275354
0003c0 aa 22 ce bb da c5 35 3e 19 bd f2 3c 5b 78 0a bd
       -0.0062907534 0.17751256 0.029631184 -0.033806186
0003d0 e5 57 3a be 94 26 45 3e 2f 4b 3e 3e 60 5b 9b 3d
       -0.18197592 0.19252998 0.18583368 0.07585788
0003e0 85 15 93 3d c9 d7 18 3e cb e8 3c 3e 66 d6 0b be
       0.07181839 0.14926066 0.18448178 -0.13656005
0003f0 42 76 39 be 71 f4 59 bd 27 59 74 3d bf 79 1c be
       -0.18111518 -0.053211633 0.059655335 -0.15280817

layer_stack.0.layer_stack.2.bias f4 [24]
000000 86 ae e9 bd 4a 0a 7c 3d 9a 20 66 3d 24 44 a9 bd
       -0.11410241 0.06153325 0.056183435 -0.0826495
000010 ef ae 8d bd 8e 56 26 3e 65 c7 21 be f6 1e b8 3d
       -0.069181316 0.16243955 -0.15798719 0.0899028
000020 1e 0c 0e 3e d0 08 39 be ce 15 41 3d 01 dd fe 3d
       0.1387181 -0.18069768 0.047139935 0.12444497
000030 98 8a 9e 3d 59 dc 31 3e 08 40 97 bd 90 1d dd ba
       0.077412784 0.17369212 -0.0738526 -0.0016869772
000040 e5 77 e2 3d 18 7f 29 be 13 22 70 bb 11 49 3f be
       0.11058024 -0.16552389 -0.0036641404 -0.18680216
000050 42 99 98 3d 64 3c d7 3d 93 81 0b 3c 05 ce a6 b8
       0.074511066 0.105095655 0.00851478 -7.953871e-05

layer_stack.0.layer_stack.4.weight f4 [24, 24, 1, 1]
000000 38 e8 0d be 72 92 00 3e 0f 30 96 3d 55 aa b1 3d
       -0.13858116 0.12555864 0.07333385 0.086750664
000010 e3 59 06 be 0c e3 3b be 05 67 29 3e 19 7a 17 3e
       -0.13120227 -0.1834833 0.16543205 0.1479267
000020 19 a8 02 be 91 f4 ed 3d f2 3d 2e 3e 44 44 67 bd
       -0.12759437 0.11618913 0.17015818 -0.056461588
000030 43 58 1a bc 15 b9 33 be 16 8d b7 bd d8 f5 91 bc
       -0.009420457 -0.17551072 -0.08962457 -0.017817423
000040 b3 f4 22 3e 04 17 a9 3d 91 8a 20 be bb 54 dd 3c
       0.15913658 0.08256343 -0.15677859 0.027017942
000050 2b 68 38 be b3 3b 05 3e 1d c9 b2 3d d6 c4 2f 3e
       -0.18008487 0.13011055 0.087297656 0.1716493
000060 cf 3b 3c be 37 ce 8e bd fe 44 78 bd 14 95 9f 3d
       -0.1838219 -0.06972926 -0.06061267 0.07792106
000070 96 b1 32 3e f1 bf ee bd 4c b3 73 bc 7d 0b 17 3e
       0.17450556 -0.11657704 -0.014874291 0.14750476
000080 2a 7b 48 3d 2b 0e df bd d3 4b db 3d 45 1b e5 3d
       0.048945583 -0.10891374 0.10707822 0.11186842
000090 ee 21 d8 bd 0b eb 49 be a5 f6 10 3e d6 af 74 3d
       -0.105533466 -0.19718568 0.14156587 0.059738003
0000a0 b1 3a ee 3c dd 07 4e be 31 1d 43 bd d7 db 00 3e
       0.02908072 -0.20120187 -0.04763526 0.12583862
0000b0 25 06 f0 bc bf c5 21 3e 5a 1b 46 be 6b fa 8d bd
       -0.029299805 0.1579809 -0.19346371 -0.06932529
0000c0 a8 91 44 bd 95 be 19 bd 7a 89 80 3d 54 39 1f 3e
       -0.04799047 -0.03753527 0.062762216 0.15549213
0000d0 e4 a0 1c be 27 8b 9d bd eb 1d 0d 3e 66 65 1c be
       -0.1529575 -0.07692557 0.13780944 -0.15273055
0000e0 af 09 94 bd 63 70 43 bd 49 8b aa 3c 6a 68 e6 bd
       -0.072284095 -0.047714602 0.02081837 -0.11250384
0000f0 6c a9 6b 3d cd 35 27 3d 2a 57 2c be 0e 2f c1 bc
       0.05753462 0.040822793 -0.16830125 -0.023582008
000100 ff e1 2a be 79 2b e1 3d 3b 81 b1 3d 87 ca c0 3d
       -0.16687773 0.1099462 0.08667227 0.09413629
000110 df 3b e2 3b 28 b5 c4 bd f6 f3 26 3e e9 ff e0 bd
       0.00690411 -0.09604865 0.16304001 -0.10986311
000120 12 b2 70 bb ae e9 08 3e 77 fb 3c be d4 14 ca 3d
       -0.0036727232 0.13370392 -0.18455301 0.09867254
000130 73 67 c6 bd 16 c3 50 be 5f ec 8f bd 42 6f 5e 3d
       -0.096877 -0.2038692 -0.07027506 0.054305322
000140 48 f3 f5 3c 65 cc 05 3e 36 0b 38 be fd 77 e1 3d
       0.030023232 0.13066252 -0.17973027 0.11009214
000150 14 eb 88 bc 1e 5c f8 bd a4 f1 2a bd 64 5d d1 3c
       -0.016713656 -0.12126945 -0.041734353 0.025557227
000160 26 dd 1c 3e 4f a5 34 be b1 4a 9a bb 76 f0 0c 3e
       0.15318736 -0.17641185 -0.004708611 0.13763604
000170 75 00 f7 3d 09 f5 ca bd 5c 43 84 bc da 59 2d 3d
       0.12060634 -0.09910018 -0.0161454 0.042322017
000180 46 c1 0d be 10 95 36 3d cf 0d ec bd b5 eb 18 be
       -0.13843259 0.04457575 -0.11526071 -0.14933665
000190 75 b3 40 3e 0c dd de 3c a5 59 bd bd a5 d0 0d 3d
       0.18818457 0.027205013 -0.09245614 0.034622807
0001a0 ad d3 9e 3d ad 4f fa 3d 67 72 4e be 5c bd 1a bc
       0.07755218 0.12222228 -0.20160829 -0.009444561
0001b0 71 c7 e9 bc ac fa 04 3e a5 96 51 bd 45 f8 05 3e
       -0.028537484 0.12986249 -0.051169056 0.13082989
0001c0 fa 8a 00 3e de ff 38 bd 47 02 22 3e 6b 34 73 bd
       0.12553015 -0.04516589 0.15821181 -0.05937616
0001d0 c1 d3 36 be b2 2d c5 bd 08 ab 92 3d 2b 24 33 bd
       -0.17854215 -0.09627856 0.07161528 -0.043735664
0001e0 ff dc b1 3c 8b 70 eb bd 1a 68 31 3e 25 d7 84 bd
       0.021711824 -0.11496075 0.17324868 -0.06486348
0001f0 d7 95 0c be 52 c8 a8 bd f2 ea 1a be f7 b9 c1 bd
       -0.13729034 -0.08241333 -0.15128687 -0.09459298
000200 03 a6 4d 3d 9d f9 95 bd 35 a9 01 be 55 1d ab 3d
       0.05020715 -0.073230006 -0.12662204 0.08355204
000210 b8 e7 14 be a7 25 33 3e 16 df 11 3e 93 d3 83 3d
       -0.14541519 0.17494832 0.14245257 0.06436839
000220 42 47 8f bc b8 30 3b 3d bd 7d 0c 3e 09 8e 20 3e
       -0.017490033 0.04570076 0.1371984 0.15679182
000230 17 de 10 be c6 32 1e 3e 78 fe ae 3d 91 84 4d 3e
       -0.1414722 0.15449056 0.0854463 0.20070101
000240 c9 2d 65 3c 51 e8 39 bd 3b 6e a8 3b f1 e9 14 be
       0.013987967 -0.04538757 0.0051400936 -0.14542367
000250 43 66 22 bd fe 7b 1a bd a3 64 1d be d1 cc c4 3d
       -0.039648306 -0.037715904 -0.15370421 0.09609378
000260 d8 11 88 3d 4b 45 03 3e a4 44 d3 3c 91 af 43 3e
       0.066440284 0.12819402 0.025789566 0.19109942
000270 96 35 ea bd c6 0f 1c 3e db 6e 54 3d 77 3d 4b 3e
       -0.11436002 0.15240392 0.051863533 0.19847666
000280 51 f4 52 ba 92 d4 1f 3e 3e ec 75 bd 9a 95 e7 bd
       -0.000804727 0.15608433 -0.06003975 -0.11307831
000290 ff 65 e7 bd 8f 7e 74 3d 31 41 33 3e c9 ed 0e 3e
       -0.11298751 0.05969101 0.17505337 0.13957895
0002a0 43 4b 0c 3e 2c 0f 31 3e 96 bb 16 be db 9d 4b be
       0.13700585 0.17290944 -0.14719996 -0.19884436
0002b0 62 77 50 3e 4e 0d fe bd 97 60 05 be 71 dc 24 3e
       0.20358041 -0.124048814 -0.13025127 0.16099717
0002c0 ac 29 ca 3d d9 3e 34 be c8 84 28 be 02 09 90 bb
       0.098712295 -0.176021 -0.16456902 -0.004395605
0002d0 e3 d2 dd bd 76 4c 94 bd 06 93 3b be 0e 2e 40 be
       -0.10831239 -0.07241146 -0.18317804 -0.18767568
0002e0 fc 26 3e 3b 1b 99 33 3e 77 8f 39 3e 78 45 d1 3d
       0.0029014936 0.17538874 0.18121134 0.10218328
0002f0 34 ea c7 bd 44 35 eb 3c a8 3f 03 be fc 6d c3 3d
       -0.097614676 0.028711922 -0.12817252 0.09542462
000300 af 4c 04 bc f4 78 dc bd 7a 22 1d be a2 11 37 bd
       -0.008074923 -0.107652575 -0.15345183 -0.04469455
000310 e3 79 16 3d 18 5f 8f 3d bc 9e 8b 3c e0 7a f5 bc
       0.036737334 0.070005596 0.017043464 -0.029965818
000320 d0 c9 be bd 5b 66 3e 3e 09 ac 33 3e 5d 79 51 be
       -0.093158364 0.18593733 0.17546095 -0.20456453
000330 64 c9 31 be 48 9e 08 3e 3a f6 10 3e d2 67 2b 3d
       -0.1736198 0.1334163 0.14156428 0.041847058
000340 cb 66 24 be bb f2 df bd 32 f6 46 3e da dd 3f be
       -0.16054837 -0.10934969 0.19429854 -0.18736973
000350 ce 46 9e 3d 31 3b 38 3e ea 38 3c 3e aa eb 58 3d
       0.07728349 0.1799133 0.18381086 0.05295912
000360 6f 74 16 be 9f 43 a7 bd 2d 61 cb bd ac 35 8e bd
       -0.14692853 -0.081671946 -0.09930644 -0.06943831
000370 e8 36 4a 3e 7f 03 ca bd ee 1e 82 3d 3d 6d 92 bd
       0.19747508 -0.09863948 0.063535556 -0.07149742
000380 e7 c4 17 3e 66 2d 37 be ea 81 16 be 45 68 f3 bd
       0.14821206 -0.17888412 -0.14697996 -0.11885122
000390 bb 1e 17 be f4 e3 7f 3d 85 0c de 3d c3 01 21 3e
       -0.14757816 0.062473252 0.10842232 0.15723328
0003a0 03 14 3f 3e 24 33 1b 3e 5b e0 dd bc a2 68 2b 3e
       0.18659978 0.15156227 -0.02708452 0.16739133
0003b0 79 b7 17 3e 0a 17 3b 3e 70 b7 73 3d 95 67 6f 3d
       0.14816083 0.18270507 0.05950111 0.058448393
0003c0 e5 b4 2b 3c cb 42 01 be 5c e6 eb bd 75 e2 a2 bc
       0.01048014 -0.12623136 -0.11518547 -0.019883374
0003d0 a6 8c 50 bd 9b de 3e be b5 45 e2 bd b2 f2 42 3e
       -0.050915383 -0.18639605 -0.11048452 0.19037893
0003e0 1e 37 80 3d 34 38 45 be 56 3e f2 bd 25 28 f5 bd
       0.06260513 -0.19259721 -0.11828296 -0.119705476
0003f0 c0 ca da 3d af 9d 23 3d bf 07 fa bd 30 c0 94 bd
       0.10683203 0.0399453 -0.12208509 -0.07263219

layer_stack.0.layer_stack.4.bias f4 [24]
000000 41 b3 5e bd 42 93 da 3d cf 31 99 3c 66 43 e6 bd
       -0.05437017 0.106726184 0.018700508 -0.11243324
000010 b7 1a 06 be 23 8e fe 3d 7a 2a 92 bd 6f b7 fc 3c
       -0.13096128 0.12429454 -0.07137008 0.030849187
000020 65 60 10 3d 16 ee 28 be 1d 8c e7 3d d2 29 c3 3d
       0.03524818 -0.16497073 0.11306021 0.09529461
000030 c0 75 0d 3e 47 b7 df bd f9 e9 ca bc 4b 5b a7 bd
       0.1381445 -0.10923629 -0.02476977 -0.081717096
000040 f0 a0 34 be b2 d5 05 3e a4 62 c4 bd 6d 38 be bd
       -0.17639518 0.130698 -0.09589127 -0.09288106
000050 bd 79 00 bd 6e 10 15 3e ef 50 3e 3e 01 bf 1e be
       -0.0313661 0.14557049 0.18585561 -0.1550255

layer_stack.2.layer_stack.0.weight f4 [10, 24, 3, 3]
000000 50 a8 23 3d 8d d4 da 3c 24 0e 15 bd 22 58 a5 3c
       0.039955437 0.02671268 -0.03639044 0.020183627
000010 ae 1b 4b bd 01 f8 1d 3d 7e 95 d5 3c 20 f5 08 3c
       -0.049586944 0.038566593 0.02607226 0.008359224
000020 60 bd 0a bd d0 89 e7 bb 88 ef a7 bc bb aa c3 bc
       -0.03387201 -0.007065989 -0.02049996 -0.023885122
000030 b9 78 3b bd 63 b1 67 3d ee 1d f2 bc 17 01 57 3d
       -0.045769427 0.056565654 -0.029555287 0.052491274
000040 64 af 8b bd e1 b8 5c bc f8 c4 49 3d 49 ca 9e bc
       -0.068205625 -0.013471813 0.04926011 -0.019383566
000050 a2 26 6a 3d a9 83 8a 3c 6d e3 2b 3d b5 21 97 bc
       0.05716575 0.016908484 0.041964937 -0.01844869
000060 b6 c3 62 bd 72 de 18 bd 3a 2e 83 bd 28 92 ec bc
       -0.055362426 -0.037321515 -0.064053014 -0.028878286
000070 1c 89 f8 3c ee 5e 88 3d 70 d6 44 bd 21 f7 43 3d
       0.030338816 0.066587314 -0.048056066 0.047843102
000080 d6 a9 f7 3c de 7f 87 39 73 4a 32 3d 6c 44 8b bd
       0.030232351 0.00025844475 0.04352803 -0.0680016
000090 85 6b 88 bd c9 df 95 bc ce 06 6c 3a 95 ac 6e 3d
       -0.06661133 -0.018295186 0.00090036995 0.058270056
0000a0 03 8f 55 ba c0 5e 2c 3d 13 5b 5e bc 9a 21 87 bc
       -0.00081466156 0.04208255 -0.0135715185 -0.016495515
0000b0 db 7d 6e 3b 84 03 67 3d d0 94 df bc 53 d1 87 3d
       0.0036390934 0.056399837 -0.027292639 0.06631722
0000c0 db dc 3e bd b6 70 93 3c 0d e5 6d 3d 05 15 e0 bc
       -0.046597343 0.01799808 0.058079768 -0.027353773
0000d0 64 db f1 3c 84 2b 91 3b 7f 5a 35 bd a4 7b 88 bd
       0.029523559 0.0044302363 -0.044275757 -0.066642076
0000e0 d5 3d 79 bd b4 75 0b bd 08 e9 25 bd 7a cc 86 3d
       -0.060849983 -0.034047797 -0.04050544 0.065819696
0000f0 2c e4 f9 3c 2e 5b 3a bc d1 33 63 bb 21 20 d2 3c
       0.030504309 -0.011374278 -0.0034668336 0.025650086
000100 d9 c1 df bc 55 17 2d bd ab 1e e5 bc 72 e2 74 3d
       -0.027314113 -0.04225858 -0.027968725 0.059786268
000110 b8 8e 86 3c b9 2c 9f bc 50 a9 6d 3d 24 bf a5 3c
       0.016425475 -0.019430505 0.058022797 0.020232745
000120 1d 63 8b bd 74 99 7b 3d 6e b3 7a 3d 81 cf 95 3c
       -0.06806014 0.06142564 0.061206274 0.018287422
000130 cd 94 61 bc 10 b1 17 3d 9b 68 15 3c f2 83 a6 bc
       -0.013768387 0.037034094 0.009119178 -0.020326588
000140 cf 74 28 3d ed cf 56 3c af 46 b9 3c 76 50 84 3c
       0.041127022 0.013111097 0.022616712 0.016151648
000150 fb 50 29 3d dc 5f 25 3d ca ac 52 bc 26 17 89 3d
       0.041336995 0.04037462 -0.012858579 0.06693868
000160 6d 87 bf bc f5 29 7f bd dc 46 66 3d 9d 59 47 3d
       -0.023380006 -0.062295873 0.05621992 0.048669446
000170 6c 8f fa bb f6 03 ba 3c b3 0c 09 bd ea 93 3e bd
       -0.0076464918 0.022706967 -0.033459377 -0.04652778
000180 2c ec f8 3c 04 f8 8d 3b 53 a9 30 3d 80 df bd 3b
       0.030386053 0.0043325443 0.04313023 0.0057944655
000190 af 2e 02 3d 44 59 c7 3c 44 7f 01 3d de 87 fa 3c
       0.031782802 0.024334557 0.03161551 0.030582365
0001a0 37 3b 77 bd ae 96 56 3c 2d eb b4 bc 1e 3b 06 3d
       -0.060359206 0.013097448 -0.022084797 0.032771222
0001b0 87 dc 32 bd e8 3d 51 bd 74 a1 bf 3c bc 22 ad ba
       -0.043667343 -0.05108443 0.023392417 -0.0013209204
0001c0 10 ed 5f bd 51 47 f4 3b 9b 36 bd bc 7a 86 7a 3d
       -0.05466944 0.0074547906 -0.023097327 0.061163403
0001d0 fb 85 78 3d 26 01 e9 bb f2 b7 e0 bc 43 90 11 bc
       0.06067465 -0.0071107326 -0.027431462 -0.008884492
0001e0 cb 16 09 3c 39 82 6e 3c 76 68 05 bd bb cb b7 3b
       0.008367251 0.014557415 -0.032570325 0.0056090034
0001f0 0f ba 10 3d 64 ec 93 39 f1 19 40 bc ac e6 4b 3d
       0.03533369 0.0002821415 -0.011724935 0.049780533
000200 39 4f 5d bd b0 0b f4 3c 5b 28 4f bd 25 21 24 3c
       -0.05403063 0.02979073 -0.050575595 0.010017668
000210 fe 2a 07 bd c3 dc 6b bd 24 69 16 3d e8 05 2e bd
       -0.032999985 -0.05758358 0.036721364 -0.0424861
000220 fa 5b 40 3c 76 6e 07 bd 4a ad 18 bd b2 b0 a8 3c
       0.011740679 -0.033064328 -0.037274636 0.020592067
000230 26 85 c5 3c 52 ae 87 3c df 93 0c bd 46 d3 5f 3d
       0.024111342 0.016562615 -0.03432071 0.054644845
000240 e2 a2 25 3c 44 94 61 3d c4 0a 58 bd 18 9c 85 bd
       0.010109635 0.055073038 -0.052744642 -0.06523913
000250 ea b8 0b bd c8 98 44 3d 59 f8 89 bc 7b e8 a6 bc
       -0.034111895 0.047997266 -0.016842054 -0.020374527
000260 10 00 1b ba 5d 76 26 bd 6d fc aa ba 02 7d 3f bd
       -0.000591279 -0.040640224 -0.00130452 -0.046750076
000270 c8 76 8a 3c eb ce 3c 3d 92 ed 81 3d f0 32 7f bd
       0.016902342 0.04609577 0.06344141 -0.062304437
000280 72 3f 40 3d 5a 93 4e bd 8c 51 47 3d 6d c5 e1 3c
       0.046935506 -0.050433494 0.048661754 0.02755996
000290 c0 76 75 bd 0e e3 2a bd 01 f1 86 3b e4 42 33 3c
       -0.059927702 -0.041720442 0.0041180854 0.010941241
0002a0 49 31 4e bc 4c 42 4c bd 61 ef ee bc c4 6c a8 bc
       -0.012584993 -0.049867913 -0.02916688 -0.020559676
0002b0 3c 38 79 3d 3d bf 5d bd ae 82 e3 bc 8b 57 94 bb
       0.060844645 -0.054137457 -0.027772274 -0.0045270375
0002c0 ed 72 5f 3d 31 f4 a2 ba d1 75 35 3d fa 49 60 bd
       0.05455296 -0.0012432394 0.04430181 -0.05475805
0002d0 f6 72 3e 3d 41 a0 42 bb 3c 45 33 3d 92 8f 6e 3d
       0.046496354 -0.002969757 0.0437672 0.058242388
0002e0 aa bb 29 bd 20 f3 c8 3c e3 50 68 bd 76 c0 a0 3c
       -0.041438736 0.024529994 -0.056717765 0.019623023
0002f0 98 9a 85 bd 98 5e 38 3d be 52 81 3d ff be 0b bd
       -0.06523627 0.045012087 0.0631461 -0.034117695
000300 62 ec 33 3c 0e 06 e4 3c 41 cd 0b 3d ed 86 35 3d
       0.010981651 0.027834918 0.034131292 0.04431813
000310 cc 86 2e bd 6b ad 11 3c 0a c5 38 bd 65 fb 84 bd
       -0.04260902 0.008891444 -0.045109786 -0.06493262
000320 53 98 85 bd 09 5b f8 38 1d 6a 29 bb 7e c3 3c 3d
       -0.06523194 0.00011842518 -0.0025850602 0.046084873
000330 42 4a 25 3d 29 1e f0 3c c7 f1 4c bd ea 54 14 3d
       0.04035402 0.029311256 -0.050035264 0.036213793
000340 d8 bf 88 bb 08 0e 29 3d be 53 ce bc e2 a9 af bc
       -0.00417326 0.041273147 -0.025186416 -0.021443311
000350 1b 3c 2a bd c7 78 13 bc f1 d1 c2 bc ee 7e ed bb
       -0.041561227 -0.0090009635 -0.023781748 -0.007247797
000360 22 4f 0f 3d 3b 3e 08 bd 63 1f ab 3c 9b fc 7a bd
       0.034987576 -0.033262473 0.02088899 -0.06127606
000370 ba 8f 2b bc 83 e2 0a bd 57 cd f5 3c 6b 8d 2e 3b
       -0.010471279 -0.033907425 0.03000514 0.0026634585
000380 4e d5 89 3d b8 7a c6 3c d8 4b 7c 39 11 1d 65 bd
       0.06730138 0.024228439 0.00024060847 -0.055935923
000390 c2 bc 51 bd de 77 87 3c 5f e7 f7 bc 99 84 a9 3c
       -0.051205404 0.01653665 -0.030261694 0.02069311
0003a0 40 0a 59 3d 3c 55 3b 3d b5 a2 89 3d 6a 9b 47 bd
       0.05298829 0.045735583 0.06720487 -0.0487322
0003b0 80 b2 f8 bb 73 2d 7e bd 26 72 8a 3d 76 cd 89 bd
       -0.0075896382 -0.062055063 0.06760053 -0.06728642
0003c0 f3 3d 0c bd c6 17 4e 3d 6e be 6a bd 79 00 55 bd
       -0.034238767 0.05031564 -0.057310514 -0.052002404
0003d0 b4 1b 23 bd 33 63 15 bd 4f ac 0d 3c 4c 51 29 3d
       -0.03982134 -0.036471557 0.008647039 0.041337296
0003e0 c7 ce 5b bd 2b b3 83 3d d5 01 12 bd 88 15 5e bd
       -0.053663995 0.06430658 -0.03564628 -0.054219753
0003f0 d6 28 1d bd 4c c4 60 bd 64 4d 07 bd f4 42 b8 3c
       -0.038369022 -0.054874703 -0.03303279 0.022492863

layer_stack.2.layer_stack.0.bias f4 [10]
000000 0a ee 11 3d 93 27 39 3d 3a 6f 65 3c c3 67 a3 bc
       0.035627402 0.045203757 0.014003569 -0.019946938
000010 23 a4 85 3c ac 22 4f bd 17 c0 6a 3d f0 ac 19 3c
       0.016313618 -0.050570175 0.057312097 0.00937961
000020 79 a6 d0 3b a8 65 8a bd
       0.0063675013 -0.06757671

layer_stack.2.layer_stack.2.weight f4 [10, 10, 1, 1]
000000 9a 23 74 be 12 df 4c be 8a f1 80 be 9b 8e 13 3e
       -0.23841706 -0.2000697 -0.2518428 0.14409868
000010 8d a6 33 3e f2 cb 4c 3e 31 52 7e bd c3 3c 6e 3e
       0.17544003 0.19999674 -0.062090103 0.23265366
000020 1f ad 4a 3e 59 7d 75 be 7e 19 8d be 5c 08 8e 3d
       0.19792603 -0.23973598 -0.27558511 0.06935188
000030 d1 6b 23 be cd 24 09 3e 1a 2a 80 be cb ce 29 be
       -0.15959097 0.13392945 -0.2503212 -0.16582792
000040 9b e3 43 3d 26 67 69 be f4 fb da bd 53 12 3b 3d
       0.047824483 -0.22793254 -0.106925875 0.045671772
000050 33 1f 02 be c0 44 f8 3d 6b 97 5a 3e 21 82 be bd
       -0.12707214 0.12122488 0.21346824 -0.09302164
000060 5c c8 85 bc 7b da a2 3d dd 0d ee bd 62 93 82 be
       -0.01633089 0.07951828 -0.11623738 -0.2550307
000070 29 e5 97 3e b7 93 1d 3d a2 19 8b 3e ba 15 e0 3d
       0.29667023 0.03847095 0.27167994 0.10941644
000080 4a 9f ac 3c 13 6e 05 be 7f 46 20 be da 25 8a be
       0.021072049 -0.13030271 -0.15651892 -0.26982003
000090 2d 8b 41 3e 61 88 a2 bd 33 cb 57 be be cf 84 3e
       0.18900748 -0.079361685 -0.21073608 0.25939745
0000a0 a4 d6 07 3e 30 23 4c bc 74 43 06 bd c4 aa 50 be
       0.13265473 -0.012459561 -0.032779172 -0.20377642
0000b0 82 58 fb 3c ac 6d 58 bd e5 bf 0b 3e 06 0a 03 be
       0.030681852 -0.052838966 0.1364742 -0.12796792
0000c0 6b 75 84 be fe 10 05 3e 53 e6 47 3e 62 d8 97 be
       -0.25870833 0.12994763 0.19521455 -0.29657274
0000d0 a1 f3 36 be 91 9d 3c 3c 39 9c 0d be d1 80 28 be
       -0.17866375 0.011512176 -0.13829125 -0.1645539
0000e0 ae bf 65 be a6 da 06 3e c0 38 12 be 91 a7 9c 3e
       -0.22436401 0.13169345 -0.14279461 0.30596593
0000f0 0c 00 48 3e b3 f0 89 be 20 af ca 3d c4 85 3d be
       0.19531268 -0.2694145 0.09896684 -0.18508059
000100 f0 5d 37 bc ab ee 14 3c 57 49 5e be 3a f3 06 3e
       -0.01119183 0.009090106 -0.21707664 0.13178721
000110 69 33 a1 be b3 ff 37 be 4d 16 10 3e 70 df 95 be
       -0.31484535 -0.17968635 0.14071007 -0.29272032
000120 e7 6d f8 bd 3b 60 19 be 37 2f 7c 3c c1 80 53 3d
       -0.12130337 -0.14978115 0.015392116 0.05163646
000130 7f 59 92 3e c9 b9 ac 3d 1b 82 90 3e d8 b4 95 bd
       0.28583905 0.08433873 0.28224263 -0.07309884
000140 d9 e1 77 be 4f 94 84 be 71 8d 88 bd 5f 6a 6b bd
       -0.24207248 -0.258944 -0.06667603 -0.05747449
000150 42 dc 82 be f7 33 4f be b0 d6 0a 3e c3 e8 87 3d
       -0.25558668 -0.20234667 0.1355846 0.06636193
000160 54 a3 d7 bd f6 9b 5c 3c 35 95 fb 3c 57 79 01 3e
       -0.10529199 0.013464918 0.030710796 0.12643944
000170 0e af 94 3e c4 7f 41 3e 97 49 bf 3d 31 72 02 3e
       0.29039806 0.18896395 0.09340208 0.12738873
000180 ae 6d b5 ba 1c 7a e7 3d 4b 45 8e bd 20 f3 33 be
       -0.0013841891 0.113025874 -0.0694681 -0.17573214

layer_stack.2.layer_stack.2.bias f4 [10]
000000 07 fd 5a 3e b5 29 2e be 3e c1 0f be 10 b8 7e be
       0.21385585 -0.17008097 -0.1403856 -0.24874902
000010 18 45 69 be 2f ba 88 3e a0 4d e3 3d 5c 6c d7 bc
       -0.22780263 0.26704547 0.1109879 -0.026296787
000020 f3 bf 7b be 61 be a4 3e
       -0.24584942 0.32176498

layer_stack.2.layer_stack.4.weight f4 [10, 10, 1, 1]
000000 20 93 8f bd b1 3f 3c be 3b ef 9a 3e 0e 68 96 3d
       -0.07010484 -0.18383671 0.30260643 0.073440656
000010 dc b9 8a 3e 27 c0 8e be 12 a2 43 be 32 bf 35 3d
       0.27094924 -0.27880976 -0.19104794 0.04437179
000020 6b 82 69 be 69 fa 9f be 0a e7 55 3e d6 f7 13 3d
       -0.22803657 -0.31245735 0.20888916 0.036125027
000030 08 81 0d be bd d2 2f be ee 58 91 be 6d 5c 41 3e
       -0.13818753 -0.17170234 -0.2838816 0.18882914
000040 1a 3a 6a 3e ca 8a 0b 3e de fc 92 be 47 0a a8 be
       0.22873726 0.13627163 -0.28708547 -0.3282034
000050 8d a8 73 3e 26 5d bb 3d b3 e0 7a bd ef 03 e8 3d
       0.23794766 0.09148626 -0.061249446 0.11328875
000060 a9 b7 a2 3d 2f e2 5b 3e 00 19 89 3e 6b da d6 bd
       0.07945187 0.21473001 0.26776886 -0.10490879
000070 f7 79 81 3e 67 b3 31 3b 50 3e 8d 3e 12 4b f4 3d
       0.25288364 0.0027114989 0.27586603 0.11928381
000080 ae fd c0 bc 92 62 68 bd 76 92 41 3e 9a 1a 10 3e
       -0.023558464 -0.05673463 0.18903527 0.14072648
000090 f0 e1 8c 3d 89 24 b5 3d c2 68 c3 3d f9 89 c1 3c
       0.06879032 0.08844859 0.09541465 0.02362536
0000a0 40 e5 27 be e1 82 33 3e 4c f9 56 be 4d 3a af 3d
       -0.16396046 0.17530395 -0.20993537 0.08556042
0000b0 61 43 59 3e 20 63 94 bd 78 31 ac bd e5 e5 f3 3d
       0.2121711 -0.07245469 -0.08407873 0.11909083
0000c0 d1 c0 7c be dd a0 08 be 61 73 78 be 78 46 82 3e
       -0.24682929 -0.13342614 -0.24262764 0.25444388
0000d0 e5 31 b9 bd 9f cc 1b 3e 39 73 82 3e 13 e4 32 be
       -0.0904272 0.15214776 0.25478533 -0.17469816
0000e0 7f ea 5e be dc 41 2a 3d 4c 71 54 3e 36 87 00 3c
       -0.2176914 0.041566715 0.20746344 0.007844737
0000f0 5a 80 96 be 9f 03 38 3e a2 55 50 be f2 d6 6b be
       -0.293948 0.17970131 -0.20345166 -0.23031214
000100 a4 fc 65 be fc a2 1f 3e 45 97 8c be 28 94 01 bd
       -0.22459656 0.15589517 -0.2745916 -0.031635433
000110 3e ef 5c be 59 ab 28 3c 4b 2e 46 3d ca 98 36 3e
       -0.21575639 0.010294759 0.048383992 0.17831722
000120 44 dd 5a 3c 45 9f 17 3e c3 ac 6d be 19 94 82 be
       0.013358418 0.1480685 -0.23210435 -0.25503615
000130 94 7c b6 3c cd 2d 10 be 44 b7 1e 3e e6 72 97 be
       0.0222762 -0.14079972 0.15499598 -0.29579848
000140 36 94 36 3e 5f b9 48 be c1 28 80 be a0 60 bb bd
       0.17829975 -0.19601963 -0.25031093 -0.09149289
000150 9f ae 7c be b9 4e 0e be 39 8c 4f 3e 2e 41 a3 bd
       -0.24675988 -0.13897218 0.20268334 -0.079714164
000160 e7 13 98 be 8f df bd 3d fa e6 d1 3c 30 4a 6a 3d
       -0.29702684 0.09271156 0.025622834 0.057199657
000170 b9 c9 88 3e 53 e8 c1 3d a2 3e df bc 48 f0 06 3e
       0.26716402 0.094681405 -0.027251545 0.13177598
000180 09 69 0e 3e 8b fc 3d 3e 97 8d d2 3d 36 44 59 be
       0.13907255 0.18553369 0.10280912 -0.21217427

layer_stack.2.layer_stack.4.bias f4 [10]
000000 72 fb 84 3e 99 dd d2 3d 9a 3b c1 bc d4 29 8a be
       0.25973088 0.10296173 -0.02358799 -0.26985037
000010 67 83 2c 3e 91 f0 5e bd 01 98 a9 3d ef 14 2b 3c
       0.16847001 -0.05442864 0.082809456 0.010442003
000020 42 4c 0e be a8 66 c9 3d
       -0.13896278 0.09834033
