state_tests/nets/leakyboy.pt (torch, 19919 bytes, 12 tensors)

layer_stack.0.layer_stack.0.weight f4 [24, 1, 3, 3]
0.4925893 0.032535 -0.17419298 0.08557817 0.1519352 0.11475676 0.11857761 -0.1360815
0.057997476 1.5660626e-05 -0.030858038 -0.064397626 -0.16020863 -0.22673441 -0.05291374 -0.19646919
0.04348479 0.14562814 -0.84549767 -0.6020897 0.33033317 -1.531691 -1.004996 0.54392666
-0.9096121 -0.296688 0.51723886 0.8915481 0.3144117 0.5932297 -0.30034134 0.4941964
0.24462892 -0.003957834 -0.099489905 -0.0006412339 -0.20884937 -0.30964434 -0.23794262 -0.06371083
0.07646494 0.25280675 -0.2889039 0.017067654 0.020207802 0.14524858 -0.2360244 0.17375118
-0.31165543 0.3590369 0.15194099 -0.16185668 0.008752512 -0.018989999 -0.30220398 0.06771543
0.30332214 -0.35564247 0.25615442 0.065803885 -0.454966 0.30361196 0.31158075 -0.5422973
-1.3014054 -0.026415987 -0.16244285 -1.5658994 0.027704904 0.7181983 -0.111750014 -0.2932399
-0.09292007 0.69023806 0.54603934 -0.25898176 0.08871562 0.44401282 0.18736205 -0.019394252
-0.12657245 0.5516289 -0.17312051 -0.55744225 -0.6119888 -1.6503904 -1.0896754 -0.27174735
-0.72796726 -0.17137347 0.05267966 0.32101795 -0.16602148 0.07106715 -0.2617256 0.13557762
-0.3080267 -0.14568888 0.021969605 -0.33387244 0.2711558 0.2336076 -0.097881824 -0.11247135
-0.28800133 -0.22046366 -0.006495016 0.18955587 0.4868745 0.39996108 -0.3813433 0.52789587
0.3816883 0.116790235 0.6558741 -0.30755845 -0.55360556 -0.2819736 0.11257715 -0.07298373
0.09074957 0.110470176 -0.04398931 -0.08745886 -0.21942176 0.127028 0.95081013 0.07702605
-0.3376745 0.48477584 -1.091036 -0.501683 -1.5657519 -1.6147096 -1.3261446 0.39511004
0.8673449 -0.7459929 0.7749783 0.6413898 0.48472536 -0.6487682 -1.0752455 0.16193509
0.7341082 -0.8020706 0.23784661 0.65173274 0.030094318 -0.34170374 1.1135055 -0.24122591
-0.72147864 0.9896641 -0.161775 0.033069447 0.29678476 -0.032479536 0.15985323 1.20088
0.13785328 -0.24177898 0.46980006 -0.12644398 0.76144737 0.35279608 -0.78457063 0.013818064
-0.11469161 -1.4012624 -0.053622324 0.44794577 -0.18717517 0.22267778 0.656084 0.19977717
-0.44366422 1.0695177 -0.51430553 -0.9556757 -0.22135462 0.09053229 0.19961838 0.08821207
0.28932947 -0.12878554 0.51329625 -0.22602452 0.06342453 -1.32087 0.99831104 0.40252346
-1.5567015 0.76747036 0.6931444 -1.6075315 0.82833254 0.629967 0.2380472 -0.8291038
0.41039255 0.26248652 -0.4410843 0.24646468 -0.47689578 -0.69871175 0.12344599 -0.39895168
0.08944743 1.1555172 -0.31970122 0.08277376 0.9411394 -0.953733 -0.16763166 -0.07971657
00000000: aa34 fc3e 6c43 053d a55f 32be 9c43 af3d
00000010: e794 1b3e 9805 eb3d d1d8 f23d f358 0bbe
00000020: c38e 6d3d f05e 8337 ffc9 fcbc e7e2 83bd
00000030: bb0d 24be 112d 68be 14bc 58bd 382f 49be
00000040: 1b1d 323d 8b1f 153e 8972 58bf 8d22 1abf
00000050: 6e21 a93e 730e c4bf b5a3 80bf c73e 0b3f
00000060: 57dc 68bf 7de7 97be c469 043f 7f3c 643f
00000070: 92fa a03e e7dd 173f 57c6 99be 4f07 fd3e
00000080: 0180 7a3e b8b0 81bb 5dc1 cbbd 7b18 28ba
00000090: 9cdc 55be b489 9ebe 3ba7 73be d37a 82bd
000000a0: a799 9c3d e36f 813e 36eb 93be 77d1 8b3c
000000b0: d58a a53c 0bbc 143e 61b0 71be d4eb 313e
000000c0: 4d91 9fbe afd3 b73e 6b96 1b3e c2bd 25be
000000d0: b266 0f3c ea90 9bbc 7bba 9abe 63ae 8a3d
000000e0: 0a4d 9b3e c516 b6be ac26 833e 30c4 863d
000000f0: 4ef1 e8be 0773 9b3e 8387 9f3e ffd3 0abf
00000100: 7494 a6bf 5766 d8bc 6b57 26be 646f c8bf
00000110: 65f5 e23c d8db 373f 31dd e4bd 8a23 96be
00000120: e14c bebd 71b3 303f 3cc9 0b3f 4299 84be
00000130: 89b0 b53d a655 e33e d6db 3f3e b2e0 9ebc
00000140: 359c 01be 8d37 0d3f 8146 31be 89b4 0ebf
00000150: 4cab 1cbf fe3f d3bf 7c7a 8bbf 7822 8bbe
00000160: 105c 3abf 877c 2fbe a1c6 573d 775c a43e
00000170: 8901 2abe a78b 913d e600 86be dcd4 0a3e
00000180: adb5 9dbe 772f 15be 9af9 b33c 54f1 aabe
00000190: efd4 8a3e d536 6f3e 4476 c8bd 6157 e6bd
000001a0: e974 93be 3ac1 61be 25d4 d4bb ef1a 423e
000001b0: 9d47 f93e b3c7 cc3e 6e3f c3be 2f24 073f
000001c0: a66c c33e b82f ef3d 5de7 273f 4d78 9dbe
000001d0: 18b9 0dbf d85e 90be d98e e63d 7e78 95bd
000001e0: e9da b93d 303e e23d 222e 34bd a11d b3bd
000001f0: 19b0 60be a113 023e 4b68 733f d5bf 9d3d
00000200: ace3 acbe 8a34 f83e 11a7 8bbf 4c6e 00bf
00000210: 8f6a c8bf ceae cebf 1bbf a9bf dd4b ca3e
00000220: 510a 5e3f 64f9 3ebf fa64 463f 1f32 243f
00000230: ec2d f83e ac15 26bf a5a1 89bf 50d2 253e
00000240: 84ee 3b3f 8054 4dbf 108e 733e f5d7 263f
00000250: 5c88 f63c cbf3 aebe 5987 8e3f ed03 77be
00000260: d3b2 38bf a05a 7d3f 58a8 25be d473 073d
00000270: 2cf4 973e 4309 05bd 91b0 233e 70b6 993f
00000280: 6929 0d3e e994 77be a289 f03e 887a 01be
00000290: 37ee 423f b0a1 b43e 9fd9 48bf 2965 623c
000002a0: 6fe3 eabd 915c b3bf 15a3 5bbd 2659 e53e
000002b0: d9aa 3fbe a505 643e 1ff5 273f 6392 4c3e
000002c0: f527 e3be f5e5 883f 87a9 03bf 2aa7 74bf
000002d0: c9aa 62be fe68 b93d c368 4c3e 88a8 b43d
000002e0: fe22 943e 5be0 03be 6267 033f f972 67be
000002f0: b8e4 813d 4512 a9bf 5091 7f3f 8e17 ce3e
00000300: ff41 c7bf f078 443f e971 313f 98c3 cdbf
00000310: 9a0d 543f 8445 213f a5c2 733e 2640 54bf
00000320: f91e d23e a264 863e cdd5 e1be 3d61 7c3e
00000330: af2b f4be c6de 32bf 40d1 fc3d 6543 ccbe
00000340: 3730 b73d fde7 933f e1af a3be 4a85 a93d
00000350: 83ee 703f d927 74bf a2a7 2bbe 7142 a3bd

layer_stack.0.layer_stack.0.bias f4 [24]
0.015118047 -0.102377206 0.2734906 0.05630106 -0.1462233 -0.32499337 0.06091385 0.2622206
0.03453394 0.48904204 -0.16796088 -0.292007 0.0338482 -0.28422895 0.2798219 -0.24142951
0.18378648 0.009385245 -0.11854496 0.21063569 0.03191553 -0.06401892 0.052023526 0.30614433
00000000: afb1 773c 24ab d1bd f606 8c3e f19b 663d
00000010: 90bb 15be 8865 a6be cd80 793d c741 863e
00000020: 7673 0d3d b863 fa3e f0fd 2bbe f181 95be
00000030: 69a4 0a3d 7586 91be d144 8f3e 4c39 77be
00000040: 8632 3c3e 92c4 193c b3c7 f2bd e2b0 573e
00000050: dcb9 023d 5a1c 83bd 9f16 553d f3be 9c3e

layer_stack.0.layer_stack.2.weight f4 [24, 24, 1, 1]
-0.31977102 -0.098432444 0.26174214 -0.14672436 -0.10299103 -0.11408002 -0.18987517 -0.07873682
-0.2351285 0.2732367 -0.10007561 -0.13051528 -0.41445607 0.017473742 0.27189428 -0.11837342
-0.19689244 -0.44827017 -0.1648287 -0.11004054 -0.17174609 -0.07738865 -0.19530773 0.027317043
-0.06595745 0.035921495 -0.2567534 0.25071174 -0.087233916 0.20005693 -0.1753075 -0.24873711
0.27124915 -0.17391208 -0.17520204 -0.14025779 0.14795102 0.14723894 -0.36773685 -0.16259103
0.1487109 0.09560641 -0.11299513 -0.008400681 0.15122454 -0.56491977 -0.025652472 0.31504706
0.059561662 0.18619344 -0.16286913 -0.03476137 0.17824003 0.17894797 -0.069132164 0.09874237
0.10041125 0.055968177 -0.029074749 -0.13940275 0.225171 -0.08469536 0.31026518 -0.09955179
0.1291162 -0.038960136 0.13519664 0.32849532 0.19045563 -0.10188174 0.11285158 0.0778492
0.19388756 0.057182137 -0.6311233 0.08856708 -0.038789853 -0.11531654 0.17240681 -0.41219774
-0.051491994 -0.66446394 -0.14720027 -0.064578384 -0.013033148 -0.011032834 -0.799532 -0.38150284
0.097970314 0.38956547 -0.74205923 0.025935007 0.23594765 -0.39788184 -0.5293297 0.14439024
-0.17737034 -0.0041824244 -0.08655399 -0.15790035 -0.14850584 -0.00026077876 -0.08169628 0.12618777
-0.08382139 -0.0806946 -0.17971937 0.19580446 0.097535424 -0.0011132626 -0.010073001 0.17084312
0.04602976 -0.12972747 0.17829636 0.13133417 -0.19066522 -0.18978214 -0.11736073 0.03539016
-0.062337562 0.18545921 -0.64712375 0.19547048 0.07058376 0.081688695 0.08788239 -0.5797431
0.06384313 -0.38611352 -0.003611251 0.0759365 -0.22645645 0.15892081 -0.6137764 -0.6172011
0.2784692 -0.026028153 -0.38512954 0.09209594 -0.07798922 -0.44786078 -0.37820223 0.11914967
-0.11039982 0.10309558 -0.05531948 -0.34920835 -0.07156524 0.17346175 0.13857129 -0.007498777
-0.1276955 0.1597155 -0.10094345 0.18453951 -0.3819023 -0.02260237 0.22035015 -0.068233415
0.15495056 -0.4751006 0.0967643 0.003274004 -0.11984025 -0.053344987 0.18143155 -0.19019277
-0.020464603 -0.08496358 -0.14117417 -0.2768108 0.14021988 0.13711478 0.023411658 0.8285363
-0.34775388 -0.17483662 0.15991424 0.00014874566 0.32326055 -0.14292522 -0.47300518 -0.26766554
0.62758917 0.7223993 0.27035207 0.44381022 0.30740672 -0.4719141 0.17881893 -0.5397439
0.2581461 -0.122468896 -0.62248445 0.48059958 0.05670445 0.080336586 0.15429054 -0.5505126
0.39240155 -0.5813073 0.1586086 0.03732059 0.24009646 -0.17929445 -0.857092 -0.23666501
-0.4144925 0.20262107 -0.77425814 -0.18634999 0.13777529 -0.23643905 -0.31451732 0.19790351
-0.029775716 0.12313666 -0.024481991 0.27169663 -0.16981418 0.094632246 0.27303243 -0.07195479
0.033857524 0.0033431917 -0.16006832 -0.20397088 0.047698908 -0.18213733 0.07965633 0.05009272
0.0047844946 0.15939195 0.07606554 -0.11108927 0.009300457 0.1578552 0.13642013 -0.08742061
0.017531846 0.16286856 -0.5107062 0.12870012 0.07716904 -0.12123891 -0.12562132 -0.15899651
0.00051032775 -0.61426526 -0.045802385 0.12234258 0.17455257 -0.07292423 -1.1371663 -0.31903532
00000000: 07b9 a3be f396 c9bd 1103 863e e93e 16be
00000010: f6ec d2bd c9a2 e9bd a36e 42be c540 a1bd
00000020: 87c5 70be aee5 8b3e 71f4 ccbd cca5 05be
00000030: 9633 d4be 1825 8f3c ba35 8b3e c36d f2bd
00000040: 2c9e 49be ab83 e5be dbc8 28be ef5c e1bd
00000050: 35de 2fbe f17d 9ebd c0fe 47be fec7 df3c
00000060: b314 87bd 6b22 133d 2f75 83be 4a5d 803e
00000070: b2a7 b2bd b9db 4c3e cf83 33be f1b4 7ebe
00000080: 2be1 8a3e 0216 32be 2a68 33be bd9f 0fbe
00000090: 7980 173e cec5 163e 0148 bcbe 437e 26be
000000a0: ac47 183e 4bcd c33d fe69 e7bd 03a3 09bc
000000b0: 9bda 1a3e 959e 10bf 2225 d2bc d94d a13e
000000c0: eef6 733d 7ea9 3e3e 2ac7 26be f061 0ebd
000000d0: 8e84 363e 233e 373e 2a95 8dbd 7139 ca3d
000000e0: 6aa4 cd3d e33e 653d 2b2e eebc 98bf 0ebe
000000f0: 3a93 663e c374 adbd 14db 9e3e cfe1 cbbd
00000100: 0a37 043e aa94 1fbd fd70 0a3e 8a30 a83e
00000110: cd06 433e 60a7 d0bd bb1e e73d 676f 9f3d
00000120: 768a 463e d137 6a3d 4c91 21bf a862 b53d
00000130: 1ce2 1ebd 142b ecbd 698b 303e 950b d3be
00000140: 45e9 52bd 4f1a 2abf abbb 16be ac41 84bd
00000150: fc88 55bc 0fc3 34bc 21ae 4cbf 5754 c3be
00000160: a9a4 c83d 2075 c73e 98f7 3dbf a775 d43c
00000170: 439c 713e 2bb7 cbbe 2782 07bf 09db 133e
00000180: 92a0 35be b80c 89bb 3843 b1bd a1b0 21be
00000190: ea11 18be 22b9 88b9 6150 a7bd 5e37 013e
000001a0: 8daa abbd 3643 a5bd 5b08 38be f780 483e
000001b0: a7c0 c73d e5ea 91ba 3a09 25bc 80f1 2e3e
000001c0: b489 3c3d 47d7 04be 5293 363e 777c 063e
000001d0: be3d 43be 4056 42be d35a f0bd 46f5 103d
000001e0: ac55 7fbd 05e9 3d3e e7a9 25bf 6a29 483e
000001f0: 388e 903d 674c a73d affb b33d 0b6a 14bf
00000200: 30c0 823d acb0 c5be bdaa 6cbb 9984 9b3d
00000210: 33e4 67be 23bc 223e 7320 1dbf e400 1ebf
00000220: 8493 8e3e fe38 d5bc b32f c5be cc9c bc3d
00000230: d0b8 9fbd 024e e5be b9a3 c1be be04 f43d
00000240: 4d19 e2bd c723 d33d ae96 62bd 70cb b2be
00000250: cc90 92bd f59f 313e a2e5 0d3e 4db8 f5bb
00000260: 9cc2 02be 768c 233e 71bb cebd edf7 3c3e
00000270: b388 c3be 9b28 b9bc 78a3 613e f6bd 8bbd
00000280: 5cab 1e3e 6340 f3be 5c2c c63d ac90 563b
00000290: ce6e f5bd 4680 5abd 31c9 393e e5c1 42be
000002a0: 62a5 a7bc 6301 aebd f68f 10be 25ba 8dbe
000002b0: cd95 0f3e d167 0c3e cec9 bf3c f41a 543f
000002c0: cc0c b2be 5f08 33be 8fc0 233e 9cf8 1b39
000002d0: 6882 a53e fd5a 12be bc2d f2be 750b 89be
000002e0: afa9 203f 29ef 383f 966b 8a3e 183b e33e
000002f0: 6a64 9d3e ba9e f1be 4f1c 373e a82c 0abf
00000300: ba2b 843e f9d0 fabd 245b 1fbf 2611 f63e
00000310: ed42 683d 8287 a43d 57fe 1d3e 65ee 0cbf
00000320: dbe8 c83e 8ed0 14bf 4b6a 223e 7add 183d
00000330: d9db 753e f798 37be 626a 5bbf 5058 72be
00000340: 5c38 d4be e67b 4f3e c835 46bf 88d2 3ebe
00000350: f714 0d3e 141d 72be 6a08 a1be 38a7 4a3e
00000360: 34ec f3bc 132f fc3d 758e c8bc d21b 8b3e
00000370: c5e3 2dbe 8dce c13d e8ca 8b3e 085d 93bd
00000380: 30ae 0a3d 7319 5b3b f3e8 23be bedd 50be
00000390: ee5f 433d 3582 3abe dc22 a33d 062e 4d3d
000003a0: 40c7 9c3b a537 233e 40c8 9b3d c582 e3bd
000003b0: f260 183c cba4 213e b8b1 0b3e 9409 b3bd
000003c0: f29e 8f3c 04c7 263e a4bd 02bf f7c9 033e
000003d0: cd0a 9e3d 1b4c f8bd e0a2 00be fbcf 22be
000003e0: 84c7 053a 7d40 1dbf 489b 3bbd bf8e fa3d
000003f0: e9bd 323e 4c59 95bd aa8e 91bf 9958 a3be

layer_stack.0.layer_stack.2.bias f4 [24]
0.124036334 0.07680707 -0.13817853 0.54891145 -0.06902706 0.55391157 0.15138258 -0.0350107
0.5563745 -0.22656152 0.44250128 -0.12027435 0.38968238 0.76284736 0.32689637 0.18465203
-0.31401008 -0.007350166 0.14213562 -0.08109475 -0.23968801 0.41864538 -0.37612596 -0.055569448
00000000: c306 fe3d 064d 9d3d ac7e 0dbe 7685 0c3f
00000010: 0f5e 8dbd 26cd 0d3f 0904 1b3e 6167 0fbd
00000020: 8f6e 0e3f beff 67be 878f e23e 6652 f6bd
00000030: 7384 c73e f749 433f f65e a73e 6c15 3d3e
00000040: eec5 a0be a9d9 f0bb 008c 113e 0115 a6bd
00000050: c670 75be b058 d63e 9593 c0be ca9c 63bd

layer_stack.0.layer_stack.4.weight f4 [24, 24, 1, 1]
0.15482704 -0.048980884 -0.12897465 0.1591613 -0.19740093 -0.21032071 0.070733085 -0.10634581
0.07447433 0.23584136 -0.13201909 0.17595476 -0.051828958 -0.23131502 0.09622341 0.2432986
-0.046964895 0.12038842 -0.0610501 0.09430006 -0.04281057 0.09253166 -0.08599651 0.10952882
0.14680243 0.056056578 0.13652055 -0.04033479 -0.13520133 0.03925478 0.056209933 0.6030044
-0.3067413 -0.23637442 0.18264733 -0.18049206 0.2995781 0.19605495 -0.23118883 -0.34615535
0.15704896 -0.044501975 0.24751821 0.0641494 0.07846287 0.102031045 0.37235042 0.089943044
-0.044037562 -0.14301062 -0.021021597 0.048200116 -0.11034416 0.026138544 0.036406502 -0.1381094
0.012747972 0.15238596 -0.034892116 0.09971358 0.082133256 0.19454597 -0.012335446 0.073749565
-0.07781265 -0.054883283 -0.067463115 -0.20016605 0.18708466 -0.115897544 -0.027871914 0.13526529
-0.36817423 0.15546946 0.026943972 0.33750647 0.03150552 0.075998306 -0.2813178 -0.5085979
0.8200693 0.16435002 0.11045055 0.03306382 -0.09417483 0.11884448 0.27716106 0.3372526
-0.17164421 -0.14281373 0.39051223 0.08824995 -0.013826257 -0.46765718 -0.27548733 -0.072501644
-0.02222364 -0.06820872 -0.19052961 -0.3645419 0.06976809 0.12912416 0.13970628 -0.06337951
-0.38522065 0.12587076 -0.56573987 0.0069643985 0.014839812 0.086426556 0.08365192 -0.12666069
-0.22983308 -0.20975293 -0.113607794 -0.17630583 -0.03244174 0.095676325 -0.23630893 -0.16762756
0.13176359 0.2542074 0.07412216 0.3276696 -0.059461657 -0.18997647 -0.16378616 -0.17661214
0.62107414 0.23522876 0.21162158 -0.18657155 -0.4633077 -0.6514119 -0.39711103 0.3446964
0.40921926 0.12980862 0.37657183 0.14694914 0.36414844 -0.15000392 0.88604903 -0.021411287
-0.3543937 -0.45046616 -0.15131505 -0.45240125 -0.02099431 -0.24515253 -0.091458954 -0.084278315
0.25531188 -0.057643622 -0.57964426 -0.102660224 -0.33749858 -0.619986 -0.16234623 0.08293945
-0.14199597 0.5895803 -0.068815924 0.19020957 -0.010447356 -0.451878 0.79974985 0.74718994
-0.15378886 0.11449822 0.004472735 0.110390276 -0.12909503 0.31271926 -0.29446816 -0.6674897
0.5712259 -0.09566919 0.27235356 -0.033497225 -0.3769542 -0.19719262 0.0038611412 0.2690324
-0.23652248 -0.15730895 0.15414429 -0.096562475 -0.16561094 -0.25681013 0.05931741 -0.18864712
0.054307953 -0.24314341 -0.15591511 -0.8172192 0.15231863 0.2924944 -0.09696972 -0.42104822
-0.75587046 0.10932988 -0.9653675 -0.020397313 -0.40499 0.244567 0.16106425 -0.22959945
0.13981864 -0.09887552 -0.25074512 -0.20536034 0.05746995 -0.23227365 -0.046988357 -0.22599895
-0.108169034 0.029188743 0.3180019 -0.5289105 0.15589403 -0.12268131 0.022555122 -0.102606654
-0.5688978 -0.039548628 -0.5332445 0.035162404 -0.31752673 -0.4776219 0.058658827 0.05204855
0.10674224 -0.31533536 -0.1530562 0.075184494 0.017086597 -0.05947292 0.5325296 -0.18142371
-0.19942646 0.3041253 0.002459076 0.17017184 -0.0336775 0.08451483 -0.3323285 -0.85201263
0.37181178 -0.06588032 0.114949994 -0.09316191 -0.36801723 -0.11376068 0.47214666 0.16977802
00000000: fb8a 1e3e 2ea0 48bd ee11 04be 2efb 223e
00000010: 7823 4abe 505e 57be 82dc 903d d5cb d9bd
00000020: ff85 983d 6680 713e 0330 07be 7c2d 343e
00000030: 9a4a 54bd d8dd 6cbe c710 c53d 4523 793e
00000040: 435e 40bd 348e f63d ab0f 7abd 6420 c13d
00000050: 235a 2fbd 3d81 bd3d f01e b0bd a550 e03d
00000060: 6053 163e 959b 653d 0bcc 0b3e 1836 25bd
00000070: 3872 0abe 9fc9 203d 633c 663d 7f5e 1a3f
00000080: 320d 9dbe 230c 72be e707 3b3e e9d2 38be
00000090: 4d62 993e a1c2 483e c4bc 6cbe 463b b1be
000000a0: 71d1 203e b447 36bd 6a75 7d3e c360 833d
000000b0: 24b1 a03d a7f5 d03d b7a4 be3e 0f34 b83d
000000c0: bb60 34bd 6071 12be 7c35 acbc 7c6d 453d
000000d0: 1efc e1bd 8020 d63c fc1e 153d 8d6c 0dbe
000000e0: dfdc 503c 110b 1c3e 09eb 0ebd a236 cc3d
000000f0: 7b35 a83d 0f37 473e 9c1a 4abc 030a 973d
00000100: 3d5c 9fbd 4bcd 60bd 1a2a 8abd 54f8 4cbe
00000110: 1f93 3f3e b15b edbd a453 e4bc fc82 0a3e
00000120: 5581 bcbe 6333 1f3e 9bb9 dc3c a6cd ac3e
00000130: ef0b 013d 00a5 9b3d e308 90be 7933 02bf
00000140: 10f0 513f 5f4b 283e e633 e23d ee6d 073d
00000150: bcde c0bd bc64 f33d 0ee8 8d3e 5fac ac3e
00000160: 80c3 2fbe c33d 12be 38f1 c73e 64bc b43d
00000170: 8687 62bc c370 efbe ad0c 8dbe be7b 94bd
00000180: 5a0e b6bc 03b1 8bbd 321a 43be 3ca5 babe
00000190: 93e2 8e3d 2039 043e 2a0f 0f3e 1ecd 81bd
000001a0: a43b c5be 44e4 003e 54d4 10bf 9c35 e43b
000001b0: af22 733c 6800 b13d b351 ab3d 57b3 01be
000001c0: 5d59 6bbe 79c9 56be 34ab e8bd 8489 34be
000001d0: a1e1 04bd f3f1 c33d f8fa 71be 8fa6 2bbe
000001e0: 09ed 063e 7927 823e 5ccd 973d 4fc4 a73e
000001f0: 118e 73bd 3189 42be 8fb7 27be d0d9 34be
00000200: b7fe 1e3f cfdf 703e 54b3 583e 9d0c 3fbe
00000210: ab36 edbe eec2 26bf 2352 cbbe 0c7c b03e
00000220: 3085 d13e 8dec 043e 06ce c03e d679 163e
00000230: aa71 ba3e a19a 19be 1cd4 623f b966 afbc
00000240: 1773 b5be 80a3 e6be 55f2 1abe 23a1 e7be
00000250: 42fc abbc 4409 7bbe d54e bbbd 1c9a acbd
00000260: 3db8 823e b81b 6cbd 9163 14bf 863f d2bd
00000270: 9dcc acbe 67b7 1ebf 173e 26be 29dc a93d
00000280: 6467 11be bcee 163f 5def 8cbd 4cc6 423e
00000290: 632b 2bbc 8e5c e7be 68bc 4c3f d747 3f3f
000002a0: d47a 1dbe 0b7e ea3d 0590 923b 4c14 e23d
000002b0: 7d31 04be bd1c a03e 88c4 96be 9be0 2abf
000002c0: dc3b 123f 35ee c3bd ed71 8b3e 6334 09bd
000002d0: 2400 c1be ddec 49be 330b 7d3b 9dbe 893e
000002e0: f332 72be 9915 21be 00d8 1d3e 8cc2 c5bd
000002f0: ea95 29be 9e7c 83be d0f6 723d b62c 41be
00000300: 0472 5e3d 96fa 78be 36a8 1fbe 4735 51bf
00000310: 6af9 1b3e d3c1 953e 1098 c6bd a293 d7be
00000320: ba80 41bf 58e8 df3d 5322 77bf 4418 a7bc
00000330: d95a cfbe c66f 7a3e 07ee 243e 1e1c 6bbe
00000340: 9e2c 0f3e 407f cabd aa61 80be fb49 52be
00000350: 9c65 6b3d 25d9 6dbe dd76 40bd 456c 67be
00000360: ba87 ddbd 3b1d ef3c 25d1 a23e ae66 07bf
00000370: afa2 1f3e 5740 fbbd 85c5 b83c 7023 d2bd
00000380: 49a3 11bf befd 21bd b682 08bf 7406 103d
00000390: dd92 a2be dc8a f4be 3d44 703d dc30 553d
000003a0: ad9b da3d a373 a1be c4ba 1cbe 54fa 993d
000003b0: 31f9 8b3c e099 73bd dc53 083f 23c7 39be
000003c0: 7336 4cbe 50b6 9b3e 7328 213b 8741 2e3e
000003d0: 6bf1 09bd 1c16 ad3d f626 aabe 801d 5abf
000003e0: 1d5e be3e 43ec 86bd e76a eb3d accb bebd
000003f0: c16c bcbe 5cfb e8bd 35bd f13e 4ada 2d3e

layer_stack.0.layer_stack.4.bias f4 [24]
-0.19247092 -0.44303384 -0.18015948 0.07677118 0.606809 -1.2904978 0.4252886 0.21083216
1.0875577 0.79952604 0.29045412 0.43594137 0.1972626 -0.048833795 0.5741699 -0.12994328
0.2126127 0.17125943 0.43600577 0.1386151 -0.33977386 -0.1598766 -0.349384 0.09826534
00000000: 1917 45be 55d5 e2be ba7b 38be 353a 9d3d
00000010: d657 1b3f 082f a5bf 6dbf d93e 63e4 573e
00000020: 1735 8b3f bdad 4c3f 67b6 943e b533 df3e
00000030: 35ff 493e f205 48bd ccfc 123f da0f 05be
00000040: 25b7 593e a25e 2f3e 263c df3e 1ef1 0d3e
00000050: d7f6 adbe b1b6 23be 76e2 b2be 573f c93d

layer_stack.2.layer_stack.0.weight f4 [10, 24, 3, 3]
-0.015650444 -0.02539045 0.16032329 0.049536966 -0.08381525 -0.04548734 -0.09640675 -0.015351742
-0.039186977 0.030214733 -0.42561778 0.07501699 -0.06563859 0.27092513 0.21572427 -0.20014328
-0.1568953 -0.153745 -0.00681467 0.009641675 0.09086417 0.023090595 -0.052323967 0.06682385
0.036898807 -0.021735601 0.020447256 0.39998358 0.31729323 -0.4729125 -0.6730576 0.3801496
-1.5661881 -0.93010664 0.105319865 0.18081826 0.09307872 -0.2361806 0.20352207 0.43676212
-0.05630709 0.597569 -0.14996636 -0.7565059 -0.28751555 -0.7148476 -0.12250854 -0.21537733
-0.32345834 0.21899205 -0.63288975 -0.5046891 -0.49519002 -0.4129786 0.38775688 -0.42366016
0.23994522 0.94815373 -0.0904177 -0.5560539 -0.53777224 0.13661338 -0.13814427 0.1498952
0.124152824 -0.36609393 -0.2570013 -0.046015073 -0.94126797 -0.5810377 0.068904534 0.10057492
0.049773972 -0.3819252 0.4885936 0.8933859 -0.13246672 1.3638647 -0.37104547 -1.3417491
-0.40831256 0.008940154 -0.23934385 0.085680984 0.30022702 0.017375948 1.1177194 -0.32616326
-1.1541277 -0.3227864 0.28774664 0.10385079 -0.23900336 -0.27661023 0.035818007 -0.76235753
-0.4978412 0.041836742 0.016765853 0.11710953 -0.1711178 0.27389598 0.24181406 -0.09757499
0.38255188 -0.12969182 -0.50036985 -0.08325944 0.121052645 0.15691684 -0.2801628 -0.28649274
0.10083216 -0.6135271 -0.23165692 0.0777964 0.103006355 0.045698497 -0.051778737 0.056299713
-0.042107925 -0.02100937 0.05825054 0.0024143818 0.064854406 0.030481854 0.41894463 -0.57777536
0.43941125 1.1688569 -0.26387918 -0.39039242 -0.7034205 -0.3077917 -0.22345889 0.0005099649
-0.059694793 0.037374653 -0.05793845 -0.040195458 0.01663378 0.036093276 0.05117838 -0.055829693
0.21155179 -0.08728328 0.07305715 0.20122726 -0.05126681 0.0060740616 -0.17378274 0.015204683
-0.06370676 0.07644758 0.120823145 -0.5231387 -0.27194452 0.72088647 -0.77310216 -0.41025475
0.18002611 -0.10547284 0.16654 -0.02701319 -0.00022530786 0.19042574 -0.013304856 0.2672741
-0.01783657 -0.15253063 0.04837419 0.1076603 0.0019467404 -0.22921884 -0.16788647 0.062668
-0.604123 -0.3382924 0.04759189 0.052897587 0.067653805 -0.02651131 0.17463878 -0.037671678
-0.07192591 -0.27943656 -0.22622298 -0.05902541 0.07757767 0.04176002 -0.014649662 0.030712763
-0.014184803 -0.05118843 -0.036498792 0.0026965262 0.0019369745 0.035942655 -0.0765784 -0.07282703
0.040748958 0.053363193 0.0059822523 -0.0068486086 -0.10440326 0.03962548 0.062453177 0.04920477
-0.28866142 -0.73048335 -0.37473184 1.479366 -1.0112727 -0.73758256 0.25425148 -0.29975796
-0.11220699 -0.10414248 0.0817967 -0.0016542448 -0.030315274 -0.040923018 -0.1121079 -0.042608976
0.05140289 -0.36504024 -0.15873824 -0.25456238 0.00324719 0.20926942 -0.35743523 0.33905947
-0.14361483 0.12985516 -0.057564095 0.012129321 -0.046628036 -0.051856678 -0.016570937 0.014089723
-0.06969077 -0.02667947 0.019669602 0.17603144 0.20433967 -0.6015793 -0.20969434 -0.97040427
-1.7730156 0.03975956 0.8618862 1.4191529 -0.5645442 0.079476885 0.3232965 -0.35812035
00000000: 5c35 80bc a2ff cfbc ca2b 243e 46e7 4a3d
00000010: 54a7 abbd ef50 3abd e770 c5bd df85 7bbc
00000020: 8682 20bd e384 f73c 93ea d9be 82a2 993d
00000030: 866d 86bd b3b6 8a3e d3e6 5c3e 5cf2 4cbe
00000040: 29a9 20be 546f 1dbe 984d dfbb 1ef8 1d3c
00000050: fe16 ba3d 7d28 bd3c a851 56bd f1da 883d
00000060: 3423 173d dc0e b2bc 0181 a73c a6ca cc3e
00000070: 4274 a23e 9621 f2be 814d 2cbf f8a2 c23e
00000080: da78 c8bf 781b 6ebf f1b1 d73d 6c28 393e
00000090: 0ea0 be3d 54d9 71be 1768 503e 499f df3e
000000a0: 43a2 66bd 48fa 183f c890 19be 5faa 41bf
000000b0: 3d35 93be 4100 37bf c2e5 fabd e08b 5cbe
000000c0: 559c a5be 743f 603e 1005 22bf 4e33 01bf
000000d0: 8c89 fdbe ee71 d3be 1288 c63e fce9 d8be
000000e0: 33b4 753e 34ba 723f ea2c b9bd 8c59 0ebf
000000f0: 71ab 09bf 61e4 0b3e b175 0dbe 217e 193e
00000100: d643 fe3d aa70 bbbe ad95 83be 4d7a 3cbd
00000110: f0f6 70bf e3be 14bf d21d 8d3d 39fa cd3d
00000120: cbdf 4b3d b38b c3be f128 fa3e f0b4 643f
00000130: 5ba5 07be 1e93 ae3f acf9 bdbe 6fbe abbf
00000140: 580e d1be b979 123c 8e16 75be 8379 af3d
00000150: 5bb7 993e 0158 8e3c 6e11 8f3f dffe a6be
00000160: 75ba 93bf 4244 a5be 8753 933e b9af d43d
00000170: 4cbd 74be db9f 8dbe e7b5 123d dd29 43bf
00000180: 0be5 febe 015d 2b3d 8b58 893c 1fd7 ef3d
00000190: 8139 2fbe 183c 8c3e 1b9e 773e 65d5 c7bd
000001a0: d7dd c33e efcd 04be 3d18 00bf ed83 aabd
000001b0: 73ea f73d cfae 203e 8071 8fbe 2daf 92be
000001c0: 1781 ce3d 1d10 1dbf 7937 6dbe b853 9f3d
000001d0: fff4 d23d 592e 3b3d f115 54bd 879a 663d
000001e0: 5c79 2cbd d81b acbc 1e98 6e3d 9b3a 1e3b
000001f0: 63d2 843d 15b5 f93c e97f d63e 16e9 13bf
00000200: 83fa e03e 1a9d 953f 2c1b 87be 84e1 c7be
00000210: 5e13 34bf e096 9dbe 68d2 64be 2aaf 053a
00000220: 8782 74bd 2a16 193d de50 6dbd fea3 24bd
00000230: 9143 883c 8bd6 133d 6ca0 513d adad 64bd
00000240: 08a1 583e 94c1 b2bd fd9e 953d 850e 4e3e
00000250: 26fd 51bd ec08 c73b 1af4 31be 101d 793c
00000260: b178 82bd 8c90 9c3d 2072 f73d 6bec 05bf
00000270: 503c 8bbe 048c 383f 06ea 45bf e90c d2be
00000280: c458 383e 2502 d8bd 7689 2a3e c44a ddbc
00000290: 9e40 6cb9 f7fe 423e 9cfc 59bc 27d8 883e
000002a0: 001e 92bc fd30 1cbe 0424 463d 017d dc3d
000002b0: c529 ff3a 58b8 6abe 6eea 2bbe 1558 803d
000002c0: cea7 1abf a934 adbe b7ef 423d 24ab 583d
000002d0: 148e 8a3d 3f2e d9bc 82d4 323e 9e4d 1abd
000002e0: e44d 93bd 4f12 8fbe ffa6 67be a1c4 71bd
000002f0: 0be1 9e3d 8e0c 2b3d 2305 70bc 5599 fb3c
00000300: 6067 68bc f6aa 51bd c27f 15bd 34b8 303b
00000310: 14e2 fd3a 9b38 133d 23d5 9cbd 5726 95bd
00000320: 61e8 263d 5d93 5a3d c506 c43b 4b6a e0bb
00000330: 60d1 d5bd 544e 223d e7ce 7f3d f18a 493d
00000340: 6ecb 93be f500 3bbf dadc bfbe dd5b bd3f
00000350: 6271 81bf 36d2 3cbf 402d 823e e079 99be
00000360: c7cc e5bd a748 d5bd 0785 a73d 3fd3 d8ba
00000370: bd57 f8bc e59e 27bd d498 e5bd c086 2ebd
00000380: d68b 523d 8ee6 babe 478c 22be 0056 82be
00000390: cfce 543b b94a 563e c001 b7be 3499 ad3e
000003a0: c40f 13be c0f8 043e 54c8 6bbd 0fba 463c
000003b0: 0afd 3ebd ab67 54bd c6bf 87bc 95d8 663c
000003c0: 09ba 8ebd e78e dabc 2522 a13c 9641 343e
000003d0: 6b3e 513e 1a01 1abf 1dba 56be 6a6c 78bf
000003e0: 2df2 e2bf ecda 223d 93a4 5c3f cda6 b53f
000003f0: f885 10bf c7c4 a23d 1e87 a53e 8d5b b7be

layer_stack.2.layer_stack.0.bias f4 [10]
-0.17265336 -1.5247009 0.23740493 -0.23788938 -0.35603774 0.008357963 0.6504447 0.075054556
0.43240848 -0.21413901
00000000: 0bcc 30be 6629 c3bf 471a 733e 4699 73be
00000010: 944a b6be d6ef 083c 8b83 263f 34b6 993d
00000020: a564 dd3e 4247 5bbe

layer_stack.2.layer_stack.2.weight f4 [10, 10, 1, 1]
2.0232818 0.666985 -0.27352157 -0.3551966 -0.30760294 -1.345331 0.590934 -0.2947929
-2.0327835 1.4625083 -0.7492924 0.30903444 -1.2179048 1.1404736 -0.76977456 -0.07795602
-1.2074715 1.8886468 0.9377626 -1.96501 -0.08896243 0.70538586 -1.6456412 -0.6826212
-0.21709591 -0.25924617 0.6311588 1.6767287 0.86207503 -2.459262 -1.57753 1.0963278
-0.0209801 0.8169017 -0.73320276 -0.7039378 -2.8473845 1.7030466 -0.72401786 1.1636089
-0.40164965 0.2509228 0.9780816 -0.04532631 -0.08741494 -0.4386652 -0.23900257 -0.15118948
0.06925842 -1.1229485 -1.0566274 0.60468143 -1.8715155 -0.10963284 0.2302771 -1.7060095
0.8514221 -1.3965766 0.46710473 0.3966856 2.3096278 -0.45624438 1.0958539 0.5950629
-1.7176616 0.37314817 -0.55608654 -0.065877035 -0.5634474 -0.49255255 0.8990621 -1.3792918
1.3453721 0.19982485 0.7001885 -0.87102836 -0.043368 -1.2293725 -0.53216916 -0.5687731
1.1805478 2.5277207 -0.28880033 -1.569888 0.37339982 -0.4676375 -1.6575162 0.7918944
0.33053318 -1.323005 -0.08580662 -0.72558546 -0.25391525 -0.2925829 -1.0526233 -0.1103616
-0.21132164 -0.203151 1.4418192 -0.4172562
00000000: 737d 0140 87bf 2a3f 050b 8cbe 54dc b5be
00000010: 227e 9dbe ce33 acbf 7347 173f 18ef 96be
00000020: 2019 02c0 7933 bb3f a0d1 3fbf c339 9e3e
00000030: 4ee4 9bbf 0afb 913f f20f 45bf 68a7 9fbd
00000040: 6d8e 9abf 2ebf f13f 3611 703f 7385 fbbf
00000050: ef31 b6bd 2b94 343f 5fa4 d2bf 43c0 2ebf
00000060: 644e 5ebe eabb 84be a093 213f 0c9f d63f
00000070: f3b0 5c3f 8c64 1dc0 81ec c9bf 7854 8c3f
00000080: 75de abbc 7820 513f 2db3 3bbf 4535 34bf
00000090: 8c3b 36c0 6efd d93f 3c59 39bf 23f1 943f
000000a0: 06a5 cdbe f478 803e 8e63 7a3f 15a8 39bd
000000b0: 9b06 b3bd ba98 e0be 17bd 74be 6ad1 1abe
000000c0: 5cd7 8d3d c7bc 8fbf 913f 87bf 67cc 1a3f
000000d0: d28d efbf 2f87 e0bd c3cd 6b3e 855e dabf
000000e0: ccf6 593f 06c3 b2bf 5a28 ef3e 601a cb3e
000000f0: f1d0 1340 dd98 e9be f144 8c3f 0b56 183f
00000100: 56dc dbbf 470d bf3e b05b 0ebf 8aea 86bd
00000110: 173e 10bf d92f fcbe ef28 663f a28c b0bf
00000120: 2735 ac3f e39e 4c3e 8e3f 333f b7fb 5ebf
00000130: a5a2 31bd 145c 9dbf 3d3c 08bf 1d9b 11bf
00000140: 311c 973f 2dc6 2140 a3dd 93be 17f2 c8bf
00000150: 432e bf3e 2f6e efbe 7e29 d4bf 97b9 4a3f
00000160: a53b a93e 3a58 a9bf 62bb afbd f8bf 39bf
00000170: 2e01 82be 6dcd 95be 5cbc 86bf 4305 e2bd
00000180: b364 58be d106 50be 888d b83f 9ba2 d5be

layer_stack.2.layer_stack.2.bias f4 [10]
-0.4222179 -1.0400076 0.81424993 0.3595606 -0.18450035 1.1284115 -0.43070957 -0.52915937
-0.2938495 -0.48935786
00000000: f22c d8be f81e 85bf af72 503f 5418 b83e
00000010: a9ed 3cbe ca6f 903f f785 dcbe fd76 07bf
00000020: 7173 96be 1d8d fabe

layer_stack.2.layer_stack.4.weight f4 [10, 10, 1, 1]
2.5245934 -0.5180149 1.5618246 1.3287529 0.016878285 2.016301 -1.0470151 -0.32794762
0.22202548 0.43162388 2.7202883 -0.66115266 -1.4890014 0.97911996 -0.041295927 -2.3198617
0.035999954 1.7023188 -0.1348953 0.07770052 2.8716412 -0.50992733 1.5690751 -2.5921266
-1.0810815 1.4576592 0.22993648 0.48398137 0.7699851 0.58215165 3.799105 -1.0046926
1.3357456 1.3366971 0.586697 0.3175341 -2.0809195 0.7289764 -2.0109577 -0.022064662
3.3357263 0.44810885 -1.001146 -1.5382363 0.0013511131 2.76254 1.4557191 -0.24314821
-0.88889194 -0.57103103 -0.8553275 0.42844895 0.473761 3.3126068 0.457091 0.28286773
0.9685484 -1.0830772 2.712311 -0.1786596 2.6573918 1.014356 1.6459179 -0.14441495
-0.16293086 1.7849873 -0.21284337 0.26127723 0.22358246 -1.5047661 -2.437915 2.3667827
0.80310214 3.5808156 -0.8448203 -0.898324 -2.1164753 -1.1715404 0.6172779 0.6801907
2.4833343 -0.005600202 2.1468513 -1.3344036 -0.09036907 1.7251253 -1.0756308 -2.80908
3.04488 -0.1628507 0.74404633 2.6852489 1.7452334 1.9401125 -0.14977092 -0.26532698
0.399121 1.0120722 -0.1884956 0.12952471
00000000: f092 2140 a09c 04bf dee9 c73f 9314 aa3f
00000010: 5444 8a3c 130b 0140 9704 86bf c0e8 a7be
00000020: a65a 633e cefd dc3e 3419 2e40 4d41 29bf
00000030: 9997 bebf 9ba7 7a3f eb25 29bd 9d78 14c0
00000040: b074 133d 95e5 d93f fe21 0abe 7321 9f3d
00000050: f8c8 3740 998a 02bf 74d7 c83f 67e5 25c0
00000060: e160 8abf 9494 ba3f 7874 6b3e 68cc f73e
00000070: be1d 453f e407 153f 8924 7340 c499 80bf
00000080: b6f9 aa3f e418 ab3f c631 163f d493 a23e
00000090: c92d 05c0 339e 3a3f 88b3 00c0 f3c0 b4bc
000000a0: 8a7c 5540 866e e53e 8d25 80bf ede4 c4bf
000000b0: d517 b13a 75cd 3040 0155 ba3f d8fb 78be
000000c0: 6c8e 63bf 172f 12bf bef6 5abf a95d db3e
000000d0: cd90 f23e c001 5440 d507 ea3e 0ad4 903e
000000e0: caf2 773f 46a2 8abf 8196 2d40 8bf2 36be
000000f0: b512 2a40 6bd6 813f 70ad d23f 83e1 13be
00000100: 59d7 26be 777a e43f 9df3 59be 21c6 853e
00000110: cdf2 643e 2d9c c0bf cd06 1cc0 5e79 1740
00000120: 1a98 4d3f 152c 6540 2546 58bf 90f8 65bf
00000130: 5574 07c0 09f5 95bf ed05 1e3f fa20 2e3f
00000140: f3ee 1e40 e681 b7bb 0366 0940 bdcd aabf
00000150: 6b13 b9bd e8d0 dc3f 45ae 89bf f7c7 33c0
00000160: 50df 4240 55c2 26be d279 3e3f 1edb 2b40
00000170: cf63 df3f 9b55 f83f 8c5d 19be f0d8 87be
00000180: 9659 cc3e 958b 813f fe04 41be 20a2 043e

layer_stack.2.layer_stack.4.bias f4 [10]
1.1225148 0.13710116 1.2783796 -0.5529069 -0.20767163 -0.38053784 2.8539424 0.32396153
0.5452175 -1.274461
00000000: 91ae 8f3f 3f64 0c3e f1a1 a33f 4e8b 0dbf
00000010: dfa7 54be dbd5 c2be fea6 3640 49de a53e
00000020: 6093 0b3f 8a21 a3bf
