state_tests/nets/leak.pth (torch, 19671 bytes, 12 tensors)

layer_stack.0.layer_stack.0.weight f4 [24, 1, 3, 3]
0	0xbbfc7aba	-0.00770506
1	0x3e61e708	0.22060788
2	0xbe99dba1	-0.30050376
3	0x3e876075	0.26440778
4	0xbe1ed8ad	-0.15512343
5	0xbdbbff27	-0.09179526
6	0x3e8b18f3	0.27167472
7	0xbe21ff0c	-0.15819949
8	0x3e167f33	0.1469696
9	0x3e1e03d9	0.15431155
10	0xbd63b2b5	-0.05559035
11	0xbdbc3faf	-0.09191834
12	0x3ea31fc8	0.31860185
13	0xbea883cb	-0.3291305
14	0x3e9ec356	0.31008404
15	0x3e08a01f	0.13342331
16	0x3d3b2f09	0.045699153
17	0xbe9430e6	-0.28943557
18	0xbe2e038d	-0.16993542
19	0x3d9dd3fe	0.0770645
20	0xbdfb5631	-0.12272299
21	0xbe939fc3	-0.28832826
22	0x3ea15181	0.31507495
23	0xbdeb7dcf	-0.114986055
24	0x3e0786f9	0.13235082
25	0xbe65fc6d	-0.22459574
26	0xbe856548	-0.26053834
27	0x3e92771b	0.28606495
28	0x3e064aa8	0.13114417
29	0xbe8c74f4	-0.27432978
30	0x3e94d80f	0.2907109
31	0xbe5eb2c4	-0.21747881
32	0xbd6aa62a	-0.057287373
33	0xbe41bc4f	-0.1891949
34	0xbda4e001	-0.08050538
35	0x3d1be100	0.038056374
36	0xbe970046	-0.29492396
37	0xbdb32d8f	-0.08748924
38	0xbd85b039	-0.065277524
39	0xbd23f82c	-0.040031597
40	0xbdcd5a9f	-0.1002705
41	0xbe9fde14	-0.3122412
42	0xbe48d267	-0.19611512
43	0x3e8a64d1	0.27030042
44	0xbe857439	-0.26065233
45	0xbd9ad691	-0.075604565
46	0x3e923c94	0.28561842
47	0xbe5cfcdd	-0.21580835
48	0x3dda4fa7	0.10659724
49	0x3bc40332	0.005981826
50	0xbe24ab0c	-0.16080874
51	0x3ea13834	0.31488192
52	0xbe0b60f7	-0.13611208
53	0xbdc79e82	-0.0974703
54	0xbe98f720	-0.2987604
55	0xbd02b6d9	-0.03191266
56	0x3e379818	0.17929113
57	0xbe33671a	-0.17519799
58	0xbde05fc6	-0.10955767
59	0x3dd57837	0.1042332
60	0xbe3cae48	-0.18425858
61	0x3c5b1b1c	0.013373163
62	0x3e319123	0.17340522
63	0x3e66272a	0.22475877
64	0xbea41ae6	-0.32051772
65	0x3ea2f276	0.31825608
66	0xbea8c972	-0.3296619
67	0xbcd24555	-0.025667826
68	0xbe929c1b	-0.28634724
69	0xbdc162c0	-0.09442663
70	0x3e72a399	0.2369522
71	0x3c298e0e	0.01034881
72	0xbce488bd	-0.027897233
73	0xbdd50687	-0.104016356
74	0x3e2eeb22	0.17081884
75	0x3cb4f0ff	0.022087572
76	0x3e88559e	0.2662782
77	0x3ce46b38	0.027883157
78	0xbea569d2	-0.32307297
79	0xbe2686d0	-0.16262364
80	0xbda5707c	-0.08078095
81	0x3dafb963	0.085802816
82	0xbc0599a0	-0.008154303
83	0x3e9a690a	0.30158263
84	0x3e78b832	0.24289015
85	0x3d7c1957	0.061547603
86	0xbe8031f8	-0.25038123
87	0x3e611093	0.21978979
88	0x3e8fda7b	0.28096375
89	0xbe1e1901	-0.15439226
90	0xbd61ef17	-0.055159654
91	0x3c6acff5	0.014331807
92	0x3e525f1e	0.20544097
93	0xbdadb1e7	-0.08481198
94	0xbe83cf4a	-0.25744087
95	0xbe8d29f2	-0.27571064
96	0xbe6fe413	-0.23426847
97	0x3e940d06	0.28916186
98	0xbe5b9c49	-0.21446337
99	0xbe1d840b	-0.15382402
100	0x3d0ea97c	0.0348296
101	0x3ea1bd1a	0.31589586
102	0x3e02d1a9	0.12775292
103	0xbea636e8	-0.32463765
104	0xbd9f2180	-0.077700615
105	0x3e573c70	0.21019149
106	0xbe36a9ac	-0.17838162
107	0xbeaa8f3f	-0.33312413
108	0x3db347a3	0.08753898
109	0x3cd912aa	0.026498158
110	0x3e9c2797	0.30498955
111	0xbe706abb	-0.23478214
112	0xbd281747	-0.041037824
113	0xbe4ef799	-0.20211639
114	0xbdd16132	-0.10223617
115	0x3d271b71	0.040797655
116	0xbe83b476	-0.25723618
117	0x3e9a826c	0.3017763
118	0xbc812a87	-0.015767349
119	0x3e2d8268	0.16944277
120	0xbdb0e824	-0.08638027
121	0xbd148c6d	-0.036266733
122	0xbdf0e3dd	-0.117622115
123	0xbe49a35a	-0.1969122
124	0xbde9b23d	-0.114109494
125	0xbe09eae5	-0.13468511
126	0x3df346f3	0.11878767
127	0x3e1b0b1a	0.15140954
128	0x3dd79401	0.105262764
129	0xbe8a888d	-0.27057305
130	0xbdb2c4bb	-0.087289296
131	0xbca32804	-0.019916542
132	0xbe46de93	-0.19420843
133	0xbe19c953	-0.15018205
134	0x3e51bfca	0.20483318
135	0xbde2559b	-0.11051484
136	0xbea61f93	-0.32445964
137	0xbe13e728	-0.14443648
138	0xbe499c61	-0.1968856
139	0x3e0c2599	0.13686217
140	0xbd46c76f	-0.04853004
141	0x3e0533c1	0.13008024
142	0x3e5de3a9	0.21668877
143	0xbe246f28	-0.16058028
144	0xbe80a138	-0.25123
145	0xbcf3ab49	-0.029744761
146	0x3e8879dd	0.26655474
147	0x3e8ef5f4	0.27922022
148	0x3e0a28dd	0.1349215
149	0x3e88c015	0.26709047
150	0xbe90ecdd	-0.28305712
151	0xbd41299f	-0.047158834
152	0xbe08321e	-0.13300368
153	0x3e2c1545	0.16804989
154	0x3ea87c33	0.32907256
155	0x3df56141	0.1198144
156	0x3e640033	0.22265701
157	0xbe7d4a77	-0.24735437
158	0xbea68609	-0.32524136
159	0x3e108ad0	0.14115453
160	0x3e0d7e73	0.13817768
161	0xbce0435f	-0.027375875
162	0xbdf0afee	-0.11752306
163	0xbe690158	-0.22754419
164	0x3d0ba5b2	0.034093566
165	0xbe403e42	-0.1877375
166	0xbe8c5f93	-0.27416667
167	0xbe9faf53	-0.3118845
168	0x3e94af84	0.29040158
169	0x3d961036	0.07327311
170	0xbc8c78d2	-0.017147455
171	0x3ea1c4f3	0.31595573
172	0xbe1cf081	-0.1532612
173	0x3ea65758	0.32488513
174	0xbdfc9a9e	-0.123341784
175	0x3da23820	0.07920861
176	0x3e9d39c9	0.3070815
177	0x3df167d3	0.11787381
178	0xbcbfd851	-0.023418577
179	0x3deedfb1	0.116637595
180	0x3e8fd7d8	0.28094363
181	0xbeaa0237	-0.33204815
182	0xbd501568	-0.050801665
183	0x3e8ca0b7	0.27466366
184	0x3c8cae98	0.017173097
185	0x3e7588f8	0.2397803
186	0xbea55c01	-0.32296756
187	0x3e233a89	0.15940298
188	0x3e8c5829	0.2741101
189	0x3e82acb2	0.2552238
190	0x3df36610	0.11884701
191	0x3d831591	0.06400598
192	0x3e4b542f	0.19856332
193	0x3e2cc7db	0.16873114
194	0x3e4e95d0	0.20174336
195	0xbe9255eb	-0.28581175
196	0xbea31aab	-0.31856284
197	0xbe8f7002	-0.28015143
198	0x3e599d8b	0.21251504
199	0xbe518a22	-0.2046285
200	0x3e21f33b	0.15815441
201	0xbe3af6e1	-0.1825824
202	0xbe8c5dd6	-0.2741534
203	0xbdda85f5	-0.106700815
204	0x3e945341	0.28969768
205	0x3e8027f8	0.25030494
206	0xbe49a137	-0.19690405
207	0xbd43930f	-0.047747668
208	0xbd7dbbd3	-0.0619467
209	0x3e26fdaf	0.1630771
210	0xbe921f8c	-0.28539693
211	0x3cf90d1c	0.030401759
212	0xbe7a9956	-0.24472556
213	0x3dd0f7e7	0.102035336
214	0x3e9f667d	0.3113288
215	0xbde494fd	-0.1116123

layer_stack.0.layer_stack.0.bias f4 [24]
0	0xbde1c70b	-0.110242926
1	0x3e5efdf1	0.21776558
2	0x3cda8f29	0.026679592
3	0x3ea2d6ac	0.31804407
4	0x3e9b7273	0.30360755
5	0xbe8070cb	-0.25086054
6	0x3e619576	0.22029671
7	0x3e3cf637	0.18453299
8	0x3de6e076	0.11273281
9	0x3e9b5f2b	0.30346045
10	0xbe60d628	-0.21956694
11	0xbdc7fa60	-0.09764552
12	0x3dd951d4	0.106113106
13	0x3d949b5e	0.072561964
14	0x3e0ed4fe	0.13948438
15	0x3e35df28	0.17760909
16	0x3e9964af	0.29959628
17	0x3e949e8d	0.29027215
18	0xbcb8cc13	-0.022558248
19	0xbd0f8fff	-0.035049435
20	0xbd9d008b	-0.07666119
21	0x3dc55189	0.09634692
22	0x3da885c1	0.082286365
23	0x3d998a85	0.07497124

layer_stack.0.layer_stack.2.weight f4 [24, 24, 1, 1]
0	0x3e48c703	0.19607167
1	0x3d623b04	0.055232063
2	0xbc8870a4	-0.016655274
3	0x3db8741b	0.0900652
4	0x3c81e136	0.01585446
5	0xbc1c481b	-0.009538676
6	0xbdd823af	-0.10553681
7	0x3d3b7c28	0.0457727
8	0x3dc83a1d	0.09776709
9	0x3dfe597b	0.12419411
10	0x3e3eeeca	0.18645778
11	0x3df60366	0.12012367
12	0x3d18eb86	0.037333988
13	0xbdaf54a5	-0.085610665
14	0xbe30c0a1	-0.17260982
15	0xbdc3ee51	-0.095669396
16	0x3c5d1963	0.013494822
17	0xbcb13396	-0.021631043
18	0x3d16dfde	0.03683459
19	0xbdfd66ae	-0.123731
20	0x3ca1d3f9	0.019754397
21	0x3e16a761	0.14712287
22	0x3e2bc73c	0.1677522
23	0xbdf4de2a	-0.11956437
24	0x3d82bd85	0.06383804
25	0x3d7ea28a	0.062166728
26	0x3e3c6d74	0.18401128
27	0x3d57a53c	0.052647814
28	0xbd29c0ba	-0.041443564
29	0x3deabd29	0.11461861
30	0xbe3c4b71	-0.18388154
31	0x3e20ecfc	0.15715402
32	0xbe314d22	-0.1731458
33	0xbd0dd3cf	-0.034625825
34	0xbe35360b	-0.17696397
35	0x3d262b5d	0.0405687
36	0x3d80f015	0.06295792
37	0x3e2bd004	0.1677857
38	0xbe4b1071	-0.1983049
39	0x3e39c912	0.18143108
40	0xbdc623ac	-0.096747726
41	0x3df2fcf4	0.11864653
42	0xbdfe3cc6	-0.12413935
43	0xbd954d6e	-0.07290159
44	0x3dc311a4	0.09524849
45	0xbcc594cf	-0.024118809
46	0xbd8d4a3f	-0.06898927
47	0xbd805d10	-0.0626775
48	0xbdcf28ae	-0.10115181
49	0x3e439386	0.19099244
50	0x3d2414fb	0.04005907
51	0x3de738e1	0.11290146
52	0xbe24bc43	-0.16087441
53	0xbdbca84d	-0.09211788
54	0xbe092cf4	-0.13396055
55	0xbe262f89	-0.1622907
56	0x3de3dede	0.11126493
57	0xbda0a939	-0.07844777
58	0xbe3ad817	-0.18246494
59	0xbccdafca	-0.025108237
60	0x3e11d22f	0.14240335
61	0xbe2df91c	-0.16989559
62	0x3a954ccb	0.0011390684
63	0x3df69af5	0.120412745
64	0xbd953ec8	-0.07287365
65	0x3dccdf39	0.10003514
66	0x3d9ebe76	0.07751171
67	0xbda7b517	-0.08188837
68	0xbe018f66	-0.12652358
69	0x3e4323c2	0.1905661
70	0x3e3d292c	0.18472737
71	0xbc8f303d	-0.017479056
72	0x3e179e2d	0.14806433
73	0xbd577489	-0.05260137
74	0xbbd8d482	-0.00661713
75	0xbd945297	-0.07242315
76	0xbce7fa4b	-0.028317591
77	0xbd13b54c	-0.03606157
78	0x3d8e9742	0.06962444
79	0xbc416d3f	-0.011805831
80	0x3bd7a0c8	0.006580446
81	0x3e015be6	0.12632713
82	0xbe12b10c	-0.1432535
83	0x3de53f0a	0.11193664
84	0xbd8c8af6	-0.06862442
85	0x3e2c7adf	0.16843747
86	0xbcb0882a	-0.021549303
87	0xbc047335	-0.008084108
88	0x3da2227a	0.07916732
89	0xbd1746bd	-0.036932696
90	0x3da45a0a	0.08024986
91	0x3d6e1a72	0.05813069
92	0x3e2d5a44	0.16928965
93	0xbe4e967f	-0.20174597
94	0x3e009135	0.12555392
95	0x3de42a8c	0.11140928
96	0xbdd42b07	-0.10359769
97	0x3d86563e	0.06559418
98	0x3df4d58c	0.11954793
99	0xbca42320	-0.02003628
100	0xbdb97c02	-0.09056856
101	0x3ca2d38e	0.019876268
102	0x3d1fe03c	0.039032206
103	0xbba3dc7a	-0.005000648
104	0xbc8041e4	-0.01565642
105	0xbe261a6f	-0.16221021
106	0xbe1188b3	-0.14212303
107	0xbdf54c1a	-0.11977406
108	0x3e190d60	0.14946508
109	0xbe158184	-0.14600188
110	0x3e4c7f03	0.19970326
111	0x3d7e3bf2	0.062068887
112	0xbd620ac9	-0.055186067
113	0x3e1a824b	0.15088765
114	0x3dab68ab	0.08369573
115	0xbe2ac8bb	-0.16678135
116	0x3cb6bbca	0.022306342
117	0x3e137dfa	0.14403525
118	0x3e3d5486	0.18489274
119	0x3cf290da	0.029610086
120	0x3d9c51f1	0.076328166
121	0xbcd3752f	-0.025812713
122	0x3d6c48b3	0.05768652
123	0x3e2dc620	0.1697011
124	0xbe40f321	-0.18842746
125	0x3e4923cd	0.19642563
126	0x3dba81c0	0.09106779
127	0x3e47e1e2	0.19519761
128	0xbd2317e9	-0.039817724
129	0x3e486577	0.19569956
130	0xbe435b43	-0.19077782
131	0x3e28ae5c	0.16472763
132	0x3c2e46e9	0.0106370235
133	0x3df17843	0.11790516
134	0xbd9080b6	-0.070558
135	0x3cdcaa77	0.026936753
136	0x3aa94cf0	0.0012916606
137	0xbe1cbbd0	-0.1530602
138	0xbc9a22f9	-0.018815504
139	0xbc8a983d	-0.016918296
140	0x3de1ce5c	0.11025688
141	0x3e33d224	0.17560631
142	0x3d171ad0	0.036890805
143	0x3c62d816	0.013845464
144	0xbd12f42e	-0.0358774
145	0x3e01bcf9	0.12669744
146	0x3cf0e177	0.029404385
147	0x3da47ccd	0.08031616
148	0x3e38d571	0.18050171
149	0xbcc980d5	-0.024597565
150	0xbda444be	-0.08020924
151	0x3e0248df	0.1272311
152	0x3e49b23c	0.19696897
153	0x3dc6f293	0.09714236
154	0x3e0e5843	0.13900857
155	0x3d0c07ff	0.034187313
156	0x3e4e4bbd	0.2014608
157	0xbe4f5402	-0.2024689
158	0xbd19b511	-0.037526194
159	0x3de0d744	0.10978559
160	0xb931d068	-0.00016957673
161	0xbda4902d	-0.08035312
162	0x3dec601c	0.11541769
163	0xbe0b9967	-0.13632737
164	0xbce435b9	-0.027857648
165	0x3c3b6dc6	0.011439746
166	0x3e137b02	0.14402393
167	0x3e46c48a	0.19410911
168	0xbe26ccea	-0.16289106
169	0xbd494d22	-0.049145825
170	0xbc2eead6	-0.010676106
171	0x3d4cccdc	0.050000057
172	0x3e1d167e	0.15340611
173	0xbd919ad4	-0.07109609
174	0x3b07e1a6	0.0020733862
175	0x3b9d58e9	0.0048018587
176	0x3e16cf2b	0.14727466
177	0x3e45bbce	0.19309923
178	0xbe0e2435	-0.13881
179	0x3e38d735	0.18050845
180	0xbda3182f	-0.07963597
181	0xbc11beaa	-0.0088955555
182	0x3de47f21	0.111570604
183	0xbc91c3b6	-0.017793518
184	0x3e42c606	0.19020852
185	0x3e20622a	0.15662447
186	0xbd351c82	-0.04421664
187	0xbcb456fe	-0.022014137
188	0xbd87e1ed	-0.06634889
189	0xbe21a21b	-0.15784495
190	0x3e1e1de3	0.15441088
191	0x3cee83b2	0.029115532
192	0xbccdb273	-0.025109505
193	0x3e4a95d8	0.19783723
194	0x3c3428b5	0.010996033
195	0x3d4fe085	0.050751228
196	0x3e028d49	0.12749209
197	0x3e25ba47	0.1618434
198	0xbe275075	-0.16339286
199	0x3dfbe9ba	0.12300439
200	0xbe06403c	-0.13110441
201	0x3dfe6fe0	0.12423682
202	0xbdd8d778	-0.105879724
203	0xbe34f7ff	-0.17672728
204	0xbd82aaa1	-0.06380201
205	0x3da0b800	0.07847595
206	0x3d5802f7	0.052737202
207	0x3dd75de9	0.10515959
208	0x3dce0acf	0.10060655
209	0x3d80de3b	0.06292387
210	0x3d54262e	0.051794223
211	0x3cd657b3	0.026164865
212	0x3d8acf9b	0.06777879
213	0xbe11b60e	-0.14229605
214	0xbd85e00a	-0.06536873
215	0x3d85128b	0.064976774
216	0xbe05507d	-0.13018985
217	0x3cbb6e64	0.022879787
218	0x3e04afb7	0.12957655
219	0xbe33f78f	-0.17574905
220	0xbe1a6c2a	-0.15080324
221	0x3dad4ce7	0.084619336
222	0xbd1e4391	-0.038638655
223	0x3e03e932	0.12881926
224	0xbe19f5b5	-0.15035136
225	0xbe04e44a	-0.1297771
226	0x3d0001c2	0.031251676
227	0xbdc8fb80	-0.09813595
228	0x3e38b0e3	0.18036227
229	0x3de7e822	0.11323573
230	0x3e2b2c1b	0.16716044
231	0xbdfb71d1	-0.12277568
232	0xbc40aacc	-0.011759471
233	0xbd7a4c9d	-0.06110822
234	0xbddc7de5	-0.107662
235	0xbe048b26	-0.12943706
236	0x3e205b38	0.15659797
237	0xbe1ab560	-0.15108252
238	0x3d788aa8	0.060679108
239	0xbc1faddb	-0.00974604
240	0xbe22bc6b	-0.15892188
241	0x3d917cfa	0.071039155
242	0x3e1b11d6	0.15143523
243	0x3d9f4f35	0.077787794
244	0x3cd92b1e	0.026509818
245	0xbe1c8761	-0.15286018
246	0xbdd2a463	-0.102852605
247	0x3df3429b	0.11877938
248	0xbe315095	-0.17315896
249	0x3dc4c75b	0.096083365
250	0xbe3a0dd9	-0.18169345
251	0xbd829c03	-0.06377413
252	0x3e45eb37	0.19328009
253	0xbdc65f95	-0.096861996
254	0xbe0afe17	-0.1357349
255	0x3df7741b	0.12082692

layer_stack.0.layer_stack.2.bias f4 [24]
0	0x3cbf3092	0.02333859
1	0x3df2fdea	0.118648365
2	0xbc144131	-0.009048746
3	0xbd37e02a	-0.044891514
4	0x3e15ca0e	0.14627859
5	0x3c8c6316	0.017137092
6	0xbe35b8f6	-0.17746338
7	0x3d116b89	0.035502944
8	0xbcbfcd8e	-0.023413446
9	0x3db09b84	0.08623412
10	0xbe36bc53	-0.17845277
11	0x3e23940b	0.15974443
12	0x3d0bb8d2	0.034111805
13	0x3e3175b8	0.17330062
14	0xbd16c9ea	-0.036813654
15	0x3e41950a	0.1890451
16	0xbd9232a0	-0.07138562
17	0xbd067113	-0.03282268
18	0x3ddb7406	0.10715489
19	0x3dd91a0e	0.10600673
20	0xbe06304e	-0.13104364
21	0xbe0dd5bd	-0.13851066
22	0xbe2ac54e	-0.16676828
23	0xbcd3ab79	-0.0258386

layer_stack.0.layer_stack.4.weight f4 [24, 24, 1, 1]
0	0x3e47bb9e	0.19505164
1	0xbdba49ec	-0.09096131
2	0x3e435888	0.1907674
3	0x3e3a9096	0.18219218
4	0xbd7ff282	-0.062487133
5	0x3e2bb6f8	0.16769016
6	0xbddab866	-0.106797025
7	0xbd8366eb	-0.064161144
8	0xbe01d4c5	-0.12678821
9	0x3dcd2f47	0.10018783
10	0xbd5c3ef8	-0.05377099
11	0x3c968e6f	0.018378465
12	0x3d71748b	0.058949035
13	0xbdcbcab9	-0.09950776
14	0xbda5bf67	-0.08093148
15	0x3d8e8b94	0.06960216
16	0xbd2db4f4	-0.0424089
17	0xbd0a864e	-0.03381949
18	0x3e493b54	0.19651538
19	0x3e0b1387	0.13581668
20	0x3e1fa149	0.15588869
21	0xbde3e35e	-0.11127351
22	0xbdd6a91d	-0.104814745
23	0xbcf8dd96	-0.030379098
24	0x3e19f0f4	0.15033323
25	0xbe1761ff	-0.14783476
26	0xbce5dbf9	-0.028058993
27	0x3e04c30f	0.12965034
28	0xbd5f6ce6	-0.054547213
29	0xbe46fa06	-0.19431314
30	0x3d820d57	0.063502006
31	0xbe01d224	-0.12677819
32	0xbe08192d	-0.13290854
33	0xbdc82806	-0.09773259
34	0xbe3f2261	-0.18665458
35	0xbd87d509	-0.0663243
36	0x3e2ddeee	0.16979572
37	0xbd714d44	-0.058911577
38	0xbe3e4e07	-0.18584453
39	0x3da2c822	0.079483286
40	0x3e0e20b3	0.13879661
41	0x3c846500	0.016161442
42	0x3dfcebe7	0.12349682
43	0xbdd43d9a	-0.10363312
44	0x3d46e979	0.0485625
45	0xbd040fdc	-0.032241687
46	0x3d1f6621	0.038915757
47	0x3d3f0879	0.04663894
48	0x3d4b74ba	0.049671866
49	0x3e255fc5	0.16149814
50	0x3c980033	0.018554782
51	0x3e267ae6	0.1625782
52	0x3c9ec5bb	0.019381395
53	0xbe1c81d1	-0.15283896
54	0x3cdcc507	0.026949419
55	0xbdc0d6c0	-0.0941596
56	0xbdeb0346	-0.11475234
57	0xbe4bf242	-0.19916633
58	0xbd820624	-0.063488275
59	0x3dfec0d6	0.12439124
60	0xbdbef9fe	-0.09325026
61	0xbda54236	-0.08069269
62	0xbde9481a	-0.113907054
63	0x3e195bd4	0.14976436
64	0xbe35e8a3	-0.17764525
65	0xbd66599c	-0.056237802
66	0x3e1162a7	0.14197789
67	0x3e174cf6	0.14775452
68	0x3c85cc08	0.016332641
69	0xbd46f578	-0.04857394
70	0x3e1eab41	0.15495016
71	0xbcdaf303	-0.026727205
72	0x3e3b1efd	0.1827354
73	0x3daf757b	0.085673295
74	0xbd710a60	-0.058847785
75	0xbd47a90f	-0.04874521
76	0xbde5f1ce	-0.11227761
77	0xbe205288	-0.15656483
78	0xbe330c10	-0.1748507
79	0xbdc6a3d2	-0.09699215
80	0xbe17db3f	-0.1482973
81	0x3d255bb4	0.040370658
82	0xbe175442	-0.14778236
83	0xbd8b9587	-0.068156295
84	0xbcd0f920	-0.025509417
85	0x3d2ea156	0.04263433
86	0x3df7b4ac	0.12095007
87	0x3c5ccfc5	0.0134772705
88	0x3e37fbcc	0.17967147
89	0xbd77638f	-0.06039768
90	0xbdaa3bd1	-0.0831219
91	0xbe45a50d	-0.19301243
92	0x3cc9a668	0.024615481
93	0x3e36637c	0.17811388
94	0xbe3dbf4f	-0.1853001
95	0x3e31ff71	0.173826
96	0xbb437f67	-0.0029830576
97	0xbe36882a	-0.1782538
98	0x3d7830b8	0.060593337
99	0xbda53631	-0.08066977
100	0x3dc8396d	0.09776578
101	0xbda57840	-0.080795765
102	0xbe418035	-0.18896563
103	0x3e36375e	0.17794558
104	0xbd9ea6ca	-0.07746656
105	0x3e130a05	0.14359291
106	0x3d850ead	0.0649694
107	0x3dad3ef4	0.08459273
108	0xbdf10b2a	-0.117697075
109	0xbcc15105	-0.023598203
110	0xbdd62e89	-0.104580946
111	0x3d3bde86	0.04586651
112	0x3e073cea	0.1320683
113	0x3e30711b	0.17230646
114	0x3c9120cd	0.017715836
115	0xbe3811c3	-0.17975526
116	0xbc2f79cb	-0.01071019
117	0x3dc2b738	0.095076025
118	0xbe05db15	-0.13071854
119	0xbda5c2b0	-0.08093774
120	0xbdd17470	-0.10227287
121	0xbe10f60f	-0.14156364
122	0xbe43fb52	-0.1913884
123	0x3e43b332	0.19111326
124	0x3ca7d51f	0.020487366
125	0x3e3305aa	0.1748263
126	0x3cad2a27	0.021138264
127	0x3dd5fd21	0.10448671
128	0x3d1accf6	0.037793122
129	0x3e4c8a02	0.19974521
130	0xbdf01b25	-0.117239274
131	0xbe12be3e	-0.14330384
132	0xbd65521f	-0.05598652
133	0x3e49bfe2	0.19702104
134	0x3df194d4	0.11795965
135	0xbaaaf8cf	-0.0013044121
136	0xbdcebf6e	-0.10095106
137	0x3d1152b2	0.035479255
138	0x3d89a444	0.06720784
139	0x3e29a446	0.16566572
140	0x3bfdeee3	0.007749425
141	0x3e2782a1	0.16358425
142	0xbe0d4b25	-0.13798197
143	0x3e2db3fb	0.16963188
144	0x3dac400f	0.08410656
145	0xba0c6b60	-0.00053565763
146	0x3cc90574	0.024538733
147	0x3d702d01	0.05863667
148	0x3dd4df2f	0.103941314
149	0x3e20ce0a	0.15703598
150	0xbe4adf75	-0.19811805
151	0x3d99023c	0.07471129
152	0x3dc8a5bb	0.097972356
153	0xbe45d683	-0.19320111
154	0x3e422e60	0.18963003
155	0x3e1c0db0	0.15239596
156	0xbcab9be5	-0.02094836
157	0xbd1be53f	-0.038060423
158	0x3c9f1845	0.019420752
159	0xbe2a14da	-0.16609517
160	0xbe4cec71	-0.2001207
161	0xbda45569	-0.08024103
162	0xbbb20e58	-0.005433839
163	0xbe058780	-0.1303997
164	0x3e439291	0.1909888
165	0x3e3aa9d4	0.18228847
166	0xbe4f05f1	-0.2021711
167	0xbb05e6a1	-0.0020431655
168	0x3daef8b5	0.08543531
169	0xbe4d9d5f	-0.20079564
170	0xbdf2047c	-0.118172616
171	0xbdb0d19d	-0.086337306
172	0x3e0afdef	0.1357343
173	0xbd8685fa	-0.06568523
174	0x3c8b5aa2	0.01701099
175	0xbdab8905	-0.08375744
176	0xbe3eeefc	-0.18645853
177	0x3e27a2d2	0.16370705
178	0x3e2a63c4	0.1663962
179	0xbd1da6d9	-0.038489196
180	0x3cf26ca0	0.029592812
181	0xbdcc16ec	-0.099653095
182	0xbe1431c6	-0.14472112
183	0xbe20c943	-0.15701775
184	0x3e444dd8	0.1917032
185	0xbbc25f82	-0.0059317956
186	0xbe26c6c0	-0.16286755
187	0x3d1d7670	0.03844303
188	0xbe189aaf	-0.14902757
189	0xbe36e1cf	-0.17859577
190	0x3e1d7f8e	0.1538069
191	0x3d2fc210	0.04290968
192	0x3e350e62	0.17681268
193	0xbcb5d61e	-0.022196826
194	0xbd86da14	-0.06584564
195	0x3db034ce	0.08603822
196	0xbccc0669	-0.0249054
197	0x3d5eb6b7	0.05437347
198	0x3daf4d3e	0.08559655
199	0x3de91621	0.11381174
200	0xbc525098	-0.012836598
201	0x3c6b291d	0.014353064
202	0x3e2dc84d	0.1697094
203	0xbde2e748	-0.1107927
204	0xbd9025ec	-0.07038483
205	0xbd8be587	-0.06830888
206	0x3e1f8707	0.15578853
207	0xbdd316bb	-0.1030707
208	0xbe0e193d	-0.13876815
209	0xbca5ae03	-0.020224577
210	0xbe08cfc5	-0.13360508
211	0xbe36c650	-0.17849088
212	0x3e332ca0	0.17497492
213	0x3e057006	0.13031015
214	0xbd0acc6d	-0.033886362
215	0xbdcbe29c	-0.09955332
216	0x3dc08b70	0.094015956
217	0xbe0777b2	-0.13229254
218	0x3db20d44	0.086939365
219	0x3dfaa8e0	0.122392416
220	0xbdf0953a	-0.11747213
221	0xbdddc0fe	-0.10827826
222	0xbda46f8f	-0.080290906
223	0x3d911272	0.07083596
224	0xbe145b28	-0.14487898
225	0xbc04642a	-0.008080522
226	0xbd1093c5	-0.035297174
227	0xbdfca63a	-0.12336393
228	0x3cad195f	0.021130262
229	0x3d2b8055	0.041870434
230	0xbe3cce5e	-0.18438098
231	0x3be8b76d	0.007101944
232	0x3dd51290	0.10403931
233	0xbe2e945c	-0.17048782
234	0xbccdaf28	-0.025107935
235	0x3e3096e4	0.1724506
236	0x3d864007	0.06555181
237	0x3d951be3	0.072807096
238	0x3d06813c	0.03283809
239	0xbded53aa	-0.11588223
240	0x3e1a636c	0.15076989
241	0x3d3892f9	0.04506204
242	0xbb473dfa	-0.003040193
243	0xbd81aa98	-0.06331366
244	0xbe347ae8	-0.1762501
245	0xbd43bb2a	-0.047785915
246	0xbddcac8f	-0.107751004
247	0x3d210831	0.039314453
248	0x3e30a374	0.17249852
249	0xbe1d1b06	-0.1534234
250	0xbd9f0367	-0.07764321
251	0xbc33c806	-0.010972982
252	0x3cee3e4d	0.029082442
253	0xbe249cec	-0.16075486
254	0x3d96df70	0.07366836
255	0x3d02ffce	0.031982236

layer_stack.0.layer_stack.4.bias f4 [24]
0	0xbdb6ece1	-0.089319
1	0xbe029567	-0.12752305
2	0xbe3f1850	-0.18661618
3	0x3e2993ab	0.16560237
4	0x3d8e48b5	0.069474615
5	0x3e0787ee	0.13235447
6	0xbe0d5486	-0.13801774
7	0xbe1f077c	-0.15530199
8	0xbdca35d2	-0.09873547
9	0x3e33e7e7	0.17568932
10	0xbdee6de7	-0.11642056
11	0x3cb9c092	0.022674832
12	0x3e21d445	0.1580363
13	0xbdf2caf1	-0.11855114
14	0x3e238e1e	0.15972182
15	0xbdecc0bc	-0.11560199
16	0x3e04c8b5	0.12967189
17	0x3e1abb17	0.15110432
18	0x3e431da4	0.19054276
19	0x3d6b1603	0.05739404
20	0xbd091379	-0.033465836
21	0xbe1dc20e	-0.15406057
22	0x3e3800e3	0.17969088
23	0xbdf29635	-0.11845056

layer_stack.2.layer_stack.0.weight f4 [10, 24, 3, 3]
0	0x3ceb7432	0.02874193
1	0xbc0c892b	-0.008577625
2	0xbd4efaa2	-0.05053199
3	0x3c9f71a4	0.019463368
4	0x3d5086e1	0.05090988
5	0xbcc026a5	-0.023455927
6	0x3c656b6e	0.014002664
7	0x3d087c02	0.033321388
8	0xbcb19cfa	-0.021681298
9	0x3d31d835	0.04341908
10	0x3c8135f4	0.015772797
11	0xbc82eaa8	-0.015981033
12	0xbcb54e82	-0.022132162
13	0x3d2bdb98	0.041957468
14	0x3c2c6349	0.010521718
15	0xbc240768	-0.010011531
16	0xbd897b4e	-0.06712972
17	0xbd0fd68f	-0.03511673
18	0xbd296b7a	-0.041362263
19	0x3cee0f10	0.029059917
20	0x3cd93cba	0.026518214
21	0xbbc57315	-0.0060256817
22	0xbcdb1090	-0.026741296
23	0xbb4c2e5f	-0.003115557
24	0x3d0c3dfe	0.034238808
25	0x3d27919e	0.040910356
26	0x3c9b8968	0.018986419
27	0x3c58d907	0.013235337
28	0x3c1eca4c	0.009691786
29	0x3c096097	0.008384845
30	0xbd677241	-0.056505445
31	0x3ba52f44	0.005041035
32	0xbcd0e4b6	-0.025499683
33	0xbd2f9753	-0.042868923
34	0x3c28a2a0	0.010292679
35	0xbcc01f95	-0.02345256
36	0xbd061cd3	-0.032742333
37	0xbb55d7e8	-0.003262991
38	0x3d86a120	0.06573701
39	0xbc19c59f	-0.009385495
40	0xbc993a86	-0.018704664
41	0xbca45a02	-0.02006245
42	0xbd43e44e	-0.04782515
43	0xbccc7f85	-0.02496315
44	0x3d7dbe60	0.061949134
45	0xbcbfb1a2	-0.023400132
46	0xbd79913e	-0.06092953
47	0x3d438d3a	0.047742106
48	0xbc986a52	-0.018605385
49	0xbd8905f0	-0.066905856
50	0xbca5b767	-0.020229055
51	0xbd8a313a	-0.067476705
52	0xbd67b56c	-0.0565695
53	0x3d305352	0.04304821
54	0x3c82f110	0.015984088
55	0x3d0839c9	0.033258233
56	0x3d04844e	0.032352738
57	0xbce7d1ef	-0.028298346
58	0x3d88d058	0.066803634
59	0xbd5cec8b	-0.053936522
60	0x3ba16f2e	0.0049265837
61	0x3c4d5b39	0.012533956
62	0x3d686052	0.056732483
63	0xbc6aa8e6	-0.014322495
64	0xbd56ecfb	-0.052472096
65	0xbc245909	-0.010030993
66	0xbcc37d83	-0.02386356
67	0xbd04de31	-0.03243846
68	0x3d792e0c	0.06083493
69	0xbcfdc910	-0.030979663
70	0xbd670c2a	-0.056408085
71	0x3d5a3ae6	0.053278826
72	0xbcc69d67	-0.024244977
73	0x3d44c9dc	0.04804407
74	0xbc6ab545	-0.014325445
75	0xbd67d877	-0.05660292
76	0x3d837631	0.064190276
77	0xbd360d8b	-0.04444651
78	0xbc904dc1	-0.017615201
79	0x3d895a2f	0.06706654
80	0xbcec7b76	-0.028867465
81	0xbcb11ea8	-0.021621063
82	0x3c946ff0	0.018119782
83	0xbcf0d0e8	-0.02939649
84	0xbb7a5e4d	-0.003820318
85	0xbd360892	-0.044441767
86	0xbd63e25f	-0.055635806
87	0xbd072f6e	-0.033004217
88	0xbd2035ca	-0.039113797
89	0x3d5e7424	0.05430998
90	0x3be7ec26	0.0070777116
91	0xbd13296f	-0.035928186
92	0x3c03eb94	0.008051772
93	0x3d006557	0.031346645
94	0xbceb5639	-0.028727638
95	0xbb9d70dc	-0.0048047137
96	0xbc02347c	-0.007947084
97	0x3d8b2ba3	0.067954324
98	0x3cc9a984	0.024616964
99	0x3d258cab	0.040417355
100	0xbd668a5d	-0.056284297
101	0x3c8e952c	0.017405115
102	0xbd276dc6	-0.040876172
103	0xbd241fec	-0.040069506
104	0xbb9898e8	-0.0046568997
105	0x3c77bf74	0.01512133
106	0x3ca4950c	0.020090602
107	0xbc975214	-0.018471755
108	0xbd2b9a30	-0.04189509
109	0x3b76bd2d	0.0037649379
110	0x3ad23838	0.0016038483
111	0x3d8b1858	0.067917526
112	0xbc821166	-0.015877437
113	0xbd582ceb	-0.052777212
114	0xbbbb3959	-0.0057136235
115	0xbc3a2ab9	-0.011362725
116	0xbd1d4744	-0.038398042
117	0x3d867d86	0.065669104
118	0xbd039b9e	-0.03213083
119	0x3d52c274	0.051454976
120	0xbd57cf00	-0.052687645
121	0x3d05c868	0.032661825
122	0x3cca1596	0.024668496
123	0xbac397af	-0.0014922525
124	0x3d4a3009	0.049362216
125	0xbd19e3b7	-0.03757068
126	0xb8a839fb	-8.021664e-05
127	0xbc01752c	-0.007901471
128	0xbcc9d350	-0.024636894
129	0xbd2f12cc	-0.042742535
130	0x3c3aa902	0.011392834
131	0x3b9cd53b	0.0047861612
132	0xbd4de203	-0.05026437
133	0x3d16b100	0.036789894
134	0xbb4584c6	-0.0030138954
135	0x3d0e5bb5	0.034755427
136	0x3c80ba33	0.015713787
137	0x3d570239	0.052492354
138	0xbc094c48	-0.008380003
139	0x3c617d1c	0.013762739
140	0xbd4820b6	-0.04885932
141	0x3d6fcbdf	0.058544036
142	0x3c8ee3fd	0.017442698
143	0xbd1e5fe5	-0.03866567
144	0x3d551d32	0.052029796
145	0x3d18ffdd	0.037353385
146	0x3d07b68f	0.033133086
147	0x3c65b6f3	0.014020669
148	0x3d09ec3f	0.033672567
149	0x3ca89dc0	0.020583034
150	0xbd00dfc2	-0.031463392
151	0x3d89cc2f	0.06728398
152	0x3c82a1e0	0.015946329
153	0x3d4181c4	0.047242895
154	0x3bb2d4d2	0.005457499
155	0xbca4a5c9	-0.020098584
156	0x3cdb0ba6	0.026738953
157	0x3cef7f4e	0.029235508
158	0xba16451f	-0.0005732346
159	0x3d1dcee5	0.038527388
160	0xbc9b93c6	-0.018991362
161	0xbd83af52	-0.06429924
162	0xbd3eafab	-0.04655425
163	0xbd1ef4dd	-0.03880774
164	0x3d7e0c33	0.062023353
165	0xbcfe0b44	-0.031011231
166	0x3c2f7ecc	0.010711383
167	0x3d0952c9	0.033526216
168	0xbd4bed87	-0.04978707
169	0x3c0f0a7f	0.00873053
170	0x3d82a852	0.06379761
171	0x3cb1ee62	0.021720115
172	0x3d767ecf	0.060179528
173	0x3cce70e7	0.02520032
174	0x3d69f463	0.05711783
175	0x3c776a72	0.015101062
176	0x3d8958f6	0.06706421
177	0xbd3dbb79	-0.046321366
178	0xbcc11f2a	-0.02357443
179	0xbcdfadf9	-0.027304636
180	0x3c5c5635	0.013448288
181	0x3d40a298	0.04703006
182	0x3d6aa9ca	0.05729083
183	0x3c999e72	0.01875231
184	0x3c572fa0	0.013133913
185	0x3c9af941	0.018917682
186	0x3d208887	0.039192703
187	0x3cafae7b	0.021445503
188	0x3d4c0bf3	0.049816083
189	0xbc29b258	-0.010357462
190	0xbd2c6985	-0.04209282
191	0x3d06d661	0.03291929
192	0x3cc096f4	0.02350948
193	0x3cc10381	0.023561241
194	0x3c85b199	0.016320037
195	0xbbd66609	-0.0065429253
196	0x3c96eebb	0.018424382
197	0x3d6e618f	0.058198508
198	0x3cd7b8d3	0.026333248
199	0x3d1c58e6	0.038170718
200	0xbcd2286a	-0.025654037
201	0x3cf5ef97	0.030021472
202	0x3d30b6f9	0.043143246
203	0x3d385dfa	0.045011498
204	0x3d192074	0.037384465
205	0xbd3d6e94	-0.046248034
206	0xbc5baaa6	-0.013407385
207	0x3d39ae89	0.045332465
208	0x3b445ad4	0.0029961364
209	0xbce5d88a	-0.028057355
210	0x3c926416	0.01786999
211	0x3d85376b	0.06504711
212	0xbce6d8f6	-0.028179627
213	0x3d44e348	0.048068315
214	0xbccce048	-0.02500929
215	0xbcad5eed	-0.021163428
216	0xbd769abc	-0.06020616
217	0xbcbfd501	-0.023416998
218	0x3c4364f0	0.011925921
219	0xbc0bf446	-0.008542126
220	0x3cbb0397	0.02282886
221	0x3d773b13	0.060359072
222	0x3d80eafd	0.062948205
223	0xbcc834da	-0.024439264
224	0x3c8a653a	0.016893972
225	0xbd42c4a6	-0.04755082
226	0xbd81dc58	-0.06340855
227	0x3c2ec8ba	0.010667974
228	0xbcd09060	-0.025459468
229	0x3ba3a73d	0.0049943016
230	0xbd8908f2	-0.06691159
231	0xbd1f3062	-0.0388645
232	0xba33dd63	-0.00068612973
233	0xbc85907a	-0.016304243
234	0x3d12810b	0.035767596
235	0xbd57aea4	-0.052656785
236	0x3b0469b2	0.00202046
237	0x3cff565a	0.031169105
238	0x3d5bec32	0.05369205
239	0xbcaad7c2	-0.020854834
240	0x3d523818	0.051323026
241	0x3c6afc3f	0.014342367
242	0x3d63ec8f	0.05564552
243	0x3c517f30	0.0127866715
244	0x3cf669d4	0.03007976
245	0xbd7d3924	-0.06182207
246	0xbd491da5	-0.049100537
247	0x3d557006	0.052108787
248	0x3d183051	0.037155453
249	0x3c5f0fa6	0.013614571
250	0x3d802158	0.0625636
251	0xbd436f05	-0.0477133
252	0x3c92cd77	0.017920239
253	0xbd4f8b07	-0.050669696
254	0x3c7ace13	0.015307921
255	0xbd127f65	-0.035766024

layer_stack.2.layer_stack.0.bias f4 [10]
0	0xbcc9883d	-0.024601096
1	0x3b4a4bf1	0.0030868019
2	0xbd0bd899	-0.03414211
3	0x3c69783a	0.014249856
4	0xbc3968a0	-0.011316448
5	0xbd834f20	-0.06411576
6	0xbd8aa5bd	-0.06769893
7	0xbc8077f6	-0.015682202
8	0x3ba5d652	0.0050609494
9	0xbd623949	-0.055230413

layer_stack.2.layer_stack.2.weight f4 [10, 10, 1, 1]
0	0x3d77e395	0.060519774
1	0x3e3b63aa	0.18299738
2	0xbce36b90	-0.02776125
3	0x3e9eca93	0.31013927
4	0x3e9260ef	0.2858958
5	0x3e25452d	0.1613967
6	0x3caa3612	0.020777736
7	0xbe20c868	-0.15701449
8	0xbe97a995	-0.29621568
9	0xbd9f042b	-0.07764467
10	0xbd246ee8	-0.04014483
11	0xbd00404d	-0.031311322
12	0x3e95dbef	0.2926936
13	0xbdf08be8	-0.11745435
14	0xbe23184b	-0.15927236
15	0x3d873669	0.06602175
16	0xbcb24207	-0.02176
17	0x3e17e0ab	0.14831798
18	0xbe6fadd4	-0.23406154
19	0xbe487878	-0.19577205
20	0xbe52698e	-0.20548078
21	0xbe58a064	-0.21154934
22	0xbc2b7cb1	-0.0104667405
23	0xbe9f647a	-0.31131345
24	0xbdadd2db	-0.08487483
25	0xbc93012e	-0.017944898
26	0x3ea027aa	0.3128026
27	0xbe56da7e	-0.20981786
28	0xbdbe0f14	-0.0928022
29	0x3e8dfdd5	0.2773272
30	0x3db65914	0.08903709
31	0x3e9499ad	0.29023495
32	0x3dd7ee38	0.105434835
33	0xbe6d79b8	-0.23190963
34	0x3df822cb	0.12116011
35	0xbe564a86	-0.20926866
36	0x3e4aee73	0.19817524
37	0xbe25ec08	-0.1620332
38	0x3e69765c	0.22799057
39	0xbe22ea50	-0.15909696
40	0x3e9987c8	0.29986405
41	0x3bccd3cf	0.0062508355
42	0xbe71954a	-0.23592106
43	0x3c99a574	0.018755652
44	0xbdbe657c	-0.092967
45	0xbe9a0879	-0.3008459
46	0xbe807016	-0.25085515
47	0x3e5fae8b	0.21843927
48	0xbe5b11e8	-0.2139355
49	0x3e9bcefa	0.30431348
50	0x3df84b6f	0.12123763
51	0xbe9c570e	-0.30535167
52	0x3e0768e1	0.13223602
53	0xbe821d84	-0.25413144
54	0x3e1c265b	0.15249006
55	0xbe77cd8d	-0.24199505
56	0xbd28e2b6	-0.041231833
57	0x3e4809fe	0.19535062
58	0xbd6b0eca	-0.05738715
59	0x3e793338	0.24335945
60	0xbe364e95	-0.17803414
61	0x3e91cb1c	0.28475273
62	0x3d47e777	0.048804726
63	0xbe31c274	-0.17359334
64	0xbd8dadf4	-0.069179446
65	0x3e7f2301	0.24915697
66	0x3d803e50	0.06261885
67	0xbe467f8f	-0.19384597
68	0x3e8af9ed	0.27143803
69	0x3e86b833	0.26312408
70	0xbe7a2b98	-0.24430692
71	0xbe2b11f9	-0.16706075
72	0xbe889a5b	-0.26680264
73	0xbe0f3c60	-0.13987875
74	0x3e95f77f	0.29290387
75	0xbda0c36c	-0.07849774
76	0x3db38e41	0.08767367
77	0x3cb416e6	0.021983575
78	0xbe6511e1	-0.22370102
79	0xbda589b1	-0.08082903
80	0x3d65342b	0.055957954
81	0x3e360116	0.17773852
82	0xbe08d500	-0.13362503
83	0xbd01b3a9	-0.031665478
84	0xbe9b29d8	-0.30305362
85	0x3e14deba	0.14538088
86	0xbe7d6105	-0.24744041
87	0xbe0229cd	-0.12711258
88	0x3e68b5fb	0.2272567
89	0x3dbb81b0	0.09155595
90	0xbd824dba	-0.063624814
91	0x3de35f3c	0.11102149
92	0xbd2d2c84	-0.04227878
93	0x3e60ab81	0.21940424
94	0x3e8b3b7e	0.27193826
95	0xbd1c4ac8	-0.038157254
96	0x3e657056	0.22406134
97	0x3e9321b2	0.28736645
98	0x3d03d132	0.032181926
99	0x3e8094ff	0.25113675

layer_stack.2.layer_stack.2.bias f4 [10]
0	0xbca8feea	-0.020629365
1	0x3dcdcdda	0.10049029
2	0xbe72bf4c	-0.23705786
3	0xbe44a33f	-0.19202898
4	0xbaaceb27	-0.001319264
5	0xbe501d5b	-0.20323698
6	0xbe8b7d21	-0.27243903
7	0xbe7fdde8	-0.24986994
8	0xbd073313	-0.033007693
9	0x3e283dfc	0.16429895

layer_stack.2.layer_stack.4.weight f4 [10, 10, 1, 1]
0	0xbea114f6	-0.31461304
1	0x3e80e157	0.2517192
2	0x3d3af38f	0.04564243
3	0xbe412a28	-0.18863738
4	0x3e8136ec	0.25237215
5	0x3e993072	0.29919773
6	0x3e20e0df	0.15710782
7	0x3e85544b	0.26040873
8	0xbdddbe30	-0.10827291
9	0x3e35a361	0.17738105
10	0xbdeb6222	-0.11493327
11	0x3e6c4226	0.23072109
12	0xbde6ca1f	-0.1126902
13	0x3e6e200a	0.2325441
14	0xbd99db4a	-0.07512529
15	0x3e84597c	0.2584952
16	0xbcceb393	-0.025232112
17	0x3e16d5f7	0.14730059
18	0x3e45b33f	0.19306658
19	0x3e91eb63	0.28499898
20	0x3e9f004c	0.31054914
21	0xbea05db0	-0.31321478
22	0x3d0e87f6	0.03479763
23	0x3c145b84	0.009055022
24	0xbc8ef665	-0.017451474
25	0x3dea4b4d	0.11440144
26	0x3e9ec910	0.31012774
27	0x3dffc778	0.124892175
28	0x3e7542bf	0.23951243
29	0xbe1cf091	-0.15326144
30	0xbc036a61	-0.008020968
31	0xbb72eded	-0.0037068084
32	0xbe721b30	-0.23643184
33	0x3e5d4c2f	0.21611093
34	0x3d9b2072	0.07574548
35	0x3acc2ae4	0.0015576747
36	0x3e86cc5f	0.26327798
37	0x3e1cbb4a	0.1530582
38	0x3df352b9	0.118810125
39	0x3e829feb	0.25512633
40	0x3d9c7439	0.07639355
41	0xbe60d6e3	-0.21956973
42	0xbdcb707a	-0.099335626
43	0xbe79c442	-0.24391273
44	0xbdadefca	-0.08493002
45	0xbd7d14b8	-0.061787337
46	0xbe95fecb	-0.29295954
47	0xbe7a6be0	-0.24455214
48	0x3e212900	0.15738297
49	0xbddf6d3c	-0.10909507
50	0xbe37bb7a	-0.1794261
51	0xbe9aa4e6	-0.30203933
52	0xbe6dba3d	-0.23215576
53	0x3e8dff70	0.27733946
54	0xbd70a6a4	-0.05875267
55	0xbe9c50a6	-0.3053028
56	0xbe6ff94a	-0.2343494
57	0x3e0bf90c	0.13669223
58	0xbdb973aa	-0.09055264
59	0xbe5fde13	-0.21862058
60	0xbea0d565	-0.31412807
61	0xbe0f9894	-0.14023048
62	0xbe1ed530	-0.15511012
63	0xbe56307a	-0.2091693
64	0xbdd21d65	-0.10259513
65	0x3dd598d0	0.10429537
66	0x3e50b162	0.20380166
67	0xbe0b5c8e	-0.13609526
68	0xbde03a3b	-0.109486066
69	0x3e517e0d	0.20458241
70	0x3e815fd5	0.25268427
71	0xbc91914a	-0.017769475
72	0xbe4207f4	-0.18948346
73	0x3e0fd8a4	0.14047486
74	0x3e64494a	0.22293583
75	0xbd777c66	-0.06042137
76	0x3df8aa29	0.121418305
77	0x3e3daa82	0.18522075
78	0x3e8c64d0	0.27420664
79	0xbe7a8b41	-0.24467184
80	0x3e0ffeef	0.14062093
81	0x3d2eeba7	0.042705204
82	0xbd0401b4	-0.032228187
83	0x3d567b10	0.052363455
84	0x3e1cb52c	0.15303487
85	0x3e40d8d4	0.18832713
86	0x3e7424eb	0.23842208
87	0x3e16b2d0	0.14716649
88	0xbe0fa356	-0.14027151
89	0x3de3d0c4	0.11123803
90	0x3e3be62c	0.18349522
91	0x3dc395d5	0.095500626
92	0xbe08cf83	-0.1336041
93	0x3e04c4c9	0.12965693
94	0x3dbea9a3	0.093096994
95	0xbc9ad443	-0.018900042
96	0xbea08b30	-0.31356192
97	0xbe5f0ae1	-0.21781494
98	0x3e9a4b3d	0.30135527
99	0x3e3380e5	0.17529638

layer_stack.2.layer_stack.4.bias f4 [10]
0	0xbd30a1f0	-0.043123186
1	0xbe7acc58	-0.24492013
2	0xbce149d4	-0.027501024
3	0xbe69fba4	-0.228499
4	0xbe59cc3d	-0.21269317
5	0xbe8dede9	-0.27720574
6	0xbe9ecdb0	-0.31016302
7	0xbe1341ca	-0.14380565
8	0xbca44d89	-0.020056503
9	0xbce5e097	-0.028061194
