state_tests/nets/nin2.pth (torch, 19671 bytes, 12 tensors)

layer_stack.0.layer_stack.0.weight f4 [24, 1, 3, 3]
00000000: dba7 a5be 31e7 febd 74e1 c13e 3fa5 2cbf
00000010: c964 2dbf dc1f 70bf 144d 85bf 71c3 43bf
00000020: c165 95bf 428b b63e 2c9a c0bd e612 45bf
00000030: f808 22be 318a efbf 5e1b cebf df39 d13d
00000040: 23b4 babf 1cf9 89bf e04e a03e 11b6 473f
00000050: 4732 1fbf fede c53e 6213 693f a300 afbf
00000060: 5bc9 0c3e 805c c43f 14d6 e3bf 71d8 14bf
00000070: 267f 0dbf f105 a93e 725e aebe bd51 c3be
00000080: 3813 cabe db27 d73c 3e8b 9f3e e7e7 83bd
00000090: 00ee ab3f 1d54 6bbf faf9 a0bf f476 ed3f
000000a0: 023d aabe 3077 a8be fbbd 36bc d0c2 92bc
000000b0: 7d78 123e c9de 983d 5153 73bf 40d4 f63a
000000c0: 9e47 c13e 5ac3 1b3f 16d5 8b3f d00a 71bc
000000d0: a51c 09bd d849 b73e e2d6 53be a119 b7bd
000000e0: c3c5 32be 8566 abbe 9ada 3fbe 1f45 29be
000000f0: 5794 1e3e ee7e 943e f899 8abe f1d8 493f
00000100: 6c78 773f baaa 3f3e 1916 2fbe efd7 863e
00000110: f204 f03e eaed 32bf c760 1fbf ecf2 56bf
00000120: 96d5 36bd 4300 34bf f4da 17bf 72b9 c4bf
00000130: 9b89 a6bf 229a ecbf 493e 05bf ee51 99bf
00000140: f321 7fbd f559 e13e a7b3 3fbe 62bd 283f
00000150: 5f75 9a3e 9d9f cb3e f9e7 573f 6219 9b3d
00000160: af5b 2fbe 90bb 683f dcdc fc3d 68b0 0ebe
00000170: 249d 58bf 8510 023f 827b 35bf 1558 9dbf
00000180: d13c 2b3e bd4d 623c cd46 82bf 8ca5 d13d
00000190: d785 ff3c e95c 103f 2948 05bd 6336 f43e
000001a0: e59e 103f 1620 1f3f 17d6 debc 268e b6bd
000001b0: b385 81bd 24b4 b83b 0abe 6fbd 250d 863e
000001c0: d7e7 9dbe 1527 bb3d ebbf 363d dab1 9dbe
000001d0: fae4 d13d 9378 b2bf 1c62 27bf 91e1 493f
000001e0: 13ea 9abb 06da 12bf 12da 2f3f d03b 81bf
000001f0: 864a 15bf 1c95 963e 19e7 c53e 47d1 103e
00000200: 175c 833e 10a0 cd3d 22eb cfbe c3a6 15bd
00000210: 77b5 21bd 2fe4 a2bd 4d00 99be ca72 9fbf
00000220: 8613 0cbf 9ef1 92be 9bb3 dbbe 1d3a 933e
00000230: d2cf 9f3f 10f6 e7bd 07c1 0dbf 3559 883f
00000240: 3494 5bbf d6ba 983d 5df1 9a3f 89e3 72bf
00000250: a953 adbe 50e3 873f 5742 33bf d90d 563e
00000260: fa69 ad3e 3889 563e 37a1 7abe f602 7c3c
00000270: 689e 78bc a676 fcbe f663 45bf 11de c1be
00000280: 8a1b efbe 9f1f e9be dd44 ef3e 1183 a7be
00000290: fa0a ab3e b976 81bf 673d c3bf d0f7 27bf
000002a0: b7f8 cbbf ed15 a0bf 184f 8dbf 9b0b 203e
000002b0: 5677 4fbb f6e3 00bd f691 a1bd 76b4 f33d
000002c0: 6e88 48be 6b4a 74bd bba7 fabd d6a8 ecbc
000002d0: 4ed0 3cbe e12f ecbd f040 27be f185 7dbf
000002e0: 1f3b b9bf e790 25bf f1e9 2cbf 2a80 b7bf
000002f0: a6ec 8fbf 2805 6bbe b1fd 9ebe 37bf 37be
00000300: a636 183e 11fe 0a3e d293 7fbe c075 3c3e
00000310: 0a36 a2be 03b2 02be 67d6 a63d 816a 16bf
00000320: 0083 c5be 3541 ce3e 1d31 02bf e10b 6bbe
00000330: 6ac9 f13e a79c 5b3c 1a25 87bf 12fc 5c3e
00000340: a63c 66be daf3 893e 1474 153e 59a8 58be
00000350: d246 673d 20d0 27be bcf7 453e 742c 2abe
-0.32354626 -0.1244644 0.3786732 -0.67439646 -0.6773191 -0.93798614 -1.0414147 -0.76470095
-1.1671678 0.3565312 -0.09404406 -0.7698196 -0.15823734 -1.8714048 -1.6102102 0.10216116
-1.4586223 -1.0779147 0.31310177 0.78012186 -0.6218609 0.38646692 0.910452 -1.3672069
0.13748686 1.5340729 -1.7799706 -0.58142763 -0.5527214 0.33012345 -0.3405643 -0.381483
-0.39467788 0.026264122 0.3116092 -0.06440716 1.3432007 -0.9192522 -1.2576287 1.8551927
-0.3324967 -0.32903433 -0.011153693 -0.01791516 0.14303775 0.07464368 -0.95049006 0.0018831566
0.37749952 0.6084496 1.0924404 -0.014712051 -0.033474583 0.35798526 -0.2068744 -0.08940435
-0.17458253 -0.33476654 -0.18735734 -0.16530274 0.15486275 0.2900309 -0.27070594 0.7884665
0.96668124 0.18717471 -0.17098273 0.2633662 0.46878773 -0.6989428 -0.62257046 -0.8396442
-0.044637285 -0.703129 -0.5931847 -1.5369093 -1.3010744 -1.8484538 -0.52048165 -1.1978128
-0.062288236 0.44013944 -0.18720876 0.65913975 0.30167672 0.39770213 0.8433834 0.07573201
-0.17124818 0.909112 0.12346813 -0.13934481 -0.8461478 0.50806457 -0.7089158 -1.2292506
0.16722418 0.01381248 -1.0177857 0.10236654 0.03119175 0.5639177 -0.03253952 0.47697744
0.56492454 0.62158334 -0.027201695 -0.089138314 -0.06324329 0.005636709 -0.058530845 0.26181903
-0.30840942 0.09138314 0.04461662 -0.30799752 0.10248752 -1.3943046 -0.6538408 0.7885981
-0.004727611 -0.5736393 0.68692124 -1.0096378 -0.5831684 0.29410636 0.38652876 0.14142333
0.25656196 0.10040295 -0.4060908 -0.03653599 -0.0394797 -0.07953679 -0.29883042 -1.2456906
-0.5471729 -0.28699964 -0.42910466 0.28755274 1.2485297 -0.113262296 -0.5537266 1.0652224
-0.85773015 0.07457511 1.2104908 -0.9487844 -0.3385289 1.0616245 -0.700231 0.2090372
0.33869916 0.20950782 -0.24475561 0.015381565 -0.015174486 -0.49309272 -0.77105653 -0.37864736
-0.46700698 -0.45531937 0.46732226 -0.32717183 0.33406812 -1.0114356 -1.5253114 -0.65612507
-1.5935277 -1.2506691 -1.1039762 0.15629427 -0.0031656823 -0.0314674 -0.07889168 0.118996546
-0.19583294 -0.059641283 -0.12239023 -0.028889101 -0.18438837 -0.1153257 -0.16333365 -0.99032503
-1.4471167 -0.6467423 -0.67544466 -1.4335988 -1.1244094 -0.22951186 -0.31052926 -0.17944036
0.14864597 0.13573481 -0.24958733 0.18404293 -0.31681854 -0.12763219 0.08146363 -0.5875626
-0.38576508 0.40284124 -0.5085619 -0.2295375 0.4722398 0.013404048 -1.0558197 0.21580532
-0.22484073 0.26943856 0.14595062 -0.2115797 0.056464024 -0.16387987 0.19332784 -0.1661852

layer_stack.0.layer_stack.0.bias f4 [24]
00000000: 111d 7f3e f632 d73e 2bad febc b19d 2b3e
00000010: 6952 133e 15d9 64bf edfd 683d 06e3 b0bd
00000020: 2b2c c73e a0bd 88be ff1f 853e 1325 b3be
00000030: ea80 abbe f53b df3e 537c 38be 7398 b13e
00000040: 146c 813e c8fe ddbb 6963 183e cfb3 a4be
00000050: 9206 14bd a31c 87be 2cdd 243e 2c0c b3be
0.24913432 0.42031068 -0.031088432 0.16759373 0.14386906 -0.8939374 0.056882787 -0.08637051
0.38900885 -0.26707172 0.26000974 -0.34989223 -0.3349679 0.4360043 -0.18016176 0.34686622
0.2527777 -0.006774757 0.14881672 -0.32168433 -0.03613908 -0.26389036 0.16099995 -0.34970224

layer_stack.0.layer_stack.2.weight f4 [24, 24, 1, 1]
00000000: 2571 00bf d5e7 22bf 1d8e 0ebe 5d1e 25be
00000010: 4fc9 00bf fd59 66bf 3cde 363e 53f4 e4be
00000020: 38cb 7ebf 3d66 603e 038a e1be 4616 553e
00000030: 1d35 113d 354e f4bd fe0f 643d 8f72 f1be
00000040: 2485 943e 9931 e73d c416 a1be 3752 483e
00000050: 8c54 d9be 2366 4e3e e2a7 36be de73 133d
00000060: 566d 57bc af1c 76be 519e 31be 0686 0b3e
00000070: 1174 6cbf 9689 40bd b158 18be 1927 11bf
00000080: 6e95 42bd 0c5a c1be 51eb f0bd acea fabe
00000090: b719 4e3e ef1b 803f cf53 06bd f5ee 373f
000000a0: 3eaa 693f 7517 4c3e 62ee c03d 96c1 64bb
000000b0: 392b 9abb 6a0e 93bd b601 bc3b 7e6b 903c
000000c0: f5c1 59be 59b1 203e 9afe 67bd b9fb a83d
000000d0: ddb4 d6be e401 44bf ed51 11be cd37 1b3d
000000e0: c896 6b3e 352f 4bbe a363 7d3e 69a2 dc3d
000000f0: c841 a7bd 2755 a4bd d9e3 a1bc 819e 85be
00000100: d579 9cbe 7acc cf3e ec5a fc3e e638 e03d
00000110: ec8b 903d f019 353e cd0c 03be efd2 dcbd
00000120: de40 2d3d 1e60 9a3d 1f7a 83be 1658 cf3d
00000130: f90c 18bf 144a b3bc 2337 96bc 78a1 bfbe
00000140: 25c2 e1be 0c07 0bbf 1b2f cfbd 4594 a8be
00000150: 83d7 653d 57c4 5c3f 6b75 293d 2511 363e
00000160: 3a07 6d3f 0eaf 683d 3436 b13d dbe7 a53c
00000170: f656 cd3d e8ac f5bd 127b 42bc 9063 4a3e
00000180: 0829 943d b154 8e3d 07d6 403e a350 293d
00000190: 3ecb dbbd 73f3 bbbd abd6 5d3e eec2 1d3e
000001a0: fabd 683e 581d b6be 2bf3 2a3e 9c7c 4bbe
000001b0: 8333 d83d 525b 3b3d f85d fcbd 20a8 e23b
000001c0: 83ee 1ebd f3ef 393e ebdf d73d 0c64 02be
000001d0: 653d 26bc 393a 8c3d 926d 9d3e e8e7 9bbd
000001e0: 52f6 753c 1bd2 a13d b553 3ebc c0ef 2cbe
000001f0: 42f0 64bd 0b6b 1cbe ab30 733d 205f a73d
00000200: c246 4bbe c6c3 893c 9033 22be f577 7cbe
00000210: c95c 1a3e 4746 a73d 5206 65bd 4228 bebd
00000220: 5bc6 c93d 0380 b2bd 430a 7c3d 6b1f 81bd
00000230: 4160 03be a695 39be 70b1 af3d 5796 523d
00000240: a95b c23e 5548 b13e adc4 bf3d 4eb5 283e
00000250: 8b25 83be 3f90 dfbe 84d3 a3bc 321f 21be
00000260: 8f94 a43e c86f efbe 4e0a 0c3e d095 933c
00000270: 6e28 16be 6ff9 b5bc 3acf 89bd 925c 9dbc
00000280: d848 b6bc 3d09 9d3e 3958 d63e 3bb4 323d
00000290: f704 173e 7cda 4d3d 3f19 7b3e 0315 d1bd
000002a0: ae07 cd3e 9dea 693f c5a4 98bd b83d 373e
000002b0: 3518 2a3f 0347 55be 97c3 9f3c 413d abbd
000002c0: 0a87 b93e e939 8ebf 00f7 3f3f 6d8e 66bf
000002d0: 4718 683d 5333 bbbe 72ce 9abd 1063 6cbf
000002e0: ec89 fbbe 82a1 953e 1aca 6a3f 7466 7cbd
000002f0: 73a3 a33e 3446 37be 63fb fe3e 7fa2 53bd
00000300: 6727 6bbe 00eb 81be a483 2abf 881f c4be
00000310: 3857 16bf 9a41 b2bc 1a6a 06bd ef88 11bf
00000320: 1ba9 aabe 5cfb 3fbe 7186 6c3d 63ff 02bf
00000330: bca1 113e e1ea ebbe 3285 443e e45d 2abe
00000340: 7393 31be 07a3 92be bb9e f9be 062d a4bd
00000350: 012f e8be 29fc 3c3e 4820 b13d 8cab 00be
00000360: 22ba fcbd aa3f 1dbf a070 a9be aac1 8fbe
00000370: 8296 2dbf 5d91 143e ed21 3bbe 765c 0fbf
00000380: 874a f0be a838 b4bd be22 caba 98e4 fcbe
00000390: 405d 393c 655d 14bf e656 1abe e83f efbe
000003a0: 3e9f 1bbe 4e38 e8be d2fc 43bf 1a72 4f3e
000003b0: 7a9b d5be 18af 14be eafb 383e e109 2dbe
000003c0: bd98 ba3e b371 373e 9186 6ebe 0a06 423e
000003d0: a045 5bbe fa48 b4bd fe07 2c3e 1c66 3ebb
000003e0: 108e ac3e 39f4 e1be b8d4 513e 3973 debe
000003f0: d649 25be ae4c edbd eac4 6abc 5a61 81be
-0.50172645 -0.63635 -0.139214 -0.16124864 -0.5030717 -0.8998106 0.17858213 -0.44717655
-0.9952884 0.21914001 -0.44050607 0.20809278 0.035451043 -0.11928979 0.055679314 -0.47157714
0.29007828 0.11288757 -0.3146268 0.19562612 -0.42447317 0.2015615 -0.1783748 0.03599917
-0.013148626 -0.2403438 -0.17345549 0.13625345 -0.92364603 -0.047006212 -0.14877583 -0.56700283
-0.04750579 -0.37764013 -0.11763633 -0.49007165 0.20126997 1.0008525 -0.03279477 0.71848994
0.91275394 0.19930823 0.09420468 -0.0034905425 -0.0047048596 -0.07180484 0.0057375086 0.017629381
-0.21265395 0.15692653 -0.05663929 0.08251137 -0.41934863 -0.76565385 -0.14191408 0.037895013
0.23006737 -0.19842227 0.2474504 0.10773165 -0.08166844 -0.08024054 -0.019761967 -0.2609749
-0.305617 0.4058569 0.49288118 0.109483525 0.07057938 0.17685676 -0.12797852 -0.1078242
0.04229819 0.07537864 -0.25679109 0.10124223 -0.59394795 -0.02188591 -0.018336838 -0.37427878
-0.44093433 -0.5430763 -0.101164065 -0.3292562 0.05611373 0.8623709 0.041371744 0.17779978
0.9258915 0.05680757 0.086529166 0.020252159 0.10026352 -0.1199587 -0.011870163 0.19764543
0.072343886 0.06949747 0.18831645 0.041336667 -0.10732125 -0.09177294 0.2166392 0.15406391
0.2272872 -0.35569263 0.16694324 -0.19871753 0.105567 0.045741387 -0.123226106 0.0069170147
-0.03880168 0.1815794 0.10540756 -0.12733477 -0.010146474 0.068470426 0.30747658 -0.07612592
0.015012341 0.079014026 -0.011616637 -0.16888332 -0.05589319 -0.15275209 0.059372585 0.081724405
-0.1985121 0.016816985 -0.15839982 -0.24655135 0.15074457 0.08167701 -0.05591423 -0.09285022
0.098522864 -0.087158225 0.061533224 -0.063048206 -0.12829687 -0.18123493 0.085787654 0.051412906
0.37960556 0.34625497 0.09363685 0.16475412 -0.2561458 -0.4366474 -0.01999832 -0.15734556
0.3214459 -0.4676497 0.13675806 0.018015772 -0.1466386 -0.022213666 -0.067289785 -0.01920918
-0.022251531 0.3067111 0.41864184 0.043628912 0.14747988 0.05025719 0.2452135 -0.10209086
0.40044922 0.91373616 -0.07453302 0.17894638 0.66443187 -0.2082787 0.019502444 -0.08361293
0.3623584 -1.1111423 0.7498627 -0.90061074 0.056663778 -0.36562595 -0.075589076 -0.9233866
-0.49128664 0.29224783 0.9171463 -0.061621144 0.3196064 -0.17897874 0.49801168 -0.05166864
-0.2296425 -0.25374603 -0.6660712 -0.38305306 -0.58726835 -0.021759797 -0.03281603 -0.5684957
-0.33332142 -0.1874823 0.0577454 -0.5117094 0.14221853 -0.46077636 0.19191435 -0.16637379
-0.17341404 -0.28640005 -0.48753914 -0.080164 -0.4534836 0.18455566 0.08648735 -0.1256544
-0.123401895 -0.6142527 -0.3309374 -0.2807744 -0.6780778 0.14508577 -0.1827466 -0.5600046
-0.4693186 -0.08799869 -0.0015421731 -0.49393153 0.011313736 -0.5795501 -0.15072212 -0.46728444
-0.15197465 -0.45355457 -0.7655765 0.2025837 -0.41720182 -0.14519918 0.18064848 -0.168983
0.36444655 0.17914467 -0.2329352 0.18947616 -0.21413279 -0.08802982 0.16799924 -0.002905256
0.33702135 -0.4413164 0.20491302 -0.43447283 -0.16141447 -0.11586891 -0.0143291745 -0.25269586

layer_stack.0.layer_stack.2.bias f4 [24]
00000000: a2b6 683f 92e8 9cbe 897d e5be e832 0bbf
00000010: f608 53be 1320 7ebe 0aab 1bbf d128 d53c
00000020: 14e9 8d3d a5d7 993d 5f36 853d 75fd 98bd
00000030: 5d97 94bc 3450 cebd 4b20 5abd ce1c 57be
00000040: d5f2 843f 4ba8 243f 06da 363d b14c 8d3e
00000050: e555 733e 37e6 a4be 1154 b2be 86e9 0bbe
0.90903676 -0.30646187 -0.44822338 -0.5437455 -0.20608887 -0.24816923 -0.6080786 0.02602044
0.06929222 0.07511834 0.06504511 -0.07470218 -0.018138582 -0.10073891 -0.053253453 -0.21007082
1.0386606 0.64319295 0.044641517 0.27597573 0.23763235 -0.3220689 -0.34829763 -0.13663301

layer_stack.0.layer_stack.4.weight f4 [24, 24, 1, 1]
00000000: 560b 96bf 71c0 01be 718a 38be dbc8 60bf
00000010: 6b11 bc3c 623f 48be 1d35 78be 463d b5bf
00000020: f0fa 3abd 9f2b 11bd 4066 35bf cd9f bd3d
00000030: a80c afbd cd68 24bd df73 8b3e 1e82 80bd
00000040: 494b e73e bfe2 ca3c 676c 7bbd 6395 74be
00000050: fa75 693f 815a 75be b317 99be 06d9 7ebf
00000060: fdfb 33be a158 4c3e c682 19be 294e 94bd
00000070: f23f fb3d f29a cc3d 3414 cf3c bc44 31be
00000080: 25d4 33bb 642e 79bd 7702 7ebc 5c9b d93c
00000090: 6e89 96bc 1f85 2fbe 3202 f8bd ad4e 04be
000000a0: e17f 60be a9b6 cfbe 19c6 f2bd 8284 abbe
000000b0: 2024 a33d 6235 0d3e 67f4 96bd 9436 f6bd
000000c0: 1002 f7bd b2ae 463e b562 e0bd 1823 e9bc
000000d0: e334 29bd 58b9 333e 235f a7be 5587 92be
000000e0: d783 c53d 7bf2 853e b035 b83d 036c b53d
000000f0: 00e7 d13d 0299 90be b101 923e dacc ed3b
00000100: a2b7 7ebe 6090 b3bd d4ee fc3c e328 0ebe
00000110: f210 1cbb 63cc afbe 3b9a 98bd 2244 a5be
00000120: 0d69 8bbf 6640 a0be 8539 b73e 165c b73b
00000130: 44e0 3f3d a11c 443e e257 b43d bba4 873f
00000140: 076d 9e3e 8cfd 243c 3135 ad3e 9311 753e
00000150: 3768 09bc 4267 a93e 30f1 853d b54f 25be
00000160: a68e a3bf 8c58 37bf 0e21 d43e fa2a d7be
00000170: 94e1 84be 92c5 843e 5d73 d53d e590 f1be
00000180: ba6e 9cbd 3c8b 04be 0f4b 95bd b09c 47be
00000190: d8d2 383e 2ba9 63bd 9b3b 72bd a563 903c
000001a0: fc8d 56bd 2d32 abbd e120 7bbe b61d f7bc
000001b0: fe5a a9bd 71bd 4fbe 6c5c 0ebd c152 253e
000001c0: f62a 4fbd 72c9 46be 5b0a 0ebe eaa6 5fbe
000001d0: 3282 20bc e772 f5bc d65a 33be 9cf9 4c3b
000001e0: bac3 083e 2200 0abe 34a6 0c3e 3dda dcbd
000001f0: 13de e2bd 5d0d 853c 2224 02be 1b95 96bd
00000200: 90d7 cbbc 98e5 19bd 1bc7 92bd 6c84 07bc
00000210: 4936 b9bd 4e8a 7cbd d921 393c 57b0 58bd
00000220: f8ff e73d 1f28 71bd 5666 cbbd c049 2d3e
00000230: fb07 003e 12a4 553c d5da 503e 4db2 26be
00000240: 04d7 20be e365 b33d c6dc 94bd ef42 e1be
00000250: 3a55 483e 6e53 423e 19fd 0f3d 25dc 8abe
00000260: 933c 4abd e6c5 29be ad8a dbbd a45a 65bd
00000270: b7c5 343e 651a 833d 8d3f 9d3d f519 3fbe
00000280: 5bc3 e6bd 71b9 b7be aa3f 1ebe 11f2 ffbe
00000290: 2cfb 48be ecf7 0b3c 825a 01bd 3d41 5d3f
000002a0: 186d c6bd 376c 44bc 7bbd efbd 7074 12be
000002b0: 96f8 09bd 9b26 8b3d 727c babe 1c07 92be
000002c0: 63ac 513d b1d3 65be a133 03be b47b 91bd
000002d0: a5e8 0eba 8983 34be f1c1 ecbd a5c0 3bbe
000002e0: c697 09bd 5715 09be 66eb babd ce8d 43be
000002f0: 672f 2e3e 0a3a a73d 29af 62be 1300 403d
00000300: 0780 7bbe e3ed 923d ac39 a0be 37d7 983d
00000310: 9a63 1fbd c576 a3bd 39ea 90be 94da 83be
00000320: 673b cfbe 4935 4ebf 68f8 0cbe 8d32 443d
00000330: f1f9 d9be b7ab debd 0f1d ee3d 07d1 ecbd
00000340: f30c 7dbe 9aab 8dbe f8c3 24be add5 6fbe
00000350: 6c24 b03d 53f9 89be 622f 51bf 96d2 82be
00000360: ed0f ebbe 6fd9 74be 2d27 08be d437 aabe
00000370: 5ae7 6dbe 7066 4d3e f795 80be bb0d 0a3f
00000380: 8d7a 693d c0f2 843e 78f8 09bf f69d ccbc
00000390: 2f0b 13be 9899 bd3d 4283 4b3e 666f 25bc
000003a0: 00c7 4fbf f353 b4be 28ca 0f3e 28b1 813f
000003b0: 3316 053f 6b91 70be ab7e 48be 03c1 57be
000003c0: ffab b5bd bd83 22be 2321 a8be c620 9abe
000003d0: a2fb 063e f017 ee3d 13d4 fcbd 8379 46bf
000003e0: 9a0a 233e c641 a03e cd45 d5be dca8 edbd
000003f0: 6985 9b3e 0704 b2bd 2f37 c03e 95d1 0c3e
-1.172221 -0.12671067 -0.18021561 -0.8780648 0.022957524 -0.19555429 -0.24239011 -1.4159324
-0.04564947 -0.03544199 -0.70859146 0.09258995 -0.08547336 -0.04013901 0.2723684 -0.06274818
0.45174626 0.024766324 -0.061382677 -0.23885112 0.9119564 -0.23960306 -0.29900894 -0.995499
-0.17576595 0.19955684 -0.14991292 -0.0724147 0.12268056 0.09990491 0.025278188 -0.17311376
-0.002743968 -0.060835257 -0.015503517 0.026563339 -0.018376078 -0.17140625 -0.12109794 -0.12920637
-0.21923782 -0.40569046 -0.118541904 -0.33499533 0.07965875 0.13789895 -0.07370835 -0.12022129
-0.1206094 0.19402578 -0.10956327 -0.028459117 -0.041310202 0.17551172 -0.3268977 -0.28618875
0.09644287 0.2616156 0.08994615 0.08858492 0.10249138 -0.28241736 0.28516915 0.007257086
-0.24874738 -0.08767772 0.0308756 -0.13882785 -0.002381381 -0.34335622 -0.07451292 -0.32278544
-1.0891434 -0.31299132 0.3578607 0.0055956943 0.046844736 0.19151546 0.08805825 1.0597147
0.30942556 0.010070216 0.33829644 0.23932485 -0.008386663 0.33086592 0.065401435 -0.16143687
-1.2777908 -0.71619487 0.4143147 -0.42024976 -0.25953352 0.25931984 0.104223944 -0.47180858
-0.07638307 -0.12943739 -0.07289707 -0.19493365 0.1804918 -0.055581253 -0.059138875 0.01762564
-0.0523815 -0.0835918 -0.24524261 -0.030165534 -0.082693085 -0.2028711 -0.03475611 0.1614485
-0.05057808 -0.19412783 -0.13871138 -0.21841016 -0.009796666 -0.029962016 -0.1751512 0.0031276708
0.13355914 -0.13476613 0.13735276 -0.10783813 -0.110775135 0.016241724 -0.12709096 -0.07352658
-0.024883062 -0.037572473 -0.071668826 -0.008271318 -0.09043557 -0.061655335 0.011299574 -0.052902546
0.11328119 -0.058876153 -0.099316284 0.16922665 0.12503044 0.013039606 0.20395978 -0.16278954
-0.15707022 0.08759668 -0.07268672 -0.4399638 0.19563761 0.18977138 0.035153482 -0.27121082
-0.049374174 -0.16579399 -0.1071981 -0.055994645 0.17653547 0.06401519 0.07678137 -0.18662246
-0.1126773 -0.35883668 -0.15453973 -0.4998937 -0.19627064 0.008542996 -0.031580456 0.8642767
-0.09688777 -0.011988691 -0.117060624 -0.1430223 -0.033684336 0.06794473 -0.3642307 -0.2852105
0.05118979 -0.22444035 -0.12812664 -0.071036726 -0.0005451537 -0.17628302 -0.11560429 -0.18335207
-0.033592008 -0.13387047 -0.0912693 -0.19097063 0.1701027 0.08165367 -0.22137131 0.04687507
-0.24560557 0.071742795 -0.31294 0.07462924 -0.038913347 -0.07981638 -0.28303698 -0.257527
-0.40475008 -0.80550057 -0.13766634 0.04789977 -0.42573503 -0.10872596 0.11626636 -0.11563306
-0.24711971 -0.27669984 -0.16090381 -0.23421355 0.08600697 -0.26948032 -0.81712925 -0.2555129
-0.45910588 -0.2391107 -0.13296194 -0.33245718 -0.23232785 0.20058608 -0.25114414 0.539272
0.05700164 0.25966454 -0.5389476 -0.024977665 -0.14359735 0.09257811 0.1987429 -0.01009736
-0.81163025 -0.35220298 0.1404196 1.0132189 0.51987 -0.23492973 -0.1957957 -0.21069722
-0.08870696 -0.15870567 -0.3283778 -0.3010313 0.13181928 0.116256595 -0.123451374 -0.7752916
0.15922013 0.3130018 -0.41654816 -0.11604473 0.3037522 -0.086921744 0.37542102 0.13751824

layer_stack.0.layer_stack.4.bias f4 [24]
00000000: 8d46 703f 27c5 173f df3c 153e 6f42 573f
00000010: 7c72 b0be 7f02 96be f90d 703e cdcc 80be
00000020: fff8 19be 9dd2 98be cdbe b43f b5ec b3be
00000030: 979a af3d 3bd2 06bf 6d03 9e3f 29ff 6b3f
00000040: ac3c 3dbf bb18 cbbc 5858 20be 0196 2ebe
00000050: e4ae f8bd 1bae f03b 4fb7 c7bc 2271 70be
0.9385765 0.59285206 0.14574002 0.84085745 -0.34462345 -0.2929878 0.2344283 -0.2515625
-0.1503639 -0.29848185 1.4120728 -0.3514153 0.085744075 -0.52664536 1.2344795 0.9218622
-0.739207 -0.024792066 -0.156587 -0.1704941 -0.12142733 0.0073449737 -0.0243794 -0.23480657

layer_stack.2.layer_stack.0.weight f4 [10, 24, 3, 3]
00000000: 22eb 7b3f 3cdf f43e a634 0e3f 254a 203f
00000010: f50e 44bf 03ba 6ebf 5cba 463f eb54 183e
00000020: b186 ad3a ce39 b23e 6dec 603e fe6f d1ba
00000030: 7586 c63e 1699 92be f716 4abc 9411 e9bd
00000040: 5069 c7bd 3b56 5abe 3ac4 b03d bf11 c6bd
00000050: 013e 343e d09d 1f3e e570 3dbe 10e4 86bd
00000060: 1833 003e 5370 873d 8349 7fbd 024d d43f
00000070: 817c 1d3f 1aba b9bf a3b6 c03e 7ea1 13c0
00000080: 3dd3 6fbf bdbc 4dbf b320 96bf 325a 9dbf
00000090: 53cb 33bd 7701 4bbe 88eb 63be 7f52 14bc
000000a0: 8fd9 20be f377 94bb 7369 3d3d c528 753c
000000b0: ad91 273e e7bb 6dbd c12b 143d 5855 5bbd
000000c0: 62f2 4c3d 2e33 003d fd82 82bd bb5e 243d
000000d0: 47aa 063d 18fa 3fbd 5a4e 84be 6665 3e3e
000000e0: cc14 253f 29b0 1cbf 782c cd3d 0322 823e
000000f0: a521 96be 199d 953e 0ffa ff3e 60a4 073b
00000100: 4b6c 0bbe 0ee4 71be ed7b b0bc 667c 17be
00000110: 6fc5 553d db4a 113e a4e5 ee3c 27af 293e
00000120: 0e7b cf3e a245 08be c589 47bf acbf 403d
00000130: a9f3 81be 0d5b d4be 41b6 273f 8e70 873e
00000140: 74a3 363f c16c 1dbf 2bc6 06be 60ee 8cbf
00000150: e74f 9abe bd8d 32be e47b e4be 9147 00bf
00000160: dc23 0cbf ac21 0ebf 3917 563f fa27 4e3e
00000170: 4c2b e9bd 83da 493f dc50 27bf ff60 c6be
00000180: 78af dbbe 2602 54be 9f2c b9be c1f7 2abe
00000190: 8662 86be 15ce 013e d6ca abbf ac9b 29bf
000001a0: 1e6e c7bd 55ca 05bf e7ba b13d 2538 f23e
000001b0: 8f2e 18be 66a6 d8be c4af 473e 8422 4ebd
000001c0: 77a2 78bf 3b00 f3be 2edb 99bd 1af0 a0be
000001d0: 53f0 e4be 7cb8 a3be ba08 90be c269 2abc
000001e0: 881d 72be 063a 92be 9151 fabc 356d fa3c
000001f0: 2259 2bbe 2dd0 903d fba2 b23f fdc4 e83e
00000200: ebdf d4be 3266 643f 0195 c4bf 88a1 01bf
00000210: 2f1c 22bf a765 d0be 7568 62bf acad 8bbf
00000220: 5904 0e3f 376f 9abe 1c47 c5bf f92b d6bd
00000230: acf1 05be 372b afbe 0670 843f 94b6 fb3e
00000240: 660c aabe 62f0 023f 8ac4 fd3d 0e1e ec3d
00000250: 31ba 8cbe 7978 50bf 6832 603d 149c 98be
00000260: 31cd ef3e c0b9 2ebf beed 96bd 8d2b eabe
00000270: 3b74 8bbf e907 45be 783a 3fbe fd7e 1bbf
00000280: 74be d1bd a5c0 d73d 5519 283e a490 febd
00000290: 305c a6be d155 14bc e5ba 56be a6df 19be
000002a0: f833 6c3e 6ccf 0e3d 82ac a93e f04b c2bd
000002b0: 88e0 0ebe de45 ff3d 370c a9bd 0187 a8be
000002c0: 27b2 3cbe aa67 d63b 5f88 30be e391 09be
000002d0: 9786 083d e404 393d fdeb 473d 2b37 bc3b
000002e0: f78d eebc 56f8 5abc 2f76 e23c 61cb 1d3d
000002f0: 2bab 7cbc 730e 09be cec0 563d c70c 32be
00000300: 9b6d 85bd fe97 343d 7996 fc3c 1788 73bc
00000310: 7ce1 f03b d15e 54ba f1e5 c5be 66f4 d7bd
00000320: 42f5 583e a17c babe 25ba f3be fddf 41be
00000330: 11b3 5dbd 2292 2abe 0746 d2bb ac6d 96bd
00000340: 9779 d2bd e9a6 50bc fcba b3bd e6fb b3bd
00000350: c63b f73c da01 603a 4b8b 9bbd 42d8 a93d
00000360: cebf 8c3e a97b 963e d02a 0cbf 4f74 6a3e
00000370: 0f97 3f3f 507e e93d 8ccb 903e 080f 8dbd
00000380: 5f37 dcbe a72e b73e 7fa5 1b3e 727d 36be
00000390: 7f5d 94bc 365c 4bbe dbb8 f0bd 2ec6 e7bd
000003a0: 9e24 993d 9ff5 00be ef2f f63c 469b a93d
000003b0: 57bf 063e 57af 1d3d 75ce 08be 2b73 533c
000003c0: ec46 3abd 4143 28be 06e4 a53e 3b46 d83f
000003d0: 2994 123f 9d38 30bf 1809 36be 63b9 9abf
000003e0: 7c79 c7bf 8c58 29bf 580f 493f 68c4 403f
000003f0: 61a3 adbd b7ad e9bd e34f d93c fbd7 0fbd
0.9840566 0.47826564 0.55549085 0.62613136 -0.7658532 -0.9325258 0.7762811 0.14876144
0.0013238994 0.34809726 0.2196519 -0.0015978811 0.38774458 -0.2863242 -0.012334577 -0.11380306
-0.09736884 -0.21321957 0.08631177 -0.096713535 0.17601778 0.15587544 -0.18500097 -0.06586468
0.1251949 0.06613221 -0.062325966 1.6586001 0.615181 -1.4509919 0.3763934 -2.3067317
-0.936817 -0.80366117 -1.1728729 -1.229315 -0.043895077 -0.19824778 -0.22257817 -0.009052872
-0.15707992 -0.0045309006 0.046243142 0.0149633335 0.16364165 -0.058040526 0.03617454 -0.053548187
0.05003584 0.03129881 -0.0637264 0.040129405 0.032877233 -0.046869367 -0.25841027 0.18593368
0.6448486 -0.612063 0.10018247 0.25416574 -0.29322544 0.29221418 0.49995467 0.002069734
-0.13615529 -0.23622152 -0.021543467 -0.14793548 0.05219024 0.14188711 0.029162236 0.16570722
0.4052357 -0.13307813 -0.77944595 0.047057793 -0.2538121 -0.41475716 0.6551247 0.2645306
0.7134316 -0.6149407 -0.13161533 -1.1010246 -0.30139086 -0.17436881 -0.4462577 -0.501092
-0.5474222 -0.5552013 0.83629185 0.20132437 -0.11385211 0.7884905 -0.65357757 -0.38745877
-0.4290731 -0.20703945 -0.36166856 -0.16696073 -0.26247042 0.1267627 -1.3421276 -0.6625316
-0.097378 -0.5226186 0.08678227 0.4730846 -0.1486151 -0.42314452 0.19500643 -0.050325885
-0.971229 -0.47461113 -0.07512508 -0.31433183 -0.44714603 -0.31976688 -0.28131658 -0.010401191
-0.23644078 -0.28559893 -0.030556472 0.030569652 -0.1673322 0.070709564 1.3955988 0.4546279
-0.41577086 0.8921844 -1.5357972 -0.506371 -0.63324255 -0.40702555 -0.8844064 -1.0912375
0.55475384 -0.30162975 -1.5412326 -0.10457606 -0.13080472 -0.34212658 1.0346687 0.49162734
-0.33212584 0.51148045 0.123910025 0.1152917 -0.27485803 -0.81433827 0.05473557 -0.29806578
0.46836236 -0.6825218 -0.073695645 -0.45736352 -1.0894846 -0.19241299 -0.18674648 -0.60740644
-0.10241404 0.10534791 0.16415913 -0.12429932 -0.32492208 -0.009053663 -0.20969732 -0.15026721
0.230667 0.03486578 0.33139426 -0.0948714 -0.1395284 0.12464498 -0.08254283 -0.329155
-0.18427335 0.0065431194 -0.17239521 -0.13434558 0.03333148 0.04517068 0.04880904 0.005743881
-0.029120428 -0.013364872 0.027644245 0.038524035 -0.015421669 -0.13384418 0.052429967 -0.17387687
-0.06515046 0.044090264 0.03083347 -0.014863989 0.0073510986 -0.0008101287 -0.38651994 -0.10544662
0.21187308 -0.3642321 -0.47602955 -0.18933101 -0.05412585 -0.16657308 -0.0064170393 -0.07345137
-0.10277098 -0.012735107 -0.08775899 -0.0878828 0.03017987 0.0008545198 -0.075949274 0.08293201
0.27490085 0.2939122 -0.54752827 0.2289593 0.7483987 0.11401045 0.28280294 -0.068876326
-0.43010995 0.3577778 0.1519985 -0.17821291 -0.018110989 -0.19859394 -0.117540084 -0.11317097
0.07477687 -0.12593697 0.030052153 0.08281569 0.13158928 0.038497295 -0.13360007 0.012905876
-0.045477793 -0.16431905 0.3240053 1.6896433 0.57257324 -0.68836385 -0.17776906 -1.2087826
-1.5583949 -0.66150737 0.7853904 0.7529969 -0.08478428 -0.114100866 0.02652735 -0.035118084

layer_stack.2.layer_stack.0.bias f4 [10]
00000000: 49ce 013d a3fa 4c3c d6fc 1dbf 2cf0 e0be
00000010: e7ea b8bd 5b1b 3abe 03b5 5cbe ebda 783d
00000020: 48f5 78be 33b8 a73f
0.03169087 0.012510928 -0.6171392 -0.43933237 -0.09029179 -0.18174498 -0.21553425 0.06075565
-0.24312317 1.3103088

layer_stack.2.layer_stack.2.weight f4 [10, 10, 1, 1]
00000000: b89f 4240 a595 b4bc 7e93 693f 5cbb 9b3f
00000010: 0da9 e1bf cf45 9cbf 5c83 8abf 4f89 283f
00000020: 57cc 46bf 0664 0ac0 0395 e6bd 8aae d4be
00000030: ffe2 5fbf 81e2 2dbe 17df b93f 4d8b 9cbf
00000040: 82b3 1d3e 80a3 573d 500c 5abf ff9d 81c0
00000050: dac0 0abd 4227 a5bf 2a20 e0bd b7f4 a23f
00000060: 260d ef3e cd6d 42bf 0bf6 1ec0 1d91 b63e
00000070: a35a fcbe 3b5c cb3f d2a9 c7bf 10b6 36c0
00000080: fbea b3bf 8269 403f d8fb 14bf a4f8 693f
00000090: eea3 57bf 7185 e9bd 94b5 003d 7fd1 91bf
000000a0: e591 923e c749 e53f 2a16 1440 5cb0 36bf
000000b0: e383 55bd 29d8 77c0 46c6 e9bf 66f7 5f3f
000000c0: 4111 8bbd c74d 35c0 9f5a 903f 122b 8bbf
000000d0: 545c d2bf 22cc 853f 5e58 ccbd 0feb 8cbf
000000e0: 45e0 a93f e9f4 dabd 91ed 01c0 8fc7 77bf
000000f0: 7715 d4bf cb50 2740 5f85 b5bd 98bc 5fbe
00000100: 5628 87be 855e 4cbf 078b 343e aa88 75bf
00000110: 720e a2be 0fea 553e 0111 65bf beb5 9a3d
00000120: 08af 3fbf aeed 70bf 21ff 7a3f a186 673f
00000130: 35fc 81bf 5df2 a4bd a610 a4be aca7 96bf
00000140: fe6b 1a3e 5ba6 97bf 90e5 efbe 03ea be3b
00000150: 5705 ab3f 6674 0dbf f1e7 9abf 5e73 8cbd
00000160: 102f 24bd 517b e4bf 2435 7bbf 4589 2640
00000170: 58d2 9c3f 1d32 f6bf 48e5 e5be 2b4a 41bf
00000180: a2b0 263f b93b 80be b422 5e3e 19ac 18c0
3.0409985 -0.022044012 0.9124068 1.2166553 -1.7629715 -1.2208804 -1.0821338 0.65834516
-0.7765555 -2.162355 -0.112588905 -0.41539413 -0.87455744 -0.16980936 1.4521207 -1.2230011
0.15400508 0.05264616 -0.8517504 -4.0505366 -0.033875324 -1.2902606 -0.10943635 1.2730931
0.4668972 -0.7594879 -2.4837673 0.35657588 -0.492879 1.5887522 -1.55987 -2.8548622
-1.4056085 0.7516099 -0.58196783 0.9139502 -0.8423451 -0.11402405 0.031423166 -1.1392058
0.28626934 1.791314 2.3138528 -0.71362853 -0.05212773 -3.8725684 -1.8263633 0.87486875
-0.067904 -2.8328722 1.1277655 -1.0872519 -1.6434426 1.0452921 -0.09977792 -1.1009234
1.3271567 -0.10691244 -2.030125 -0.9678888 -1.656905 2.6143062 -0.08863329 -0.21849287
-0.2639796 -0.79831725 0.1763116 -0.9591166 -0.31651646 0.20890068 -0.8947907 0.07554196
-0.7487645 -0.9411267 0.98045546 0.904398 -1.0155092 -0.080540396 -0.32043952 -1.1769919
0.15080258 -1.1847643 -0.4685483 0.005826236 1.3361005 -0.55255735 -1.2102033 -0.06857942
-0.040083945 -1.7850133 -0.9812796 2.6021283 1.2251692 -1.9234043 -0.4490149 -0.75503796
0.6511327 -0.25045565 0.21692926 -2.385504

layer_stack.2.layer_stack.2.bias f4 [10]
00000000: 022a 08bd f4fd 31bf e1ce 873f 17fb 62bf
00000010: 9cf4 0c3f 9753 01bf 3a89 11bf 49b8 aebd
00000020: 019f fcbd c744 743d
-0.033243187 -0.69528127 1.061001 -0.8866438 0.55060744 -0.5051817 -0.56850016 -0.08531243
-0.12335015 0.059635904

layer_stack.2.layer_stack.4.weight f4 [10, 10, 1, 1]
00000000: 62b1 833f 9013 763e 8a40 7c40 af4e 0140
00000010: 9c90 3cc0 bac6 813e ee56 d23f 681d ae3e
00000020: 0b01 8abe 4595 843f cfea 0abe 1c83 24bd
00000030: 182c e2be 20a8 723f 5049 05bf d195 6240
00000040: 8348 57be 2b3e 653f c1f0 313f cf13 2ec0
00000050: 0476 d63f 668f 66bf 4b16 3a40 db45 c63d
00000060: 8510 e43f bb92 60bf c46b e93f 8022 e0bf
00000070: a196 92bf c613 29c0 3867 f13f 10ff b73f
00000080: 4b54 2640 8d32 cf3f 8856 51bf 5e73 6e3f
00000090: 8c68 8fbf 1d8f 853f 5652 b5bf e417 31bf
000000a0: 60ee f73f 7f95 d53e a34f 5d40 5397 2dbf
000000b0: 8914 923f e09e b73e 4845 eebf 5627 5d3f
000000c0: 17f6 6ebf a838 1a3f 8c12 d33f 9e2d d5be
000000d0: 69bb 8ebe 7cc8 943f ce42 6abe c703 28bf
000000e0: 4fdd be3f f233 053f 09fe cabf 9533 2a40
000000f0: a7be 733f 62ef ee3e bac4 8440 693a 6e3f
00000100: d160 76bf ef63 8a3e 6c05 33bf 6768 40be
00000110: 6bc5 2ebf 1889 a4be e5eb 6140 7c6a 113f
00000120: 5315 bebd bae2 ba3f 94e3 1a40 3cad 8cc0
00000130: 142d 7c3f 6042 553f 117c db3e 972d 04bf
00000140: ec21 40c0 038e a5bd 46ca 5640 694f fe3f
00000150: 4468 7b40 c0ed efbc 32b8 2f3f 0216 6dbf
00000160: fa47 1b3f c12f 753f 9e85 2440 47b6 aabe
00000170: 6449 2ac0 a234 f3bd 548c 6240 39c4 ea3d
00000180: d0af fdbd 35c4 aebf 7bd4 2ebf 89a7 953f
1.0288508 0.240309 3.9414392 2.0204275 -2.9463263 0.2534693 1.6432779 0.3400681
-0.2695392 1.0358053 -0.13566135 -0.0401641 -0.44174266 0.9478779 -0.5206499 3.540394
-0.21023755 0.89547986 0.69507986 -2.719959 1.6754766 -0.9006256 2.9076107 0.096812926
1.7817541 -0.8772389 1.8236012 -1.7510529 -1.1452218 -2.6418319 1.8859625 1.4374714
2.5988948 1.6187302 -0.8177266 0.93144786 -1.120378 1.04343 -1.4165752 -0.6917708
1.9369621 0.4171562 3.4579856 -0.6780903 1.1412517 0.358634 -1.8614893 0.86388147
-0.93344253 0.602427 1.6490035 -0.41636366 -0.27877358 1.1623683 -0.22877046 -0.65630764
1.4911288 0.5203239 -1.5858775 2.6593983 0.9521279 0.4666701 4.1490145 0.93057877
-0.9624148 0.27029368 -0.6993015 -0.18789826 -0.68269986 -0.32135844 3.5300229 0.5680311
-0.09281411 1.4600441 2.4201403 -4.396147 0.98506284 0.83304405 0.42868093 -0.51632065
-3.0020704 -0.08083727 3.3560958 1.9867984 3.9282389 -0.029288173 0.68640435 -0.92611706
0.606567 0.9577599 2.5706553 -0.33342192 -2.6607294 -0.11875273 3.539815 0.11463208
-0.12387049 -1.3653628 -0.6829297 1.1691753

layer_stack.2.layer_stack.4.bias f4 [10]
00000000: fdc0 2dc0 1ad8 54bf 3bd4 8540 3c16 f33e
00000010: 049b 6fbe 1051 d63e f11e bd3f a658 5c3d
00000020: 3734 553f 419e 3ebf
-2.714904 -0.83142245 4.182157 0.474779 -0.23398978 0.4185872 1.4775068 0.05379548
0.832828 -0.74460226
