lotsaconvs/nets/big.pt (torch, 795131 bytes, 14 tensors)

layer_stack.0.layer_stack.0.weight f4 [24, 1, 3, 3]
00000000: 8304 9ebd 38e0 923d b968 2fbe fbf4 4fbe
00000010: d1f9 02be bc29 1f3d 3d43 933e cdc7 91be
00000020: b1eb a53d b917 203e 9be5 603c cef6 8cbd
00000030: 24a2 31be 6330 623e 2c64 b23c 4857 f53d
00000040: 5e6a 5cbe 1b5a a3be 101d 17be 0787 9ebe
00000050: 62ec 67be 593d 46be 3e23 a1be f4f8 fabd
00000060: 33ec 493e 2c6f 2a3e b976 0e3e b413 5d3c
00000070: a28c a1be 45cd a73e f49e 133e f09a 8dbe
00000080: 2849 ecbd 7b1e 80be 5390 433e b334 993d
00000090: 585b d3bd 35ff 5f3e 5a83 2abe 5e6d 27bd
000000a0: 5397 0ebe a9ad 6ebe b889 51bb f795 033e
000000b0: 9db3 b1bd 51fc 583e 2332 12be 6311 9c3d
000000c0: 2568 c93d 08dc 5ebc 77b3 253e 9ba5 d03c
000000d0: 0f61 ac3d 9edf 4ebd 1775 22be d7e5 913e
000000e0: d943 863e e8bf 93be 506d ab3e ba4b 4fbe
000000f0: c43d 103e 299f f1bd 2d3f 573e 5bb0 183e
00000100: 85ae ad3c d815 a4b7 3d3e 453e 8536 6a3e
00000110: b8a3 3c3e 7255 8abe 9d34 b3bd ddd4 6b3b
00000120: d738 93bd 0693 58be 3b3a 7cbe 7c9e 04bd
00000130: ce53 ab3d b1af 73be 487b 0b3e 3a54 fb3d
00000140: 9fb0 983e f0fa b13d 0735 8cbe d7d4 15be
00000150: 33f9 c83c d808 07bd 55a7 9abe 9b26 a5be
00000160: 82f0 a73e 95ea 6e3e bbba e9bd 56ca ae3e
00000170: f845 8f3e e5ea d9bb 56d7 9cbe c2f3 a1be
00000180: e772 823e 948f 813e 4a6f 2cbe 24f1 5e3e
00000190: 2941 653e e7bb 943e c0b9 a53e ecb2 ac3e
000001a0: 1fa4 7d3e 1c0c 8dbe 4626 2c3c 04c5 05be
000001b0: 6a5d 92be eb50 74be 4a10 efbd 22fa 163e
000001c0: 5c77 ab37 a09a 073e 69b6 bdbd c520 5abe
000001d0: 7318 96be c467 9d3e b225 1f3e 4ad3 a1be
000001e0: e2d8 4ebe e9cd adbb b56b abbd d92f 46be
000001f0: d44b d13c 8da2 91be f78e 39be 0241 4b3e
00000200: 613f 18be 201f 80be 0353 843e e7d7 243e
00000210: b17c 3c3d e764 54bd 41ba c1bc 1341 2b3e
00000220: 11c5 a6be e4b1 86be 3074 81be 8d55 13ba
00000230: 5ee9 40bd d541 643e 4102 c6bd 691e 3ebe
00000240: 29ea 893d 145b 6d3e f2bb 5bbd 641d f5bb
00000250: 313b 6f3e 3f21 853d b64d c83d 85cc 5a3e
00000260: 17b7 7ebe 2f6c 19be 4775 a1be 9e15 393e
00000270: 9d80 f33b 6765 3d3e d72f 33bd 0529 96bd
00000280: f8f6 31be 16ec 03be fd35 fc3b 455c 57bd
00000290: 92da b33e 1c24 5fbe 6d9f e1bd f14b b73e
000002a0: 275f a03c 5bc7 4bbd 12a5 473e 8925 98bd
000002b0: 618b bcbd c95a a6be b295 60be c26f b1bd
000002c0: 4470 b13d 569c a0be ce9a 463e 6fda 70be
000002d0: 1ae4 7ebe 1ab7 903c 23fa fcbc 0552 003e
000002e0: 6ccd 9e3e e587 20be c6c4 35bd 1680 1f3a
000002f0: d0df f8bb fc95 863b 097e 39be 0886 833e
00000300: 665a e83d c167 80bd 4b40 5f3e 1048 f7bb
00000310: 81b0 803e 6b41 903d 016b 33bd 4b32 563e
00000320: 72b6 813e 4f32 99be 8593 a13e 3b39 843e
00000330: 3f28 723e 8cf6 7fbe 5f01 a13e 1dfb 8cbe
00000340: 7911 89bd 2b1b 05be 8ae2 8e3e 0dfd 36be
00000350: 53b5 9b3e cb03 a23e ea1d a43e fe5a 5fbe
-0.07715704 0.071716726 -0.17129792 -0.20308296 -0.1279061 0.03885816 0.28762236 -0.28472748
0.08101595 0.1563405 0.013726617 -0.06883012 -0.17347008 0.2208877 0.021776281 0.11979538
-0.21524951 -0.31904683 -0.1475718 -0.30962393 -0.22648767 -0.1935934 -0.314722 -0.12254515
0.19719009 0.16643971 0.13912477 0.013493467 -0.31552607 0.32773796 0.14416105 -0.2765727
-0.11537391 -0.25023255 0.19098024 0.07480755 -0.10320157 0.21874698 -0.16651669 -0.040875785
-0.13924913 -0.23308434 -0.0031972956 0.12850176 -0.08676837 0.21190001 -0.14276938 0.07620504
0.09834317 -0.013602264 0.16181742 0.025469592 0.0841695 -0.050506227 -0.15864979 0.28495666
0.2622364 -0.2885735 0.33481836 -0.20243731 0.14086062 -0.117979355 0.21020193 0.14911024
0.021201381 -1.9560495e-05 0.19262023 0.2287236 0.18421829 -0.27018315 -0.087502696 0.003598503
-0.07188576 -0.21149835 -0.24631588 -0.032377705 0.08365594 -0.2379749 0.13621247 0.12271924
0.2982225 0.08690441 -0.27384207 -0.14631973 0.02453289 -0.03296742 -0.3020579 -0.32256016
0.3280068 0.23331673 -0.11412569 0.34138745 0.2798307 -0.006650316 -0.30633038 -0.31631285
0.2547829 0.25304854 -0.16839328 0.21771675 0.22388138 0.29049608 0.32368279 0.33730257
0.24769638 -0.275483 0.010507172 -0.13063437 -0.28586894 -0.23858993 -0.11673029 0.14743856
2.044037e-05 0.13242579 -0.092633076 -0.21301563 -0.29315528 0.3074323 0.15541723 -0.31606513
-0.20199922 -0.0053040874 -0.08370153 -0.1935419 0.025548853 -0.2844433 -0.18120943 0.19849017
-0.14867927 -0.25023746 0.25844583 0.16097985 0.046017352 -0.05185404 -0.023648383 0.16724043
-0.32572225 -0.26307595 -0.25283957 -0.0005620353 -0.047097556 0.22290738 -0.09668399 -0.18566288
0.06734116 0.23179275 -0.053646035 -0.0074803103 0.23362423 0.06500482 0.09780447 0.2136708
-0.2487453 -0.14982675 -0.31534788 0.18074653 0.0074311034 0.18495713 -0.043746796 -0.073320426
-0.17379367 -0.12883028 0.0076968656 -0.05257823 0.35127693 -0.21791118 -0.11016736 0.35800126
0.019576622 -0.049750667 0.19496563 -0.07429034 -0.09206272 -0.3249114 -0.21932104 -0.08663894
0.08663991 -0.31369275 0.19394991 -0.23520826 -0.24891701 0.017665435 -0.030880993 0.12531288
0.310161 -0.1567684 -0.04437711 0.0006084455 -0.00759504 0.004107235 -0.18114485 0.25688195
0.11345367 -0.062697895 0.2180187 -0.0075464323 0.25134662 0.070437275 -0.04380322 0.20917623
0.25334507 -0.29921195 0.3155786 0.25824913 0.23648165 -0.24996394 0.3144636 -0.27535334
-0.06692786 -0.12998645 0.2790721 -0.17869969 0.30411777 0.3164352 0.32054073 -0.21812055

layer_stack.0.layer_stack.0.bias f4 [24]
00000000: cf5b 14be a06f 58be 1200 1dbe f02f 93be
00000010: 2f60 a1be 3a7a a8be 7b7c cdbc 038e 413e
00000020: 3286 9c3e dafd 333e 5943 693e ead1 78bd
00000030: e44c 8d3e 20d7 c13d d1e2 70be cec3 91be
00000040: e9e4 2dbd 7c94 a43e b6de 813b e231 86bd
00000050: 1ead 763e ce38 a93e 5493 06be 9171 f23d
-0.14488147 -0.21136332 -0.15332058 -0.2874751 -0.31518695 -0.3290575 -0.025083771 0.1890183
0.30571133 0.17577305 0.22779597 -0.060747065 0.27597725 0.0946486 -0.23524024 -0.284697
-0.042454634 0.32144535 0.003963317 -0.06552483 0.24089476 0.3305115 -0.13142139 0.11838067

layer_stack.0.layer_stack.2.weight f4 [24, 24, 3, 3]
00000000: 4aa1 8dbc 215e 523d 9e60 a1bc 4c0f 7bbd
00000010: c316 1b3c b2d2 233d 3143 57bd 25d6 873d
00000020: aabb 783b 9987 983b b57f e9bc bf20 33bd
00000030: 622c 8bbd 5444 113b b651 613d 32d9 633d
00000040: ea45 223d 46e1 6e3d f124 2dbd b6d6 a4ba
00000050: 3049 36bd 7a9f 80bd 8272 2b3d 024d 72bd
00000060: 5f89 463d 3ffe 8bbc 5c52 02bd 2422 d33c
00000070: 0ca9 903d 8418 ffbb f73a 3e3d 2a02 223c
00000080: d4da 4abd 478b 703d 9252 c43c dad2 f7bc
00000090: f361 823d d70b 363c 7b22 e93c 9847 83bd
000000a0: c7f8 19bd 7616 7b3d 918b 16bd 775c 22bd
000000b0: 23bc 6f3c bcc5 263d 8225 96bc e182 283d
000000c0: e8ac 37bd 0a46 82bc 8cf4 57bd b1c4 fabc
000000d0: beda 8dbc f5f2 3ebd a17d b5bc 7d87 5e3d
000000e0: 0829 4dbd b29e 433d 8c82 0b3d b7db 6ebd
000000f0: 12e3 86bd 2f7f 2e3d 01ae 44bd af7e 3bbd
00000100: 9023 1abd de8b 20bd 56fa e4bc 2035 703d
00000110: 0036 49bd 69bc 38bd e884 8fbc f3c9 6a3d
00000120: 6d1c 14bd dda9 693d fa6c 9b3c 5094 513d
00000130: 7868 debc dee2 123d f82e f23c 562e 84bd
00000140: 01d8 9abb 7068 7bbc 70ae 253d 9b86 353d
00000150: c268 d93c 5431 483d f87a 843d f13b 163a
00000160: 10d9 8c3c c468 e7ba 7ebc 583d 28d2 10bd
00000170: 669c 45bd a625 febb edfe c2bc 993b 653d
00000180: 3da3 5b3d e39c 6f3c c641 dc3c 64b6 04bd
00000190: 9893 9c3b 4ca4 0e3d 6848 60bd 1acc 43bd
000001a0: 884f 293d 1cc6 05bd b3c6 4fbd 7a67 4d3d
000001b0: a9e6 413d a330 aebc 8959 533c a386 593d
000001c0: 393d 153c ce1b 72bd 71d0 93bc 3819 88bd
000001d0: c59b 873d 08f8 a03c 414f 70bd 9798 2f3b
000001e0: 4fa1 04bd bc91 bfbc bba4 78bd 5324 11bd
000001f0: ba93 32bc 071f 56bd 5ecb eb3c e91c 90bb
00000200: 46e1 773d 0637 31bc 90fe 0e3c 75e0 d03c
00000210: 9efe 613d ad8b 0b3b 9e8d 6c3d 4210 efbc
00000220: e255 7fbc d68e d13c 9df8 bebb 008e ea3b
00000230: 10be c13c cb03 f83b e457 4dbd 9247 4abd
00000240: fa67 633d e45a 083c 3b08 ff3c 3898 37bd
00000250: d4c4 483d e4ef 4b3d 99cd 1dbb 1067 cb3c
00000260: a40e fc3c a6b9 7d3d 6212 eabc 9ad8 043d
00000270: 44ba 933c 8c41 62bd 7e25 a5bc 52e8 87bd
00000280: 7273 97bc 3b79 0b3d 8d1a 293d 0a6f 69bc
00000290: 9e32 663b da11 4a3d b6a2 13bd 869f 4f3d
000002a0: 7edf c9bc 74ae 923d f0ba 1dbb 9eed 633d
000002b0: c708 573c a236 383d b1fb d3bc 069f 2d3d
000002c0: 7999 82bd 864a 35bd 4525 843c 5ef0 523d
000002d0: 647c 8b3d f41b f8bc 74e9 a23c 18c3 283d
000002e0: 2587 8abb f743 583b 6de6 05bd 0d27 e23c
000002f0: 66b9 30bc 9169 f63c 7d21 3bbd 811c 18bd
00000300: 3bc0 73bc ca5c 61bc 4650 fdbc a48c af3c
00000310: 4d59 633d fbbb f2bc 2059 d2bc 6d39 6d3d
00000320: f2bd 9d3b 991e ba3c 645a 82bd 191f cfbc
00000330: 291d 353d c038 2abd 96f5 8dbd 023c 2cbd
00000340: dbe4 5e3b 67e9 233b a37f 26bd 3735 fdbc
00000350: acef 913d cb0a 263d a19a 7d3d 567e 2b3d
00000360: 31e5 04bd dafb fd3c 7e59 573d b170 e3bc
00000370: 5d69 1c3d bc36 a0bc f9a1 593d a8c9 32bc
00000380: c40d 183d bb63 673d 9653 2abd 2a69 d5ba
00000390: 583c 713b 6b56 5cbd 1de3 7bbd 41dd 303d
000003a0: 6322 3bbd 210b 323b beea 063c b7cf 3cbd
000003b0: 6049 eb3c 0383 25bc 6314 47bc b5f3 4e3c
000003c0: 86a6 553d 24c4 94bd 4d85 603d 8e11 373d
000003d0: bf02 87bd 3ae8 e73c 2146 5c3d c640 9a3c
000003e0: 149d 87bd fffd 81bd 9c8d 31bd 3a69 98bc
000003f0: a12f ed3b ddf8 513d 70b7 72bd 9bf6 253d
-0.017288823 0.0513593 -0.019699391 -0.061293885 0.009465876 0.039995857 -0.052554313 0.06632642
0.0037953653 0.0046548364 -0.028503278 -0.0437324 -0.06795575 0.002216597 0.055009566 0.055627055
0.039617456 0.058320306 -0.04227156 -0.0012576196 -0.04450339 -0.06280418 0.04185725 -0.05915547
0.04847085 -0.017089007 -0.031816825 0.025773115 0.07063493 -0.007784905 0.046442952 0.009888211
-0.049525097 0.058726575 0.023965154 -0.030251909 0.063663386 0.011111221 0.028458824 -0.0641014
-0.03759077 0.061300717 -0.036754195 -0.039638963 0.014632258 0.040715918 -0.018328432 0.04114044
-0.04484263 -0.015902538 -0.052723452 -0.030611368 -0.017316218 -0.04661842 -0.022154631 0.05432843
-0.05008796 0.047758766 0.034060046 -0.058315005 -0.06586279 0.04260176 -0.048017506 -0.04577511
-0.03763157 -0.039195888 -0.0279514 0.058644414 -0.049123764 -0.045101557 -0.01751943 0.0573215
-0.03615992 0.05704676 0.018972863 0.051166832 -0.027149424 0.03586089 0.029563412 -0.064541504
-0.0047254567 -0.015344724 0.04044956 0.044317823 0.02653921 0.048875168 0.06468767 0.0005730978
0.017193347 -0.0017655124 0.052914135 -0.03535667 -0.048244856 -0.007755953 -0.023803199 0.05596504
0.053622473 0.014624807 0.026886832 -0.032400504 0.0047783367 0.034824654 -0.054756552 -0.04780207
0.041335613 -0.032659635 -0.050726604 0.05014751 0.047339115 -0.021263426 0.012899765 0.053106915
0.009108835 -0.059108548 -0.018043729 -0.06645435 0.066215076 0.01964952 -0.058669332 0.0026793831
-0.0323804 -0.023384921 -0.060703974 -0.035435032 -0.010899479 -0.052275684 0.028783496 -0.0043979776
0.060517572 -0.010816341 0.008727685 0.025497654 0.055174462 0.002129297 0.057752244 -0.029182557
-0.015584441 0.025580805 -0.005827977 0.007158041 0.0236502 0.0075688115 -0.050132647 -0.04938466
0.05551908 0.008322451 0.031131854 -0.0448229 0.049015835 0.049789324 -0.0024078845 0.024829417
0.0307687 0.061944626 -0.028573219 0.03243313 0.018033154 -0.05523829 -0.02015948 -0.066361085
-0.018487666 0.03405116 0.041285086 -0.014247665 0.0035125385 0.04933343 -0.036043845 0.050689243
-0.024642702 0.071621805 -0.0024067722 0.05564653 0.013124651 0.044973977 -0.025876852 0.042387985
-0.06376929 -0.044260524 0.016131053 0.051498763 0.06810835 -0.030286767 0.01988671 0.04120168
-0.0042275363 0.0032999495 -0.032690454 0.027606511 -0.01078639 0.030079635 -0.045686234 -0.03713656
-0.014877374 -0.013755033 -0.030922066 0.021429367 0.055505086 -0.029630652 -0.025677264 0.057916094
0.004813903 0.022719668 -0.06364897 -0.025283383 0.044217262 -0.041558027 -0.069316074 -0.042049415
0.003401092 0.0025010945 -0.040649068 -0.030909164 0.07125792 0.040537637 0.061915044 0.04186853
-0.032445136 0.031003881 0.05257558 -0.027763696 0.03818642 -0.01955735 0.053132985 -0.010912336
0.037122503 0.056491595 -0.04158362 -0.0016281952 0.003680965 -0.053793352 -0.06149589 0.043179754
-0.04568709 0.0027167278 0.008234678 -0.04609653 0.028721511 -0.010102036 -0.012150857 0.0126313465
0.052160762 -0.07263973 0.054814626 0.044694476 -0.06592321 0.028308976 0.053777818 0.018829715
-0.06621757 -0.06347274 -0.04334794 -0.018604863 0.007238344 0.051262725 -0.05925697 0.040518384

layer_stack.0.layer_stack.2.bias f4 [24]
00000000: 20ca 063d bb8d 3fbd ed00 303d e5b2 333d
00000010: df8c dfbc 9d91 7a3d 645c 643c 53f4 453d
00000020: fd54 db3c 504c 2ebd 6672 0fbd 0f2c c13b
00000030: dd7a e5bc 7949 093c 705c 6d3d 9fd6 11bd
00000040: c845 7dbd 5762 54bd 8156 6f3d 53cd 42bd
00000050: e068 723d b8c4 7dbc 22b4 1a3b 39e5 6d3d
0.032907605 -0.046766024 0.042969633 0.04387178 -0.027288852 0.061174024 0.013938043 0.04832871
0.026773924 -0.042553246 -0.03502121 0.005895145 -0.028012687 0.008379334 0.057949483 -0.03560507
-0.061834127 -0.051851597 0.058432106 -0.047559094 0.059182048 -0.015488796 0.0023605903 0.058079932

layer_stack.1.layer_stack.0.weight f4 [48, 24, 3, 3]
00000000: a1a6 8f3b 49e0 53bd aa2d ee3c b08a f8bc
00000010: 0c64 d03c b186 f73c 9d29 4f3d e7d6 543c
00000020: 1abc 7b3d 63ed 5abc df08 263d 1c70 db3c
00000030: ba3e 053d f433 30bd ae65 3c3d 5ed2 af3c
00000040: c0b4 423d df92 f6bb 2c36 7ebd 55e7 d2bc
00000050: a44b ff3b bbd0 553d bef0 af3c 5a93 8e3d
00000060: c8e0 e0bc ed89 293d dffd 923d bef5 71bc
00000070: a862 39bd 8860 a1bc dd5c 1fbc 71f9 90bd
00000080: 3d35 1ebd f13d cc3b 8cb9 133d 3bce 6dbc
00000090: 3025 d33c ef9d 3f3b 1278 39bd 0238 1b3d
000000a0: 5ce6 91bd e766 25bd 2aee 693d f5d9 823d
000000b0: 9e93 133d b4c4 5dbd 7d94 48bc dff3 09bc
000000c0: bd9a 0c3c 264c 213d 4bfc a6bc 64d8 f53c
000000d0: 7923 59bd 4da1 eabb c415 42bb 6d81 ce3c
000000e0: aadf a73c fc4c 5f3d b950 863d f71e 3f3d
000000f0: aaae 71bd fe7c 723c 9b2e 41bd 2603 7dbc
00000100: 96a5 b93c 0877 9c3d 8e88 9abc 60d9 213d
00000110: 5b95 963d 5ceb 5e3c d056 70bc 322c d2bb
00000120: e53d d93c 37f9 f13c 43e7 783d 72b7 81b9
00000130: c1a3 84bb b135 803d 0d38 ed3c 80ab 083d
00000140: 2e7e 17bd 2cf2 5fbd edf3 203d 407f 34bd
00000150: 6e6f 523c 37b3 f2bc 3dd6 903b 57c7 66bd
00000160: eebd 333d 6c80 7ebc bda3 78bd 2296 2abd
00000170: 471f 30bc 3ebf 483d ecf6 cc3b 8d9e 7c3b
00000180: ca19 75bd 4454 003d 1a3d 7ebd b949 e2bb
00000190: 882a 833d ce0c 12bd 4b41 9d3b 09ba 993c
000001a0: 74de 7a3d ca81 a5bc b2bc 643d 14cf 06bd
000001b0: 1f7d c5bb eb49 31bd a34a 3fbd 14c2 2dbd
000001c0: dc29 e3bc 4ffe 453d ec13 203d 528f 3a3d
000001d0: 4eb4 543d 114e 453d ffe9 433d 8c75 33bc
000001e0: 1a79 eabc 4390 cebc 3718 47ba 28d2 1c3c
000001f0: 681a 32bd 70d3 95bb 6fe3 003d 77e6 063c
00000200: b40c 84bc a197 a03b d7c6 423d 9b25 bcbc
00000210: e850 803d 76b6 823b 72ca c5bc 5a0d 09bd
00000220: 5822 f5bc 6269 413c 12b0 c13c 8e19 343d
00000230: 6c91 14bd 0495 82bd a953 dbbc 5a50 39bc
00000240: 9438 7fbd f9ea 7ebd 2c0c a53d d6b5 0dbd
00000250: 2fb0 6d3d 5a64 3d3c 6d7d 283d 43b7 623c
00000260: a311 ab3c 1d32 c93c c089 60bd 45e8 47bc
00000270: b35f fabb e449 0abd f6f8 013d 769a 62bd
00000280: 3fc0 10bc 4855 03bd 0b95 3ebc d363 9ebc
00000290: 5937 0e3c f1aa c43c 4b97 4e3c 1a1f 93bd
000002a0: de40 5bbd 9d27 8c3c fb5e 5b3d c2ad 23b9
000002b0: ad61 e33b fb4f 823d 3c75 92bd 2da7 c9bc
000002c0: af8b 5ebd 505a 913c 77e3 16bd a110 173d
000002d0: 906c 49bd 9b90 693c f015 a83c 58e1 ecbc
000002e0: 7c37 4ebc 43fe 7d3d 0473 ea39 2285 d6bb
000002f0: cbd6 8d3c 2a6e d2bc 1c50 1ebc bc39 743c
00000300: fc17 f0bc f639 42bd 3cd4 ad3c 88a3 6a3d
00000310: 7e1c aa3c 11de 303d 3ef3 1cbc e431 0d3c
00000320: 66ec 2fbd dc11 e7bc dd49 e9bc a686 843d
00000330: 9213 1dbd 25fa 0f3d ed36 813c e05b 7abd
00000340: 9b8e 6e3d 1ca3 94bb 489c ed3c 16d7 7f3d
00000350: e61a a2bc caf7 253d acab 863d abf5 a9bc
00000360: f111 bcbc 32ee 42bd b9ea 76bd 2779 62bd
00000370: bd95 58bd 2395 5c3d b6a0 753c 42f4 53bd
00000380: 8c0a 6fbd 68ea 18bd 3cc9 063d a584 783c
00000390: c561 103d a941 873d ddaf 133d 54b1 463d
000003a0: fe8e 75bc e7a9 3bbd fc3a dabc b0c3 71bc
000003b0: eb30 77bd 0e39 07bd 235e a6bc 2824 543d
000003c0: 4db1 49bd 11c4 c0bc 30bf a63c 8305 72bd
000003d0: b70c 733d 9bfa 833c ba0e 463d 0238 233d
000003e0: 3024 3c3c 9f3a b5bc a08b 0cbd 8703 17bd
000003f0: 41a9 8a3c 123e 3b3d d4e1 32bc 21dc c4bc
0.0043838774 -0.051727567 0.029074509 -0.030339569 0.025438331 0.030215593 0.050576795 0.01299069
0.061458685 -0.0133622615 0.040535804 0.026786856 0.032530524 -0.043018296 0.045995407 0.021462616
0.047535658 -0.0075248326 -0.06206338 -0.025745073 0.0077909995 0.052201014 0.0214771 0.06961699
-0.027450934 0.041391302 0.07177328 -0.014768062 -0.0452601 -0.01969935 -0.00972673 -0.07078827
-0.03862499 0.00623297 0.036065623 -0.014514501 0.025774568 0.0029238423 -0.045280524 0.03789521
-0.07124016 -0.04038134 0.057111897 0.06389228 0.03602945 -0.05414267 -0.012242434 -0.00841996
0.008581814 0.03937926 -0.020383975 0.03001041 -0.053012345 -0.007160342 -0.0029615024 0.0252082
0.020492394 0.054516777 0.065583654 0.04666039 -0.059004463 0.014800308 -0.047163587 -0.015442645
0.022661965 0.07639891 -0.018863942 0.039513946 0.07352706 0.013605919 -0.014669135 -0.00641396
0.026518771 0.02953778 0.060767423 -0.00024741475 -0.0040478413 0.06260241 0.028957391 0.03336668
-0.03698557 -0.054674312 0.039295126 -0.044066668 0.01284395 -0.029626472 0.0044200704 -0.05634245
0.043882303 -0.015533548 -0.060703028 -0.041647084 -0.010749645 0.049010508 0.0062550213 0.0038546652
-0.059839047 0.031330362 -0.06206999 -0.006905761 0.064045966 -0.035656743 0.0047990433 0.018765466
0.061247304 -0.02020349 0.055844016 -0.03291233 -0.0060268785 -0.043283384 -0.04670204 -0.042421415
-0.027729921 0.04833823 0.0390815 0.045546837 0.051929764 0.048170153 0.047830578 -0.010953318
-0.028622199 -0.025215274 -0.0007594856 0.0095715895 -0.043482214 -0.0045723245 0.031466898 0.008233658
-0.016119339 0.004900888 0.04755291 -0.02296715 0.06265432 0.003989036 -0.024144385 -0.03346
-0.029923603 0.01180491 0.023643527 0.043969683 -0.036271498 -0.06376079 -0.02677329 -0.011310661
-0.062309816 -0.062235806 0.08058962 -0.03459724 0.05802935 0.01155957 0.04113524 0.013837638
0.020882433 0.024560029 -0.05481887 -0.012201373 -0.0076408028 -0.033761874 0.03173157 -0.055323087
-0.008834898 -0.032063752 -0.011632214 -0.01933471 0.008680188 0.024007292 0.012609313 -0.071836665
-0.05352866 0.017108733 0.053557377 -0.00015609621 0.006939134 0.06362911 -0.07151267 -0.024615848
-0.05433243 0.01774326 -0.03683802 0.036881093 -0.0491758 0.014255668 0.020518273 -0.028916046
-0.012586471 0.06201006 0.0004471765 -0.0065466324 0.017314335 -0.025687296 -0.009662654 0.014906343
-0.029308312 -0.047418557 0.021219365 0.05728486 0.02076554 0.04318053 -0.009579478 0.008617852
-0.042950056 -0.028206758 -0.028477604 0.06470995 -0.03834874 0.035150666 0.015773261 -0.061122775
0.058241468 -0.0045360457 0.029005185 0.06246098 -0.019788217 0.040519513 0.065757126 -0.020747026
-0.022957774 -0.047590442 -0.060282443 -0.05529132 -0.052877177 0.053853165 0.01499193 -0.051746614
-0.058359668 -0.037332922 0.032906756 0.015168344 0.03524949 0.066043206 0.03605639 0.048508957
-0.014987705 -0.04581633 -0.026639454 -0.014756128 -0.060349386 -0.033013396 -0.02030856 0.051792294
-0.049241353 -0.023530992 0.020354837 -0.059087288 0.059338298 0.016110709 0.048353888 0.039848335
0.011483237 -0.02212268 -0.034312844 -0.0368686 0.01692641 0.04571349 -0.010918099 -0.024030747

layer_stack.1.layer_stack.0.bias f4 [48]
00000000: 041d 6dbb 94ee 45bd d06d 35bd 0c18 60bc
00000010: a1bd 1c3b 51de 843c 8032 3f3d b356 70bd
00000020: 5ceb 263d ad76 edbc a3a0 3b3d f19e 473d
00000030: 608e 193d a5c5 97bc fbc0 f93c 61bb 503d
00000040: 87ef 463d 114b 5fbc 92d5 b73c 7a12 6e3c
00000050: e7c4 59bc eab6 193d 9259 293b ae71 1d3c
00000060: b40c 92bc 4e1c 573d c4de 833d 9bf3 b3bb
00000070: ee43 37bd fbb3 d63c 13dd 32ba a6d8 543d
00000080: 2f9b 74bd 15c2 713d 6c22 73bd 61a7 40bc
00000090: 1870 ab3c bcbb 693d 28a0 6f3d 5c70 e4bc
000000a0: d679 59bc 6871 0dbd fb00 e63c 8da1 833d
000000b0: 0636 4d3d 662d 833d d1b6 80bd 3dd5 81bd
-0.0036180625 -0.04832323 -0.04429418 -0.013677608 0.0023916739 0.01621929 0.04667902 -0.058676433
0.0407518 -0.028987253 0.045807492 0.048735563 0.037489295 -0.018526861 0.030487528 0.05095995
0.048568275 -0.013628737 0.022440705 0.014530772 -0.013291574 0.037527956 0.0025840742 0.009609623
-0.017828323 0.052517228 0.064389735 -0.0054916865 -0.044742517 0.026208868 -0.0006823104 0.051964425
-0.059718307 0.05902298 -0.059359 -0.011758656 0.020927474 0.057063803 0.058502346 -0.027885608
-0.013273677 -0.03453198 0.02807664 0.06427298 0.05010035 0.064051434 -0.062848695 -0.063395

layer_stack.1.layer_stack.2.weight f4 [48, 48, 3, 3]
00000000: 3c40 173c 331e d2bc 19fa 11bc ed85 97bc
00000010: 7ccc 5e3c 24cc 16bd cc93 9bbc 3746 863c
00000020: 92d0 233c e267 c1bc fc36 74bc 2fa4 caba
00000030: 0e3d 833b 1314 d0bc c4ff eb3c 8856 e5bc
00000040: 5bd5 423d 39b1 c6bc b5c6 f53c c056 1e3d
00000050: 6bd1 f23b e0f8 1cbd 4d85 bd3c ef22 4c3c
00000060: ece8 323d 4933 42bd ced2 223d e029 40bd
00000070: 3307 f4bc e390 29bd 6e35 1b3c d0e9 1bbd
00000080: b4cf 4abd a368 d13b 7e4b 0fbd c3d6 2dbd
00000090: 61c5 e13c c29c 5b3c 9ea5 16bd 6519 143c
000000a0: c106 9dbc be42 4cbd d766 04bd f777 70bc
000000b0: 9406 373d c28d 143c b4b4 baba 4a94 c5bc
000000c0: 1bdf eabc d299 3cbd 1574 0cbd 38d2 57bc
000000d0: 831e e93b 7936 10bd 6d9f 1b3d 46d5 893a
000000e0: b150 ffbc 3d7f 113d 7954 c3ba 2449 253c
000000f0: 49f3 3f3c 50dc 773b 66ad a3bc dfc3 8fbc
00000100: cd03 94bc df4d c2bc d539 003d 348d 26bd
00000110: 78d5 b83c 8182 303b 10ce ef3b e776 58bc
00000120: 67b8 183d 6d9b 143b d363 a33c 2934 0c3d
00000130: 76dc 7c3c ec85 25bd 342a 123c 4a3a 0c3d
00000140: 5beb a33c 7be0 ea3c 9234 8e3c 2c87 debc
00000150: fb7d 143d 6171 403c 487a 8cbc 147f ed3b
00000160: e7e9 2a3d 7ff6 b6bc bd28 cf3c c4be 95bc
00000170: 62f6 04bd c63f c6bc 553f 18bd caca 3fbd
00000180: c11b af3c a214 9f3c a61a 9fbc 2730 4a3a
00000190: 17d7 d1bb 95d6 b33c fc62 713c 95ef 6e3c
000001a0: 12fc 43ba 8ef8 61bc 52a7 db3c 0d49 1a3d
000001b0: 7eed cfbc 35d8 153d 639a 48ba 121f 04bd
000001c0: c971 123d f903 a23c 1955 163d 0e20 873c
000001d0: db86 e63c 609e 973c d9c4 843c d8b8 34bd
000001e0: 13af a83c 0d90 43bd 0e5e 3dbd bea8 ae3c
000001f0: 0267 5dbc 074f 20bd 7a1f 1cbd ccfa 06bd
00000200: d624 1cbd 20e5 7739 3e48 06bc 8c9c 26bd
00000210: c825 ec3a 0fab dabb c737 973c ca80 a53c
00000220: 54ab 1dbd 0496 27bd e943 2f3d 5488 b9bc
00000230: 3977 cf3c 27e9 93bb 78bf aebc cc9d 3d3d
00000240: c421 63bc 8840 09bd 68d5 92bc 2a67 52bc
00000250: 693a 16bd 0b14 9fbc 4736 0b3d bf14 05bd
00000260: 982f 96bb e570 cf3c 55e3 973b 4cff c8bc
00000270: 48f4 173d a107 2fbd 5dab 21bc f291 fabc
00000280: 2635 81bc 17c6 0ebd 7b6b f3bb a013 983b
00000290: 23dc 693c a621 42bd c9fe fbbc 1336 143d
000002a0: 40b1 7f3c be50 633b 906b aeba b8df 09bd
000002b0: b434 0d3d 49dd 3fbd 7cda 35bc 4ee6 b73b
000002c0: 8aea e03b 1902 303d b4d0 2eba a9d9 a2bc
000002d0: 63e7 943c 5f1f 2dbd 091e 5a3c 7724 0f3d
000002e0: 0469 29bc 77d8 163d a46d 223c 896d 3d3d
000002f0: 46c1 10bc d7d3 b5bc e2e3 163d 185b 5f3c
00000300: e5c3 43bc e7f7 94bb a168 903c 3d14 9bbc
00000310: f222 3dbd c836 f6bc d8a7 513c 420e 64bc
00000320: dd92 d2bc 3c93 e6bc e5ec cc3c aeb9 45bc
00000330: 1e46 363c a26e 2bbd 47c3 0bbd 7e56 063c
00000340: a8cf 11bc 3085 e6bb ac80 1d3d b5bf 833c
00000350: d9f0 c23c 1a62 d5bc a258 44bd c23e 4abc
00000360: c39c 08bd d902 e2bc bc2b 18bc eb13 333d
00000370: 9771 29bd 2aa3 c83c 4580 0d3d 0955 c23c
00000380: 1794 35ba 12cb 3fbd 6663 b23a 335d 163d
00000390: 608a 173d f96a fabc c1f8 243c d415 01bc
000003a0: 0097 8cbb eea1 2f3d 13ae af3c 762b 4c3b
000003b0: c89c 72bc 4480 09bc f04c 2b3c 9190 823c
000003c0: e967 563a 4acc 3ebc a30c 083b 8cd7 2a3d
000003d0: 4a05 6ebc 2e24 13bb 040c e2bc 257a 45bc
000003e0: a94d 573a 6c56 8b3c 6245 163d e208 1cbd
000003f0: fb44 23bd 6ed1 703b ac1a 5f3b faf6 edbc
0.009231623 -0.025649166 -0.008909726 -0.018496478 0.013598558 -0.036815777 -0.018991373 0.016390903
0.0099984575 -0.023609105 -0.014905687 -0.0015460307 0.004005081 -0.025400197 0.028808482 -0.027995363
0.047566753 -0.024254428 0.030001977 0.03865695 0.0074102185 -0.038323283 0.023134852 0.012459501
0.043679163 -0.04741219 0.03975182 -0.046914935 -0.02978859 -0.04139794 0.009473188 -0.038064778
-0.049514487 0.0063906475 -0.034984104 -0.04244114 0.027559938 0.013404073 -0.03677904 0.009039258
-0.01916826 -0.049868338 -0.03232464 -0.014677039 0.044684008 0.009067001 -0.0014244528 -0.024118561
-0.028670838 -0.046045132 -0.034290392 -0.013172679 0.007114233 -0.0352082 0.037993837 0.0010515831
-0.031166406 0.035521735 -0.0014902494 0.010088239 0.011715719 0.0037820525 -0.019980144 -0.017549453
-0.018068219 -0.023718772 0.031305153 -0.040662006 0.022562727 0.0026933255 0.0073182657 -0.013211942
0.037285235 0.0022675649 0.01994506 0.03422943 0.015433421 -0.04041092 0.008921195 0.034235276
0.020009687 0.028671494 0.017359052 -0.027164064 0.036252957 0.011745782 -0.017148152 0.007247815
0.041726973 -0.022334335 0.02528798 -0.01827944 -0.03246153 -0.024200331 -0.037169773 -0.046824254
0.021375539 0.019419018 -0.019421887 0.0007712864 -0.0064038145 0.021952907 0.014733072 0.014583488
-0.0007476221 -0.01379217 0.026813183 0.037667323 -0.0253818 0.036583144 -0.00076524 -0.032256193
0.035753045 0.019777285 0.03670225 0.016494777 0.028140476 0.018508136 0.016207146 -0.044121593
0.020591294 -0.0477448 -0.046232276 0.021320697 -0.0135133285 -0.039137866 -0.038115956 -0.032954022
-0.038121067 0.00023641111 -0.008195935 -0.04067664 0.0018016631 -0.006673224 0.018459214 0.020203013
-0.03849347 -0.04091455 0.042789374 -0.022648014 0.025325404 -0.004513878 -0.021331534 0.046293065
-0.013863031 -0.033508807 -0.017924026 -0.012841979 -0.036676798 -0.019418737 0.03398731 -0.03249049
-0.0045833103 0.025322387 0.0046352544 -0.024535798 0.0370982 -0.042731885 -0.009867516 -0.03058717
-0.015772413 -0.034856882 -0.007428584 0.0046410114 0.014273676 -0.04739537 -0.03076114 0.03618438
0.015606225 0.0034685577 -0.0013307203 -0.03366062 0.03447409 -0.046841893 -0.011099454 0.0056121713
0.0068638967 0.04297075 -0.00066686724 -0.01987918 0.01817674 -0.042266246 0.013312825 0.034946885
-0.010339979 0.03682753 0.009913836 0.04624704 -0.0088351425 -0.02219574 0.03683842 0.013632558
-0.01194856 -0.004546154 0.017628016 -0.018930549 -0.046175905 -0.030055419 0.012796365 -0.013919415
-0.025704795 -0.028146379 0.025015304 -0.012068195 0.011125116 -0.041853555 -0.034121778 0.008199332
-0.008899607 -0.00703492 0.03845279 0.016082624 0.023796486 -0.026047755 -0.04793609 -0.012344064
-0.033352625 -0.027589248 -0.009287771 0.043720167 -0.041368093 0.024491865 0.034546155 0.023722189
-0.0006926669 -0.046824522 0.0013609945 0.036709975 0.0369972 -0.030568587 0.010069073 -0.007878739
-0.0042904615 0.042879038 0.02144531 0.0031153834 -0.014807887 -0.008392397 0.010455355 0.015938075
0.0008178936 -0.011645386 0.0020759485 0.041709468 -0.014527628 -0.0022451985 -0.02759362 -0.012053047
0.00082131714 0.017008983 0.036687262 -0.03809441 -0.039860707 0.0036745924 0.0034042997 -0.029048432

layer_stack.1.layer_stack.2.bias f4 [48]
00000000: 8912 193d df4c 2abd 4eda 57bc 5a2f 383d
00000010: 282d 293d 10e9 543c cbe1 6d3c cf97 05bd
00000020: 5bc2 3d3c a0f4 ebbc 4985 373d 1679 80bc
00000030: e032 bebc 8f7c 28bd 90b1 45bd 569d afbc
00000040: f175 953b e30f ad3c a2e0 41bd 95f8 cabc
00000050: 344b 803c da19 49bd 7530 8f3b 46c0 4d3c
00000060: a3cc 24bd cce5 9dbc 315e 1b3c 79a8 463b
00000070: 81cb 353d 2ad2 cfbc f828 06bd 0ddf f0bc
00000080: bf19 3b3d de87 99bc 4b8c c7bc 7577 29bb
00000090: 8694 08bd 3ab4 38bd eb09 c33c eb28 ed3b
000000a0: 96f5 12bd 2422 d13c dd4a 423d 8fa4 23bd
000000b0: 8e8f 3cbd bb7f 0a3d 0ce7 cd3c 670b 39bd
0.037371192 -0.041577216 -0.0131746065 0.044967033 0.04130283 0.01299502 0.014519165 -0.03261548
0.0115819825 -0.02880317 0.044804845 -0.015682738 -0.023217618 -0.041134413 -0.04826504 -0.021437328
0.004561179 0.02112574 -0.047333367 -0.024776736 0.01566086 -0.04909692 0.00436979 0.012558049
-0.04023422 -0.019274615 0.009482906 0.003031282 0.04438353 -0.025368769 -0.032753915 -0.029403234
0.04567885 -0.018741544 -0.02435889 -0.0025858555 -0.033344768 -0.045093752 0.02380844 0.007237544
-0.03587874 0.025528975 0.047434676 -0.039951857 -0.046035342 0.03381322 0.025134586 -0.04517689

layer_stack.2.layer_stack.0.weight f4 [72, 48, 3, 3]
00000000: 4757 47bd a729 07bb d499 74ba cb7a 58bb
00000010: 1c9c a93a fbbd 433b f5d8 8dbc 489b 703c
00000020: dce4 92bc e4e6 083d 9f50 b83b c959 06bd
00000030: 5049 4dbd e9ae 323d 8f5a b43c d322 3bbd
00000040: b3e7 f23c 072e 17bc 13c1 1ebd cb80 403d
00000050: d405 3c3d 7618 8cb9 a7e4 5c3c 12ee 2a3d
00000060: d41c 5cbd 9b6a f2bb 5e9a 44bd 75f8 f5bc
00000070: 8463 bd3b bf22 ce3c 67e1 7c3c 41a2 afbc
00000080: 4b13 aebc 5f41 203c c6a1 193d e60f 993c
00000090: b9de dc3c ee59 12bd 85af 213c 8b68 29bd
000000a0: 748c a93c 2fc5 01bc 1c67 bcbc b523 173c
000000b0: a34f 1cbd 51f6 e3bc 79ae 90bc 25d9 17bc
000000c0: af21 11bc f182 3cbd b3cc 403d bccd 4bbd
000000d0: da01 c8bc a1df 21bb 50ea 2c3b b71c 1c3a
000000e0: 4cef a13c 3ab8 fe3c c498 903c 0b3a d13b
000000f0: 2669 fbbc df7e b53c 5c37 fbbc 9db5 f63c
00000100: 5658 a33c a2a2 273c bc40 993c f894 e8bc
00000110: b848 11bd 8ba1 023d c7ec b0bb ce34 f43c
00000120: 1738 54bd bc10 bcbc 53df 41ba 3d6e a73c
00000130: d9ae 4dbc 94dd 2b3c 36e6 cdbc f00f c03b
00000140: de68 753c 780a 45bb 6584 093d d2f7 573d
00000150: f996 77bc a791 003d d4ea 123d fcba dcbb
00000160: ca13 0c3d d9b7 283d 311e b0bc a9b4 f53c
00000170: 6ee7 22bd 1aaf f53b 8ee7 08bd 7eb6 ad3c
00000180: f233 283d 449b 273d a50e 293d 27d5 f9bb
00000190: 743b 483d 7cd5 0fbd 43a9 76bb f47a f73b
000001a0: fb24 06bb 466c ecbc e1da 4d3d fae2 31bc
000001b0: 817b c13c 7819 2cbd b3e8 aa3c e993 083d
000001c0: 41bb 26bd 1ac0 37b8 0c32 e73c 8bae a43b
000001d0: 146f 8bbc b780 293d 721e 1fbd d8d4 70bc
000001e0: 9801 503c a414 bd3c 464d 253d e3da d6bc
000001f0: a3e2 ff3c 9b2e 383d a918 0d3d e5a4 ec3b
00000200: 3d6f 1bbd 354e a23b 8ac0 253c a56e 14bd
00000210: bea4 e23b c4b3 65bc 2054 ef3c 3c0b 3dbc
00000220: 31de 12bb 23ec d7bc c687 01bd 85e7 4d3c
00000230: d776 85bc 5aeb 13bb e10f 833b d6d9 de3c
00000240: 9208 e33c a888 373c 00a7 343d 2853 cdbc
00000250: 2891 293d 4d78 723c 2f47 bb3c 4e16 683d
00000260: 5153 063d ec7a 083c 50da 0abd 07ed 08bd
00000270: c398 803a cfb6 a33b 0148 18bd f79f 323c
00000280: 8a7b 403d 34a0 b3bb 5929 b43c 618f 473d
00000290: 06a6 2739 1915 fd3c 3e09 6cbc c350 2d3d
000002a0: f4a9 16bd 1fde bdbc e150 733c 74d7 d3bb
000002b0: d785 17bd b791 143d bef4 03bc 8018 1c3c
000002c0: d8c7 c13c 0608 1c3b a993 d9bc 6c61 e33c
000002d0: cac0 a5bb 42f1 1c3b f9c0 ea3c 55e4 59bc
000002e0: 1673 853c 1abd 453c e4fb 173d 8fbd e13c
000002f0: c8c5 1e3c 7628 13bd c8ae 2fbd 256d 93bc
00000300: bdfd 233b 49a5 eabc 5067 ac3c 4658 96bd
00000310: ef84 f63c db81 913c f246 383d 6545 bd3b
00000320: f71d 9dbc c88c 993c fb2c e9bc b83f 44bc
00000330: c689 1c3d 1752 163d 41c4 a5bc 1793 fb3c
00000340: 6b49 9b3c 422f eb3c e3f3 103d a432 50bc
00000350: 1be8 8fbb fdfe 133c b4c5 3a3c 403b 363a
00000360: 7529 7c3c 3c41 28bd b516 64bc 4b78 f33c
00000370: 9f3b 423d f23e 46bd 8aa4 d03c 778f 92bc
00000380: 5788 d53c 47a3 e43c e2ed 213d df2b 47bc
00000390: 735b 123d fb39 35bd d1f0 883b e18a 30bd
000003a0: 7519 093d efd6 493d 1d5e cb3c 9d23 073d
000003b0: 9369 0b3d 2d13 21bd 246e 48bb 7cb2 9dbc
000003c0: 7004 11bb 5cec 493d 2a3e 563b 178b 2ebd
000003d0: bc4a 2abd c439 10bb 2a9c 8fbc 8f6f 06bd
000003e0: e00d 35bd 8b56 08bd 0897 d63c 8fe0 dcbc
000003f0: b24e e33b 0371 683c 5fef 403b d769 333c
-0.04866722 -0.0020624192 -0.00093307835 -0.0033032175 0.0012940201 0.0029867876 -0.017315367 0.014685459
-0.017931394 0.03342332 0.005624845 -0.03280047 -0.050118744 0.04362384 0.022015838 -0.045687508
0.029651498 -0.009227282 -0.03875835 0.046997827 0.045903996 -0.00026721106 0.013482249 0.041730948
-0.05373843 -0.0073979623 -0.04799878 -0.0300257 0.0057796855 0.025163053 0.0154345995 -0.021439673
-0.021249434 0.009781211 0.037507795 0.018684339 0.026961671 -0.035730295 0.009868507 -0.041359466
0.020696856 -0.007920547 -0.022998385 0.009224822 -0.038161885 -0.027827414 -0.01766132 -0.00926808
-0.008858128 -0.046023313 0.047070216 -0.04975675 -0.024414945 -0.0024699944 0.0026384778 0.00059552066
0.019767426 0.031093705 0.01765097 0.006385093 -0.030689787 0.022155223 -0.030666046 0.030115897
0.019939583 0.010231646 0.018707626 -0.028391346 -0.03546974 0.03189234 -0.00539932 0.029810335
-0.051811304 -0.022957198 -0.00073956436 0.020438308 -0.012553894 0.01048984 -0.025134187 0.005861275
0.014978616 -0.0030066054 0.033573527 0.052726574 -0.015111678 0.031388905 0.03586848 -0.0067361575
0.03419856 0.041190956 -0.021498771 0.029993372 -0.03977149 0.0074976804 -0.033423953 0.021205183
0.041065164 0.040919557 0.04127373 -0.0076242867 0.048884824 -0.035115704 -0.003763751 0.007552499
-0.002046882 -0.028860223 0.050257567 -0.010857338 0.023618462 -0.042016476 0.020862913 0.033344183
-0.040705923 -4.380951e-05 0.028222106 0.00502569 -0.01702074 0.041382518 -0.038847394 -0.014699183
0.0126956925 0.023081131 0.040356897 -0.02622742 0.031235998 0.04496632 0.034447346 0.0072218054
-0.037947882 0.0049531707 0.010116706 -0.03623833 0.0069166115 -0.01401991 0.029214919 -0.011538323
-0.0022410268 -0.026357716 -0.031623624 0.012567406 -0.016292019 -0.00225707 0.0039996956 0.027203482
0.027714048 0.011202015 0.044104576 -0.025064066 0.041398197 0.01479919 0.022861091 0.056661896
0.0327943 0.008330088 -0.033899605 -0.033429172 0.0009811152 0.0049961577 -0.037178043 0.010902396
0.046992816 -0.005481744 0.021992372 0.04872072 0.0001598821 0.03089385 -0.0144065 0.04231335
-0.036783174 -0.023177205 0.014850826 -0.006464893 -0.036992874 0.036271777 -0.008053957 0.009527326
0.023654863 0.0023808493 -0.026559668 0.027756415 -0.0050583826 0.0023947512 0.02865647 -0.0132990675
0.016290229 0.012069011 0.037105456 0.027556209 0.009690709 -0.03592726 -0.042891294 -0.01799638
0.0025023066 -0.028643267 0.021045357 -0.073410556 0.030092685 0.017762115 0.044989534 0.0057760947
-0.019179327 0.018743888 -0.028463831 -0.011978082 0.03821733 0.03669938 -0.020235183 0.030709786
0.018955907 0.028709058 0.03538884 -0.012707386 -0.004391683 0.009032962 0.011399675 0.0006951578
0.0153907435 -0.041077837 -0.013921429 0.029720446 0.04742014 -0.048399873 0.025469083 -0.017890675
0.026065988 0.027909888 0.039533503 -0.012156456 0.035731744 -0.044244748 0.004179098 -0.043101195
0.033471543 0.049277242 0.02482515 0.032992948 0.03403623 -0.039324928 -0.0030583227 -0.019250147
-0.002212789 0.049297675 0.0032690861 -0.042613115 -0.04157518 -0.0022007087 -0.01753052 -0.032821234
-0.044202685 -0.03328566 0.026195064 -0.026962547 0.0069368714 0.0141871 0.0029439551 0.010950527

layer_stack.2.layer_stack.0.bias f4 [72]
00000000: c1e4 41bd 5f29 08bd 4927 b6bc d4de ed3a
00000010: cad3 5b3a 2bff 0b3d 795c 2cbd 9add d63b
00000020: 3dd6 2e3d 2fc5 b23b c9c9 45bc d3c4 543c
00000030: bc78 3fbd 1bf5 14bd cfb4 3ebd 55b6 3f3d
00000040: fe5a 80bb 7dcc c73c 547f 173d 1ad1 033d
00000050: 13e1 0e3d 3846 143d a4f6 d2bc 1c15 c3bc
00000060: beac 21b8 a3bf 113d ca79 dbbc be8b 1bbd
00000070: 0ef7 3c3d ad0c 5c3c 9dcc e1bc edf4 913c
00000080: 2d33 38bd e22f 3d3c d14c 0fbc 12fa 30bd
00000090: c463 38bd ab4c dfbb 21f9 ed3a ca8e 213c
000000a0: 04b6 9fbc df42 9abc b3d7 25ba 962c 1a3d
000000b0: 2f4f 403d af90 1d3d 7b96 943c 7eec f73c
000000c0: dc86 05bd 190a df39 9a9e 443d 5f56 c3bc
000000d0: 9c63 983c c1f5 e43c 80fd 66bc 6fcd e3bc
000000e0: 6aca 1cbd b820 423c be29 5aba 9803 f7bc
000000f0: a359 01bb 49fd b53c babe 833c a9e2 10bd
00000100: 44de af3c af57 003d 1a01 453d 8550 2a3d
00000110: 9ee9 05bd f74b 3fbd 9f8c 343c 5166 493c
-0.047337297 -0.03324258 -0.02223553 0.0018148073 0.0008385746 0.034178894 -0.042080376 0.0065571787
0.042684782 0.005455635 -0.012072035 0.01298638 -0.046746 -0.036366563 -0.04655915 0.046804745
-0.003917097 0.0243895 0.036986664 0.032181837 0.034882616 0.03619978 -0.025752373 -0.023813777
-3.854627e-05 0.03558315 -0.026791472 -0.037975065 0.046134047 0.0134307565 -0.027563388 0.017816985
-0.04497068 0.011547061 -0.008746342 -0.043207236 -0.04501702 -0.0068145595 0.0018155911 0.009860704
-0.019495972 -0.018830715 -0.0006326392 0.037640177 0.046950515 0.03846806 0.01813816 0.030264135
-0.032599315 0.00042541398 0.048002817 -0.023844896 0.018602185 0.027949216 -0.014098525 -0.02780792
-0.038278975 0.011848621 -0.000832226 -0.03015308 -0.0019737266 0.022215502 0.016082156 -0.03537241
0.02146829 0.03133362 0.048096754 0.041580696 -0.032693498 -0.046703305 0.011019855 0.012292461

layer_stack.2.layer_stack.2.weight f4 [72, 72, 3, 3]
00000000: c7e3 613c 189c de3b 7aa8 003d fd7a fe3c
00000010: 29bc adbc 9e33 e3bc 175e 113c 2add 123d
00000020: be5f a8bc 10e6 e3bc 3167 993c cec4 1a3d
00000030: c338 ef39 164c 28bc 0e35 f23c 0616 06bd
00000040: 66e2 fc3c c089 093d 35c5 edbc e0e8 fbb8
00000050: 82e1 313d 098d fbbc fd52 a53c 549a a43c
00000060: 0ce2 cbbb c042 a33c c060 733c 1ffa 90bc
00000070: 606c a9bc 9f65 a13c 7182 3c3c dcd7 1bbd
00000080: c8b9 03bb 24d9 c0bc 7c2b 41bd 8c98 f43c
00000090: b6fb f43c 7ec6 fbbc 79dc 0b3d 23ee f3bc
000000a0: 2c09 4d3c ff2a c6bc 6f15 423c 0ca5 00bd
000000b0: 7e13 123c b490 f6bc c440 99bc 5868 30bc
000000c0: e879 03bc 0934 cebc ab28 8ebc aca3 5d3c
000000d0: 0bc2 8abc 958f 253a ffa1 e4bc 4de2 6ebc
000000e0: 3d57 cc39 cb2d 3fbd c602 b63b 5f80 27bd
000000f0: 7850 853c 1cc7 023d f2b3 993c 924b c4bc
00000100: 27f9 ed3b 87c7 a7bc 53df 1c3c 372b 243b
00000110: d448 a3bc a4c0 eabc a201 12bc 815d eb3c
00000120: 9f57 24bd 906d 023d 1270 a33c 6b1d d83c
00000130: 73c1 22bd 1658 d6bc 7898 a0bc e81a 97bc
00000140: b5ec 7d3c e287 8c3c 4062 09bc 2fb9 da3b
00000150: 5f0e 51bd e717 2abd fab4 d53c 1646 723b
00000160: 003c cf3c 3c09 2cbd 4e4a acbc 5c8a 013d
00000170: 5b85 983c ae78 0ebd 559f dfbb e25f 13bd
00000180: 0db6 ca3c 1c15 e6bc 2845 fb3c c4a3 11bd
00000190: 089a 343b be1e 19bd eaeb 18bd 2045 2c3a
000001a0: 79fd d8bc f075 75bc d2bb 883b 5436 9abb
000001b0: a7fd 70bb ef03 fdbc dee1 94bc 4932 10bd
000001c0: bdb6 3bbc 9944 d73c df42 613b 56be 91bc
000001d0: e7f3 c4bc 0eff 583d 0653 33bc ea62 0dbc
000001e0: 3b49 13bc 710a 22bd 012b bb3c 7987 ebbb
000001f0: 8e11 00bc 9ece 1a3b d814 3d3a 9aa7 25bd
00000200: 5413 26bd 22d5 d4ba e61b aabc 9d88 c53a
00000210: 3acb b9bc ac9e b23b 9d7a a43b b4f9 01bd
00000220: cde4 16bd 9d2f b5bc 7076 b9bc ec81 543c
00000230: c83f 21bd ed65 223c bc47 003d 65d4 633c
00000240: a050 573c e280 fb3c 08cc 14bd 253f b23c
00000250: 707a 02bd 691a 1fbd 038f b53c de43 cb3a
00000260: 63e9 a1bc 74c2 183d 3ea7 1eba 3d03 3bbc
00000270: b69c 0dbb 8d86 3dbb 3cc3 5f3c a273 f3bc
00000280: 115f d1bc fac9 e53b 7dc2 e63c 8aa3 5e3c
00000290: 3f3d 2fbd 11c1 c1bc 4c0b fc3c deff 43bc
000002a0: 5e79 9fbb 4f2a 073d 2a42 753a 7fbb 9b3a
000002b0: e1ac 06bd 30f4 9dbc 96b9 2cbd cf98 0ebd
000002c0: 0343 eb3c 15e8 b73c b3c4 35bd 5ff6 1abd
000002d0: 471a 953c f5ea 92bc 54b8 c83c 4cfc ec3c
000002e0: aaef 10bd a29b 2039 6e46 153d 2712 babc
000002f0: 2b2b 013c c6e7 2fbc 8002 fe3b 29f4 dcbc
00000300: 4f6a 4cbb def9 18bd f7ed bbbc 4b11 b3ba
00000310: c375 fdbc 2cb1 bcbb b29d a8bc acb4 eeba
00000320: 8bd1 98bc aeda 803c 9e48 4e3c 0953 d53b
00000330: 63ec 88bc 6e6f 503c 8a86 0c3d afc9 6b3c
00000340: 880b 083d c1de 863c ad3e ad3b 52a7 05bc
00000350: 767d 56bd e94a eebb 16bf 99bc 38bb 303b
00000360: f7f5 bb3c 1188 b6bc 1ed9 733d 3bb3 efbc
00000370: 869e 4b3d 673b 66bc fbf8 92bc 00e4 e73c
00000380: 730f 263d a72d ddbc 8d92 953c 79e5 a0bc
00000390: de1d b93c ac8e b4bc d980 f83b 120a 923c
000003a0: c611 5f3c 2de1 103c a1d5 fbbc 3d55 d5bc
000003b0: 2f25 233d ede1 723c be8a c13b 08bb 25bc
000003c0: b57a 43bc 08b9 0e3c 2235 1abd 8429 efbc
000003d0: 1409 813c 7b1a 813c c00c 31bd 7f9c ae3c
000003e0: 6ad8 24bd 5596 9dbc 65de bc3c 5925 923c
000003f0: 7acd 933c cd2c b23c 55fc ef3b 29f9 79bc
0.0137872165 0.00679351 0.03141067 0.031064505 -0.021207886 -0.027734574 0.00887253 0.03585545
-0.020553466 -0.027819663 0.018725963 0.037785344 0.00045627923 -0.010272047 0.029566314 -0.032735847
0.030869674 0.033578634 -0.0290247 -0.00012011989 0.04342795 -0.0307069 0.020181173 0.02009312
-0.0062220152 0.01992929 0.01485461 -0.017697392 -0.02068156 0.019701777 0.011505709 -0.038047656
-0.0020099748 -0.02354104 -0.04716061 0.029857896 0.029905181 -0.030734297 0.034145806 -0.029776638
0.012514394 -0.024190424 0.0118459305 -0.0314074 0.00891578 -0.030098297 -0.01870764 -0.010767065
-0.00802467 -0.025171297 -0.017353376 0.013527792 -0.01693823 0.0006315646 -0.027909277 -0.0145803215
0.0003897491 -0.04667453 0.00555453 -0.04089391 0.016273722 0.031928167 0.018762562 -0.023961816
0.0072623673 -0.020480884 0.009574729 0.0025050172 -0.019932188 -0.028656311 -0.008911522 0.02873111
-0.040122624 0.03184277 0.0199509 0.026381215 -0.03973527 -0.02616505 -0.019603953 -0.018445447
0.01549833 0.017154638 -0.008385241 0.0066749076 -0.051039096 -0.0415267 0.026087273 0.0036968044
0.025297165 -0.042000994 -0.021031525 0.03162609 0.018618276 -0.034783058 -0.006824414 -0.035980113
0.024745012 -0.028086238 0.030672625 -0.03555657 0.002755763 -0.037382834 -0.03733436 0.000657158
-0.026488053 -0.014981732 0.0041727806 -0.0047061834 -0.0036772282 -0.030885665 -0.018174108 -0.035204206
-0.011457142 0.026277827 0.0034372134 -0.017790955 -0.024042083 0.052977614 -0.010945087 -0.00862954
-0.0089896275 -0.03956074 0.022847654 -0.0071877805 -0.007816685 0.0023621689 0.0007212884 -0.04044304
-0.040545776 -0.0016237835 -0.020765256 0.0015070621 -0.022679914 0.005451044 0.0050194995 -0.031732276
-0.036839295 -0.02211743 -0.022639483 0.012970429 -0.039367467 0.009911996 0.03131841 0.013905619
0.013141781 0.030701105 -0.036327392 0.021758625 -0.031855047 -0.038843546 0.02216292 0.0015507897
-0.019764608 0.03729482 -0.00060521427 -0.011414346 -0.00216083 -0.002891931 0.013657387 -0.029718224
-0.025558027 0.007012603 0.028168911 0.013588795 -0.04278302 -0.023651632 0.030767106 -0.011962859
-0.004866763 0.032999333 0.00093558675 0.001188144 -0.032879714 -0.019281477 -0.042169176 -0.0348137
0.028718477 0.022449533 -0.04437704 -0.037832614 0.018201007 -0.017934302 0.024501957 0.028928898
-0.03538481 0.00015316767 0.03644412 -0.022713734 0.007883827 -0.010736411 0.007751763 -0.026971893
-0.0031191295 -0.037347667 -0.022940619 -0.001366177 -0.030939942 -0.005758425 -0.020583007 -0.0018211803
-0.018654605 0.015729275 0.0125905555 0.0065101427 -0.01671428 0.012721879 0.034307994 0.014391347
0.033214122 0.01646364 0.0052870126 -0.008157568 -0.052365743 -0.0072721136 -0.018767875 0.002696706
0.022944434 -0.022281678 0.05953323 -0.029260268 0.049711727 -0.014052249 -0.017940989 0.028306961
0.040542077 -0.026999308 0.018258357 -0.019640671 0.02259725 -0.022040688 0.007583719 0.017827068
0.013615077 0.008842749 -0.030741515 -0.026041621 0.039830383 0.014824373 0.005906432 -0.0101153925
-0.011931111 0.008711107 -0.037648328 -0.0291946 0.0157514 0.015759697 -0.04322505 0.021314858
-0.04024545 -0.019236723 0.023055265 0.017840074 0.018042315 0.021749878 0.0073237815 -0.015257158

layer_stack.2.layer_stack.2.bias f4 [72]
00000000: d102 95bc faaa 903b fa8e bb3c 668e 8abc
00000010: b393 233c fabb dc3c c30b 0abd 1a93 9f3c
00000020: 359d da3c c0d8 e7bc 8a29 013d 82dc 0c3d
00000030: 2aab bdbb 1fca f03c 1b4a cd3c 0a3c cfbc
00000040: 7877 8abc 2f50 22bd c8ef b23c 3340 f93c
00000050: 691f a7bc 93a3 923b fcc1 dabc bed5 5cbc
00000060: f8d3 13bd d8f5 d33c bc17 bebc 3010 7ebc
00000070: 2732 a8bc 385c d53c 000c 2dbb c25f fa3c
00000080: 9875 e43c 9986 483a 56cd 443c d31b 39bc
00000090: b4e2 9ebc bd47 c53b be87 093d a105 fdbb
000000a0: 8485 6a3c 0cf1 4c3a 8461 4e3c 3fa6 a7bc
000000b0: c95d 97bc dfba 09bc 23cf 863c 668a 233d
000000c0: 40fe 1ebd 4fc7 a33b 328e 913c 9465 f3bc
000000d0: 7469 02bd fa97 19bd 4bd7 7abb 4e4e 363c
000000e0: dc65 19bd 94f2 12bd 8169 b53c 76d4 c63c
000000f0: 516d 13bd 9f65 1a3d 665e 21bc bdff a73c
00000100: 9cc5 bdbc fe37 d43c ed32 16bd d024 6e3c
00000110: 27b6 ae3c cf91 143d 173d 123c 49fe 733c
-0.01818982 0.0044149132 0.022895325 -0.016913604 0.009983945 0.026945103 -0.033702623 0.019479323
0.02668629 -0.028301597 0.031533755 0.03438998 -0.0057882266 0.029393254 0.02505975 -0.025297184
-0.01690267 -0.03962725 0.021842852 0.03042612 -0.02040072 0.004475066 -0.026703827 -0.0134786945
-0.03609082 0.025874063 -0.023204677 -0.015506789 -0.020531727 0.02604495 -0.0026404858 0.030563239
0.027888104 0.0007649451 0.0120118465 -0.011298138 -0.01939521 0.0060205148 0.03357672 -0.0077216183
0.014314059 0.0007817901 0.012596492 -0.020465015 -0.018477337 -0.00840637 0.016456192 0.03992691
-0.03881669 0.0049981247 0.017768 -0.029711522 -0.03183885 -0.03749845 -0.0038275297 0.011127068
-0.037450656 -0.03587587 0.022145035 0.024271231 -0.035992924 0.03769457 -0.0098491665 0.020507688
-0.023165517 0.025905605 -0.03666966 0.014535144 0.021327091 0.036271866 0.008925698 0.014892169
