lotsaconvs/nets/big2.pt (torch, 795147 bytes, 14 tensors)

layer_stack.0.layer_stack.0.weight f4 [24, 1, 3, 3]
0	0xbd0f6ac3	-0.035013925
1	0x3eae1e72	0.34007603
2	0xbe8d8899	-0.27643278
3	0x3ea54d06	0.32285327
4	0xbec64144	-0.3872167
5	0x3c15835b	0.009125556
6	0x3e519ef9	0.204708
7	0xbe42b381	-0.19013788
8	0x3cf6949c	0.03010016
9	0xbe8affd4	-0.27148306
10	0xbec0289d	-0.37530985
11	0xbe50c666	-0.20388183
12	0x3d4e63ad	0.050388027
13	0x3e9c57ca	0.30535728
14	0x3e6208ab	0.22073619
15	0x3ea2ab4b	0.3177131
16	0xbe4c18ca	-0.19931331
17	0x3e85b8ec	0.26117647
18	0xbe2c21de	-0.16809794
19	0x3e61c519	0.22047843
20	0x3e04af9a	0.12957612
21	0xbdf5cc67	-0.12001877
22	0xbe2cb9ad	-0.16867705
23	0x3e4d07d2	0.20022514
24	0xbc799911	-0.015234248
25	0xbe70a2d7	-0.23499618
26	0xbe8d7d32	-0.2763458
27	0xbe81f99f	-0.25385758
28	0x3c74620f	0.014915957
29	0x3ddeba9c	0.10875437
30	0xba2591af	-0.0006315959
31	0xbe0e71bb	-0.13910572
32	0x3eb4f708	0.3534472
33	0xbc953636	-0.018214326
34	0xbe8bcd73	-0.27305183
35	0x3e109797	0.14120327
36	0x3e330b05	0.17484672
37	0x3e9aae3c	0.30211055
38	0x3e8c15c1	0.27360347
39	0x3e842bef	0.2581477
40	0xbed67192	-0.41883522
41	0x3e322372	0.17396334
42	0x3e727b3f	0.23679827
43	0xbe180368	-0.1484505
44	0xbdb24e0c	-0.087062925
45	0x3c04bc5c	0.008101549
46	0xbe8e1bb1	-0.27755502
47	0xbea26089	-0.31714275
48	0x3ca84d8a	0.020544786
49	0xbc3806cd	-0.01123209
50	0x3db75dbf	0.089534275
51	0xbe4882fb	-0.19581215
52	0x3e9a29f2	0.30110127
53	0xbe2e2747	-0.1700717
54	0x3e43e672	0.19130877
55	0xbe723722	-0.23653844
56	0xbe56109d	-0.20904775
57	0x3e7d5c4f	0.24742244
58	0xbc430f48	-0.011905499
59	0xbe04533f	-0.12922381
60	0x3e61076e	0.2197549
61	0xbdd7595c	-0.10515091
62	0x3dfef7a1	0.12449575
63	0x3e9b7a69	0.3036683
64	0xbe947caa	-0.2900136
65	0xbeaa38a3	-0.33246335
66	0x3ea32d6d	0.31870595
67	0x3e46196b	0.19345634
68	0xbe470ac4	-0.194377
69	0x3ccc66ce	0.024951365
70	0x3d8262fc	0.06366536
71	0xbe8d17e5	-0.27557293
72	0xbea4621b	-0.321061
73	0xbe666e66	-0.22503051
74	0x3d7175ae	0.05895012
75	0xbea2dfe2	-0.31811434
76	0xbe2dd227	-0.16974698
77	0x3d1538f0	0.036431253
78	0xbe92bc20	-0.28659153
79	0xbea94cc6	-0.33066386
80	0x3dea7552	0.11448158
81	0x3e2912c6	0.16511068
82	0x3e887076	0.266483
83	0x3e9306ad	0.2871603
84	0xbc59c3e9	-0.0132913375
85	0xbe2b8a83	-0.16752057
86	0xbd5fdb4c	-0.054652497
87	0xbe3c9398	-0.18415678
88	0xbd804760	-0.06263614
89	0xbe664bd9	-0.22489871
90	0x3d539709	0.05165771
91	0x3df511ed	0.1196631
92	0xbdaf29cc	-0.08552894
93	0xbe8d38dd	-0.27582446
94	0x3eb00ab3	0.34383163
95	0x3d77fa2f	0.060541328
96	0x3e7a8485	0.24464615
97	0xbd962f05	-0.07333187
98	0xbd9f7cb4	-0.07787457
99	0x3e52acb1	0.20573689
100	0xbd1315bf	-0.03590941
101	0x3e074f42	0.13213828
102	0xbeaeef20	-0.34166813
103	0x3eb1ded5	0.3474032
104	0xbd89b0ee	-0.067232
105	0xbd1347a6	-0.035957
106	0x3e115207	0.14191447
107	0xbd7a8c90	-0.061169207
108	0xbccdfa87	-0.025143875
109	0x3b97ff08	0.0046385564
110	0x3c7a7aa7	0.015288032
111	0x3d8c97b6	0.06864874
112	0x3c942890	0.018085748
113	0x3df7d830	0.12101781
114	0xbe9abc89	-0.30221966
115	0x3e52649e	0.20546195
116	0x3cf80acd	0.030278588
117	0xbd015166	-0.03157177
118	0x3eb4c2fb	0.35305008
119	0x3ebe5d22	0.3718043
120	0xbe992485	-0.29910675
121	0xbeb3d70d	-0.35125008
122	0xbe86da01	-0.263382
123	0xbd1e8328	-0.0386993
124	0x3dc8c7fa	0.098037675
125	0x3e32ca28	0.17459929
126	0x3e4af8f0	0.19821525
127	0x3e899102	0.26868445
128	0xbe15fb88	-0.14646733
129	0x3e34ec90	0.17668366
130	0xbda8a653	-0.08234849
131	0xbd8b9ddb	-0.06817218
132	0x3d754f18	0.059889883
133	0x3e59a5d3	0.21254663
134	0xbea2ee37	-0.31822369
135	0x3e8bd5f5	0.27311674
136	0xbe8aeacf	-0.2713227
137	0x3d2f434b	0.042788785
138	0x3e0ee888	0.13955891
139	0xbe38ec7c	-0.18058962
140	0x3eb82958	0.35969043
141	0xbcd09f87	-0.025466694
142	0x3d647a7b	0.05578087
143	0xbe62577c	-0.22103685
144	0xbe985a73	-0.29756507
145	0x3ec10675	0.3770024
146	0xbdccbadc	-0.09996578
147	0xbe3ffed0	-0.18749547
148	0x3e0caa5d	0.13736863
149	0x3d7234ce	0.05913239
150	0x3ded49f3	0.1158637
151	0xbdd5c745	-0.10438398
152	0xbd1cfbd4	-0.0383261
153	0xbeb374fd	-0.35050192
154	0x3eae7169	0.340709
155	0xbe00405f	-0.12524556
156	0xbda028ef	-0.078203075
157	0x3ebd8ee7	0.37023088
158	0xbc8c9ef8	-0.017165646
159	0x3db69ad9	0.089162536
160	0x3e5ca460	0.21547079
161	0xbe7db212	-0.2477496
162	0xbc8ebfd9	-0.017425464
163	0xbd3ca15c	-0.04605232
164	0x3d97a2f1	0.074041255
165	0xbea028ee	-0.31281227
166	0xbd8caafa	-0.06868549
167	0xbdf70ab9	-0.12062592
168	0xbea2e7ec	-0.31817567
169	0xbea45626	-0.32096976
170	0x3d3ccc4a	0.046093263
171	0xbe4fffd8	-0.2031244
172	0x3e579400	0.21052551
173	0x3d2e50e2	0.042557605
174	0xbe8f3f4e	-0.27977985
175	0xbea81a9a	-0.32832795
176	0xbe8f40a0	-0.27978992
177	0xbe0dd3f9	-0.13850392
178	0x3d06a018	0.03286752
179	0x3e684056	0.22680792
180	0x3ea8c09e	0.32959455
181	0x3d4d39c9	0.050103936
182	0x3e60aa9f	0.21940087
183	0x3e02b1d9	0.12763156
184	0xbe821650	-0.25407648
185	0xbeb53a25	-0.35395923
186	0xbe95b8d7	-0.29242584
187	0xbb3fb5d1	-0.0029252658
188	0xbdf9ab77	-0.121909074
189	0x3ea0a55a	0.31376153
190	0xbd7a6a3b	-0.061136466
191	0xbd6167a4	-0.05503048
192	0x3e51f2b0	0.20502734
193	0xbd830d5a	-0.06399031
194	0xbe6e062e	-0.23244545
195	0x3de0ed8a	0.10982807
196	0x3e48d70f	0.19613288
197	0x3e185cb2	0.1487911
198	0x3dd6b1bf	0.10483121
199	0x3e14d1bc	0.14533132
200	0xbe6e4b90	-0.23271012
201	0x3dc7f0ef	0.09762751
202	0xbe3451c7	-0.1760932
203	0xbcd6897e	-0.026188608
204	0xbe8340f8	-0.25635505
205	0xbcf6304e	-0.03005233
206	0x3eb17314	0.3465811
207	0xbe86848c	-0.26273
208	0x3e3a08d4	0.1816743
209	0xbe34d7ed	-0.17660494
210	0x3e8dd5d9	0.27702215
211	0x3e8289bb	0.25495705
212	0x3c4c7907	0.012480027
213	0x3e1c6d4d	0.1527607
214	0xbea75a1a	-0.3268593
215	0x3cc80bef	0.024419753

layer_stack.0.layer_stack.0.bias f4 [24]
0	0xbea51afa	-0.32247144
1	0x3e88ebfb	0.2674254
2	0xbe2d4907	-0.16922389
3	0x3ded2fac	0.11581358
4	0xbe5c4b6c	-0.21513146
5	0xbd3bb624	-0.045828
6	0xbe831464	-0.25601494
7	0xbe8ec388	-0.27883554
8	0x3df91daa	0.12163861
9	0x3e5773fb	0.21040337
10	0x3e3ec455	0.18629582
11	0x3e48c95a	0.1960806
12	0x3ea63584	0.32462704
13	0x3d7a250c	0.061070487
14	0xbd289e74	-0.041166738
15	0xbce82bc0	-0.028341174
16	0xbe3089c8	-0.1724006
17	0x3c5dc920	0.0135367215
18	0xbdd3fc19	-0.10350818
19	0x3c3a8169	0.011383393
20	0x3e3261c8	0.17420113
21	0x3d98faca	0.07469709
22	0xbe6412e0	-0.22272825
23	0xbe0fc02f	-0.14038156

layer_stack.0.layer_stack.2.weight f4 [24, 24, 3, 3]
0	0xbd9f269b	-0.07771035
1	0x3bca9fbe	0.0061835935
2	0x3d4761bc	0.04867719
3	0x3c0e78b7	0.008695773
4	0xbd7ceca0	-0.0617491
5	0x3a26687e	0.0006347968
6	0x3c945d17	0.018110795
7	0xbb66aaba	-0.0035196976
8	0x3cdb5b60	0.02677697
9	0x3c6c9df0	0.014441952
10	0x3d88e383	0.066840194
11	0x3c4dd418	0.012562774
12	0xbae75bf1	-0.0017651302
13	0xbb51f7f8	-0.003203867
14	0x3d9b48ce	0.07582246
15	0x3c9712ed	0.018441642
16	0xbda9ccac	-0.08290991
17	0xbd9c975e	-0.076460585
18	0xbd2b3331	-0.041796867
19	0x3c716b90	0.014735118
20	0x3c6ba143	0.0143817095
21	0x3c1b46d8	0.00947734
22	0xbc7a6564	-0.0152829625
23	0x3d769c4a	0.060207643
24	0xbc50beb2	-0.012740778
25	0x3dbed406	0.09317784
26	0x3d66b1b8	0.05632183
27	0xbcb4e59c	-0.022082143
28	0xbd89c130	-0.06726301
29	0x3ba1e4fc	0.004940627
30	0x3dadfe24	0.08495739
31	0x3d8f50e8	0.069978535
32	0x3c8ceac2	0.017201785
33	0xbd5d0a3e	-0.053964846
34	0x3d9eb181	0.077487
35	0x3d7195e0	0.058980823
36	0xbde3da42	-0.11125614
37	0xbd3529ac	-0.044229195
38	0xbd55d993	-0.052209448
39	0x3de2c632	0.11072959
40	0x3b9dbba6	0.004813629
41	0xbe0f1d48	-0.13976014
42	0xbd940ff4	-0.07229605
43	0x3d0643ee	0.032779627
44	0xbd78396e	-0.060601644
45	0xbd8083d1	-0.06275142
46	0xbd4d05ac	-0.050054237
47	0xbce50aa5	-0.027959177
48	0x3d22c83d	0.039741743
49	0x3d672a2c	0.056436703
50	0xbcacfaa0	-0.021115601
51	0x3c5414ff	0.012944459
52	0xbd2fa51a	-0.042882062
53	0x3ca3c5b4	0.019991733
54	0xbcee7ff8	-0.029113755
55	0x3d7dde59	0.061979625
56	0x3d2aa35d	0.0416597
57	0x3d1b3536	0.037892543
58	0x3d8b86a7	0.06812792
59	0x3d251b21	0.040309075
60	0x3c135acb	0.008993815
61	0xbd09cada	-0.03364072
62	0x3cef8fe1	0.029243411
63	0x3d7f5766	0.06233921
64	0x3d60ecaa	0.0549132
65	0x3c850499	0.016237544
66	0x3d8335f5	0.06406776
67	0x3dda005f	0.10644602
68	0x3d85f741	0.065413006
69	0xbd19df05	-0.037566204
70	0xbd56264b	-0.052282613
71	0x3d966b43	0.07344677
72	0x3cf603a2	0.03003103
73	0x3cbb3552	0.022852574
74	0xbcc07656	-0.023493927
75	0x3ca4c935	0.020115474
76	0x3d7db356	0.061938606
77	0x3d799c9e	0.060940377
78	0xbc24764e	-0.010037972
79	0xb898ce08	-7.286301e-05
80	0xbbf17e9e	-0.0073698303
81	0xbd5bcf1c	-0.05366431
82	0xbcf0193e	-0.029308911
83	0xbcb3b7d4	-0.021938242
84	0x3dbc57af	0.09196412
85	0x3bc1306d	0.0058956654
86	0x3c20b186	0.00980795
87	0xbc564223	-0.013077292
88	0xbc6cfb66	-0.014464235
89	0x3c4c018f	0.0124515435
90	0x3c09583a	0.008382851
91	0xbb25eb7c	-0.0025317362
92	0xbd8caf8e	-0.06869422
93	0xbc287c68	-0.010283567
94	0x3d323922	0.043511517
95	0xbbd8ffd3	-0.0066222935
96	0xb9d03aa0	-0.0003971653
97	0x3d51db1d	0.051234353
98	0xbbca05c4	-0.006165238
99	0x3d205608	0.039144546
100	0xbd08af2e	-0.03337019
101	0xbd9358c6	-0.071946666
102	0x3d91b429	0.07114441
103	0x3db7115d	0.08938859
104	0xbd39cbc3	-0.045360338
105	0x3cb01ad9	0.021497177
106	0x3d51c1f9	0.051210377
107	0x3d0bf7a1	0.034171704
108	0x3d095895	0.033531744
109	0x3c5f042e	0.013611836
110	0xbd6087e3	-0.05481709
111	0x3d716caf	0.05894154
112	0x3c558062	0.013031097
113	0x3d95b353	0.07309594
114	0xbd8c2dca	-0.06844671
115	0x3a93c894	0.0011274987
116	0x3cba5d20	0.022749484
117	0x3ce6a3c2	0.028154258
118	0xbbbb4fe2	-0.00571631
119	0xbd71e105	-0.059052486
120	0x3abfaf65	0.0014624415
121	0x3d4fbe92	0.05071885
122	0x3c398989	0.011324295
123	0x3e0b2cef	0.1359136
124	0x3d892d61	0.066981085
125	0x3cfcd4a7	0.03086312
126	0xbdb1fce3	-0.086908124
127	0xbc807f83	-0.015685802
128	0xbd553539	-0.05205271
129	0x3ccdce86	0.025122892
130	0xbd6f93a2	-0.058490403
131	0xbcd2bf61	-0.025726022
132	0xbda7427c	-0.08166978
133	0x3c7016e0	0.014653891
134	0xbca5a142	-0.020218495
135	0xbd7f31fc	-0.06230353
136	0xbb051c7d	-0.002031117
137	0x3d55c910	0.0521937
138	0x3d38d071	0.04512066
139	0xb9e7138e	-0.00044074323
140	0x3d466683	0.048437607
141	0xbd72053e	-0.05908703
142	0xbdbe3114	-0.09286705
143	0x3d7fcba9	0.062450085
144	0xbd87fd80	-0.06640148
145	0x3d3e297e	0.04642629
146	0x3d5dec11	0.05418021
147	0xbba8708e	-0.0051403707
148	0x3c8a2cde	0.016867097
149	0x3cb72922	0.02235848
150	0xbaf297a4	-0.0018508327
151	0xbd0807a6	-0.03321042
152	0x3d784b01	0.060618404
153	0xbd473788	-0.048636943
154	0xbd0224e7	-0.031773474
155	0x3c4f0bb6	0.012637069
156	0x3cf9b3c5	0.030481229
157	0xbd306efb	-0.04307459
158	0xbce3e9cd	-0.027821446
159	0xbd31c64e	-0.04340201
160	0x3d190dba	0.037366606
161	0xbd7710a8	-0.06031862
162	0x3ca97b3d	0.020688647
163	0x3bfc557d	0.0077006207
164	0x3d02bbb0	0.031917274
165	0x3d570962	0.052499183
166	0x3d6be963	0.05759562
167	0x3b95541f	0.004557147
168	0x3c236e90	0.009975091
169	0xbc559629	-0.013036289
170	0x3c28b583	0.010297182
171	0xbd43a58a	-0.047765292
172	0x3d0283ba	0.031863905
173	0x3d828bed	0.06374345
174	0x395c0fcf	0.00020986724
175	0xbd0399f6	-0.03212925
176	0x3d3fc37f	0.0468173
177	0x3c8dea38	0.017323598
178	0xbd5995b2	-0.053121276
179	0xbcb29b34	-0.021802522
180	0xbcc0e708	-0.023547664
181	0x3d4b3e92	0.04962022
182	0x3d7676a4	0.06017174
183	0xbd37ec22	-0.04490293
184	0xbd6d58e7	-0.057946112
185	0x3d527a76	0.05138632
186	0x3d7d34b3	0.061817836
187	0xbd397d00	-0.045285225
188	0xbca70649	-0.02038874
189	0x3da61957	0.08110302
190	0x3bdfbe80	0.0068281293
191	0x3c70fc2f	0.014708563
192	0xbe09ab14	-0.13444167
193	0xbd99e435	-0.0751423
194	0x3dc24f85	0.094878234
195	0x3cb44b9b	0.022008708
196	0xbd974cd4	-0.07387701
197	0x3c2388d2	0.009981351
198	0x3da7bcc8	0.08190304
199	0x3ce00eda	0.027350832
200	0x3b8dfe9b	0.00433333
201	0xbd824a4f	-0.063618295
202	0x3c68d3c4	0.014210645
203	0x3d9606b1	0.07325495
204	0x3d5f5da2	0.054532655
205	0xbd73ab01	-0.059489254
206	0x3b13b2e9	0.0022537059
207	0x3d90dfb5	0.07073919
208	0xba82cc77	-0.0009979148
209	0xbc2ca3ce	-0.010537101
210	0x3d55ad68	0.052167326
211	0xbd69f3e1	-0.057117347
212	0xbc65718f	-0.014004125
213	0xbd7664b6	-0.06015464
214	0xbd746dcf	-0.059675034
215	0xbd8b4b3a	-0.06801458
216	0x3c5b0c50	0.013369635
217	0xbd4ddfff	-0.050262447
218	0x3cfadbce	0.03062239
219	0xbd82d552	-0.06388344
220	0x3d56064c	0.0522521
221	0xbd509e98	-0.050932497
222	0xbd62fd89	-0.05541757
223	0xbd83b763	-0.064314626
224	0x3cd1c522	0.025606696
225	0xbccc806e	-0.024963584
226	0x3cbbb983	0.022915607
227	0xbd87878b	-0.0661765
228	0xbd85d135	-0.06534044
229	0xbcf355b6	-0.029703956
230	0x3d346b29	0.04404751
231	0xbd1be09d	-0.038056005
232	0x3c8467f8	0.016162857
233	0x3d17cd1a	0.037060834
234	0x3d2a4dfe	0.041578285
235	0x3d2fcac8	0.042917997
236	0xbd2cba0f	-0.042169627
237	0xbd150617	-0.03638276
238	0x3c5f72ca	0.013638208
239	0x3d5bea59	0.05369029
240	0x3cb0a3ec	0.021562539
241	0x3d2a248f	0.04153877
242	0xbd357d20	-0.04430878
243	0xbd594be3	-0.053050887
244	0x3bc7f0ff	0.006101727
245	0xbd2cde5f	-0.042204257
246	0xbbd43ea6	-0.006477195
247	0x3d49a0fb	0.04922579
248	0x3c89d1c2	0.016823653
249	0xbccaf74d	-0.024776125
250	0x3d0b2238	0.03396818
251	0xbd0e1b4d	-0.034694005
252	0xbd87edb3	-0.066371344
253	0xbd546c01	-0.051860813
254	0xbda8850e	-0.08228503
255	0x3d7b4e13	0.061353754

layer_stack.0.layer_stack.2.bias f4 [24]
0	0xbbed38df	-0.0072394456
1	0x3bd42edd	0.006475313
2	0x3c9bff84	0.019042738
3	0xbd0bdae7	-0.03414431
4	0xbd4c6166	-0.049897574
5	0x3d279b35	0.0409195
6	0x3d3a45e0	0.045476794
7	0x3ce7a52f	0.028277008
8	0xbd10be10	-0.035337508
9	0x3d7287ea	0.05921165
10	0x3d4b8adc	0.049692973
11	0x3d26c6d3	0.040716957
12	0x3ae9013a	0.0017776855
13	0x3cdfcc47	0.027319087
14	0x3d4f1dd9	0.050565574
15	0x3cb5bed6	0.022185724
16	0xbc043b3f	-0.008070766
17	0xb88523dd	-6.348614e-05
18	0xbd7ab88a	-0.061211146
19	0x3bcf353c	0.0063234847
20	0xbd2ca904	-0.042153373
21	0x3ca3f2b2	0.020013187
22	0xbd8bc3fd	-0.06824491
23	0x3d3124ac	0.043247864

layer_stack.1.layer_stack.0.weight f4 [48, 24, 3, 3]
0	0x3bc61b4e	0.0060457354
1	0x3cfbf32e	0.030755606
2	0x3d22fd94	0.039792612
3	0x3d79ae2c	0.06095712
4	0x3d661451	0.05617172
5	0xbcd8556e	-0.026407924
6	0xbd877248	-0.06613594
7	0xbc40e2e8	-0.011772849
8	0x3cb20a4a	0.021733422
9	0xbceaed34	-0.02867756
10	0x3d6b577f	0.05745649
11	0x3ccea256	0.025223892
12	0x3d733c56	0.059383713
13	0xbd65960b	-0.056051295
14	0xbcc370a9	-0.023857431
15	0x3d82c9b6	0.063861296
16	0x3cfec8d4	0.031101622
17	0xbd82b581	-0.063822754
18	0xbd642976	-0.055703603
19	0xbc81a48b	-0.01582553
20	0x3d0d239f	0.0344578
21	0xba7369e8	-0.00092854956
22	0xbd69be9a	-0.057066537
23	0x3db32e7d	0.08749101
24	0xbd49546c	-0.049152777
25	0xbd39764a	-0.045278825
26	0x3d9cc447	0.076546244
27	0x3d634ea1	0.05549491
28	0xbcfb6eab	-0.030692419
29	0xbd079b47	-0.03310707
30	0xbcab9fcc	-0.02095022
31	0x3c9bda86	0.019025099
32	0x3d7c468e	0.061590724
33	0xbd171f5e	-0.03689515
34	0x3bb139ea	0.005408515
35	0x3d1b8a50	0.037973702
36	0xbda6aa9b	-0.08138009
37	0xbdbce03b	-0.09222456
38	0x3c9e9ae5	0.019360969
39	0xbc9b9586	-0.018992197
40	0xbd925397	-0.0714485
41	0x3b8be274	0.0042689387
42	0xbd6f9f16	-0.058501326
43	0xbd62fb4b	-0.055415433
44	0xbc9ee96e	-0.019398417
45	0x3c77dd40	0.015128434
46	0xbd308750	-0.043097794
47	0x3cfaeb46	0.030629765
48	0xbd844a93	-0.064595364
49	0xbd72e43c	-0.059299693
50	0x3d2f0b67	0.042735483
51	0xbb4e1529	-0.0031445718
52	0xbd298887	-0.04138997
53	0x3cc03d34	0.023466684
54	0xbd3d19b5	-0.046167094
55	0xbd85bec9	-0.0653053
56	0xbd6b706e	-0.05748027
57	0x3c73261c	0.014840629
58	0xbd42754d	-0.047475148
59	0xbd7d89a1	-0.06189883
60	0xbd0e4af7	-0.03473946
61	0x3bb07622	0.0053851763
62	0x3d07bce9	0.033139143
63	0xbd7643b8	-0.060123175
64	0xbcd8816e	-0.026428904
65	0x3b8e9ceb	0.004352202
66	0x3cac0ebe	0.021003123
67	0xbcd3c3a4	-0.025850125
68	0x3d48f059	0.04905734
69	0xbd2f58ea	-0.042809404
70	0xbcbda270	-0.023148745
71	0x3d90c10b	0.0706807
72	0x3d0c3007	0.03422549
73	0xbd04834b	-0.032351773
74	0x3be4de36	0.0069844974
75	0x3d46d3b5	0.048541743
76	0x3ba3bd0a	0.0049969004
77	0xbd44a873	-0.04801221
78	0xbd56b59d	-0.052419294
79	0xbd8b3de5	-0.06798915
80	0xbd95acdd	-0.07308362
81	0xbd1c9f9a	-0.038238145
82	0x3d002044	0.03128077
83	0x3d1741b7	0.036927905
84	0xbcb17429	-0.021661835
85	0xbb803dfc	-0.003913639
86	0x3cea5638	0.028605565
87	0xbd8b666d	-0.068066455
88	0xbc5a91b3	-0.013340401
89	0x3d591192	0.052995272
90	0xba2701c0	-0.0006370805
91	0xbbeb951e	-0.007189407
92	0x3d2713e5	0.040790457
93	0xbcbb26fb	-0.022845736
94	0x3cdbe39a	0.026841927
95	0xbb9836cd	-0.0046452046
96	0x3c13ab89	0.009013065
97	0x3d5b0267	0.053469088
98	0xbc7709ef	-0.015078052
99	0xbd50cfac	-0.0509793
100	0xbd224d46	-0.039624475
101	0xbd251bbc	-0.040309653
102	0x3d8540cf	0.06506502
103	0xba5881d6	-0.0008259093
104	0xbb09f905	-0.0021052968
105	0x3d6d7abc	0.057978377
106	0x3d8162ff	0.0631771
107	0x3cb7576c	0.022380553
108	0xbc31321b	-0.010815169
109	0x3d584037	0.052795615
110	0xbd5f5856	-0.054527603
111	0xbcb7b977	-0.022427304
112	0x3c9f0aa0	0.019414246
113	0x3a4db455	0.0007847001
114	0x3ce5a3f7	0.028032286
115	0xbc009692	-0.007848399
116	0x3d6235b6	0.055227004
117	0xbd151629	-0.036398087
118	0x3c09348e	0.008374346
119	0x3d917995	0.07103268
120	0xbd3e0a6b	-0.046396654
121	0xbca08364	-0.019593902
122	0x3d1888a1	0.037239674
123	0xbd670490	-0.056400836
124	0x3c8437e4	0.016139932
125	0xbd0838b3	-0.033257198
126	0xbd83c25d	-0.06433556
127	0x3d810bdc	0.0630109
128	0xbd47dfca	-0.048797406
129	0xbd651961	-0.055932406
130	0x3dc00218	0.09375399
131	0xbb5a0008	-0.0033264179
132	0x3d0e4a90	0.034739077
133	0x3d4ecc4d	0.050487805
134	0xbcce1e2e	-0.025160875
135	0xbcef728f	-0.02922943
136	0xbcfea452	-0.031084213
137	0xbc73b518	-0.014874719
138	0xbd6702f6	-0.05639931
139	0xba4417e6	-0.0007480368
140	0x3d4cbcb9	0.049984667
141	0xbd8e797f	-0.06956767
142	0x3cf1cc3a	0.029516328
143	0x3cd0eed7	0.025504513
144	0xbcaea100	-0.021317005
145	0xbc1c2115	-0.009529372
146	0xbb503093	-0.0031767234
147	0xbd95eab7	-0.07320159
148	0xbc12b204	-0.008953575
149	0xbd27f00f	-0.041000422
150	0x3c8a9447	0.016916407
151	0x3d41564b	0.047201436
152	0x3cfba7f3	0.030719733
153	0xbbc5a8cc	-0.006032085
154	0x3bcf3595	0.006323526
155	0x3d5fbc2a	0.054622807
156	0x3c0cf24b	0.008602689
157	0x3d358d86	0.04432442
158	0xbd6e9469	-0.058247004
159	0x3d7ad7ba	0.06124089
160	0x3b43b30a	0.0029861354
161	0xbd9a2592	-0.07526697
162	0xbcbde043	-0.023178225
163	0x3c81847c	0.015810244
164	0x3ba2a919	0.0049640057
165	0x3c747b93	0.0149220405
166	0xbcf6a2b9	-0.03010689
167	0xbd23a3de	-0.039951198
168	0xbd955e6a	-0.07293399
169	0x3c999915	0.018749753
170	0xbc2717b2	-0.0101985205
171	0xbd45c04e	-0.0482791
172	0xbce02ee3	-0.027366107
173	0x3d75e220	0.060030103
174	0xbd95df29	-0.07317955
175	0xbcda86e5	-0.02667565
176	0xbd23a8f4	-0.039956048
177	0x3d014441	0.031559233
178	0x3ca052c3	0.019570714
179	0x3d6db785	0.058036346
180	0xbd9ac24c	-0.075565904
181	0xbd837cdb	-0.06420299
182	0x3d9143ae	0.07092987
183	0xba17407c	-0.0005769802
184	0x3d7be8b1	0.06150121
185	0x3a903c76	0.0011004347
186	0xbc7634ec	-0.015027266
187	0x3d5863da	0.0528296
188	0xbd27e64f	-0.040991124
189	0x3d3b3deb	0.045713346
190	0xbd05a2d4	-0.032625988
191	0x3be51e11	0.0069921096
192	0xbd0545cf	-0.032537278
193	0xbca71be0	-0.020399034
194	0xbb96b537	-0.004599239
195	0xbc5de0ec	-0.013542395
196	0x3d8cbada	0.068715766
197	0xbd413aa8	-0.04717508
198	0xbd12eb24	-0.03586878
199	0xbc9f86e4	-0.0194735
200	0x3d765b0e	0.06014543
201	0xbd8531e5	-0.06503657
202	0xbd4c0143	-0.04980589
203	0x3b77b6da	0.0037798197
204	0x3d0ed714	0.034873083
205	0x3d810801	0.06300355
206	0x3c748cd3	0.014926153
207	0x3d07935f	0.03309953
208	0xbc328f5e	-0.010898439
209	0x3d48353f	0.048878904
210	0xbd6f0b0e	-0.058360152
211	0xbcac0ef5	-0.021003226
212	0x3c778959	0.01510843
213	0xbca9b6dd	-0.020717079
214	0x3d58c742	0.052924402
215	0x3d58b1b5	0.05290385
216	0x3d3c80cb	0.046021264
217	0x3d886377	0.066595964
218	0x3d7d1b18	0.061793417
219	0xbd8ca38d	-0.06867132
220	0xbd223c2b	-0.039608162
221	0x3bc20ab0	0.005921684
222	0xbd8d9bac	-0.06914458
223	0xbbe92622	-0.0071151415
224	0x3a779bbd	0.0009445509
225	0xbd4e401e	-0.050354116
226	0xbd623f97	-0.055236425
227	0xbcad862d	-0.021182144
228	0x3d2f6519	0.042821024
229	0xbc667dbb	-0.014068062
230	0x3d85cf80	0.06533718
231	0xbd4f7d7c	-0.05065678
232	0xbd4b71bc	-0.049669012
233	0x3d150b4b	0.036387723
234	0x3d2bea99	0.041971777
235	0xbd16dc30	-0.03683108
236	0x3d831cd0	0.0640198
237	0xbd1fbe81	-0.039000038
238	0x3da1adaf	0.07894456
239	0xbbc5e438	-0.0060391687
240	0x3cb46810	0.022022277
241	0x3d10dcfb	0.035366993
242	0xbcfa64f4	-0.030565716
243	0x3c3931ec	0.011303406
244	0x3bcb0da3	0.006196694
245	0x3d69b439	0.05705664
246	0xbd79397a	-0.06084583
247	0xbbf3956e	-0.007433585
248	0xbd6a4cd9	-0.057202194
249	0xbcdaed34	-0.026724435
250	0x3d35f10c	0.044419333
251	0x3c91f491	0.017816814
252	0xbc43fcf3	-0.011962163
253	0xbd9c1504	-0.07621196
254	0xbd17cb28	-0.03705898
255	0x3ce69a9b	0.028149894

layer_stack.1.layer_stack.0.bias f4 [48]
0	0x3d5f0f37	0.05445787
1	0x3cfe5152	0.031044636
2	0xbd7907ba	-0.060798384
3	0x3d63ce8a	0.055616893
4	0x3d56be32	0.052427478
5	0xbc83fb11	-0.016110929
6	0xbd5976b8	-0.053091735
7	0xbd2d5fef	-0.042327818
8	0x3d54ce1e	0.05195438
9	0xbd79db82	-0.061000355
10	0x3c3fbbe3	0.0117025105
11	0xbb453119	-0.003008908
12	0xbd40bd3f	-0.04705548
13	0xbd0815c0	-0.033223867
14	0x3d858368	0.065192044
15	0x3d54c851	0.05194885
16	0xbc9eeb1f	-0.019399224
17	0xb92e36c3	-0.00016614333
18	0x3cc4c48c	0.024019502
19	0xbd19cab2	-0.03754682
20	0x3c9b6acd	0.018971825
21	0x3d0d92dd	0.034563888
22	0x3d1aa52d	0.03775518
23	0xbd3e0a73	-0.046396684
24	0xbd55d69e	-0.052206628
25	0xbd24171b	-0.040061098
26	0xbd1460c6	-0.036225103
27	0x3ceb4ce6	0.028723191
28	0xbacd48d3	-0.0015661962
29	0x3d7d4522	0.06183351
30	0xbd8265d5	-0.06367079
31	0x3c1cccbf	0.0095703
32	0x3caf4709	0.021396177
33	0x3c9691eb	0.018380126
34	0x3cc11b47	0.023572577
35	0x3c9151da	0.017739225
36	0x3c98df26	0.018661093
37	0x3cfbd889	0.0307429
38	0xbc56d26d	-0.013111693
39	0xbcbaa7f8	-0.022785172
40	0x3cc05eda	0.023482729
41	0x3d42c1a0	0.047547936
42	0x3c9ee87a	0.019397963
43	0x3d2fe82e	0.042946033
44	0x3d37fdc0	0.04491973
45	0xbd1f0c79	-0.038830254
46	0xbce615a6	-0.028086495
47	0x3d57e009	0.05270389

layer_stack.1.layer_stack.2.weight f4 [48, 48, 3, 3]
0	0x3cb6f060	0.022331417
1	0x3c867b78	0.016416296
2	0x3bbf71ce	0.005842424
3	0x3c9b1353	0.018930113
4	0x3c126e79	0.008937472
5	0x3d71b2f6	0.05900856
6	0xbd0b1adf	-0.033961173
7	0x3d630e7a	0.055433728
8	0xbc871251	-0.016488226
9	0xbd06b712	-0.032889433
10	0x3cc3a648	0.023883
11	0x3c08b7f3	0.008344638
12	0x3ca01124	0.019539423
13	0x3d141313	0.036151003
14	0x3d147885	0.03624775
15	0xbcfbd3fc	-0.03074073
16	0x3cbbfbd8	0.022947237
17	0xbcccbf0b	-0.02499344
18	0xbb439724	-0.0029844726
19	0xbc7969dd	-0.015222994
20	0x3d1ab2d5	0.037768204
21	0xbc9cd272	-0.019143317
22	0xbd46b0e3	-0.048508536
23	0xbd2a35e0	-0.041555285
24	0x3bf66f37	0.007520582
25	0x3d3424d4	0.043980435
26	0x3ce702c3	0.02819956
27	0x394364d5	0.00018634212
28	0xbc9d4703	-0.0191989
29	0xbd32f452	-0.043690033
30	0xbc427c43	-0.011870447
31	0x3ce3a75e	0.027789768
32	0xbb3dcfcb	-0.0028962966
33	0xbc5221e8	-0.012825467
34	0x3d0b180f	0.03395849
35	0xbd2fa6b0	-0.042883575
36	0xbd15034b	-0.036380094
37	0xbd50f1b3	-0.051011752
38	0x3c8255b3	0.015910005
39	0xbcb12fed	-0.021629298
40	0xbd6514fa	-0.055928208
41	0xbd186e1e	-0.03721439
42	0xbcc846b5	-0.024447778
43	0xbd1ec1bd	-0.038758982
44	0xbd4262ea	-0.047457613
45	0x3d19ceeb	0.037550848
46	0x3cf7b9c9	0.030239956
47	0xbbc77705	-0.0060871863
48	0xbd062d8e	-0.032758288
49	0xbc9e47f0	-0.019321412
50	0x3cd370fb	0.02581071
51	0x3d7ad72d	0.061240364
52	0x3d2e9a84	0.042627826
53	0xbc907f0c	-0.017638706
54	0xbb475492	-0.0030415398
55	0xbcc97733	-0.024592971
56	0x3d4fb3e1	0.050708655
57	0xbcdb0f39	-0.026740657
58	0xbc0f52de	-0.008747784
59	0x3d47a893	0.04874475
60	0xbd0cbf27	-0.034361985
61	0xbc8d9933	-0.017284965
62	0x3d0cc5b5	0.034368236
63	0xbbdee074	-0.0068016592
64	0x3d72ca8c	0.059275195
65	0xbd01e7c5	-0.031715173
66	0x3d2faaef	0.042887624
67	0xbce34144	-0.027741082
68	0x3d2c1b65	0.042018313
69	0x3d522e22	0.051313527
70	0x3939d35c	0.00017721712
71	0x3cf07615	0.02935318
72	0xbd4951bb	-0.04915021
73	0xbcbf5263	-0.023354715
74	0xbc0714fa	-0.008244747
75	0x3ba11a1e	0.0049164435
76	0x3d274342	0.040835626
77	0xbcfa5619	-0.030558633
78	0xbbed8f6b	-0.007249763
79	0xbc0d6141	-0.008629144
80	0xbcda9daf	-0.026686518
81	0x3c1bb2a5	0.009503041
82	0xbd6d46a6	-0.057928704
83	0xbc8165d2	-0.015795622
84	0xbd05f886	-0.032707714
85	0xbc3035a1	-0.010754974
86	0x3cbcee42	0.023062829
87	0xbd080b93	-0.033214163
88	0xbbe6deb2	-0.0070455903
89	0x3ce5c166	0.028046321
90	0xbcfb782e	-0.030696955
91	0x3babe22e	0.0052454686
92	0xbd0ca411	-0.034336153
93	0xbd0901e1	-0.033449057
94	0x3a821276	0.0009923715
95	0xbd09c300	-0.033633232
96	0x3d2cbca9	0.042172108
97	0x3c9f92e4	0.019479223
98	0x3c265d1b	0.010154034
99	0xbd1de33d	-0.03854679
100	0x3cf8b2df	0.03035873
101	0x3cd97fcc	0.026550196
102	0xbc8c48aa	-0.017124493
103	0xbcc4d3b9	-0.024026738
104	0xbcebfdef	-0.028807608
105	0x3c31d63b	0.010854299
106	0xbba40527	-0.005005497
107	0xbcdcd9cc	-0.026959322
108	0xbcc25ad0	-0.023724943
109	0x3d0ec9e3	0.034860503
110	0xbc3328bc	-0.010935005
111	0xbcb4b7a2	-0.02206022
112	0xbcdf86cb	-0.027285954
113	0xbcbaaf87	-0.022788776
114	0x3d014602	0.031560905
115	0x3d2f0130	0.042725742
116	0xbd2ce68c	-0.042212054
117	0xbd087963	-0.03331889
118	0x3d362e1e	0.044477575
119	0xbd038a94	-0.03211458
120	0x3ce435e7	0.027857734
121	0xbc43f019	-0.011959099
122	0x3c8b293f	0.016987441
123	0xbc6069f3	-0.013697135
124	0x3d1b4529	0.037907753
125	0x3a30809f	0.0006733033
126	0xbc91b242	-0.017785195
127	0x3cc4eef6	0.024039727
128	0x3d1e94d3	0.03871615
129	0xbd1e8b8f	-0.038707312
130	0x3d3988a0	0.04529631
131	0xbcb55d71	-0.022139283
132	0xbcce6af0	-0.025197476
133	0x3d33f6cf	0.043936547
134	0xbd4c01c4	-0.04980637
135	0x3bd57ed2	0.0065153623
136	0xbd33708a	-0.043808497
137	0xbd16529a	-0.03669987
138	0xbd27fe62	-0.041014083
139	0xbd25bf95	-0.04046591
140	0xbd1726df	-0.036902305
141	0x3cefb405	0.029260645
142	0x3ca446ba	0.020053256
143	0x3d0d9e73	0.034574937
144	0xbc0d9be1	-0.008643121
145	0x3d2c780c	0.042106673
146	0x3d18a5f0	0.037267625
147	0xbd4f1047	-0.050552633
148	0xbc5f67bf	-0.013635575
149	0x3b6b596c	0.0035911454
150	0xbd12dca3	-0.035854947
151	0x3d466ad7	0.048441734
152	0x3d59e035	0.053192336
153	0xbc79a801	-0.015237809
154	0x3c5dc6cb	0.0135361655
155	0x3d431ae3	0.047633063
156	0x3cb17f7d	0.021667236
157	0xbcc5e9a0	-0.024159253
158	0x3d14b581	0.036305908
159	0xbcf1ca0e	-0.029515292
160	0xbcb4a23b	-0.022050014
161	0xbc8eaf06	-0.017417442
162	0xbc556a70	-0.013025865
163	0xbcd0e630	-0.025500387
164	0xbd1a4780	-0.037665844
165	0xbb8cbccd	-0.0042949677
166	0x3ce8fe79	0.028441655
167	0xbb8b43ee	-0.004250041
168	0xbb5425a5	-0.003237107
169	0xbc749b3b	-0.014929588
170	0x3cecc697	0.028903289
171	0x3ce7f51e	0.028315123
172	0xbd455849	-0.0481799
173	0xbbe3fe41	-0.0069577997
174	0x3bfea678	0.0077713095
175	0x3c318baa	0.010836521
176	0xbd40b730	-0.0470497
177	0xbd19b578	-0.037526578
178	0x3c37b56a	0.011212686
179	0xbc868c37	-0.016424282
180	0xbc7ce84f	-0.015436246
181	0xbcb255b3	-0.02176938
182	0x3c8d13bb	0.017221322
183	0x3bb9da9c	0.005671812
184	0x3c71a197	0.014747999
185	0x3cbb5d27	0.022871567
186	0xba1e97e2	-0.0006049854
187	0x3bc6f8f7	0.0060721594
188	0xbbd493c3	-0.006487341
189	0x3c086181	0.008324028
190	0xbcdf9bde	-0.027296003
191	0xbcad668e	-0.021167066
192	0xbd3eb914	-0.046563223
193	0x3c9bfd96	0.019041818
194	0x3d0ec3c7	0.034854677
195	0x3c8fa83c	0.017536275
196	0xbcc03a85	-0.023465404
197	0xbd068007	-0.03283694
198	0xbcdb21aa	-0.02674945
199	0x3d937f4d	0.07202015
200	0x3cd33efb	0.025786867
201	0xbc8e1735	-0.01734505
202	0x3d6ecc6d	0.058300424
203	0x3cdfd92a	0.027325232
204	0x3c726f68	0.014797069
205	0x3bc8c843	0.0061273887
206	0x3d8613d6	0.06546752
207	0xbb8c3ed4	-0.0042799506
208	0x3ceabe70	0.02865526
209	0x3acc8f27	0.0015606628
210	0x3c88949a	0.016672421
211	0xbc6376a9	-0.013883271
212	0x3d47bb0d	0.04876237
213	0xbd18567e	-0.03719186
214	0x3c83e783	0.016101604
215	0x3af4634e	0.0018645318
216	0x3d0b6cf5	0.034039456
217	0xbd6573fe	-0.056018822
218	0xbcdf5d77	-0.027266247
219	0xbcfe513f	-0.0310446
220	0xbc3933ff	-0.011303901
221	0xbcfcb579	-0.030848252
222	0xbd42607b	-0.047455292
223	0xbc6bfcb4	-0.014403511
224	0xbd092c1a	-0.033489324
225	0xbd4749a5	-0.048654217
226	0x3d01c16a	0.031678595
227	0xbcf6c967	-0.030125333
228	0xbd08b799	-0.033378217
229	0xbd238fe1	-0.039932135
230	0xbcd187c8	-0.02557744
231	0x3d340f63	0.043959986
232	0xbcd1836c	-0.025575362
233	0xbc651b10	-0.013983503
234	0xbc930289	-0.017945545
235	0x3b584421	0.0032999592
236	0x3c8fd170	0.017555922
237	0x3d22c44f	0.039737996
238	0xbc8663d2	-0.01640502
239	0xbb8925e5	-0.0041854256
240	0xba94fdad	-0.0011367105
241	0xbcb750ef	-0.02237746
242	0x3b237c75	0.0024946008
243	0x3d1ed0d0	0.038773358
244	0x3d517fe5	0.05114736
245	0x3d2cb901	0.04216862
246	0x3c9dbc21	0.019254746
247	0x3abfe8e1	0.0014641547
248	0x3c664027	0.014053381
249	0xbc34a3aa	-0.011025349
250	0xbd0b8f2b	-0.034072082
251	0xbb80ec73	-0.003934437
252	0xbd45b8c3	-0.048271906
253	0xbd145403	-0.036212932
254	0xbc775a3e	-0.015097199
255	0xbd043380	-0.032275677

layer_stack.1.layer_stack.2.bias f4 [48]
0	0xbc62afcf	-0.013835861
1	0xbcec17aa	-0.028819878
2	0xbd1a0113	-0.03759868
3	0x3d3312c6	0.043719076
4	0x3bc95179	0.0061437455
5	0xbce77a06	-0.028256427
6	0x3b9608b6	0.004578675
7	0xbc684b79	-0.01417815
8	0xbb4b3f75	-0.0031013165
9	0xbd1f5efa	-0.038908936
10	0xbcad292b	-0.021137794
11	0xbc8c5d10	-0.01713422
12	0x3b805409	0.003916268
13	0xbc513799	-0.012769603
14	0xbd27ff1a	-0.04101477
15	0xbcdfe2e8	-0.027329877
16	0xbc5cc057	-0.013473592
17	0x3a14b54b	0.0005672767
18	0xbd2cf549	-0.04222611
19	0xbd03845e	-0.032108657
20	0xbc20c953	-0.009813624
21	0x3ccbf950	0.024899155
22	0x3c4089d5	0.011751612
23	0xbceef468	-0.029169276
24	0xbc8849e6	-0.0166368
25	0xbd0a03d3	-0.033695053
26	0xbb957757	-0.0045613456
27	0x3c8e3cb4	0.01736293
28	0x3cd5140b	0.026010534
29	0xbce026af	-0.027362196
30	0xbd208824	-0.039192334
31	0x3d178ef9	0.037001584
32	0xbd2fff1d	-0.042967904
33	0x3d2a25c3	0.04153992
34	0xbc8b11f7	-0.01697634
35	0xbc64a206	-0.013954645
36	0x39fa862d	0.00047783685
37	0x3d3b2b07	0.04569533
38	0xbc210a3d	-0.009829101
39	0xbd3cf78f	-0.046134528
40	0x3c808d20	0.015692294
41	0xbc622810	-0.013803497
42	0xbc06fa9a	-0.008238459
43	0xbcf02483	-0.029314285
44	0x3cec8375	0.028871277
45	0x3cf0218e	0.029312875
46	0xbadb098f	-0.0016711223
47	0x3cfe6b72	0.031057093

layer_stack.2.layer_stack.0.weight f4 [72, 48, 3, 3]
0	0xbd162948	-0.036660463
1	0xbd454070	-0.048157156
2	0x3a85c985	0.0010207152
3	0xbd492d3e	-0.049115412
4	0xbd303cd3	-0.043026756
5	0xbab45d54	-0.0013760724
6	0x3cb06f26	0.021537375
7	0xbb0a30ac	-0.002108614
8	0xbc586c60	-0.013209432
9	0xbca9ed21	-0.020742955
10	0xbd174ef3	-0.036940526
11	0x3c70d9f4	0.014700402
12	0x3c82fbc1	0.015989186
13	0xbc5ac431	-0.01335244
14	0xbd297cce	-0.04137879
15	0x38dc0e97	0.00010493135
16	0x3c7835a6	0.0151495095
17	0xbc37d240	-0.011219561
18	0xbd518b3a	-0.051158167
19	0x3b8d3713	0.004309544
20	0xbcd11ec1	-0.02552736
21	0x3c9f8d91	0.019476684
22	0xbd0227c4	-0.031776205
23	0x3c2b9ce8	0.010474421
24	0xbb2813a2	-0.0025646468
25	0x3d042f57	0.03227171
26	0x3b49bf98	0.0030784365
27	0x3be717e2	0.0070524076
28	0xb98607e3	-0.00025564348
29	0x3d04074e	0.03223353
30	0x3d19956a	0.037496008
31	0xbc850c3c	-0.016241185
32	0xbc8017a0	-0.015636265
33	0xbc7a7ca0	-0.015288502
34	0xbc904f7d	-0.017616028
35	0xbd4131ec	-0.04716675
36	0x3b65dfa6	0.0035075932
37	0xbbdeca4d	-0.0067990185
38	0xbd0ba969	-0.03409711
39	0xbb89e238	-0.0042078756
40	0xbc9c64ce	-0.019091036
41	0xbc193d0d	-0.009352935
42	0x3d477611	0.04869658
43	0xbd0e19b4	-0.03469248
44	0xbc995010	-0.018714935
45	0xbb461f21	-0.0030230957
46	0x3caefc57	0.02136056
47	0xbbcead85	-0.0063073062
48	0x3c1069fc	0.008814331
49	0x3c2af70b	0.010434876
50	0xbd3ce5ec	-0.046117708
51	0xbd323e93	-0.043516707
52	0xbbe66fcd	-0.0070323707
53	0xbc1c68dc	-0.009546485
54	0x3b80a21c	0.003925575
55	0x3b5257cc	0.0032095788
56	0x3c25706b	0.010097603
57	0x3cf249bd	0.029576177
58	0xbd3dceda	-0.046339847
59	0x3d0afc06	0.033931755
60	0x3c668bee	0.014071448
61	0xbd435342	-0.047686823
62	0x3cf7c654	0.030245937
63	0x3b3dc14e	0.002895433
64	0xb9be7973	-0.0003633011
65	0xbc61ac0e	-0.013773931
66	0xbcabf6a1	-0.020991625
67	0xbcbb762d	-0.022883499
68	0xbd40753a	-0.046986796
69	0xbcc5ce4f	-0.024146227
70	0xbcb05ebf	-0.021529553
71	0x3cb9d0e7	0.02268262
72	0x3bae5fc5	0.005321475
73	0xbcada42e	-0.021196451
74	0xbc7936cd	-0.015210819
75	0x3bf22b35	0.0073904046
76	0x3c98cae3	0.018651431
77	0xbd20077f	-0.03906965
78	0x3cf4df2c	0.029891573
79	0x3d6ee96e	0.058328085
80	0x3a6b0f76	0.00089668424
81	0xbc74c5e5	-0.01493976
82	0x3d109d1a	0.035306074
83	0xbc5f3343	-0.013623062
84	0x3d11baa7	0.035578396
85	0x3d4b1812	0.049583502
86	0xbc9d3c39	-0.019193755
87	0x3b5e8959	0.0033956377
88	0xbc5b2c21	-0.01337722
89	0xbc885f48	-0.016646996
90	0xbd1a2679	-0.037634347
91	0x39a260a3	0.00030971048
92	0x3d0eae1b	0.03483401
93	0xbc3766ed	-0.011193973
94	0xbd0be03f	-0.034149405
95	0x3bb095f5	0.00538897
96	0xbd4e1cbd	-0.050320376
97	0x3d0cbba9	0.034358654
98	0x3d152be4	0.03641881
99	0x3cb91bb9	0.022596227
100	0xbd030048	-0.03198269
101	0xbd1e9ee8	-0.038725764
102	0x3bea3c5a	0.0071483077
103	0xbce5ad64	-0.02803678
104	0x3d059c5d	0.032619823
105	0x3c55fda1	0.013060958
106	0x3d323cb6	0.04351493
107	0x3bbd4767	0.005776334
108	0xbca3c647	-0.019992007
109	0xbca69192	-0.020333085
110	0xbcb68731	-0.022281261
111	0xbd1bc247	-0.038027074
112	0x3c48bf01	0.01225257
113	0x3ca4a337	0.020097358
114	0xbc7f75c6	-0.015592044
115	0x3b73248c	0.003710064
116	0xbc870aa4	-0.016484566
117	0xbd0329b9	-0.03202221
118	0xbcd11274	-0.025521494
119	0xbd2b3020	-0.041793942
120	0x3ce31778	0.027721152
121	0xbbb42e40	-0.0054986775
122	0xbd2982e8	-0.041384608
123	0xbd171ad9	-0.03689084
124	0xbd489a35	-0.04897519
125	0xbd24283b	-0.04007743
126	0xbd144998	-0.036202997
127	0x3c0f033e	0.0087288
128	0xba13b716	-0.0005634887
129	0x3c25384c	0.010084223
130	0xbd875de9	-0.06609709
131	0x3c2d8178	0.01058995
132	0xbcc527f3	-0.0240669
133	0x3cdd46cc	0.027011298
134	0x3cc088e0	0.023502767
135	0x3d777251	0.060411755
136	0x3d129a98	0.035791963
137	0xbca77687	-0.02044226
138	0x3cb2e512	0.021837745
139	0xbd52ada5	-0.05143513
140	0x3bf78610	0.0075538233
141	0x3d2a14e7	0.04152384
142	0x39d52662	0.00040655123
143	0xbd1604fa	-0.03662584
144	0x3c86ad79	0.01644014
145	0x3d3a7163	0.04551829
146	0x3cce747f	0.025202034
147	0x3d057ed8	0.03259167
148	0x3c17ce26	0.009265458
149	0x3cc27277	0.023736222
150	0x3d52f60c	0.05150418
151	0xbd243375	-0.040088136
152	0xbd62efb8	-0.055404395
153	0xbc4ea009	-0.012611398
154	0x3d153818	0.03643045
155	0x3cfd89af	0.030949442
156	0xbc8a81a9	-0.01690753
157	0xbd33f246	-0.04393222
158	0xbd2c932d	-0.042132545
159	0x3cc2f4c9	0.023798363
160	0xbd8165de	-0.06318258
161	0x3ca512bb	0.020150533
162	0x3cd7f61f	0.026362477
163	0x3bdb8ad6	0.0066999
164	0x3c3f4054	0.011673052
165	0x3a5c2964	0.00083985017
166	0xbccf4bd5	-0.025304714
167	0xbd079e38	-0.033109874
168	0xbb89a101	-0.0042001014
169	0x3d36ac9c	0.044598207
170	0x3b7a7cee	0.0038221437
171	0xbcd648a9	-0.026157694
172	0x3cbbd20c	0.022927307
173	0x3d0fb0bd	0.03508066
174	0x3aed7085	0.0018115198
175	0xbd44e284	-0.048067585
176	0xbd3b1d32	-0.04568214
177	0xbc5013f0	-0.012700066
178	0xbbdb3136	-0.006689216
179	0xbc17488e	-0.009233607
180	0x3d07c33f	0.033145186
181	0xbb93810f	-0.004501469
182	0x3ce4afe1	0.027915897
183	0x3d196120	0.03744614
184	0xbc74d81c	-0.014944103
185	0x3cb722d9	0.022355484
186	0xbc50d94c	-0.01274712
187	0xba2849b7	-0.0006419676
188	0xbc3f1502	-0.0116627235
189	0xbd25d1ba	-0.040483214
190	0x3d1d44c8	0.038395673
191	0xbbc069fa	-0.0058720084
192	0x3b413fc3	0.0029487468
193	0xbcb979f8	-0.022641167
194	0x3c227ac3	0.009916964
195	0xbd33eca7	-0.04392686
196	0x3b0eb94f	0.0021777933
197	0xbd095b50	-0.033534348
198	0x3c1c5734	0.009542275
199	0xbd12791c	-0.03576003
200	0x3a8a188f	0.0010535883
201	0xbd4c88cf	-0.04993516
202	0xbccf0deb	-0.025275191
203	0x3c2caa22	0.01053861
204	0xbd2970b8	-0.041367263
205	0x3cd2127f	0.025643585
206	0xbd2e7d1f	-0.042599794
207	0x3c3f9208	0.011692531
208	0xbd7e6c1b	-0.062114816
209	0x3be56d95	0.0070015886
210	0xbbc2fcd0	-0.0059505478
211	0xbcfb8c33	-0.0307065
212	0x3b344e16	0.0027512363
213	0x3cd2ad46	0.025717389
214	0xbd11f725	-0.035636086
215	0xbb68cabd	-0.0035521232
216	0xbd66519d	-0.056230176
217	0xbcfd23c1	-0.030900838
218	0xbcd9ed0a	-0.026602287
219	0x3d3f1377	0.046649422
220	0xbcb0058e	-0.021487024
221	0x3cf61339	0.030038463
222	0xbcd725ea	-0.026263196
223	0xbabd1e16	-0.0014428522
224	0x3d5faa67	0.054605868
225	0xbc710e07	-0.014712817
226	0xbd1804e6	-0.037114047
227	0xbd6ee37c	-0.058322415
228	0xbc8ff1ce	-0.017571356
229	0xbd14fcf5	-0.03637405
230	0x3c7639f9	0.01502847
231	0x3c4f1020	0.012638122
232	0x3c9cec41	0.019155623
233	0x3c3f0f32	0.011661338
234	0x3ab3da76	0.0013721723
235	0xbc19ee00	-0.0093951225
236	0xbd36b88d	-0.044609595
237	0x3c9291e2	0.017891828
238	0x3cceffcd	0.02526846
239	0xbc1e1af2	-0.009649979
240	0xbc490200	-0.012268543
241	0xbd347eee	-0.044066362
242	0x3cdc53c2	0.026895408
243	0x3d01a869	0.03165475
244	0x3c0b8ea5	0.008517896
245	0xb7f2a8f6	-2.8927327e-05
246	0x3d29a93f	0.04142117
247	0x3d2aaadd	0.041666854
248	0xbd179c4a	-0.037014283
249	0x3cef84c5	0.029238114
250	0xbd49935a	-0.04921279
251	0x3b112a17	0.0022150332
252	0xbcbb827c	-0.022889368
253	0xbd0332f6	-0.032031022
254	0xbccf3404	-0.025293358
255	0xbc57fb7f	-0.01318252

layer_stack.2.layer_stack.0.bias f4 [72]
0	0xbcc688db	-0.02423518
1	0x3c9d7d7a	0.019224871
2	0xbbcb5f2a	-0.006206413
3	0xbd27c902	-0.04096318
4	0x3b783dfe	0.0037878747
5	0xbcc8b4b1	-0.024500223
6	0x3d1613f1	0.03664011
7	0xbc8981e8	-0.016785577
8	0xbd002943	-0.03128935
9	0xbc2c5f7b	-0.010520811
10	0xbd1aff84	-0.037841335
11	0xbd3f5397	-0.046710577
12	0xb84994e9	-4.8060818e-05
13	0xbc226d1b	-0.009913708
14	0xbcf73caa	-0.030180294
15	0x3c98dd90	0.018660337
16	0xbc7795f3	-0.015111434
17	0xbc43a185	-0.011940365
18	0x3d159e59	0.036527965
19	0xbd0e9993	-0.03481443
20	0xbb369af9	-0.0027863367
21	0x3cbe0980	0.02319789
22	0x3d347e2c	0.04406564
23	0xbcc9eeff	-0.024650095
24	0xbd3d58fe	-0.046227448
25	0xbc8ca8dc	-0.017170362
26	0x3cfa5b8f	0.030561237
27	0xbcd0cfbd	-0.025489682
28	0xbd3cd756	-0.046103798
29	0xbd09cc02	-0.033641823
30	0xbd39359f	-0.045217153
31	0x3ce006df	0.027347026
32	0xbc87608e	-0.016525533
33	0xbca21751	-0.019786509
34	0x3d2a105c	0.041519508
35	0xbc4f9e6e	-0.01267205
36	0xbce507dc	-0.02795785
37	0xbbd12193	-0.006382176
38	0x3d28d2d9	0.041216705
39	0x3d2787e7	0.04090109
40	0xbcca66ca	-0.024707217
41	0x3d106e86	0.035261653
42	0x3c14bcd0	0.0090782195
43	0xbd245196	-0.04011687
44	0xbc0c04b8	-0.008546047
45	0x3c9fce26	0.019507479
46	0x3b99122c	0.0046713557
47	0xbd1f01ba	-0.038820006
48	0x3d3bef5d	0.04588257
49	0x3c54a1ea	0.012978056
50	0xbcf31692	-0.029673848
51	0x3c6f5340	0.014607251
52	0xbc2f8918	-0.010713838
53	0x3cf25480	0.029581308
54	0x3d0c1472	0.034199186
55	0x3c4b1550	0.012395218
56	0xbcc17cf1	-0.023619147
57	0xbca30091	-0.019897731
58	0xbd255260	-0.040361762
59	0xbc07143a	-0.0082445685
60	0x3aafd889	0.0013415973
61	0x3cbac2b2	0.022797916
62	0x3cbd0743	0.023074752
63	0x3cdc4649	0.026888983
64	0x3c7af7d0	0.015317872
65	0x3d330fbc	0.043716177
66	0xbcde3841	-0.027126433
67	0xbc9c7135	-0.01909695
68	0xbcadd879	-0.021221386
69	0xbd443d98	-0.047910303
70	0xbd22e4d9	-0.039769027
71	0x3c5dcc1c	0.013537433

layer_stack.2.layer_stack.2.weight f4 [72, 72, 3, 3]
0	0xb9d483ee	-0.00040534086
1	0xbc8d8045	-0.017273078
2	0x3d05c7d8	0.03266129
3	0xbcc0d563	-0.02353925
4	0xbd4864e7	-0.048924353
5	0x3ce26973	0.027638173
6	0xbd10b380	-0.035327435
7	0xbc1f00fe	-0.009704826
8	0xbcb8640f	-0.02250865
9	0xbb2f2548	-0.0026725102
10	0x3be545e4	0.006996857
11	0x3c3736e9	0.011182525
12	0x3d8a1a83	0.06743338
13	0x3b7e9c47	0.0038850473
14	0x3c556e1a	0.013026739
15	0x3ba329b9	0.004979339
16	0xbd12072b	-0.035651367
17	0xbbd95012	-0.0066318596
18	0x3c23c5aa	0.009995857
19	0x3c48953b	0.012242611
20	0xbd34e192	-0.044160433
21	0x3c77029f	0.0150763085
22	0xbc51882d	-0.0127888145
23	0xbaae7edc	-0.0013312954
24	0xbb707382	-0.0036689942
25	0x3c89d2be	0.016824123
26	0xbbcef737	-0.0063160914
27	0xbc8c8c71	-0.017156811
28	0xbcf1b003	-0.029502874
29	0xbcabb0d2	-0.020958338
30	0xbd029742	-0.031882532
31	0x3d09b42b	0.033619087
32	0xbd3e8f17	-0.04652318
33	0x3c5bb1f5	0.0134091275
34	0x3d6fc3d6	0.058536373
35	0xbcadf47c	-0.021234743
36	0xbcab59b2	-0.020916793
37	0x3c9d446d	0.019197667
38	0x3cc2bb9c	0.0237711
39	0x3c7d7000	0.015468597
40	0xbcca6f20	-0.024711192
41	0xbd61c8d3	-0.05512316
42	0x3cb335ce	0.021876242
43	0x3d20bd3e	0.039242975
44	0xbccc9460	-0.024973094
45	0x3c9d4245	0.019196639
46	0xbd061d87	-0.032743003
47	0x3ba30e8e	0.0049761003
48	0x3d308026	0.043090962
49	0x3c2e9c66	0.0106574055
50	0x3c5777d0	0.013151124
51	0xbbef9fed	-0.007312766
52	0x3bef1eee	0.0072973883
53	0x3b8a72af	0.004225097
54	0xbc9764e7	-0.018480731
55	0xbc3b93dd	-0.011448828
56	0xbc0b1731	-0.008489416
57	0x3d28d430	0.041217983
58	0x390acbde	0.00013236652
59	0x3d127b89	0.035762344
60	0xbcc82220	-0.024430335
61	0xbc778f3c	-0.015109833
62	0x3be8d76d	0.007105759
63	0xbccf1576	-0.025278788
64	0xbd0c79fb	-0.034296017
65	0xbce83f96	-0.028350633
66	0xbd247766	-0.04015293
67	0xbc9c8072	-0.019104216
68	0xbbb8d04e	-0.005640066
69	0x3ca732a7	0.020409895
70	0x3b93754e	0.004500068
71	0xbd05629f	-0.032564756
72	0x3a20984f	0.00061262114
73	0x3cc246a4	0.023715325
74	0x3d24dcb9	0.04024956
75	0xbaaddbb1	-0.0013264326
76	0x3cbf7b09	0.023374097
77	0xbcb4e4db	-0.022081783
78	0x3d19d115	0.03755291
79	0x3c264960	0.01014933
80	0x3d282f08	0.041060477
81	0x3acf7515	0.001582774
82	0xbb97a2a0	-0.0046275407
83	0xbb099254	-0.002099176
84	0x3b43af5f	0.0029859168
85	0x3a5b3fd2	0.0008363697
86	0xbd14dc42	-0.036342867
87	0xbc936926	-0.017994475
88	0xbd232b4c	-0.039836213
89	0xbd3663eb	-0.044528883
90	0x3c700199	0.014648818
91	0x3ccd89c1	0.0250901
92	0x3b8331e2	0.004003749
93	0xbd4b04dd	-0.049565185
94	0x3c9c7626	0.019099306
95	0xbc06df5c	-0.008231964
96	0xbc97300f	-0.018455533
97	0x3a14ee94	0.0005681303
98	0x3c3335bf	0.010938107
99	0x3c48259f	0.012216001
100	0xbce6df0d	-0.02818253
101	0xbd184ed1	-0.03718454
102	0x3c6fa351	0.01462634
103	0x3c5e5cc8	0.013571925
104	0xbc2ff674	-0.010739911
105	0xbc05b88a	-0.008161673
106	0x3d6018a2	0.05471099
107	0x3d094ae0	0.033518672
108	0xbc9ed25b	-0.019387415
109	0xbc04b7ac	-0.008100431
110	0x3c8a82af	0.016908018
111	0x3d89951a	0.06717892
112	0x3c901314	0.017587222
113	0xbcc0a8ff	-0.023518084
114	0x3d0be52e	0.03415411
115	0xbc039aa8	-0.008032478
116	0xbca2e82c	-0.019886099
117	0xbd37bd77	-0.044858422
118	0xbc2d972d	-0.010595125
119	0x3d14e134	0.036347583
120	0xbcc4c825	-0.024021218
121	0xbbf356d3	-0.0074261217
122	0xbc61d68d	-0.013784063
123	0xbd2fde7a	-0.04293678
124	0x3cac739e	0.021051224
125	0xbd39bd35	-0.045346458
126	0xbd039366	-0.032122992
127	0xbd04f695	-0.03246172
128	0x3c88e7e3	0.016712135
129	0xbd25eb67	-0.0405077
130	0xbce96aec	-0.028493367
131	0x3d0c4369	0.034243975
132	0x3ca1d0d2	0.019752894
133	0x3c30c368	0.010788776
134	0x3caeb854	0.021328129
135	0x3d85fa65	0.065418996
136	0xbc587c32	-0.013213204
137	0xbc141f9b	-0.009040738
138	0xbbb079d6	-0.0053856177
139	0x3d2fc618	0.042913526
140	0xbafda026	-0.0019350096
141	0xbd5c0dd2	-0.053724118
142	0x3c4469ce	0.011988116
143	0xbc6ad38c	-0.014332663
144	0xbcbd5514	-0.023111857
145	0xbbcf7c1c	-0.0063319337
146	0xb94484e4	-0.00018741522
147	0xbba0aee2	-0.00490366
148	0xbcb289f5	-0.021794299
149	0xbcbba1e8	-0.022904351
150	0x3c23f3db	0.01000687
151	0x3d44e70c	0.048071906
152	0x3ce905f3	0.02844522
153	0x3d2557d3	0.04036696
154	0xbd399ca5	-0.045315403
155	0xbc3ee6e0	-0.011651725
156	0x3bf9f902	0.007628561
157	0x3c9b56ad	0.018962229
158	0xba4bdbf9	-0.0007776614
159	0xbc2ea7ce	-0.010660125
160	0xbd380bf1	-0.044933263
161	0xbbe73e9f	-0.0070570256
162	0xbc1c118b	-0.009525667
163	0xbd3b1288	-0.04567197
164	0xbc235311	-0.009968535
165	0x3c4e3f94	0.0125884
166	0x3ca50cf0	0.02014777
167	0xbcaaa996	-0.020832818
168	0x3d11888f	0.035530623
169	0x3b394fd0	0.0028276332
170	0x3cde4f4a	0.027137417
171	0xbaaf398c	-0.0013368591
172	0x3c824f93	0.015907085
173	0x3cc0a903	0.023518091
174	0xbc86edd7	-0.016470833
175	0x3cc30cd7	0.023809833
176	0x3c90b7fe	0.01766586
177	0x3c97c278	0.018525347
178	0x3cb9249e	0.022600468
179	0x3ca49754	0.02009169
180	0xbc904659	-0.01761167
181	0x3ce317a5	0.027721236
182	0x3ca52596	0.020159524
183	0xbc71428e	-0.0147253405
184	0xbccaf936	-0.024777036
185	0xbb72537a	-0.0036976025
186	0x3d6bf4b3	0.05760641
187	0xbc8bc564	-0.017061897
188	0x3c38180f	0.011236205
189	0x3c9d4ff7	0.01920317
190	0x3c63bb26	0.0138996
191	0x3c2c0ff8	0.010501854
192	0xbcbba487	-0.022905601
193	0x3c9f617b	0.019455662
194	0x3ca30c9b	0.019903472
195	0xbb52e921	-0.0032182413
196	0x3d425d64	0.047452345
197	0x3cea3f8e	0.028594758
198	0xbb57a4fe	-0.003290474
199	0xbcec7505	-0.028864393
200	0xbc76f32e	-0.015072627
201	0xbc26ff6d	-0.010192734
202	0x3cac2a97	0.021016402
203	0xbbef40df	-0.0073014344
204	0x3c5f4899	0.0136281485
205	0xbd23f9e2	-0.04003323
206	0xbc8d63b6	-0.01725946
207	0xbd01bc90	-0.031673968
208	0x3c8a82cc	0.016908072
209	0xbb35871b	-0.0027698937
210	0xbc0ae2a3	-0.008476886
211	0x3ceb2c7b	0.028707733
212	0x3d4ac726	0.04950633
213	0xbc077e4a	-0.008269856
214	0x3c5f2ecd	0.013621998
215	0x3c68cb94	0.014208693
216	0x3ba91583	0.005160035
217	0xbd0ee23e	-0.03488373
218	0xbd17484a	-0.036934175
219	0x3cd6f0f1	0.026237937
220	0xbd074056	-0.03302034
221	0x3c0d0a6b	0.008608441
222	0x3c49596b	0.012289385
223	0x3d04299c	0.032266244
224	0x3d373b1b	0.0447341
225	0x3cc506ea	0.024051148
226	0xbc65fa97	-0.014036796
227	0x3d39563f	0.045248266
228	0xbb10b2fe	-0.0022079344
229	0x3c173909	0.009229907
230	0x3cdaea7e	0.026723143
231	0xbc08a2a4	-0.008339558
232	0xbcb3afd5	-0.02193443
233	0x3d70eb4f	0.058818158
234	0x3cd6b35b	0.02620857
235	0x3905db0f	0.00012765474
236	0x3d21299a	0.039346315
237	0xbca3d4c0	-0.019998908
238	0x3ad39701	0.0016143025
239	0x3d398d77	0.045300927
240	0xbb7b7103	-0.003836692
241	0x3b3d9c20	0.002893217
242	0x3bfa61d7	0.007641058
243	0xbd14c9f9	-0.03632543
244	0xbd757fc0	-0.059936285
245	0xbd1a8207	-0.03772166
246	0x3ca2ba08	0.019864097
247	0xbc0089e9	-0.00784538
248	0xbdafff19	-0.08593578
249	0x3d0bc5fe	0.034124367
250	0x3aa4ef42	0.0012583511
251	0x3bc0d1df	0.0058843936
252	0xbc90e1f1	-0.017685862
253	0x3a1b9a20	0.0005935747
254	0xbd6804d8	-0.056645244
255	0x3cdb2805	0.026752481

layer_stack.2.layer_stack.2.bias f4 [72]
0	0x3c8b5af9	0.017011153
1	0xbd09239a	-0.033481218
2	0xbd16278d	-0.036658812
3	0xbc9ea3d7	-0.019365234
4	0x3d1c9830	0.038231075
5	0xbc3c13d3	-0.011479336
6	0x3c6a04ee	0.014283402
7	0x3c6fa402	0.014626505
8	0x3cd12de1	0.025534572
9	0x3ca8c480	0.020601511
10	0xbcac2986	-0.021015894
11	0x3ca26f72	0.019828532
12	0xbc3b96b8	-0.011449508
13	0xbc2136c8	-0.009839721
14	0xbcec3056	-0.028831642
15	0xbc84f604	-0.01623059
16	0x3c3b3983	0.011427286
17	0xbc3c5777	-0.011495463
18	0x3d1824f7	0.037144627
19	0x3ce6cb56	0.02817313
20	0x3b9357b3	0.0044965385
21	0xbd000d26	-0.03126254
22	0xbce0d9dc	-0.027447633
23	0x3d26aff6	0.040695153
24	0x3c8e5db0	0.017378658
25	0xbbf4bb61	-0.0074686264
26	0x3cf2ae29	0.029624062
27	0xbc4cb1d1	-0.012493567
28	0xba408a87	-0.0007344861
29	0x3cb714d8	0.022348806
30	0xbc3fcad1	-0.01170607
31	0x3b57f2ba	0.0032951073
32	0x3cdc2105	0.026871214
33	0x3ce790e4	0.028267331
34	0xbd2b0bd0	-0.041759312
35	0xbd10f8fc	-0.0353937
36	0xba43abcb	-0.0007464259
37	0xbc4cca31	-0.012499378
38	0x3d1711e9	0.036882315
39	0x3d0ed3c2	0.034869917
40	0xbc156b54	-0.009119827
41	0xbb5fe682	-0.0034164493
42	0xbc0ba840	-0.008524001
43	0xbcb313c2	-0.021860007
44	0xbcc557a0	-0.024089634
45	0xbd1c50dd	-0.038163055
46	0xbc734cc5	-0.014849846
47	0x3cb40296	0.02197389
48	0x3c148d1e	0.009066848
49	0x3d11b584	0.035573497
50	0xbc9d43e5	-0.019197414
51	0xbc9ae8ea	-0.01890989
52	0xbcab7d81	-0.020933868
53	0x3b683fa6	0.0035438328
54	0x3cfe1352	0.031015072
55	0x3cbc2840	0.022968411
56	0xbbfe6e4a	-0.0077646123
57	0xbcd9e9e3	-0.026600784
58	0x3b7b14a9	0.0038311875
59	0x3c25bc14	0.010115642
60	0xbbc9f4cd	-0.0061632157
61	0x3c4788f3	0.012178647
62	0x3d1aa74f	0.037757214
63	0x3d1c2b16	0.038127027
64	0xbbdce033	-0.006740594
65	0x3ce021a0	0.027359784
66	0x3d046421	0.032322053
67	0x3c8ffabb	0.017575612
68	0x3c3e1f24	0.011604104
69	0xbc04e329	-0.0081108
70	0xbd13a931	-0.036050025
71	0xbd2956ee	-0.04134267
