lotsaconvs/nets/deep6.pt (torch, 539271 bytes, 18 tensors)

layer_stack.0.weight f4 [48, 1, 1, 1]
000000 2b dd 8a 3e 7b 6c ae be c0 83 3d be 1e 79 20 3e
       0.27121863 -0.3406714 -0.1850729 0.15671203
000010 0c 33 94 3c a9 bf de 3d 90 c5 84 3d 93 60 4d 3c
       0.018090747 0.108764 0.064829946 0.012535232
000020 ff 9b b6 3c c4 28 cc be 09 ae d2 be 82 8d 4b bf
       0.022291182 -0.39874852 -0.41148403 -0.795128
000030 1a 1d 64 bf d4 bc 12 be 04 0d 1c 3a ba 3b 9b be
       -0.89106905 -0.14329845 0.0005952867 -0.30319005
000040 e8 7c e8 be 71 82 22 3d 64 21 83 be fe ce b2 3d
       -0.45407796 0.03967518 -0.25611413 0.08730887
000050 28 3f f9 3d 5c ec 5a bf d0 1a a4 bd fb 34 e0 3d
       0.12170249 -0.85516906 -0.080129266 0.10947605
000060 84 55 38 3e fc 36 56 3c e2 b7 23 bf 80 be c3 be
       0.18001372 0.013074633 -0.6395246 -0.38231277
000070 11 1b 7f 3d c2 ba 31 3e e2 09 0f bf e4 7e 88 3e
       0.062281672 0.17356399 -0.55874455 0.2665931
000080 a4 52 db be 14 c9 02 3e 40 ff dc bd 92 c2 40 bf
       -0.42836487 0.12772018 -0.107908726 -0.7529689
000090 a8 f1 c6 be 32 9d 5d 3b f8 1c 85 3d 29 36 bf 3d
       -0.38856244 0.003381562 0.06499666 0.09336502
0000a0 6a b4 27 bf e0 75 99 be ef 61 d2 3a 8f f8 17 3e
       -0.65509665 -0.29972744 0.0016050915 0.14840911
0000b0 8c 5e 43 bf b0 64 9c bd f0 60 f9 bd b2 60 5f bf
       -0.7631614 -0.07636392 -0.121766925 -0.8725692

layer_stack.0.bias f4 [48]
000000 fa ab 44 3f da c4 bc 3e e4 e2 b1 be 7e 3e 06 3f
       0.76824915 0.36868936 -0.34743416 0.52439106
000010 b2 02 7f be 88 3b 98 be 5e 3f 0a 3e 60 4b 6b be
       -0.24903372 -0.2973292 0.13500735 -0.22977972
000020 ff 10 3c bf ea fd 79 3f 74 23 1e 3f 07 ab 21 3f
       -0.73463434 0.9765307 0.6177285 0.6315159
000030 53 aa 1d 3f 32 35 17 3e ae 84 2c be 79 21 68 3f
       0.6158802 0.14766386 -0.16847488 0.90676075
000040 1a ef 17 bf f1 8b 7a be f8 c8 35 3e 50 f7 3e 3f
       -0.59349215 -0.24467446 0.17752445 0.7459612
000050 cd 31 53 3f f8 55 93 3d 8f 6a 35 3d 12 a1 fe be
       0.82497865 0.071941316 0.044291075 -0.49732262
000060 3f 99 2b 3f 02 6e 80 be 48 3f 40 bf 34 1b 4a 3e
       0.6703071 -0.2508393 -0.7509656 0.1973694
000070 2d 97 73 bf 29 50 24 3f f7 a7 49 3f 81 a4 8d 3e
       -0.9515255 0.64184815 0.7877192 0.2766457
000080 b0 50 46 be 08 f8 38 3f 1c 30 73 bf 36 b6 77 bf
       -0.19366717 0.72253466 -0.94995284 -0.96762407
000090 28 02 67 bf 3d 80 5f bf f6 21 6a 3e f7 a7 52 3f
       -0.90237665 -0.8730505 0.22864518 0.82287544
0000a0 44 8a b1 3e 10 a9 ea be ae e1 d6 be 2a 02 16 3f
       0.346758 -0.4583211 -0.41969055 0.5859705
0000b0 60 78 ea 3e c0 3c 25 bf 5a 92 1c bf e8 08 9d be
       0.45794964 -0.6454582 -0.61160815 -0.30670857

layer_stack.2.weight f4 [48, 48, 1, 1]
000000 b0 c1 c6 3b 99 fd dd bd 36 84 90 3d 06 89 cd 3d
       0.00606557 -0.108393855 0.07056467 0.10035901
000010 60 10 25 3d 53 42 22 be bf 01 f3 3d be 5b e9 bd
       0.04029882 -0.15845613 0.118655674 -0.113944516
000020 47 c6 a8 3d 8f 82 95 bd 00 1f 73 3d 44 f2 0a be
       0.082409434 -0.07300293 0.059355736 -0.1356898
000030 40 2f 2b 3b 17 22 4e 3c e5 7e da bc ae a9 dd bd
       0.0026120692 0.01258137 -0.026671836 -0.108233795
000040 0c 12 82 3d ec c3 10 be d6 61 b4 bd d8 cc 1b be
       0.063510984 -0.14137238 -0.08807723 -0.1521486
000050 09 ea 86 bd 80 97 e2 ba d4 17 44 bd 1e 99 3c bd
       -0.065876074 -0.0017287582 -0.047874287 -0.04604446
000060 1b da c3 bd 64 07 49 bb 92 d2 d6 bd d8 8d 83 3c
       -0.09563085 -0.0030674571 -0.10489382 0.016058847
000070 41 8a 8e bd a4 d4 aa bd 85 af d4 3b 00 33 8b 3d
       -0.069599636 -0.08341339 0.00649065 0.06796837
000080 ce c0 89 3d 7c 81 f4 bd ab d7 f3 bd 9c 48 d8 bc
       0.06726228 -0.1193876 -0.1190637 -0.02640181
000090 28 bf 84 bc 4d f5 6f bd 90 03 f2 bd 4d 5e 12 be
       -0.016204432 -0.058583546 -0.11817086 -0.14293785
0000a0 8a 34 c8 bd 26 ec b9 3d a3 96 b6 3c b5 61 99 3d
       -0.09775646 0.09078245 0.022288626 0.07489339
0000b0 70 cd 95 3c 38 6b ef 3c c4 1e 64 bd e8 c3 fa 3d
       0.018286437 0.02922593 -0.055693403 0.122443974
0000c0 ca d1 04 be ca 8c 86 bd a7 7f 9c bd e2 33 b1 3d
       -0.12970653 -0.06569822 -0.07641535 0.08652474
0000d0 7d 85 9b bd 80 e2 78 bd 0f e6 82 bd 21 e1 c7 bd
       -0.0759382 -0.060762882 -0.063915364 -0.09759737
0000e0 20 a9 14 bc 5c a7 4c 3d 3c 4f f5 3d 16 db 48 bd
       -0.009073526 0.049964294 0.119780034 -0.04903706
0000f0 d4 48 eb bc e6 03 c3 3d a0 ce c7 bd 18 ee 89 bd
       -0.02872125 0.09522228 -0.097562075 -0.06734866
000100 ba 4d a9 3d a0 40 4d 3c e6 61 a7 3d 1c 5c f2 bc
       0.08266778 0.012527615 0.081729695 -0.029584937
000110 8c 97 23 3d a8 6b 06 3e 00 aa 51 bd 4c 00 7f 3d
       0.03993945 0.13127005 -0.051187515 0.062256142
000120 98 11 a0 3c 66 40 0a 3e 0a 84 e1 bd 04 71 29 3d
       0.01953964 0.13501129 -0.110115126 0.041367546
000130 c4 be d4 3d 98 bf dd bd 94 a1 d0 3d 3c 42 8d bd
       0.10387948 -0.10827559 0.101870686 -0.06897399
000140 73 59 a1 bd cf 7f ed bd dc dd fa 3d 90 60 06 3e
       -0.07878389 -0.11596643 0.122493476 0.13122773
000150 00 bc 1b b9 2c 3b 2d bd 3c af c8 3d dc 79 ad bc
       -0.00014851987 -0.04229276 0.09799048 -0.021176271
000160 10 42 8e 3c 80 5b 64 bb 00 3f 19 3d ae fa 18 bd
       0.017365485 -0.0034844577 0.037413597 -0.03734844
000170 04 39 e0 3d f8 1b cc bd 60 05 ab bb 24 ba c6 bd
       0.10948375 -0.09966272 -0.0052191466 -0.09703472
000180 50 46 f2 3d ae 2e 70 bd 9c cc b6 3d 40 fa 96 bb
       0.11829817 -0.058638267 0.08925745 -0.004607469
000190 9e c9 fe 3d de 5c 99 bd ba 3c 7d bc 4d 9a a4 bd
       0.12440799 -0.07488416 -0.015456373 -0.08037243
0001a0 ae b6 0f bc c9 f9 ca bd e1 ee 14 bd 02 fa cf bd
       -0.008771582 -0.09910924 -0.036360625 -0.10155107
0001b0 80 e3 f4 3c 2e 64 42 3d 66 b6 85 bb fa 99 a8 3d
       0.029893637 0.04745882 -0.0040805815 0.08232494
0001c0 80 70 7e 3d 70 69 fe 3d e0 72 ce bd 80 ca 7b bc
       0.062119007 0.12422454 -0.100805044 -0.015368104
0001d0 de e7 7f 3d c0 13 b9 3d b4 c2 1c 3d 3e 81 81 3c
       0.062476985 0.0903697 0.03827162 0.015808698
0001e0 3c f3 d0 bd 30 59 b8 3c 90 c2 0f 3d 2c 0a 1d 3d
       -0.10202643 0.022503465 0.03509766 0.03833978
0001f0 42 e7 65 3d 0b 78 23 bd c2 b3 ec 3a f3 db 1a be
       0.056128748 -0.039909404 0.0018058943 -0.15122966
000200 a8 62 f5 3d 9f 88 8a bd fe 6d 00 be e8 87 e3 3d
       0.11981708 -0.0676434 -0.12541959 0.111099064
000210 b8 03 4f 3d ff 2e 5a bd 95 49 f4 bd e0 95 68 3d
       0.050540656 -0.053267475 -0.11928097 0.056783557
000220 98 9a ff bd 98 c1 19 bd 8e 3f 2c bd 1c bb 3b 3d
       -0.12480658 -0.03753814 -0.042052798 0.04583274
000230 16 7f aa 3d 50 fe 95 bd 18 c9 89 3c 48 31 b8 3c
       0.08325021 -0.07323897 0.016819522 0.022484437
000240 34 ef 00 3e 69 28 0a be 80 a1 fa 3a f6 59 1f bc
       0.12591249 -0.13491978 0.0019121617 -0.009726038
000250 06 24 04 3e 70 20 38 3d 71 7a 95 3c e6 3a c5 bd
       0.12904367 0.04495281 0.018246861 -0.096303746
000260 87 c0 f0 3d ad d0 c9 3d 8e 57 fa bd 67 e1 a9 bd
       0.11755472 0.09854255 -0.12223731 -0.08294945
000270 d9 fb d8 3c fc d1 0d be 36 58 66 bd 60 68 8d 3d
       0.026487278 -0.13849634 -0.05623647 0.069046736
000280 0a 38 8b bd 71 1f d4 b8 37 5e 04 be d3 58 ec bd
       -0.06797798 -0.00010114804 -0.12926565 -0.115403794
000290 28 5e a5 bb cc 35 95 3c ee 5c e9 3d 3f 94 f8 bd
       -0.0050466247 0.018214129 0.11394678 -0.12137651
0002a0 75 27 ec bc c5 64 26 be 8a ce c3 3d 4d 67 9a 3d
       -0.028827408 -0.16249378 0.095608786 0.07539234
0002b0 e6 1d f8 3d 38 de 18 3e 95 eb 75 3d 3f c1 f4 3c
       0.12115078 0.1492852 0.06003912 0.029877303
0002c0 ac c3 b3 bd 1c 57 b8 3d 94 98 a0 bc 18 d4 3f bd
       -0.08777556 0.0900099 -0.019604005 -0.046833128
0002d0 88 e0 14 bd 05 68 2c bd 08 a8 24 3e 90 26 c6 bd
       -0.036346942 -0.04209139 0.16079724 -0.09675324
0002e0 08 0c 74 3c 44 66 ed bc d0 f6 4f 3d 9a 1f c7 bc
       0.014895447 -0.028979428 0.050772488 -0.024307061
0002f0 c5 d7 9c 3d 70 bf ea 3d 40 ab e6 bb ac d5 31 3d
       0.07658342 0.11462295 -0.0070394576 0.043416664
000300 69 a3 26 be 5c 0b be bd 0e d9 95 3d 28 f9 18 3d
       -0.16273274 -0.092795104 0.073167905 0.03734699
000310 5a 78 86 3d bf 38 a7 3d 40 d3 0b bc e1 15 be 3d
       0.06565924 0.0816512 -0.008534253 0.09281517
000320 4c f2 26 bc bd c3 3e bc 0f 99 80 bc 66 29 b3 3d
       -0.010189604 -0.011643347 -0.015697984 0.087481305
000330 68 36 e5 3c 32 92 b3 3d d4 41 98 bd 29 33 e3 bd
       0.027980044 0.08768119 -0.07434431 -0.110937424
000340 a0 dd d9 3b d0 32 cc bc 52 c0 09 bd 16 33 e9 bd
       0.006648734 -0.024926573 -0.033630677 -0.11386697
000350 97 9b ec 3c e8 09 f6 3c 3f 71 c3 bd 2a 90 9b 3d
       0.028882785 0.03003402 -0.09543084 0.075958565
000360 28 69 eb 3c 48 13 35 3d 02 57 b3 3d c8 1e 15 bd
       0.028736666 0.04420784 0.0875683 -0.03640631
000370 1c e1 43 bd 97 23 d1 3d d0 39 05 be 79 e4 e7 bd
       -0.047822103 0.10211866 -0.13010335 -0.113228746
000380 d0 e8 e1 bd f8 ac 0f 3d 9c 05 42 3d a6 c3 8b 3d
       -0.110307336 0.035077065 0.04736863 0.06824426
000390 ae db 00 3e 0a 23 17 3d 9f 6c f7 bc 00 17 e0 bd
       0.12583801 0.03689865 -0.030203162 -0.10941887
0003a0 e0 3e 90 3b 96 4f b9 3d 77 bd de 3c bb 14 b7 3d
       0.0044020265 0.09048383 0.027189953 0.08939501
0003b0 9a 16 d9 bd 32 04 56 bd 7e bc 34 bd a0 3f 68 bc
       -0.10600014 -0.052250095 -0.044125073 -0.014175326
0003c0 04 00 0f be 50 84 c3 3d 1e b3 aa 3d f3 bd 01 be
       -0.1396485 0.09546721 0.08334945 -0.12670116
0003d0 be 41 1a 3d de 5f d0 bd ea 54 98 bc 98 8a fc 3c
       0.037660353 -0.10174535 -0.018595178 0.030827805
0003e0 59 d2 1f 3c 00 84 0f 3c 10 f0 ed 3d 51 ce 6a 3d
       0.009754741 0.008759499 0.11618054 0.057325665
0003f0 4c fb cf bd 32 81 41 bd f9 4f 9b bd 72 26 b1 bc
       -0.10155353 -0.04724235 -0.07583613 -0.021624777

layer_stack.2.bias f4 [48]
000000 2c 38 d2 3c b0 06 04 be 5d a9 fc bd 03 0e 1b 3e
       0.02566155 -0.12893176 -0.12336991 0.15142064
000010 00 3a da bd 00 6a e2 3d 78 ca b2 bd f0 57 c3 3d
       -0.10655594 0.11055374 -0.08730024 0.09538257
000020 38 a8 eb 3d d1 4b 9e bd ab c3 9b bd 04 e3 fc 3d
       0.115066946 -0.077293046 -0.0760568 0.12347987
000030 e7 16 17 3d eb 34 e9 3d 12 fb 15 3e 13 40 00 be
       0.036887076 0.113870464 0.14646557 -0.12524442
000040 c9 99 08 3e 96 12 ae 3d bb a6 4d bd 62 1a a6 bd
       0.13339914 0.08499639 -0.050207835 -0.08110501
000050 94 41 12 3d 89 4c af 3d 1d 35 08 3d 9e 70 90 3c
       0.03570707 0.0855952 0.033253778 0.017631825
000060 8a e0 58 bd f8 6e 13 3e a0 df 94 3d 5d 45 47 3b
       -0.052948512 0.143978 0.072692156 0.0030406334
000070 c1 30 5b 3d d6 af b1 bc 96 fe 0c bd 3b 79 4b 3b
       0.053513292 -0.02169029 -0.03442248 0.00310476
000080 80 2f fb ba b0 3d 65 bc 87 6c c0 3c b4 5f 01 3e
       -0.0019163936 -0.013991758 0.02348925 0.12634164
000090 0b d2 d8 3d 6e 7d bd bd 78 b9 7c 3d 94 02 ad 3d
       0.105869375 -0.092524394 0.061700314 0.08447757
0000a0 eb 40 02 be c2 42 d7 bd fd 25 ce 3c 73 39 8d bd
       -0.12720077 -0.1051078 0.025164599 -0.06895723
0000b0 61 cc bb 3c b4 3c 12 3e 3f e1 0b 3e 7e 28 9b bd
       0.022924604 0.14280969 0.13660143 -0.07576083

layer_stack.4.weight f4 [48, 48, 1, 1]
000000 f2 c3 04 bd c8 05 a0 3c 68 a1 f3 3d a1 6e cf 3d
       -0.03241343 0.019534007 0.1189602 0.10128523
000010 b4 aa eb bd 29 1c f0 3d c0 4c 79 3b ad a5 b5 bd
       -0.115071684 0.11724121 0.0038040131 -0.08869491
000020 d8 42 b6 3c 6a 89 3a bd eb c0 f3 bc d2 58 cc bd
       0.02224867 -0.045541205 -0.029755076 -0.09977879
000030 99 53 7a 3c ba 2d dc 3d b8 a8 1e 3c d0 71 90 bd
       0.01527872 0.10750909 0.00968378 -0.07052958
000040 e9 5e e7 3d 59 93 51 bd f3 a6 b4 bd fa 56 83 3d
       0.112973996 -0.051165912 -0.088209055 0.06413074
000050 18 76 3f 3d 2e ae 9f ba c4 89 09 be 54 6d 0e be
       0.046743482 -0.0012182647 -0.1343146 -0.13908893
000060 a7 f3 11 be 35 f7 d1 bd d0 ad 11 3c c2 65 ef ba
       -0.14253102 -0.10252229 0.008891538 -0.0018264579
000070 da 5c be bd d5 fd f8 3d 0a 6b cd bd 50 e6 b3 3d
       -0.09295054 0.121577896 -0.10030182 0.08784163
000080 6e 9b d5 bd a0 9b 2c 3c e0 7c 3e 3d 40 05 85 3b
       -0.104300365 0.010535151 0.04650581 0.0040594637
000090 d7 f2 11 be f6 34 b3 3d 08 cb ca 3d 08 dc 5b 3d
       -0.14252792 0.08750336 0.099020064 0.053676635
0000a0 8e 00 43 bd 78 e3 cc 3d f7 f5 40 bd 3b df f6 bd
       -0.04760795 0.10004324 -0.04710957 -0.120542966
0000b0 64 cb 14 3d 40 5f 42 3b 41 80 34 bd 65 5c d7 bd
       0.03632678 0.0029658824 -0.044067625 -0.1051567
0000c0 40 9b da 3d e0 8a 6f bc 38 b0 81 3d 40 a5 91 bb
       0.10674143 -0.014620513 0.06332439 -0.004444748
0000d0 e0 0c b2 3c 3c a9 df bd 42 2c 2e bd 44 9f 24 bd
       0.021734655 -0.10920951 -0.042522676 -0.04019095
0000e0 90 b2 aa 3c 77 5a b4 bd 40 01 df bd e4 39 e9 bc
       0.020837098 -0.08806317 -0.1088891 -0.028469987
0000f0 76 7b 2a bd c0 23 df 3c 70 71 da 3d 74 8e f4 bd
       -0.041621648 0.027238727 0.10666168 -0.11941233
000100 e0 36 b4 3c 90 fe 12 be 80 13 9b 3b a0 28 9e bc
       0.021998823 -0.1435492 0.004732549 -0.01930648
000110 d6 77 67 bd 02 92 0c 3e 98 a5 a9 bd f0 15 96 3d
       -0.05651077 0.13727573 -0.082835376 0.07328403
000120 10 95 db 3d e6 2c 70 bd c1 3d d0 bd 60 83 1e bc
       0.10721791 -0.05863657 -0.101680286 -0.009674877
000130 20 9e 81 3d 68 b9 09 3e cc 19 0b 3d 78 ed 8f 3d
       0.06328988 0.13449633 0.03396015 0.070277154
000140 e6 a1 ad bd 4d 3e 80 bd 50 4e 10 3d 0c 55 cc bc
       -0.08478145 -0.06261883 0.035230935 -0.024942897
000150 54 24 e0 bd 60 da e1 bc ae 3b d3 3d e0 27 e9 3d
       -0.10944429 -0.02756995 0.10314117 0.11384559
000160 9c 6d 78 3d ec ff f4 bd 8c 90 cf bd 2c cc cb 3d
       0.060651407 -0.11962876 -0.10134992 0.09951052
000170 80 ce 1d 3d 2e 0b 41 bd 98 2d f5 3d 24 8a 2a bd
       0.038527012 -0.047129802 0.11971587 -0.041635647
000180 a2 70 b8 3d 80 b0 5d 3d 44 b1 28 bc a1 ed 26 bd
       0.09005858 0.0541234 -0.01029617 -0.040753964
000190 e9 23 36 3d 74 6f ea 3d b1 54 e1 bd 40 58 62 3d
       0.04446784 0.11447039 -0.11002482 0.055259943
0001a0 c0 28 11 3b 40 00 e6 3d 02 7e a1 bc 0d cc 05 bc
       0.0022149533 0.112305164 -0.019713406 -0.008166325
0001b0 28 f3 bf 3d 49 da ef 3d 69 ac 84 3d 27 93 81 bd
       0.0937255 0.117115565 0.06478197 -0.06326895
0001c0 3e 02 45 bb 5a 22 ee 3c ef 5b 01 be c4 d6 c7 3d
       -0.003006115 0.029069114 -0.12632726 0.0975776
0001d0 3b 9e ed bc 7e c0 b4 bd bf 71 13 be c2 04 ae 3d
       -0.029006114 -0.088257775 -0.1439886 0.08497001
0001e0 b5 a5 ce 3d d0 58 2a be 2d bc 10 be be 36 03 be
       0.100902 -0.16635442 -0.14134283 -0.12813851
0001f0 7f fd d0 bc 6c d3 0f 3e 96 f6 cf 3d 48 0c ea bb
       -0.025511501 0.14045495 0.101544544 -0.0071425773
000200 18 61 fc 3c 6a ec bf 3d 8d ab dc bd 4a ef 01 bc
       0.030808017 0.09371264 -0.10774908 -0.007930586
000210 60 f0 e1 3d 70 bf 5f bd 57 da b6 bc 00 ec 05 bc
       0.11032176 -0.05462593 -0.02232091 -0.008173943
000220 a8 5b d0 bc 10 99 82 bc 68 1c 08 bc 06 83 06 3e
       -0.02543433 -0.015942127 -0.008307554 0.13135919
000230 66 31 e3 bd 94 20 24 3d db 26 6e 3c 87 fd 54 bd
       -0.110934064 0.04007013 0.014535631 -0.051999595
000240 76 1d 26 bd 66 d6 a7 3d ae 8b cf bd c8 2c 60 bd
       -0.04055544 0.0819519 -0.10134064 -0.054730207
000250 f1 ec bc 3d 31 2d 03 3d 7e 32 db 3c 80 35 72 3b
       0.092248805 0.03202552 0.026757475 0.0036958158
000260 f8 3b b8 3d 60 65 98 bb e1 8d b5 bd e6 fb de bc
       0.08995813 -0.0046507567 -0.08864952 -0.027219724
000270 45 ab 51 bc 36 63 b0 bc 72 9a 8c 3c 48 a7 14 bd
       -0.0127971815 -0.021531682 0.017163489 -0.036292344
000280 9c 05 c4 3b 72 c7 f3 3b f9 10 0d 3c 20 05 ac bd
       0.005982114 0.007439547 0.008610004 -0.08399415
000290 42 d4 2d bc 00 46 90 3b 01 08 77 3d e6 6d ce bd
       -0.010609688 0.004402876 0.060310367 -0.10079555
0002a0 6d 3c b5 3d de 75 b3 bd 78 a8 5d 3d eb 22 0a be
       0.08849416 -0.08762716 0.054115742 -0.13489883
0002b0 9f 83 4f bd 37 71 bb 3d 4a af 04 3e 57 2b b9 3d
       -0.050662633 0.091524534 0.12957492 0.090414695
0002c0 b0 1f dc bc b0 04 50 bc 1d 78 ad 3d 1a 7f ff 3c
       -0.026870579 -0.01269643 0.084701754 0.031188536
0002d0 cd 24 f3 3d f9 dc f1 bd c4 14 1f 3c 60 15 a1 3d
       0.118722536 -0.11809725 0.009709541 0.07865405
0002e0 d8 1c 00 3d 7c de 6f 3d 82 14 eb 3c d0 ca 1f 3c
       0.031277508 0.058561787 0.028696302 0.009752944
0002f0 aa 63 85 bc d6 d7 04 3e 77 34 46 3c 78 91 4f 3d
       -0.016282875 0.1297296 0.0120974695 0.05067584
000300 be f9 3e bd 36 45 d7 3d ea f3 86 3d c5 ba 03 3e
       -0.04662489 0.10511248 0.06589492 0.12864216
000310 42 7d 11 be 4b 46 9e bd bf 8b 0a be eb cf a4 bd
       -0.14207938 -0.07728251 -0.13529871 -0.0804747
000320 00 ae fb 3c c8 ac 0f 3d 9e ff 03 bd 76 e0 dc 3c
       0.030722618 0.035076886 -0.032226197 0.0269625
000330 a3 d1 0e be 9a 31 df 3d 87 7b c8 bd c0 89 b9 bb
       -0.13947158 0.108981326 -0.09789186 -0.005662173
000340 c7 ad b2 3d 5a e0 93 3d 74 a8 c6 bc 02 a8 a4 3d
       0.08724552 0.07220526 -0.024250247 0.080398574
000350 eb 46 f2 bd f7 f5 d0 3d e0 91 6b bd a1 51 98 3d
       -0.11829933 0.10203164 -0.057512164 0.074374445
000360 7f b8 bc bd d8 a6 b6 bd 91 44 8f 3d b6 39 0a be
       -0.09214877 -0.08918542 0.069955 -0.13498577
000370 6d 3c c1 bd af ee 02 be 26 d3 98 bd b4 68 0a 3e
       -0.094353534 -0.12786363 -0.07462148 0.13516504
000380 1a 94 8e 3d c8 92 82 3d c3 c3 b2 3d be 3b a8 3d
       0.06961842 0.063756526 0.08728745 0.0821452
000390 7e 3e f8 3c 23 cb 07 3e 0f 33 10 be 12 b6 56 bd
       0.030303236 0.13261084 -0.14081977 -0.05241973
0003a0 80 0c 99 3c 30 b3 66 3c 37 66 77 bd 0d 07 b8 bd
       0.018682718 0.014080808 -0.060400214 -0.0898572
0003b0 03 7c d0 3c 6e 23 89 3d 38 24 39 3c f9 8c 09 3d
       0.025449758 0.06696211 0.011300139 0.033581708
0003c0 29 3f 82 3c 76 7a 10 3e 83 59 7f bd b7 d8 0c be
       0.015899258 0.14109215 -0.062341224 -0.13754545
0003d0 a2 ea a9 3d 21 4f 05 3d 8a 6c 4e 3c 3c 99 97 3d
       0.08296706 0.032546166 0.01259912 0.07402274
0003e0 fa 29 13 be a6 e7 51 bd 2f 23 13 be 96 d9 d3 3b
       -0.14371482 -0.051246308 -0.1436889 0.0064651472
0003f0 ff 2f 70 3c 78 e9 b2 bd 2e 6e bd bd 98 b8 1c 3d
       0.014659881 -0.08735937 -0.09249531 0.03826198

layer_stack.4.bias f4 [48]
000000 c4 21 33 3d 70 ef c1 bd f2 19 56 bd 39 98 e1 bc
       0.043733373 -0.09469497 -0.052270837 -0.027538406
000010 62 ea 08 3e 02 d8 e0 3c a4 fe 0e be 51 29 0e bc
       0.1337066 0.02744675 -0.13964325 -0.008676843
000020 42 d1 c5 3c 3a 36 8b 3d 05 2c 92 3d c1 d2 68 3d
       0.024147633 0.06797452 0.07137302 0.056841616
000030 94 27 1f 3e c8 6c 9a 3d 92 e6 2f 3e 8a 65 8a 3d
       0.15542442 0.075402796 0.171778 0.06757648
000040 f7 f9 01 3e 05 de 33 bd 41 14 cd bd 7f 7d 4d 3c
       0.1269301 -0.043912906 -0.10013629 0.012542128
000050 34 ad 92 3c 2b 00 0c 3d 46 4c 8d 3d 34 b3 ba bd
       0.017904855 0.034179848 0.06899314 -0.091162115
000060 bb 4c 0b be 19 c7 db bd eb a7 7a 3d 1e 3d 50 bc
       -0.13603489 -0.10731334 0.061195295 -0.012709884
000070 5f e1 50 3d 14 ee f8 bd 87 7e 0d be 3d 73 48 3c
       0.05099618 -0.12154785 -0.13817798 0.012234506
000080 bf a5 b8 bc 17 e8 93 bd 0c 7b 16 3e 72 35 04 be
       -0.022539971 -0.07222002 0.14695376 -0.12911013
000090 04 b3 c7 3d 7f 08 cc bd fd c4 9a bd 90 a1 03 bd
       0.097509414 -0.09962558 -0.07557104 -0.0321365
0000a0 3e 0f 2b 3d a2 b1 2b 3d a5 34 96 bc d8 ab d8 3c
       0.041762583 0.04191745 -0.01833565 0.026449129
0000b0 5d c3 1d ba d9 4d a3 3d 80 11 cc bd 0f b5 c4 3d
       -0.0006018186 0.07973833 -0.09964275 0.09604847

layer_stack.6.weight f4 [72, 48, 3, 3]
000000 66 43 9c 3b 58 92 40 bb 50 cf 82 bb 0b 45 fd bc
       0.0047687767 -0.0029384103 -0.0039919987 -0.030916711
000010 bc 4e b0 3b 27 83 86 bc 0f af 56 3c b8 62 f3 bc
       0.0053804796 -0.01641996 0.013103261 -0.029710159
000020 52 4c 0e bc a0 0e a2 ba 62 c4 35 bd ec ac 24 3c
       -0.008685188 -0.0012363978 -0.04437674 0.010050993
000030 44 8c 0d 3c 3c 92 2c bd 07 b9 96 bc 60 87 82 bc
       0.008639399 -0.042131647 -0.018398775 -0.015933692
000040 2d e0 26 3d b0 26 62 bc 60 cf 87 3b 6a 8b a8 bc
       0.040741134 -0.013803169 0.004144594 -0.02057429
000050 26 15 26 bd c4 90 fc bc c8 57 25 bc 26 ee 67 bd
       -0.040547512 -0.030830748 -0.010091729 -0.0566236
000060 12 90 83 3d 2d ba e5 3c ca f3 c7 bc e5 a5 4b bd
       0.064239636 0.028042877 -0.02440824 -0.049718756
000070 74 c7 40 bd ae 46 f6 bc 8e 44 40 bc fd 83 2f bd
       -0.047065213 -0.030063 -0.011735095 -0.042850483
000080 12 92 13 bd da 12 66 bc 4e 22 8a bb 24 f7 7b bd
       -0.036027975 -0.0140425805 -0.004215515 -0.06151499
000090 f5 aa 04 3d a5 b7 f8 bc bf 58 c3 bb 82 0d a9 bc
       0.0323896 -0.030361006 -0.005961507 -0.020636324
0000a0 cc 05 d7 ba 76 34 c1 3c df 08 91 3c 3e 61 87 3c
       -0.0016404926 0.023584586 0.017704425 0.01652586
0000b0 b2 18 21 bd 89 ed a4 bc 09 4e cc bc 48 a9 3a bb
       -0.039330192 -0.020132797 -0.024939554 -0.0028482247
0000c0 61 70 3f 3d fa c0 69 bc f4 21 33 bd 25 e8 7e 3c
       0.046738032 -0.014267201 -0.043733552 0.015558277
0000d0 86 05 34 bd b1 02 ca bc 3f 25 b3 3c 72 c0 0d bd
       -0.04395058 -0.024659486 0.021868346 -0.03460736
0000e0 1e b4 f9 bc 14 01 54 bc 43 54 1f 3d b3 9a 3e bd
       -0.030481394 -0.01293971 0.038898718 -0.04653425
0000f0 b6 3c b2 3c f5 cd 6d bb 16 3f e3 3c ae d9 21 bb
       0.021757465 -0.003628609 0.027740043 -0.0024696398
000100 9f 26 3f bb e3 c3 fb 3c c8 3e 05 bb de e8 33 3d
       -0.0029167307 0.030733055 -0.002033161 0.04392325
000110 01 12 0a bc 0f 65 8f 3d 86 4a 13 bd 70 f9 1d bc
       -0.008427144 0.07001697 -0.035959743 -0.00964199
000120 d1 d3 72 bd 9b 92 03 3c 74 c2 2c bd 8a 6a 1b 3c
       -0.059284035 0.008030559 -0.042177632 0.00948585
000130 a1 cb 01 3d 5f 46 b7 3c d3 60 f5 3c c7 b1 a1 bc
       0.031688336 0.022372423 0.029953396 -0.019738091
000140 62 67 b7 3c 0b 1c 2d bd 60 08 d0 39 62 16 10 3c
       0.022388164 -0.042263072 0.0003967909 0.008794399
000150 28 f8 48 bd 72 4e 81 bc ea 93 12 3d 88 60 16 bc
       -0.049064785 -0.015784476 0.035785593 -0.009178288
000160 5f 68 26 3d 4c 73 6e bc f0 1a 42 3d e9 63 80 3b
       0.04062688 -0.014553856 0.04738897 0.00391816
000170 c7 7d 89 3c cc 5f dc 3b b5 a2 63 bd 8b 90 8a 3d
       0.016783608 0.006725287 -0.05557509 0.06765851
000180 50 22 a4 3c 94 ed a2 bd fe ce 32 3d b9 d8 20 3c
       0.020035893 -0.07955471 0.043654434 0.009817296
000190 98 21 05 be 57 b3 00 3e 2a 74 04 bd 03 16 3f be
       -0.13001096 0.12568413 -0.032337345 -0.1866074
0001a0 04 bf 75 3e a7 33 77 3d ef 8a 96 be 9f 21 53 3e
       0.23998648 0.060351994 -0.29402873 0.20618294
0001b0 75 99 36 3d b8 b0 1e 3d c3 11 09 bd 7d 57 2e bd
       0.04457994 0.03874275 -0.033464205 -0.042563904
0001c0 18 d6 c4 bc 56 2d be bc 21 88 2a 3c d8 d8 37 3d
       -0.02402787 -0.023214977 0.010408432 0.044884533
0001d0 3e 74 3a bd 2a 45 db 3c b6 a7 8f 3c 56 b7 aa 3c
       -0.045521013 0.026766378 0.017536025 0.020839375
0001e0 ac 9f 1f 3c ac 2f 4f bc 93 38 01 3d 54 24 61 bc
       0.009742659 -0.012645643 0.031548094 -0.013741571
0001f0 53 10 a3 bc ac 99 25 3c c5 ff 10 bd bd a9 98 bd
       -0.019905245 0.010107439 -0.03540017 -0.0745425
000200 9f a4 92 3d 9a 6c 44 3c 2e d1 38 be ee a6 49 3e
       0.07160305 0.011988783 -0.18048546 0.19692585
000210 28 31 13 bb 6c 23 84 be ae 57 2f 3e cd 8b b4 bc
       -0.002245972 -0.25808275 0.17123291 -0.022039318
000220 82 c9 bb 3c a0 19 69 bc fc d7 1b bc ce e6 d7 3c
       0.022923235 -0.014227301 -0.009511944 0.026355173
000230 43 24 1b bd eb 69 29 3d 80 df 91 3b cc 73 11 bc
       -0.03787638 0.041360777 0.004451692 -0.008877706
000240 06 25 65 3c 11 1d 04 be 9c d6 8e 3d 53 5d 1d 3d
       0.013985878 -0.12901713 0.06974527 0.03841908
000250 08 35 11 be fd 77 0b 3e 08 3f cc 3d e5 de 13 be
       -0.14180386 0.1361999 0.0997296 -0.14440496
000260 c5 f3 b1 3d e0 41 28 3d 87 21 d7 3c df d0 3f 3d
       0.086890735 0.04107845 0.026261104 0.046830054
000270 3e fd 63 3c b0 e8 0f bd 72 20 d9 39 3b 6c 80 3a
       0.013915358 -0.035134017 0.0004141364 0.000979788
000280 d9 8d 49 bd 6a 87 8a b9 57 12 0f 3d d0 1f a1 3b
       -0.049207542 -0.00026422302 0.0349296 0.0049171224
000290 be 1e 13 bd f8 19 81 3b f0 79 29 3b 9a e8 40 bd
       -0.03591799 0.0039398633 0.0025860034 -0.047096826
0002a0 69 e2 1d bd 50 92 21 bc e8 d2 c7 bb d2 b7 51 bb
       -0.038546 -0.009861544 -0.00609814 -0.0032000435
0002b0 9e a2 f5 bd c3 d0 c8 3d 2f f0 88 3c e8 18 10 be
       -0.119939074 0.09805443 0.016716091 -0.14072001
0002c0 61 7d 2c 3e db 84 4f 3d bc e2 76 be e0 8e 22 3e
       0.16844703 0.05066381 -0.2410993 0.15874815
0002d0 ee c9 1c 3d da bb ba 3c 3c ed be 3b 01 a0 0c 3d
       0.038278513 0.022794653 0.0058266204 0.03433228
0002e0 13 35 63 3b 20 a3 12 3d e4 d1 18 3d 39 f3 1a 3d
       0.0034669086 0.0358001 0.037309542 0.03782961
0002f0 28 d4 04 bd bb 4f f1 39 e9 de 43 bd 31 73 ab 3d
       -0.03242889 0.00046026506 -0.047820006 0.083715804
000300 2e 31 69 bd b7 ad c4 bd b4 bb 1b 3e d0 c1 65 3d
       -0.056931667 -0.09603446 0.15208322 0.056093037
000310 62 9a 14 be 29 bd a7 3d a5 2c 03 bd 70 85 5c 3c
       -0.14512017 0.08190376 -0.032025 0.013459548
000320 d1 50 18 3d 72 48 23 3d 80 99 87 bd 65 f8 18 3d
       0.037186448 0.03986401 -0.06621075 0.037346262
000330 ca 79 01 3c 45 1f 69 bd e8 94 3b 3d 70 78 08 3c
       0.007902572 -0.056914587 0.045796305 0.008329496
000340 cd 1a 68 bd 6c 30 3e bc 68 7d 39 3d dd 78 a8 3c
       -0.056666184 -0.011608224 0.045285612 0.020565445
000350 12 24 4f bd bb bd 10 3d 5c 51 6f bc 5c 64 2d bd
       -0.05057151 0.03533719 -0.0146068 -0.04233204
000360 01 b3 88 ba 05 2e 58 bc 6d 50 87 bc c3 0d b3 3c
       -0.0010429324 -0.013194566 -0.016517842 0.021857148
000370 96 5b b3 3c e9 a8 38 bd 02 80 06 3d 76 5e 2a bd
       0.021894258 -0.04508296 0.03283692 -0.04159399
000380 1f 5e 87 bb 66 c0 8d 3c 28 43 0e 3d 5d 9e 57 3c
       -0.004131093 0.017303657 0.034732014 0.013160315
000390 af 2b b8 bb 6c 88 55 3c 21 1e e1 bc 40 07 76 ba
       -0.005620442 0.013033014 -0.027480187 -0.00093852356
0003a0 80 7f f1 bb 64 89 a8 3c 87 c4 82 bc de 4e d6 bc
       -0.0073699355 0.020573325 -0.015962852 -0.026160654
0003b0 17 97 1f 3d b7 99 3c 3d 1a 24 1f 3d 51 e7 75 b9
       0.03896245 0.04604503 0.03885279 -0.00023451193
0003c0 26 6c ec bb 3d ca c4 3c 71 25 16 bc e1 23 8e bc
       -0.0072150407 0.024022216 -0.0091642 -0.017351093
0003d0 3e f3 e4 bb 5b 94 4b 3c 9a 47 16 3b b8 bf 2e 3d
       -0.0069870045 0.012425507 0.0022930861 0.042663306
0003e0 27 28 27 3d 83 01 da bc ea 05 81 3b 68 8b 5d bc
       0.040809777 -0.026612049 0.0039374726 -0.013522007
0003f0 02 b0 e5 bb c4 dd 4b bd 06 f3 2c 3d f2 53 d5 bb
       -0.007009507 -0.04977204 0.042223953 -0.006510251

layer_stack.6.bias f4 [72]
000000 46 fe 35 bc 8c 44 d0 3c 90 a8 15 3c a4 0c 09 3c
       -0.011107987 0.02542331 0.009134427 0.00836483
000010 87 46 d9 3b bd 48 d3 bb 50 18 94 bc dc 96 e3 3c
       0.006630722 -0.00644788 -0.018078 0.027781896
000020 22 38 11 3d 93 3c 11 bd 2b 10 8c 3d 7e 3c 01 bc
       0.035453923 -0.03545816 0.06839021 -0.007887958
000030 71 67 ba 3c f2 a5 5d 3d 7b 60 14 3c 74 bc a8 bc
       0.022754403 0.054113336 0.009056206 -0.020597674
000040 20 d3 88 3c be 25 26 bd a5 c8 b4 3c 4d db 8f 3d
       0.016702235 -0.040563338 0.022068331 0.0702425
000050 51 7d fd bc ff b7 34 bd 84 be 56 bc ea fa 46 3d
       -0.030943545 -0.044120785 -0.013106946 0.048579134
000060 1c 1f ac bc b1 8c 13 bc 05 45 58 bc 86 0a f9 bb
       -0.021010928 -0.009005711 -0.013200049 -0.0076001314
000070 ba bf 6c bc a0 c2 bf 3c 54 3e 09 bd db cf c2 3d
       -0.014450008 0.023408234 -0.033506706 0.095123015
000080 4f 50 de 3c 1b 21 0e 3d 08 fa c4 bc b8 47 11 bc
       0.027137903 0.03469954 -0.024045005 -0.008867197
000090 71 ca 71 3d e1 93 96 3c a0 73 11 3d a2 ff f8 3c
       0.059030954 0.018381061 0.03551066 0.030395333
0000a0 d4 73 7f bc 25 65 23 3d 5b ec 3d 3b 1c 6e 8e bc
       -0.01559158 0.03989138 0.002897999 -0.017386489
0000b0 b7 0d 8c 3d 09 86 08 3d 5b 73 10 bb e2 d2 b5 bd
       0.068385534 0.03333095 -0.0022041413 -0.08878113
0000c0 cc 46 31 3c a6 1d 55 bd cd 1e 3e 3c eb 68 28 3d
       0.010820102 -0.052030228 0.011604023 0.041115683
0000d0 95 39 e3 bb 6a 86 84 3d e9 db 3e 3d 67 66 13 3d
       -0.0069343545 0.0647095 0.04659644 0.03598633
0000e0 05 1d 82 bd 89 73 85 bb a8 e2 a1 bd ef 7c 37 bd
       -0.06353191 -0.0040726108 -0.079045594 -0.04479688
0000f0 23 32 22 3d 42 c1 84 bc 95 86 eb bc 86 92 31 bd
       0.039598595 -0.016205434 -0.028750697 -0.043352626
000100 04 b0 20 3c 5f 8e 91 b9 f9 3b 66 3d 0a b1 e6 3d
       0.00980759 -0.0002776263 0.056209538 0.11264236
000110 e8 6a b2 bc 18 42 71 3d 4a 12 ae bc 54 ef 17 3c
       -0.021779492 0.058900923 -0.021248955 0.009273369

layer_stack.9.weight f4 [72, 72, 1, 1]
000000 04 b1 9a 3d 76 f8 d8 bc ea 27 1e bd 13 12 6d bd
       0.07553294 -0.026485663 -0.038612284 -0.057878565
000010 78 1f d4 3d f1 ee 4a bd b3 7c 8a 3c 07 1f 0e 3d
       0.10357565 -0.04954428 0.016905164 0.03469756
000020 ac 54 66 bd b6 a4 ed bd 72 75 c7 bd da e2 fb 3d
       -0.056233093 -0.11603682 -0.09739198 0.12299128
000030 68 f9 27 bb 7c 00 62 bc 7c 41 88 3c d2 8f cc 3d
       -0.0025630835 -0.013794061 0.016632788 0.09988369
000040 b1 30 22 3e 1e 1a cc 3c 9a af e8 3c 43 e8 cd 3c
       0.15838887 0.024914797 0.028404046 0.025135165
000050 cd e5 f3 bc d1 ef c9 bc 08 2a 6f 3c 2a 5d ec 3d
       -0.029772663 -0.024650486 0.014597423 0.11541207
000060 ff 62 87 bc 95 c1 2a 3e f1 2a d1 3d e8 f2 bd bc
       -0.016526697 0.16675408 0.102132685 -0.023187116
000070 8d 05 0e b9 2e 72 eb 3c 26 d5 4a bd b1 05 8e be
       -0.00013544243 0.028740969 -0.04951968 -0.27738717
000080 38 ad 65 bc 3a ce 46 be 21 46 91 3c ea 3f 7c 3e
       -0.014018349 -0.19414607 0.017733635 0.24633756
000090 8d fe 6f 3d 59 44 d5 bc 89 8f d4 bd d5 a4 11 bd
       0.058592368 -0.026033567 -0.1037894 -0.035557587
0000a0 f7 3f 4c be b4 b8 4d be 53 d7 03 be 40 cd f7 ba
       -0.19946276 -0.2008999 -0.12875108 -0.0018905774
0000b0 4f 0a e7 bd 5e 86 ba bc 80 5f 2b bd bb 12 33 be
       -0.11281263 -0.02276915 -0.041839123 -0.17487614
0000c0 e3 c1 3c be ac 00 d0 3b d3 10 b7 bd 52 45 84 3c
       -0.18433337 0.0063477363 -0.08938756 0.016146336
0000d0 c5 bb f0 bd 4e 47 11 bd 98 36 10 3d 15 4e 72 3e
       -0.11754564 -0.035468392 0.035208315 0.23662598
0000e0 db ab 96 3d c4 3b 6e 3d 0d 72 19 bc 8b 5c 00 3d
       0.073569976 0.058162466 -0.009365571 0.031338256
0000f0 82 68 7a 3d 23 0d 30 be a7 44 cc 3c ac fb 4c bd
       0.061134823 -0.17192511 0.02493508 -0.0500447
000100 eb bd 9f bd da 19 02 3d e2 fd ee 3c 14 3c 18 be
       -0.07799896 0.031762935 0.029173795 -0.14866668
000110 5a ca 8b bc fd 5d 27 be 6e e5 95 3d 13 b6 4e 3d
       -0.017064262 -0.16344447 0.07319151 0.05046661
000120 c5 b1 83 bd 31 b3 a9 3c d2 a9 c6 bc a7 05 f5 bd
       -0.06430391 0.020715328 -0.024250899 -0.11963969
000130 fb be 80 bc d5 48 44 bc 36 07 ff 3c 17 4c 6d bc
       -0.015716067 -0.011980255 0.031131368 -0.014483473
000140 89 5d c3 bd 95 48 a4 bd 5f 6d 05 be f3 5b da bd
       -0.09539325 -0.080216564 -0.13030003 -0.10662069
000150 58 7b fc bc d9 67 b7 bd 14 11 4c bb 6f 45 8a 3c
       -0.030820534 -0.08955354 -0.003113811 0.016878812
000160 da 46 c5 bd 28 5d ad 3d f2 b5 6a bd da b0 8c 3d
       -0.096326545 0.08465034 -0.057302423 0.06869669
000170 2b cb e6 bc e8 38 a1 bd a4 87 94 3c fd 65 b7 bd
       -0.02817305 -0.07872182 0.018131085 -0.089549996
000180 56 8f b4 bc 04 fb 0c bd 28 1a 99 3d c5 01 04 bd
       -0.022041004 -0.034419075 0.07475692 -0.03222825
000190 c8 90 ac bc 85 0f 3b 3d bb bb 8f 3d 2f 73 3c bb
       -0.02106513 0.045669097 0.070182286 -0.0028755178
0001a0 46 92 84 3d 14 d2 f6 bc f9 a7 70 3d e7 d0 2d bd
       0.06473212 -0.03012947 0.05875394 -0.042435553
0001b0 2e 8e 04 3d 82 f2 a6 3b ab 81 b0 bd f2 ea dc bd
       0.032362156 0.005094827 -0.08618482 -0.10787
0001c0 a9 7a 03 3d 19 93 ce bd 82 51 94 bd cb e3 10 bd
       0.0320994 -0.100866504 -0.07242109 -0.03537349
0001d0 ca 12 bc bd 32 6c a7 3c 62 6c 17 bd 20 8c 01 3d
       -0.09183271 0.020437334 -0.036968596 0.031627774
0001e0 d3 82 72 bd 53 88 98 3d 05 9b 82 3d 5e b1 00 3d
       -0.059206795 0.07447877 0.06377224 0.03141915
0001f0 7a 01 9f bd 4c 4f 76 bd cf 70 e0 bd 9c 43 bc bd
       -0.077639535 -0.060134217 -0.109590165 -0.09192583
000200 37 86 02 3d 49 ae dc bd a2 73 a2 3d 38 7c 3f 3d
       0.03186628 -0.1077543 0.079322115 0.046749324
000210 fc 51 3f 3d c8 49 88 bd a7 d9 a6 bd d9 e8 e4 bd
       0.046709046 -0.06654698 -0.08146983 -0.11177225
000220 e8 6e bb 3d e4 28 4f bb 2b 7b 31 3d 89 ac 0d 3d
       0.09152013 -0.0031610066 0.043330353 0.03458837
000230 78 3b b1 bc a6 95 b4 bd b0 cf 7e bd 81 8f eb bd
       -0.021634802 -0.08817606 -0.062209785 -0.115019806
000240 a8 02 64 be 00 2d c6 3d 9f 36 0d bd e6 01 8f 3c
       -0.22266638 0.09676552 -0.03447592 0.01745696
000250 4d a4 aa 3c e6 a5 a8 bd c9 e2 99 be f1 75 b8 bd
       0.020830298 -0.082347676 -0.30055836 -0.090068705
000260 69 4f 7d bd 57 75 01 3e 8c 3a 3a 3d 32 15 dc 3c
       -0.06184331 0.12642418 0.04546599 0.026865575
000270 1c 82 ee 3d f7 0d 9d 3d 36 ba 1b 3e fe 7f 57 3d
       0.1164591 0.07668679 0.15207753 0.052612297
000280 89 68 91 3c 46 d4 a0 3d 04 b6 cd bc 5e fa 08 3e
       0.017750042 0.07852988 -0.025111206 0.13376758
000290 4c 17 3e 3d 5a c7 20 3d 07 88 71 be 9d 53 4f bd
       0.046408936 0.039252616 -0.23587047 -0.05061685
0002a0 ce 89 19 3d 50 fd c7 bd b3 07 b8 3d 00 6a 30 bd
       0.037484936 -0.097651124 0.089858435 -0.04306984
0002b0 fb 28 48 3d 0a 88 3f 3d ca 7e c8 3d fa f8 72 3c
       0.048867207 0.046760596 0.09789808 0.014829868
0002c0 f9 4b 30 3d e8 31 59 bd 9e a9 62 3d 47 47 09 be
       0.043041203 -0.05302611 0.05533754 -0.13406096
0002d0 91 f3 ab 3c 13 24 eb bd ba 85 b1 bd 38 f7 0a bd
       0.020990165 -0.1148149 -0.086680844 -0.033927172
0002e0 f5 63 8a bd 90 a3 00 3d f8 04 8b bc 01 aa a2 bd
       -0.067573465 0.031405985 -0.016970143 -0.07942582
0002f0 aa 30 10 bd 8c 2b c9 3d 66 b5 4b 3d e0 4d 39 3e
       -0.03520266 0.09822759 0.049733542 0.18096113
000300 be 12 b5 3d 81 4f 05 3d 16 ed 9f bb de d5 69 bc
       0.088414654 0.032546524 -0.004880558 -0.014272181
000310 5f 13 ac 3d f5 f5 a3 3b 34 3b 43 3d eb 9d 76 be
       0.08402132 0.0050036856 0.047663882 -0.24083678
000320 bf be 8c be d4 23 cf 3c 46 0a 20 bd 46 68 2d bd
       -0.27489278 0.025285639 -0.039072298 -0.04233577
000330 1c f9 ae bd 66 f5 39 bc 57 d9 39 bd 28 64 d9 3c
       -0.085436076 -0.011350011 -0.045373287 0.026537016
000340 ca 7f c4 bd 2d bb c7 3d 0e 09 29 bd 2a b3 25 be
       -0.09594686 0.09752498 -0.0412684 -0.16181627
000350 66 7b 77 3d c6 a7 48 3b a2 80 5b 3c 94 8f 05 bd
       0.060420416 0.003061758 0.013397368 -0.03260763
000360 3d d3 e9 bd 5f 27 3c 3d a7 44 a1 3d fb 20 c7 3d
       -0.11417244 0.045935985 0.078744225 0.097230874
000370 27 fe 6f bd 94 62 e5 3c 29 60 b9 bd 0e 7a da 3c
       -0.058591988 0.028001107 -0.09051544 0.026669528
000380 c1 20 d5 bd 3e cc c9 3d 5e b5 31 be 66 76 98 bd
       -0.10406638 0.09853409 -0.17354342 -0.07444458
000390 45 e4 de bc 31 57 cc bb 8e d5 f4 bd 04 d1 85 bd
       -0.027208457 -0.00623598 -0.11954795 -0.06534007
0003a0 24 24 2a bc eb a2 57 bd d6 39 59 be 86 65 98 bd
       -0.010384593 -0.052645605 -0.21213469 -0.07441239
0003b0 b3 7d da bd 90 37 06 be a8 d0 bf bd e7 19 01 3a
       -0.106685065 -0.13107133 -0.0936597 0.0004924819
0003c0 11 ca 44 3d 0b a6 e7 bd 90 f8 34 bc 00 01 34 bd
       0.048044268 -0.11310967 -0.01104559 -0.043946266
0003d0 f8 79 8c 3d bb 72 19 be bd 0d bd bc 7b 2e 64 3c
       0.06859201 -0.14985172 -0.02307784 0.013927097
0003e0 ea 27 c5 bd 44 c3 0a be 40 1b 8f 3a e7 aa 8e bd
       -0.09626754 -0.1355105 0.0010918155 -0.06966191
0003f0 68 bd 47 3c 04 a9 ff 3c 9c 68 c6 bb ab 67 96 bd
       0.012191154 0.031208523 -0.006054951 -0.07343992

layer_stack.9.bias f4 [72]
000000 29 e4 86 3c d5 74 ec bd 84 b0 93 3d 92 d9 8c 3c
       0.016466217 -0.115457214 0.07211402 0.01719359
000010 9c 6a 6e 3d cd b6 4b bc a8 29 cd 3c 8d bf 4e 3e
       0.05820714 -0.01243372 0.025044277 0.20190258
000020 eb d2 de 3d 07 12 4b 3e c2 d6 f4 bb 51 6c 41 3e
       0.10880073 0.19831096 -0.00747189 0.18888976
000030 68 8e 28 3d 1e 07 24 3c 6a 81 d0 bd 4e 96 f5 3d
       0.041151434 0.0100114625 -0.10180934 0.11991559
000040 1d 12 57 bc c4 20 d6 3c 95 c3 bd bd a1 e2 41 3d
       -0.013126877 0.02613867 -0.0926582 0.04733527
000050 3a 87 45 3e 59 c4 e6 3c 46 0d 6f bd a0 5e 26 3e
       0.19289866 0.028169798 -0.058362268 0.16247034
000060 36 63 24 3b 0d ed 4a 3d f8 56 3f 3e 73 04 80 bd
       0.0025083548 0.049542475 0.1868552 -0.062508486
000070 f5 0b dc bd a9 51 92 bd 46 88 90 bd c9 6f 1e bd
       -0.10744468 -0.07144482 -0.07057242 -0.038680825
000080 86 93 57 3d 47 46 62 3e a7 c8 28 bd e2 dd 18 3c
       0.052630924 0.22097121 -0.041206982 0.009330245
000090 af 95 83 bd d0 94 7e 3d 73 56 1a bd 66 ba ef bc
       -0.06425034 0.062153637 -0.0376801 -0.029263686
0000a0 db 32 86 3e e0 5a ca bc 57 c3 39 3e 16 d6 9a bd
       0.26210675 -0.024701536 0.18140922 -0.07560365
0000b0 33 4f e0 bd 59 03 80 bc 36 31 65 3e 89 7e 90 bb
       -0.10952606 -0.015626596 0.22382054 -0.0044096154
0000c0 0c 6e bc 3d ae ff 5f 3e 2d c8 f3 3d ea 5f b2 bd
       0.09200677 0.21874878 0.11903415 -0.087097004
0000d0 e2 73 b8 3a 1a 07 a0 3b 73 aa 3b 3d 33 17 86 bd
       0.0014072622 0.004883659 0.04581685 -0.06547394
0000e0 b6 a2 79 bd 87 f6 8d bc c5 a4 42 bd 7e 5a 8f 3e
       -0.06094619 -0.017329467 -0.047520418 0.27998728
0000f0 4d 3b 94 bc d5 96 49 bd 6a 4b 2d 3e 08 7b 09 3e
       -0.018094683 -0.04921611 0.169233 0.13425839
000100 83 92 97 3c bb 3a 70 3d 01 08 3e bd e0 fe c5 3d
       0.01850248 0.05864976 -0.046394352 0.09667754
000110 c2 04 44 3e ee 8b f6 3d 23 39 51 bb d1 01 fa bc
       0.1914244 0.12038408 -0.0031924925 -0.030518444

layer_stack.11.weight f4 [72, 72, 1, 1]
000000 62 34 4a 3c e2 28 3f 3c 32 c5 02 bd df 37 03 3d
       0.012341591 0.011667462 -0.03192634 0.032035705
000010 b9 3f 3c 3e 73 2e ca 3d d8 86 2e 3e 82 c8 e9 bc
       0.18383683 0.09872141 0.17043626 -0.028537992
000020 84 1b ea bd 5e 16 50 3d 02 e4 69 3d b2 60 ac bc
       -0.114310294 0.05080258 0.05710221 -0.021042202
000030 17 ac 9e bd b6 3e 6d be cd 13 c8 3d fa ba c1 3d
       -0.07747667 -0.23168454 0.09769402 0.09459491
000040 7a 9b 17 be 56 49 80 bd 1b 07 bd 3d 12 19 10 3c
       -0.14805403 -0.06263988 0.09229871 0.00879504
000050 60 a9 05 be 98 7b 2c 3d 4c 8d 4b 3d 44 96 f4 bc
       -0.13052893 0.042110056 0.049695298 -0.029856808
000060 b4 58 bf 3d b8 5e 04 3e 4e e1 11 be 3e 82 e9 3b
       0.09343091 0.12926757 -0.14246103 0.007126122
000070 97 c1 85 3d 6e 24 38 bd bb 98 d7 bc 6a e2 96 bd
       0.06531065 -0.044956617 -0.026317945 -0.07367404
000080 a5 61 f2 3d dd 89 55 bd 61 5c 61 bd fc 31 96 bb
       0.118350305 -0.05213343 -0.05501974 -0.0045835953
000090 97 85 ce bd 71 77 1a 3e 45 36 40 bc 68 f8 0f be
       -0.10084074 0.15084626 -0.011731689 -0.14059603
0000a0 9d 68 aa bd af ef 21 be cd 0a 53 3e 5b 93 3e bc
       -0.08320735 -0.15814088 0.20609589 -0.011631812
0000b0 86 64 08 3d 4e 92 06 bd 6e 00 9c bd 81 34 31 3e
       0.03329899 -0.03285437 -0.076172695 0.17305185
0000c0 30 4f f6 3d ee 91 30 bd 49 6e 36 3c 88 95 42 bd
       0.120268226 -0.04310792 0.0111346925 -0.047505885
0000d0 33 ae de 3c 6c b4 4e 3d ac f8 57 3e 72 72 b3 bc
       0.027182674 0.050465032 0.21090955 -0.021905158
0000e0 e7 8c e1 bd c6 54 11 be 27 33 c7 bd e7 cf c0 bc
       -0.11013203 -0.14192495 -0.097265534 -0.023536636
0000f0 b9 65 38 3d be c6 7b 3d 5c 50 87 3d cf 94 e4 3d
       0.045018885 0.061468832 0.06607124 0.111611955
000100 e4 8e 5a 3d fc 82 f1 bd 08 37 97 bd 5e af 42 3e
       0.053358927 -0.117925614 -0.07383543 0.1901221
000110 61 8b cf 3b 4b 7e 5c 3b df 6b f1 bd ac fc 10 be
       0.006333754 0.0033644612 -0.11788153 -0.14158887
000120 06 af 33 be c6 95 34 3d 92 da 42 bd 87 68 ab bd
       -0.17547235 0.044088148 -0.047571726 -0.083695464
000130 5a 03 aa bd 74 f9 98 ba 27 9f 6d bc 66 58 42 3d
       -0.083014205 -0.0011671023 -0.014503277 0.047447585
000140 de 8d f4 3b c5 c4 c6 bd 26 7c bc bc 5e 8a ec bd
       0.007463201 -0.097054996 -0.023008417 -0.11549829
000150 81 c3 04 3e 35 ed 09 bd 86 7a d5 3c 89 c1 96 3d
       0.12965204 -0.033673484 0.0260594 0.07361133
000160 ce 6d 0c 3c 71 3c a9 3d ef 8a 8e 3d 69 c7 bb bd
       0.008571101 0.082634814 0.06960093 -0.09168894
000170 0d 29 a4 3d 0c 1b 06 3e 44 1c 5a bd 90 59 57 be
       0.08015642 0.13096255 -0.053249612 -0.21030259
000180 bc 18 03 be 2a 98 ac bd b9 f9 07 bc 89 53 92 3d
       -0.12802404 -0.084274605 -0.008299285 0.07144839
000190 68 1a 89 bd 92 eb 9e 3d c5 d0 2c 3d 19 c0 81 ba
       -0.0669449 0.07759775 0.042191286 -0.0009899169
0001a0 c6 3d 4a bd bd 8c 0e bd c4 87 c9 bd 54 9f 0b bd
       -0.049375318 -0.034802187 -0.09840348 -0.034087494
0001b0 97 7f 0b 3e e7 e8 da 3c 0f 45 53 bd 1c 3a 48 3d
       0.1362289 0.026722385 -0.05157953 0.048883542
0001c0 88 93 3c 3d 78 8d 5c 3d 7c e6 14 be 28 e2 60 bb
       0.046039134 0.053845853 -0.14541048 -0.0034314487
0001d0 5c 57 f2 bd 5a d8 1c 3e 22 21 c5 bc 0c 00 a3 bd
       -0.11833069 0.15316907 -0.02406365 -0.07958993
0001e0 90 7b 1c be 0f 8a 51 bd 7b 0d a6 3d 87 50 5b bd
       -0.1528151 -0.051157054 0.0810804 -0.053543594
0001f0 34 37 65 3c 5b 02 a0 3c 4b 73 04 bd 4f 3e b5 3d
       0.013990212 0.019532373 -0.032336514 0.08849775
000200 dc ed de bd 23 b5 48 bc f9 da d9 bb ca 35 03 be
       -0.10885212 -0.012250218 -0.006648418 -0.12813488
000210 f0 ef 14 be 60 36 c4 3d 8a 8b 23 3e 0e 31 dd 3c
       -0.14544654 0.09580684 0.15971199 0.02700093
000220 ad eb 36 3d 0c d3 a6 3d 50 fb 06 bd 75 83 72 3d
       0.04465835 0.08145723 -0.032954514 0.0592074
000230 92 95 ac bd d9 33 f8 bd 5d 7a 9d bd 3e 21 5b 3d
       -0.08426966 -0.12119264 -0.076893546 0.0534985
000240 52 eb 85 bc d3 87 c3 3d 28 24 9c 3d cf 0b 34 3d
       -0.016347561 0.09547391 0.07624084 0.043956574
000250 cd ba 08 3e ac e6 8c 3d db 15 19 be 01 d3 e8 3d
       0.13352509 0.06879935 -0.14949743 0.11368371
000260 f4 ac 0b be f4 7f ef bd 74 00 16 3e 96 cc 19 3d
       -0.13640195 -0.11694327 0.1464861 0.037548624
000270 17 20 95 3d 67 b2 28 3e f2 17 f7 bd 97 35 a0 3d
       0.07281511 0.16474305 -0.12065114 0.078227215
000280 80 9d 35 be 3d be 82 3a 48 4b af bc f9 f4 ae bd
       -0.17735863 0.0009974908 -0.021398202 -0.085428186
000290 1d a8 fe bd e0 4c 53 3d 06 7a 48 bd 37 e1 fb bd
       -0.12434409 0.051586986 -0.048944496 -0.12298816
0002a0 d9 41 c1 bc 76 fb 1c 3d 24 87 0a be 58 d0 47 3d
       -0.023590969 0.03832575 -0.13528115 0.048782676
0002b0 82 18 ca 3c a4 9f 95 3d 15 72 38 bd 33 f1 c5 3d
       0.02466989 0.0730584 -0.045030672 0.09665146
0002c0 ed 2c e2 bd 39 53 1b be f9 71 d1 bc d1 bf 4b 3d
       -0.11043725 -0.15168466 -0.025567042 0.049743477
0002d0 20 45 a3 bd 58 a4 0c be 58 5b 77 bd c4 d1 09 be
       -0.07972169 -0.13734567 -0.060389847 -0.13458925
0002e0 29 c1 f2 bd da 92 d8 bd 29 bd 9f bd a0 16 96 bd
       -0.118532486 -0.10574885 -0.07799751 -0.07328534
0002f0 d3 5b 96 3d 6b 08 3e 3e 12 c6 0c 3d df 9c ae bc
       0.07341733 0.18557899 0.034368582 -0.021315036
000300 8e fc dc bd d8 60 ec 3d 73 b7 b1 bd cf 0c 75 bd
       -0.107903585 0.11541909 -0.08677568 -0.05982667
000310 08 e8 37 be c4 2a 57 bd a3 5c 83 3c ed 9e f2 bd
       -0.17959607 -0.05253102 0.016035384 -0.11846719
000320 7f 99 80 bb c9 78 85 bd a3 c1 f6 bc 41 b5 1c 3d
       -0.003924548 -0.065171786 -0.03012163 0.038258795
000330 a8 27 3d bd ca 18 94 bd 3d 5f a2 3d 6f 88 8b bc
       -0.046180397 -0.07231291 0.079283215 -0.01703283
000340 47 88 21 3d 5b 4c 4e 3e 10 0d a1 3d d6 b3 b3 bd
       0.039436605 0.20146315 0.078638196 -0.08774535
000350 a2 1b c5 bc 7d 6c dc 3c 41 24 01 be b9 e4 39 bd
       -0.024061028 0.0269072 -0.12611486 -0.045384143
000360 ee a6 46 be 78 0b 10 bd 2c 71 10 be e5 15 52 ba
       -0.19399616 -0.035167187 -0.14105672 -0.0008014127
000370 98 f8 00 3d 63 26 00 bd 20 a6 ca 3d 87 64 80 3b
       0.031487077 -0.03128661 0.09894967 0.003918234
000380 ff b1 63 bd e8 c3 ae bd cb 7c 76 3d fe 96 00 be
       -0.055589672 -0.0853346 0.060177606 -0.12557599
000390 1d 1c 9a 3d 17 e5 3d be 00 ce c5 bb 0c 17 aa 3d
       0.075248934 -0.18544422 -0.00603652 0.08305177
0003a0 a5 0b 15 be d8 7e 05 3e cc a7 c0 3d 79 e0 98 3d
       -0.14555223 0.13036668 0.09407005 0.0746469
0003b0 12 d5 57 bd fc 8e 4f be cc 54 fc bb 94 d1 fd bd
       -0.052693434 -0.20269388 -0.0077005383 -0.123934895
0003c0 03 9f e2 bd 7d 4a 95 bd c5 6e 70 bd 3c ea 6c 3d
       -0.11065485 -0.07289598 -0.058699388 0.05784057
0003d0 e4 f6 e8 3d b6 52 c7 3d a2 81 43 bd 22 4d 9e 3c
       0.11375216 0.09732573 -0.04773105 0.01932389
0003e0 a8 81 ad bd 9d 3b 5c 3e 27 df 41 3d 5f 98 32 bd
       -0.084719956 0.21507116 0.047331955 -0.043602344
0003f0 64 14 dd 3c e3 f0 fc 3c fa f4 d8 3c 8e 1c d6 bc
       0.026987262 0.030876582 0.026484001 -0.026136663

layer_stack.11.bias f4 [72]
000000 60 a8 bf 3d cb 6f 05 3d 25 15 90 3d 45 dc ac 3d
       0.09358287 0.032577317 0.07035283 0.084404506
000010 3d f9 84 3d e3 b1 95 bd 38 17 c2 3e 47 7a fc 3d
       0.06492851 -0.0730932 0.3790834 0.1232801
000020 64 bf 95 3d 39 8a 42 3e c3 27 52 3d 0a fb 57 3e
       0.073118955 0.1899804 0.05130745 0.21091858
000030 b3 49 64 3e ea 1e 7d 3e 65 b9 86 3d d0 00 9a 3d
       0.22293739 0.24718824 0.0657833 0.07519686
000040 9a c5 78 3e 06 7d 0f bd d4 fd 90 bd 8b 30 b0 3b
       0.24294129 -0.03503134 -0.07079664 0.0053768805
000050 39 8f df 3c 5d ad 1c 3f 28 05 ad 3d 90 6b a0 3e
       0.027289974 0.6120203 0.08448249 0.31332064
000060 b3 74 32 3d 28 00 2b 3e 92 ce f7 3d c4 76 c5 bd
       0.043568324 0.16699278 0.12099947 -0.09641793
000070 ee 7a 98 bc 0a 84 bc 3d 10 d3 c7 3d 9c 32 92 3d
       -0.018613305 0.09204872 0.09757054 0.07138559
000080 85 b9 3c 3e 57 0c 2a bd c6 12 66 3d 4e 38 c6 3e
       0.18430145 -0.041515674 0.056170247 0.38714832
000090 93 28 0c 3e 7f 55 c9 3e a1 e2 9b 3d d7 ce c1 3e
       0.13687353 0.3932304 0.076115854 0.3785312
0000a0 29 f8 01 3e e8 f2 5a 3e 3d 8f 99 3e d0 d3 13 bd
       0.12692322 0.21381724 0.29992095 -0.036090672
0000b0 fb 65 10 3e 0f d8 4c bc fc 2c ca 3c b5 d4 1e bd
       0.14101402 -0.012502684 0.024679653 -0.038777072
0000c0 d3 1f c8 bb d8 32 54 3c d5 dc 16 3e 0c a0 e1 3d
       -0.0061073094 0.012951575 0.14732678 0.11016855
0000d0 94 8c 5d 3e b9 da b1 3d 68 a4 33 3d 0e fc 96 3d
       0.21635658 0.08684296 0.043857962 0.07372294
0000e0 32 83 35 3e 06 d2 b7 3d 60 22 56 3c 10 53 a7 bd
       0.17725828 0.08975606 0.013069719 -0.0817014
0000f0 bf 2c 9f 3d 80 0b 6f 3d 4b 3e c7 3a 5b f5 7b 3d
       0.077722065 0.058360577 0.001520106 0.061513286
000100 8f 31 dc bc 65 4a 04 3e e8 e9 cc bc e9 00 1c 3e
       -0.0268791 0.12919004 -0.025013879 0.15234722
000110 df 34 0d bd c9 30 e7 3d 66 e3 d1 3e 3b 56 d0 3e
       -0.03447425 0.11288602 0.40993804 0.4069079
