lotsaconvs/nets/deep56.pt (torch, 532891 bytes, 18 tensors)

layer_stack.0.weight f4 [16, 1, 1, 1]
-0.7940022 -0.32834148 1.0305911 -0.8925663 0.7350116 0.9787319 0.75057685 -0.6635841
0.2499064 0.49346685 0.43881333 -0.6500325 -0.51462114 0.21410443 -0.6318356 -0.91103244
00000000: ba43 4bbf 601c a8be 69ea 833f 3a7f 64bf
00000010: b829 3c3f 2c8e 7a3f ce25 403f a6e0 29bf
00000020: 77e7 7f3e b0a7 fc3e 24ac e03e 8868 26bf
00000030: 36be 03bf 313e 5b3e fabf 21bf 6c39 69bf

layer_stack.0.bias f4 [16]
-0.25753534 -0.98319817 -0.5011583 0.14040409 0.72383213 -0.2303727 0.21640116 -0.8843806
-0.36847308 0.63196486 -0.91186786 0.67791116 0.14310451 -0.54222 -0.18783724 0.7469816
00000000: acdb 83be e0b2 7bbf e94b 00bf 17c6 0f3e
00000010: 104d 393f d2e6 6bbe 4498 5d3e c466 62bf
00000020: 81a8 bcbe 73c8 213f 2c70 69bf 968b 2d3f
00000030: fd89 123e eece 0abf 6858 40be 303a 3f3f

layer_stack.2.weight f4 [48, 16, 1, 1]
0.035026133 0.00039112568 0.12120316 0.23601472 0.12336289 0.18872532 -0.008017233 -0.21646163
-0.030876016 -0.096348345 0.16281156 -0.15354232 0.2346098 0.15859155 -0.12737176 0.14613394
0.20328769 0.1347051 -0.09012258 0.0206962 0.10954037 -0.23427364 0.030380689 0.19343317
-0.010522962 -0.14556004 0.17120364 -0.083642356 0.12006206 0.06520435 0.14381754 0.19012228
0.17643148 0.224042 0.035206735 -0.06343809 -0.08554712 0.08960101 -0.04118538 -0.11287546
-0.2230953 -0.19519892 -0.1829797 -0.1623069 0.14788201 -0.24977589 0.051299423 -0.11765966
0.008851469 0.050580263 -0.22843152 0.19589984 -0.18817574 -0.076297015 0.09170881 -0.036900073
0.12314728 0.0342077 0.014845699 -0.1815176 0.034936965 0.013384134 0.20783567 -0.14600018
-0.22959557 0.24253473 -0.19408238 0.15782598 -0.1208494 0.07621175 0.037216842 0.19261095
-0.2288652 0.041022032 0.12806344 -0.24422872 0.22320074 -0.031501085 -0.039167374 -0.02856803
0.1925993 0.2253744 0.08991354 -0.13048892 0.12365342 0.21408656 0.19451626 -0.10862237
0.04832912 -0.10529338 -0.18666224 -0.089448944 0.19862093 -0.022379426 -0.026245624 -0.117089786
-0.21859613 -0.041443348 0.1783433 0.24015191 0.12343643 -0.19773254 0.047763456 0.1893068
-0.18621714 -0.24031392 0.033553082 0.03786564 0.07143417 0.15553899 0.2069383 0.21961918
-0.2338157 -0.17554694 0.22234768 0.22617981 0.24818909 0.2819262 0.1968732 0.20376775
0.03334474 -0.08026773 -0.03969014 -0.14269048 -0.044471443 -0.22029811 -0.1638414 0.027549446
-0.076560855 0.011412233 0.07199633 0.23832421 0.039924532 0.30736363 -0.19831522 -0.2071805
0.23438239 0.19288646 0.21629894 -0.008430477 -0.039021462 -0.02585808 -0.05819863 0.08182141
0.14233094 0.008321345 0.007015407 -0.10184601 -0.15199012 -0.12809917 -0.11051354 0.11090821
-0.0833326 -0.0225147 -0.123515815 -0.034326702 0.11907849 0.12952766 -0.016325116 -0.21555257
-0.24236837 -0.08809954 0.11531125 0.17900631 0.2735949 0.28469464 0.0040688566 -0.19522652
-0.1299459 -0.054025568 0.22626378 -0.21176553 0.2088065 0.18990074 -0.18836683 0.2281119
-0.0049584806 -0.21263975 -0.20458828 0.102722995 0.085548624 -0.053938434 -0.045612816 -0.16574946
0.017299693 0.18477266 0.1949801 -0.16082886 0.07747908 0.013314239 0.15494478 0.16587007
0.17405745 0.09420413 -0.011718708 -0.05134595 0.06827504 -0.0131942555 0.043166056 0.012675256
0.051649634 -0.039818138 -0.21120128 0.18456832 0.19917354 0.048671428 -0.053690314 0.123137146
0.20378894 -0.20165065 -0.09080064 0.11940163 -0.02122407 0.12159768 -0.13625166 -0.20310551
-0.23546259 0.19572087 -0.14437991 0.15794897 0.0687185 -0.11297866 -0.03438151 -0.13728744
0.048529625 -0.055057764 0.047097914 -0.17150337 0.28153592 0.17853001 0.118775316 -0.23054853
-0.009375435 0.117112376 0.16567998 -0.12041798 0.007485533 -0.0850786 -0.08207041 0.05048962
0.03460139 0.21844 0.14012486 -0.07817027 0.13877745 -0.144223 -0.1647739 0.18287972
0.23248816 -0.20108393 0.10316485 -0.025786066 -0.15360218 -0.22417969 0.16533995 -0.091221005
00000000: 9077 0f3d 0010 cd39 5d39 f83d d8ad 713e
00000010: afa5 fc3d 3641 413e b65a 03bc 1ea8 5dbe
00000020: b3ef fcbc 4852 c5bd 13b8 263e 333a 1dbe
00000030: 8d3d 703e d365 223e be6d 02be 23a4 153e
00000040: a62a 503e 22f0 093e 3092 b8bd 148b a93c
00000050: b456 e03d 6ee5 6fbe ece0 f83c 5813 463e
00000060: 8068 2cbc b10d 15be 0250 2f3e af4c abbd
00000070: 19e3 f53d dc89 853d e844 133e 6aaf 423e
00000080: 74aa 343e 446b 653e f034 103d d4eb 81bd
00000090: 5433 afbd bc80 b73d 00b2 28bd 402b e7bd
000000a0: 1873 64be 3ae2 47be 085f 3bbe c833 26be
000000b0: 626e 173e 40c5 7fbe 581f 523d 8cf7 f0bd
000000c0: c005 113c 402d 4f3d f4e9 69be f899 483e
000000d0: 24b1 40be 9c41 9cbd d4d1 bb3d 8824 17bd
000000e0: a434 fc3d 601d 0c3d 603b 733c c0df 39be
000000f0: 101a 0f3d 2049 5b3c e0d2 543e 1281 15be
00000100: 1a1b 6bbe 065b 783e 88bd 46be 229d 213e
00000110: e47f f7bd e814 9c3d b070 183d ce3b 453e
00000120: a45b 6abe b806 283d 1023 033e 1817 7abe
00000130: bc8e 643e 4807 01bd f86d 20bd 8007 eabc
00000140: c038 453e 8cc8 663e 9724 b83d e39e 05be
00000150: 013e fd3d 8239 5b3e 452f 473e 6875 debd
00000160: c1f4 453d 0ea4 d7bd 6324 3fbe 0231 b7bd
00000170: 4963 4b3e 0f55 b7bc 1001 d7bc c5cc efbd
00000180: aad7 5fbe 80c0 29bd a09f 363e 62ea 753e
00000190: 3dcc fc3d 667a 4abe 9da3 433d a4d9 413e
000001a0: b5af 3ebe da14 76be f56e 093d 0019 1b3d
000001b0: 144c 923d 9d45 1f3e a2e7 533e dae3 603e
000001c0: 626d 6fbe 94c2 33be 1caf 633e ae9b 673e
000001d0: 4825 7e3e a258 903e 2199 493e 7ea8 503e
000001e0: 7e94 083d 6863 a4bd 2192 22bd 741d 12be
000001f0: b027 36bd d495 61be 0ac6 27be 60af e13c
00000200: f0cb 9cbd 60fa 3a3c d072 933d 430b 743e
00000210: e887 233d c45e 9d3e 2513 4bbe 2027 54be
00000220: f001 703e 0784 453e 787d 5d3e fc1f 0abc
00000230: f8d4 1fbd 53d4 d3bc b061 6ebd fc91 a73d
00000240: 34bf 113e 4056 083c 80e1 e53b a494 d0bd
00000250: 4ca3 1bbe 6e2c 03be ec54 e2bd d823 e33d
00000260: 48aa aabd c070 b8bc dcf5 fcbd 289a 0cbd
00000270: 6cdf f33d e6a2 043e 40bc 85bc d0b9 5cbe
00000280: 6a2f 78be 886d b4bd 4e28 ec3d 6e4d 373e
00000290: a114 8c3e 7fc3 913e 0b54 853b 76e9 47be
000002a0: 8a10 05be ea49 5dbd b1b1 673e 10d9 58be
000002b0: 5fd1 553e 5775 423e 3ce3 40be 2a96 693e
000002c0: c07a a2bb 3cbe 59be 977f 51be 6f60 d23d
000002d0: 1e34 af3d 8cee 5cbd 81d4 3abd 3aba 29be
000002e0: 16b8 8d3c 0b35 3d3e dda8 473e 52b0 24be
000002f0: 5aad 9e3d f723 5a3c d8a9 1e3e d8d9 293e
00000300: 1e3c 323e 18ee c03d d3ff 3fbc 2250 52bd
00000310: c9d3 8b3d b82c 58bc e4ce 303d e0ab 4f3c
00000320: 918e 533d 5818 23bd 2645 58be 7aff 3c3e
00000330: 26f4 4b3e b15b 473d 60ea 5bbd 542f fc3d
00000340: 0cae 503e 827d 4ebe b0f5 b9bd d788 f43d
00000350: 1ade adbc 3408 f93d 8e85 0bbe e4fa 4fbe
00000360: 1b1d 71be 0d6b 483e 54d8 13be 60bd 213e
00000370: 49bc 8c3d 5b61 e7bd a0d3 0cbd 1495 0cbe
00000380: 00c7 463d 4084 61bd bee9 403d 949e 2fbe
00000390: 7a25 903e 92d0 363e 7940 f33d ea14 6cbe
000003a0: 6d9b 19bc 9dd8 ef3d 03a8 293e b49d f6bd
000003b0: 3449 f53b b03d aebd 8814 a8bd 34ce 4e3d
000003c0: 30ba 0d3d bcae 5f3e e47c 0f3e bc17 a0bd
000003d0: ad1b 0e3e 32af 13be 7dba 28be d244 3b3e
000003e0: 6011 6e3e f2e8 4dbe 1848 d33d 4d3d d3bc
000003f0: e449 1dbe 5c8f 65be e04e 293e 14d2 babd

layer_stack.2.bias f4 [48]
-0.0981265 -0.07355839 -0.078753114 0.19655612 0.029265344 0.074876145 -0.23301005 -0.1906702
-0.16910678 0.114792556 0.055936977 0.060258806 -0.11035465 0.19540685 0.09355437 0.20399497
-0.16424921 0.17146234 -0.0823012 -0.012798483 -0.24465644 0.22926526 -0.023292834 0.17644295
-0.17216189 -0.15001804 0.010878192 -0.050054334 -0.08921951 -0.24142341 -0.062802106 -0.15220624
0.22003151 0.08604644 0.2404945 0.18397427 -0.10091761 0.040719807 0.06586089 -0.18593362
-0.18940893 -0.13614072 -0.19746038 0.12300547 0.097431034 -0.12094191 0.122094214 0.072370805
00000000: 8cf6 c8bd c8a5 96bd 5049 a1bd 0246 493e
00000010: e0bd ef3c aa58 993d 309a 6ebe 0d3f 43be
00000020: 542a 2dbe 5c18 eb3d 2c1e 653d f0d1 763d
00000030: 9e01 e2bd bc18 483e 6f99 bf3d 0fe4 503e
00000040: f230 28be d393 2f3e 888d a8bd bab0 51bc
00000050: 3887 7abe 83c4 6a3e 9dd0 bebc 76ad 343e
00000060: 354b 30be 549e 19be 723a 323c c605 4dbd
00000070: b8b8 b6bd b337 77be 649e 80bd f4db 1bbe
00000080: f14f 613e 1e39 b03d 3144 763e c063 3c3e
00000090: e4ad cebd d0c9 263d 13e2 863d 6265 3ebe
000000a0: 6af4 41be 7968 0bbe 0e33 4abe 4bea fb3d
000000b0: ec89 c73d 64b0 f7bd 880c fa3d 2537 943d

layer_stack.4.weight f4 [48, 48, 1, 1]
0.032691017 0.10409739 -0.09034782 -0.03509657 0.13764486 0.039441884 -0.10106636 0.095064916
-0.03346764 -0.07773031 -0.09584043 0.11984812 -0.04111392 -0.13661335 0.00519151 0.06818081
-0.12655452 0.118251815 -0.10798318 0.12218303 -0.14238958 0.0633414 -0.030004071 -0.021628402
0.04747791 -0.017518163 0.07399812 -0.02957016 -2.9951334e-06 -0.09302573 -0.12585391 -0.097440876
0.022314949 0.07674789 0.105675 -0.03650807 -0.08581613 0.1086694 0.10353013 0.1435357
-0.11396603 0.138548 0.10849212 -0.05569746 -0.018600032 -0.026307419 0.0983035 -0.02672184
0.016021991 0.025600685 0.04089752 -0.0047832876 -0.108049676 -0.06585913 0.034899727 0.042575166
0.10571298 -0.06829198 -0.04129793 -0.07823754 0.11653234 -0.014265128 -0.040770885 0.09987452
0.05969516 -0.031718288 0.09815082 -0.14379188 -0.063823156 -0.08677409 -0.08067928 0.0056711272
-0.0293032 0.05042416 0.02027613 -0.067548454 -0.0341452 -0.082028985 -0.005905524 0.066164464
0.114849284 0.033650413 0.041874133 0.022974638 0.10411666 -0.14004458 0.088108346 -0.13489522
-0.0633039 -0.0071822107 0.0445712 0.006916853 -0.01140137 -0.05251438 -0.06827848 0.040272474
0.13945213 0.12986854 -0.062339745 -0.056678534 -0.057198904 -0.07346484 -0.12184837 -0.023471158
0.11043483 0.127637 -0.07420758 -0.073375344 0.09231904 -0.059272736 -0.058970347 0.0947572
-0.0759912 -0.08055815 0.06503373 -0.009931469 0.12602365 0.12584168 0.03782236 -0.08131297
0.041542158 0.05746022 -0.10350167 0.055750147 0.06165342 0.099572815 -0.093017 -0.029266417
0.056631416 -0.12810242 0.11722132 -0.1441727 0.08752686 -0.05202581 -0.07689194 -0.10103646
0.13732381 -0.07902176 0.02172867 0.1099073 -0.13350533 -0.024420016 0.04686649 -0.04655549
0.028370231 0.060989857 0.013593286 -0.12386657 0.0054320395 -0.040502556 -0.013271302 -0.07425156
-0.07486342 0.13788977 -0.085907385 -0.12843965 -0.0878185 0.12545994 0.025697485 -0.104910165
0.08483149 0.1268954 0.1433484 0.054186806 -0.02705925 -0.11974017 0.05736205 0.061753944
-0.08663897 0.14188045 0.10629347 0.12108651 -0.09474997 0.1290983 -0.113211036 0.02680336
-0.10433375 -0.013316736 -0.061348617 0.05888085 0.028997272 0.022865161 0.009221256 -0.09397704
-0.11969696 -0.037951887 -0.007146865 -0.12202547 0.13703981 -0.037213854 0.050387964 0.097668946
-0.13203941 0.009851799 -0.038722113 0.10323705 0.071968496 0.09578242 -0.09209122 -0.06274507
0.13565506 -0.13480103 -0.11125809 -0.0053544133 -0.023661856 -0.114360064 0.08919649 -0.14259484
-0.046368588 -0.08940655 -0.008723902 -0.00024208815 -0.07295697 0.021600734 0.07522766 0.0041331444
-0.03731756 -0.11485289 -0.04855819 0.0057212585 0.013208717 0.024535125 0.014171377 -0.024000145
0.023861485 0.06866033 -0.051867023 -0.050694354 0.07095128 0.07933289 0.13116021 0.13017553
-0.0103211105 0.020161573 0.14277002 0.117772415 0.08296083 -0.04450514 0.07096828 0.0720592
-0.026137598 -0.13466395 -0.07686287 -0.04402142 -0.1267751 0.1095495 0.122711115 0.08331966
-0.13742355 0.010573685 -0.080153465 -0.074589744 -0.13808607 0.05830499 -0.05004917 -0.0033855787
00000000: 04e7 053d 0331 d53d 4708 b9bd 6cc1 0fbd
00000010: c6f2 0c3e d08d 213d e1fb cebd 65b1 c23d
00000020: 5d15 09bd 1231 9fbd fd47 c4bd ee72 f53d
00000030: 1267 28bd 5fe4 0bbe 8b1d aa3b 61a2 8b3d
00000040: 8297 01be 022e f23d 4926 ddbd 193b fa3d
00000050: 93ce 11be 23b9 813d 19cb f5bc 0c2e b1bc
00000060: 3278 423d 4082 8fbc 548c 973d 1f3d f2bc
00000070: 0000 49b6 4684 bebd d9df 00be 158f c7bd
00000080: d7cd b63c ff2d 9d3d 226c d83d 7c89 15bd
00000090: 5ec0 afbd 108e de3d 9b07 d43d 06fb 123e
000000a0: 0667 e9bd 87df 0d3e 1e31 de3d 0523 64bd
000000b0: 185f 98bc a882 d7bc 5853 c93d c3e7 dabc
000000c0: 8d40 833c 87b8 d13c 2884 273d 20bd 9cbb
000000d0: 2649 ddbd 27e1 86bd 04f3 0e3d 4c63 2e3d
000000e0: 0c80 d83d aadc 8bbd 0528 29bd 013b a0bd
000000f0: 82a8 ee3d 49b8 69bc 5fff 26bd 038b cc3d
00000100: e982 743d 09eb 01bd 4c03 c93d 2e3e 13be
00000110: b7b5 82bd 9db6 b1bd 2e3b a5bd ddd4 b93b
00000120: 440d f0bc 9089 4e3d 201a a63c d856 8abd
00000130: d6db 0bbd d0fe a7bd 2083 c1bb 3c81 873d
00000140: 1a36 eb3d 04d5 093d 3684 2b3d 4f35 bc3c
00000150: 1e3b d53d d967 0fbe 2672 b43d f921 0abe
00000160: 7aa5 81bd c058 ebbb 4a90 363d c5a6 e23b
00000170: d0cc 3abc 5219 57bd 96d5 8bbd c0f4 243d
00000180: 8acc 0e3e 42fc 043e f657 7fbd c027 68bd
00000190: 6649 6abd bc74 96bd a38b f9bd 9646 c0bc
000001a0: a82b e23d 46b3 023e 25fa 97bd d045 96bd
000001b0: c411 bd3d f8c7 72bd e48a 71bd 1010 c23d
000001c0: 46a1 9bbd acfb a4bd 6730 853d 9ab7 22bc
000001d0: 580c 013e a4dc 003e 9eeb 1a3d 6a87 a6bd
000001e0: 1c28 2a3d 685b 6b3d aff8 d3bd 445a 643d
000001f0: 4c88 7c3d d5ec cb3d b27f bebd 20c0 efbc
00000200: 58f6 673d 482d 03be bb11 f03d 02a2 13be
00000210: 4841 b33d 0419 55bd 8579 9dbd 34ec cebd
00000220: 9d9e 0c3e 29d6 a1bd 5300 b23c 1417 e13d
00000230: 9fb5 08be 7c0c c8bc 14f7 3f3d f8b0 3ebd
00000240: b068 e83c 80d0 793d 60b6 5e3c c2ad fdbd
00000250: 40ff b13b 02e6 25bd e06f 59bc 3411 98bd
00000260: fe51 99bd fa32 0d3e 36f0 afbd af85 03be
00000270: 30da b3bd 9278 003e 8883 d23c 24db d6bd
00000280: 22bc ad3d def0 013e ecc9 123e fcf2 5d3d
00000290: 5cab ddbc 563a f5bd 78f4 6a3d b4f1 7c3d
000002a0: c66f b1bd 1c49 113e 64b0 d93d 34fc f73d
000002b0: 460c c2bd 5832 043e 30db e7bd b892 db3c
000002c0: efac d5bd 702e 5abc b048 7bbd 0c2d 713d
000002d0: b08b ed3c b84f bb3c c014 173c 0977 c0bd
000002e0: ae23 f5bd 7073 1bbd 4030 eabb 7de8 f9bd
000002f0: 2a54 0c3e 8e6d 18bd 9c63 4e3d a806 c83d
00000300: 5735 07be 7169 213c 149b 1ebd f26d d33d
00000310: 3864 933d 9329 c43d 529a bcbd 7d80 80bd
00000320: 29e9 0a3e 4809 0abe 48db e3bd 1374 afbb
00000330: 82d6 c1bc 9c35 eabd a6ac b63d 6204 12be
00000340: fdec 3dbd c81a b7bd b2ee 0ebc 0bd9 7db9
00000350: 776a 95bd 06f4 b03c f610 9a3d 546f 873b
00000360: 4cda 18bd fe37 ebbd f4e4 46bd 6579 bb3b
00000370: 6069 583c e3fd c83c 102f 683c f49b c4bc
00000380: 2979 c33c c99d 8c3d 8472 54bd e2a4 4fbd
00000390: e84e 913d 4879 a23d dd4e 063e bc4c 053e
000003a0: e019 29bc e229 a53c 4e32 123e aa32 f13d
000003b0: 5ee7 a93d 064b 36bd d157 913d c693 933d
000003c0: 841e d6bc 59e5 09be 486a 9dbd ce4f 34bd
000003d0: 55d1 01be 7d5b e03d f74f fb3d 7fa3 aa3d
000003e0: c2b8 0cbe 403d 2d3c 8027 a4bd 82c2 98bd
000003f0: 6f66 0dbe 37d1 6e3d 5c00 4dbd 96e0 5dbb

layer_stack.4.bias f4 [48]
0.060791954 0.009775281 0.030734777 -0.1078184 0.11570741 0.10151371 0.11038736 0.114409834
0.077417344 -0.0006461025 0.05520079 -0.13968349 0.026613563 -0.038518548 -0.10605836 0.08738169
0.076555 -0.04441908 -0.04782411 -0.010262509 -0.084483355 -0.11402324 -0.057003107 0.10479041
0.02121538 -0.14429358 0.06519731 -0.03546448 -0.048815187 0.100347854 0.0048031667 -0.07805016
0.033627804 -0.104185514 -0.021183556 -0.1281471 0.118133925 0.056839716 -0.13485466 0.07119645
-0.044207048 -0.11717535 0.12408699 -0.01751914 -0.068746775 -0.0221127 -0.00741125 -0.066025324
00000000: fc00 793d 8028 203c 80c7 fb3c e5cf dcbd
00000010: 02f8 ec3d 6ce6 cf3d c512 e23d b44f ea3d
00000020: fc8c 9e3d 345f 29ba 391a 623d 3009 0fbe
00000030: b004 da3c a0c5 1dbd 2035 d9bd 2cf5 b23d
00000040: dec8 9c3d c8f0 35bd 37e3 43bd 1524 28bc
00000050: 9c05 adbd 0485 e9bd 177c 69bd 5b9c d63d
00000060: e0cb ad3c b2c1 13be 2b86 853d 3443 11bd
00000070: 6ff2 47bd 2d83 cd3d e263 9d3b c3d8 9fbd
00000080: 4fbd 093d 375f d5bd 2389 adbc fe38 03be
00000090: 33f0 f13d c3d0 683d 5717 0abe 72cf 913d
000000a0: 7312 35bd a1f9 efbd 5221 fe3d 4d84 8fbc
000000b0: 1ccb 8cbd b125 b5bc 12da f2bb 4938 87bd

layer_stack.6.weight f4 [72, 48, 3, 3]
-0.012021399 -0.0428072 -0.04850582 0.031697933 0.020217607 0.03860409 -0.04871616 0.04609667
0.013028484 -0.03472521 0.0020774987 0.0034092066 -0.0073297294 0.026874527 -0.027539898 -0.026863059
0.030030115 -0.025039008 -0.003362061 0.013061206 -0.0036417213 -0.030618617 -0.047755472 -0.040065326
-0.03816112 0.029898172 -0.03435934 -0.0409863 -0.00029761344 0.014505144 -0.016558439 0.020374592
0.01021634 -0.03809905 -0.0008935742 -0.01602944 -0.02007347 0.031236036 0.0019373575 -0.04109204
0.009975832 -0.019447956 0.03503787 0.009061532 0.009143179 -0.012875801 0.019459248 -0.0066764117
-0.006357143 -0.006359082 0.024492318 0.0052808234 0.024114205 0.028952667 -0.046674397 -0.038823802
-0.0026333083 -0.038121816 0.03886285 0.019644793 0.0018187317 -0.038871534 0.016828613 -0.008727052
-0.013363771 0.042514876 0.0014160644 -0.02526753 -0.034378145 0.0015915164 0.016608711 -0.04071261
-0.007382255 0.007984355 0.0280657 -0.027938617 0.0413828 0.006912742 -0.038685285 -0.02727897
-0.0050123744 -0.0055638836 -0.018633494 0.009045335 -0.012462082 -0.03514723 0.0096845 0.041686554
-0.03487071 0.0061623068 -0.041996304 0.04616372 0.03365583 0.0281408 0.023197072 -0.031867877
-0.035188917 0.01088391 -0.024116835 -0.04703055 0.04282202 -0.015318257 -0.01022121 0.065387115
-0.006657589 -0.032563016 -0.0178608 -0.025043983 -0.029749107 0.021328662 0.03345738 0.025630217
-0.0026535317 -0.011690319 -0.032366782 0.013484191 -0.007752966 0.0008602113 -0.004188205 0.012260244
-0.023726597 0.012013571 -0.0138493525 0.012769149 -0.03919897 -0.035231974 -0.0059074135 0.00083816465
-0.049138788 -0.036738407 0.06447317 0.005199958 0.0026789207 -0.016387684 -0.0015074611 0.0056813112
-0.02558771 0.023932036 0.0078031756 -0.003633714 -0.036029525 -0.012018342 -0.033011105 0.013463552
0.024900585 0.041946523 -0.045284692 -0.020542566 0.0338406 -0.03414135 -0.071869485 0.023493983
0.017843 -0.033239637 -0.0036344028 0.019184178 -0.02102235 0.056540523 0.02227684 0.0018963196
-0.016062984 0.024460884 0.03580729 -0.04790355 -0.024685448 0.011219399 0.041173343 -0.011766949
0.00033644124 -0.003687898 -0.035181586 -0.021617666 0.05343517 -0.0906199 -0.028803585 0.14042789
0.0056418004 -0.05685032 0.031034889 0.037843704 0.042219307 -0.03222654 -0.018712591 -0.05664869
-0.0024518708 0.01088977 -0.009835694 -0.0060725543 0.013796636 -0.03709836 -0.03237375 -0.04438963
-0.03946698 0.022515083 0.042372823 -0.00036397338 -0.004951869 0.026255973 0.020479374 -0.01631275
-0.05417706 -0.019279467 0.061131053 0.003819308 -0.088871956 -0.016111208 0.013172702 -0.040696356
-0.048024792 -0.002326204 -0.0060247784 0.033242885 -0.008400746 -0.041742515 -0.01702236 -0.047204453
0.003044923 -0.0071791387 -0.02314704 -0.00266354 0.05376638 -0.0065167085 -0.038979787 0.0045908694
-0.02638739 0.017311847 0.045317393 -0.04430669 -0.041656494 0.15927124 -0.015676847 -0.10542689
0.023925299 -0.03413215 -0.032884374 0.0072923936 0.032495536 0.014017536 -0.02142417 -0.0042227483
-0.043969475 -0.04029783 -0.019578278 -0.013570681 -0.019342316 -0.025540799 0.040008876 0.04025821
0.027964968 0.04295366 -0.0412322 -0.03421953 0.03278194 0.029825578 0.028056908 0.02546643
00000000: 67f5 44bc 9a56 2fbd 0aae 46bd b1d5 013d
00000010: 659f a53c 531f 1e3d 998a 47bd ddcf 3c3d
00000020: 6c75 553c 063c 0ebd a526 083b ff6c 5f3b
00000030: 3a2e f0bb f827 dc3c 5a9b e1bc eb0f dcbc
00000040: b701 f63c 9b1e cdbc 0656 5cbb abfe 553c
00000050: f2a9 6ebb e5d3 fabc 3e9b 43bd 8a1b 24bd
00000060: d64e 1cbd 03ed f43c 61bc 0cbd 40e1 27bd
00000070: 0009 9cb9 fca6 6d3c 90a5 87bc 9ee8 a63c
00000080: 7062 273c c00d 1cbd c03e 6aba 2c50 83bc
00000090: 1e71 a4bc b7e2 ff3c eeee fd3a 2050 28bd
000000a0: ac71 233c 5251 9fbc df83 0f3d d276 143c
000000b0: 46cd 153c 06f5 52bc 0069 9f3c cdc5 dabb
000000c0: 954f d0bb d95f d0bb 1da4 c83c c20a ad3b
000000d0: 278b c53c 252e ed3c a72d 3fbd b505 1fbd
000000e0: 9593 2cbb 9f25 1cbd a72e 1f3d 1eee a03c
000000f0: 8262 ee3a c237 1fbd 29dc 893c e9fb 0ebc
00000100: b8f3 5abc 1424 2e3d 3d9b b93a dafd cebc
00000110: 19d0 0cbd 6e9a d03a fe0e 883c 44c2 26bd
00000120: d8e6 f1bb d0d0 023c 0aea e53c 87df e4bc
00000130: 0381 293d 4884 e23b 7674 1ebd 2678 dfbc
00000140: d83e a4bb 3d51 b6bb 45a5 98bc e332 143c
00000150: c32d 4cbc 8bf6 0fbd bdab 1e3c 85bf 2a3d
00000160: 97d4 0ebd 2ded c93b 5104 2cbd 2b16 3d3d
00000170: b2da 093d 8987 e63c c907 be3c e487 02bd
00000180: 4122 10bd 6d52 323c ab90 c5bc 1ba3 40bd
00000190: 2466 2f3d 6df9 7abc dd76 27bc aee9 853d
000001a0: e827 dabb cc60 05bd d050 92bc 0a29 cdbc
000001b0: 66b4 f3bc 72b9 ae3c 9b0a 093d 76f6 d13c
000001c0: e0e6 2dbb c088 3fbc 0893 04bd ccec 5c3c
000001d0: 980c febb ce7f 613a 363d 89bb 31df 483c
000001e0: 485e c2bc 92d4 443c 65e8 62bc b135 513c
000001f0: 198f 20bd 674f 10bd fa92 c1bb 47b8 5b3a
00000200: c145 49bd 037b 16bd 820a 843d 6964 aa3b
00000210: d590 2f3b 773f 86bc 0096 c5ba 4b2a ba3b
00000220: 519d d1bc 1e0d c43c c8b1 ff3b 9b23 6ebb
00000230: b293 13bd 94e8 44bc a736 07bd 3b96 5c3c
00000240: 50fc cb3c 1ed0 2b3d 717c 39bd e248 a8bc
00000250: 719c 0a3d cdd7 0bbd 4f30 93bd 7476 c03c
00000260: 7c2b 923c 4926 08bd 292f 6ebb 2328 9d3c
00000270: 1037 acbc 0997 673d eb7d b63c ed8d f83a
00000280: 8596 83bc 3162 c83c aaaa 123d 8336 44bd
00000290: 2339 cabc 92d1 373c 61a5 283d 29ca 40bc
000002a0: 6164 b039 a9b0 71bb 911a 10bd 8817 b1bc
000002b0: d6de 5a3d ed96 b9bd 7ff5 ebbc 54cc 0f3e
000002c0: dade b83b e2db 68bd e13c fe3c 0002 1b3d
000002d0: 27ee 2c3d faff 03bd 264b 99bc 7508 68bd
000002e0: 91af 20bb 026b 323c e425 21bc 47fc c6bb
000002f0: 490b 623c 73f4 17bd 569a 04bd e7d1 35bd
00000300: 21a8 21bd 8d71 b83c 208f 2d3d aed3 beb9
00000310: 4a43 a2bb c416 d73c 5cc4 a73c 51a2 85bc
00000320: c4e8 5dbd f9ef 9dbc 8e64 7a3d 5b4d 7a3b
00000330: 8002 b6bd a7fb 83bc 51d2 573c 39b1 26bd
00000340: a5b5 44bd 3a73 18bb 816b c5bb b129 083d
00000350: 48a3 09bc 33fa 2abd 7a72 8bbc 7559 41bd
00000360: 558d 473b fb3e ebbb dc9e bdbc c98e 2ebb
00000370: 233a 5c3d 1d8a d5bb 45a9 1fbd 016f 963b
00000380: 5e2a d8bc 93d1 8d3c bb9e 393d ef7a 35bd
00000390: 00a0 2abd 0018 233e bb6c 80bc 0eea d7bd
000003a0: fdfe c33c 27ce 0bbd c4b1 06bd 08f5 ee3b
000003b0: 0a1a 053d cfa9 653c be81 afbc fb5e 8abb
000003c0: 5619 34bd 560f 25bd a062 a0bc 9057 5ebc
000003d0: c773 9ebc f03a d1bc 59e0 233d cbe5 243d
000003e0: ca16 e53c 2df0 2f3d 18e3 28bd c729 0cbd
000003f0: 5b46 063d c554 f43c 9ad7 e53c f99e d03c

layer_stack.6.bias f4 [72]
-0.0013451047 -0.014994781 -0.024937525 0.047412537 -0.036094636 0.0052938024 0.037701603 0.03175561
-0.03492826 0.0053214934 -0.00966714 0.0074108476 -0.024342509 0.0023159971 0.043865316 0.029257776
0.024436722 0.003331074 -0.04458244 -0.011001712 0.0051177144 0.018547386 -0.038313404 -0.046201963
-0.022413442 -0.005539879 -0.03214239 0.021723982 0.045407858 0.020657344 -0.012330028 0.02953311
0.009697951 -0.030074801 -0.011687367 0.013368362 -0.016567178 -0.01951262 0.04268002 -0.030020466
0.0069280984 0.01318328 0.009143575 0.014853702 0.0024476445 0.04302587 -0.00045864904 -0.037694182
-0.015547342 -0.04648847 -0.010084022 0.04729415 0.019934846 -0.039525203 0.018639902 -0.02829771
-0.04545157 0.018385213 -0.02413124 0.00018405051 0.012266161 0.016895585 0.047246963 -0.036543176
-0.027526237 0.044246305 -0.004224865 -0.035603274 -0.021557976 -0.023538828 0.037242003 -0.02672912
00000000: 394e b0ba acac 75bc c849 ccbc a633 423d
00000010: f8d7 13bd a277 ad3b ff6c 1a3d 2c12 023d
00000020: ef10 0fbd ec5f ae3b ed62 1ebc b2d6 f23b
00000030: f169 c7bc fcc7 173b 1eac 333d 01ae ef3c
00000040: 852f c83c 264e 5a3b 149c 36bd 8640 34bc
00000050: 80b2 a73b b0f0 973c 84ee 1cbd 453e 3dbd
00000060: 659c b7bc e087 b5bb bda7 03bd 7ef6 b13c
00000070: 97fd 393d 9739 a93c e303 4abc 6cef f13c
00000080: 28e4 1e3c 6e5f f6bc 5f7c 3fbc f906 5b3c
00000090: e4b7 87bc eed8 9fbc 3fd1 2e3d 7bed f5bc
000000a0: 1a05 e33b affe 573c efce 153c f15c 733c
000000b0: a968 203b e53b 303d d576 f0b9 3765 1abd
000000c0: 47ba 7ebc b26a 3ebd 7437 25bc 83b7 413d
000000d0: 674e a33c 2ee5 21bd b5b2 983c 99d0 e7bc
000000e0: 6d2b 3abd 969c 963c e1ae c5bc affd 4039
000000f0: 02f8 483c 9c68 8a3c 0886 413d 4cae 15bd
00000100: b47e e1bc 9d3b 353d bd70 8abb bdd4 11bd
00000110: 5a9a b0bc 80d4 c0bc 128b 183d 07f7 dabc

layer_stack.9.weight f4 [72, 72, 1, 1]
-0.10448772 -0.08596888 0.017056907 0.09812323 0.1016011 0.0696737 -0.07084379 0.11948356
0.020122658 -0.069527835 -0.0038023966 0.051834743 -0.08683126 -0.04197632 0.13048436 -0.023443613
0.09537002 -0.062267724 -0.07237803 0.113302425 0.095095485 -0.06556802 0.070626 -0.024414916
0.042071495 0.026144823 -0.09716038 0.13196968 0.07533518 0.015307022 0.014757162 0.010937153
-0.025030993 -0.106013365 0.119872265 -0.0019605812 -0.119232655 -0.07762591 0.07816282 0.04413155
-0.07907462 0.056460418 0.021665426 0.04593657 0.028792145 -0.016498322 -0.10595967 0.07341544
-0.0689186 0.013724138 -0.0076821106 0.05003832 0.006031412 -0.11064132 -0.10303606 0.045603946
-0.007763928 -0.04801646 0.035425495 -0.027737206 -0.0010639878 -0.025146699 -0.08937778 -0.008058849
-0.09077748 -0.029712725 0.011387249 -0.05031384 -0.08972398 0.04018438 -0.113921255 0.057830296
-0.03616165 0.05907579 0.042017158 0.03627374 0.106617756 -0.09405311 -0.063749336 -0.11501573
-0.055009734 0.053882547 -0.017185185 -0.013908415 -0.12248754 0.12529151 0.07557151 -0.08820338
0.08057368 -0.009637501 -0.09662349 0.013140761 -0.033556852 0.04663552 0.036716055 -0.09909081
0.122806534 0.12277004 0.051241234 -0.084723406 0.035405796 0.0037566407 0.030946476 -0.11577076
0.1172078 -0.1062788 -0.017145991 -0.118886776 0.007121131 -0.06863052 0.008873707 0.017644504
-0.07634043 -0.06420029 0.017396418 0.049569603 0.119244255 -0.073930815 0.015607056 0.06119829
0.035367686 0.06546089 -0.035420444 -0.08631837 -0.014804443 0.09231347 -0.08593895 0.10872549
0.09901607 -0.04462321 0.13357414 -0.04866681 0.043162268 0.080770016 0.074892595 0.14286558
0.109595284 -0.043312613 -0.03294562 -0.097219095 0.018360594 -0.03205269 -0.036074504 0.11513922
-0.09197144 0.0870052 -0.011969113 -0.12097529 -0.0043534744 0.13344438 -0.025709998 -0.08220516
-0.0753644 0.051660705 -0.046356905 -0.0173429 0.0069800145 -0.049569376 -0.06967052 -0.10897336
-0.00018923423 -0.113820136 0.0504751 0.019782288 0.085376814 0.00028240573 0.03141523 -0.0059303455
0.08613077 -0.057749324 0.07278645 -0.026163004 0.03761703 -0.05859581 0.0874268 -0.051312674
0.024761053 0.09460843 0.044490047 -0.048407547 0.0735677 0.027310463 -0.06296128 -0.058450148
-0.017358173 -0.07181381 -0.06684971 0.028590385 -0.057785623 0.059797138 0.025864033 -0.0064603905
0.059775475 -0.019951014 -0.04471291 0.04242825 -0.048424818 0.04389473 -0.04900312 0.050749484
-0.011099551 0.09246848 -0.12505059 0.04754633 0.11053921 0.11776723 -0.03845497 0.019602215
0.022050047 0.00016687503 0.06043746 -0.07521931 0.024780618 0.061890353 -0.020238336 -0.012853098
-0.02577994 0.118654564 0.083732784 0.0622144 0.08189243 -0.09239469 0.0149568925 -0.063550115
0.09842365 -0.063405775 0.020188527 0.07054908 0.045585673 0.11445817 -0.045463566 -0.019706544
0.08837194 0.06996871 -0.090643115 0.097549155 -0.04855435 0.11223182 -0.122985 0.04235943
-0.076345615 0.026662719 0.04526864 0.016396329 -0.022443915 -0.09231006 -0.07687721 -0.08617279
0.038360883 -0.05263152 0.074641995 0.11932297 0.047720652 0.023585603 -0.0034427152 0.01803336
00000000: a8fd d5bd 7410 b0bd edba 8b3c d5f4 c83d
00000010: 3d14 d03d 16b1 8e3d 8d16 91bd ccb3 f43d
00000020: 46d8 a43c 9c64 8ebd a131 79bb ab50 543d
00000030: 96d4 b1bd 5def 2bbd b19d 053e d20c c0bc
00000040: 5b51 c33d 710c 7fbd ef3a 94bd 1a0b e83d
00000050: 6cc1 c23d 8748 86bd 5da4 903d ca01 c8bc
00000060: 2953 2c3d ab2d d63c 05fc c6bd 0f23 073e
00000070: 5549 9a3d 4eca 7a3c 06c8 713c bf31 333c
00000080: cc0d cdbc 891d d9bd 977f f53d 187d 00bb
00000090: 4030 f4bd 55fa 9ebd d413 a03d 49c3 343d
000000a0: e0f1 a1bd 0a43 673d b17b b13c fc27 3c3d
000000b0: 81dd eb3c 7d27 87bc 6201 d9bd d65a 963d
000000c0: 3225 8dbd 35db 603c 37ba fbbb fbf4 4c3d
000000d0: 27a3 c53b eb97 e2bd 9204 d3bd 34cb 3a3d
000000e0: 8c68 febb e8ac 44bd 531a 113d 2339 e3bc
000000f0: 8275 8bba 7300 cebc b30b b7bd 4309 04bc
00000100: 8be9 b9bd 1a68 f3bc 9691 3a3c e315 4ebd
00000110: 35c1 b7bd 6098 243d 8c4f e9bd 76df 6c3d
00000120: 3d1e 14bd 75f9 713d 2f1a 2c3d c693 143d
00000130: 695a da3d eb9e c0bd 038f 82bd 5e8d ebbd
00000140: e351 61bd f2b3 5c3d f2c7 8cbc 1fe0 63bc
00000150: bfda fabd 6b4c 003e 3cc5 9a3d f9a3 b4bd
00000160: d003 a53d 9ce6 1dbc 89e2 c5bd 594c 573c
00000170: e972 09bd e304 3f3d 9363 163d 1ff0 cabd
00000180: fe81 fb3d dc6e fb3d 54e2 513d 7783 adbd
00000190: ab05 113d f931 763b 7783 fd3c 3819 edbd
000001a0: a50a f03d b3a8 d9bd c075 8cbc e97a f3bd
000001b0: 6058 e93b 288e 8cbd 0663 113c 358b 903c
000001c0: 5f58 9cbd 717b 83bd ef82 8e3c 7f09 4b3d
000001d0: 5536 f43d 0a69 97bd bdb4 7f3c 0fab 7a3d
000001e0: b5dd 103d 5c10 863d 0715 11bd b0c7 b0bd
000001f0: 568e 72bc d80e bd3d c300 b0bd 78ab de3d
00000200: f0c8 ca3d d4c6 36bd a9c7 083e d956 47bd
00000210: ebca 303d c06a a53d 4a61 993d 5b4b 123e
00000220: 7e73 e03d 9168 31bd fdf1 06bd ce1a c7bd
00000230: f568 963c ae49 03bd dcc2 13bd 1dce eb3d
00000240: 865b bcbd c82f b23d 191a 44bc e5c1 f7bd
00000250: 97a7 8ebb a5a5 083e c69d d2bc 2e5b a8bd
00000260: a758 9abd 2d9a 533d bde0 3dbd b312 8ebc
00000270: 9bb8 e43b 4209 4bbd 6baf 8ebd 6d2d dfbd
00000280: 2d6d 46b9 881a e9bd fabe 4e3d 770e a23c
00000290: 0ada ae3d db0f 9439 42ad 003d 5853 c2bb
000002a0: 5465 b03d 8e8a 6cbd 1011 953d cc53 d6bc
000002b0: 5114 1a3d 2902 70bd d20c b33d 3d2d 52bd
000002c0: b1d7 ca3c 11c2 c13d 323b 363d fe46 46bd
000002d0: aaaa 963d 31ba df3c d8f1 80bd 6c69 6fbd
000002e0: ba32 8ebc 1e13 93bd 80e8 88bd 6236 ea3c
000002f0: 9eb0 6cbd d8ed 743d cfe0 d33c afb1 d3bb
00000300: 21d7 743d 4f70 a3bc e224 37bd 3fc9 2d3d
00000310: 1a59 46bd f6ca 333d 7fb7 48bd b1de 4f3d
00000320: e4da 35bc 1d60 bd3d 430d 00be f1bf 423d
00000330: 6262 e23d f22f f13d f582 1dbd d394 a03c
00000340: 4da2 b43c 2dfb 2e39 458d 773d 950c 9abd
00000350: b900 cb3c bd80 7d3d deca a5bc cd95 52bc
00000360: 7430 d3bc 2a01 f33d 187c ab3d 87d4 7e3d
00000370: 38b7 a73d 6d39 bdbd c10d 753c 9026 82bd
00000380: 5792 c93d e3da 81bd 6962 a53c 097c 903d
00000390: 0bb8 3a3d 0c69 ea3d 0138 3abd 9e6f a1bc
000003a0: 59fc b43d c14b 8f3d 19a3 b9bd dac7 c73d
000003b0: ede0 46bd ccd9 e53d 8fdf fbbd 1581 2d3d
000003c0: 175b 9cbd c66b da3c 9c6b 393d 9851 863c
000003d0: 4ddc b7bc 0f0d bdbd cc71 9dbd 5c7b b0bd
000003e0: 4d20 1d3d 2694 57bd e7dd 983d 9a5f f43d
000003f0: bb76 433d 9836 c13c 2d9f 61bb b2ba 933c

layer_stack.9.bias f4 [72]
0.11674001 -0.027432814 -0.05311916 0.00069915794 0.026331449 0.07809558 -0.02834072 0.017041847
-0.10871229 0.073749594 0.048958868 0.010640296 0.10441329 -0.1172462 0.043216597 0.10062303
-0.03819674 -0.016545203 -0.020176493 0.059777744 0.03612528 0.014393742 -0.007835236 0.0153586175
0.091897234 -0.08317451 -0.10419875 -0.010060459 0.08413342 -0.08803678 0.058342155 -0.026079064
-0.094971865 -0.04203545 -0.029811038 -0.039560247 0.0027920466 0.01853817 0.03688961 0.04552325
0.08545565 -0.033262547 -0.037415214 0.01505403 0.039382815 -0.034378804 -0.042192735 -0.0761713
-0.039366633 -0.06658319 -0.016768105 0.05078374 -0.072615914 -0.057727516 -0.008024146 0.012775454
-0.028900836 0.021671016 0.074977994 -0.04905842 0.071443535 0.06087066 0.049649626 0.05848763
-0.0002914463 0.012521712 -0.10046531 0.086336315 -0.044968687 0.095717914 0.07612207 -0.034663357
00000000: 6315 ef3d c8ba e0bc 7a93 59bd b247 373a
00000010: 0db5 d73c 93f0 9f3d cc2a e8bc 589b 8b3c
00000020: 8da4 debd 070a 973d 1889 483d a354 2e3c
00000030: a3d6 d53d c71e f0bd e303 313d 7213 ce3d
00000040: 2f74 1cbd ce89 87bc 2c49 a5bc 82d9 743d
00000050: 1af8 133d bbd3 6b3c 5d5f 00bc b6a2 7b3c
00000060: 9e34 bc3d 6657 aabd 2766 d5bd a0d4 24bc
00000070: 244e ac3d a14c b4bd 2ff8 6e3d c3a3 d5bc
00000080: 9c80 c2bd 5d2d 2cbd 4736 f4bc ed09 22bd
00000090: c5fa 363b 5cdd 973c 8f19 173d 9676 3a3d
000000a0: 5f03 af3d 4f3e 08bd b240 19bd 2ea5 763c
000000b0: e04f 213d cad0 0cbd 4ad2 2cbd b3ff 9bbd
000000c0: e83e 21bd c45c 88bd 445d 89bc 9c02 503d
000000d0: a7b7 94bd b073 6cbd b577 03bc 2350 513c
000000e0: 72c1 ecbc 6a87 b13c 108e 993d 7bf1 48bd
000000f0: fd50 923d 8353 793d 685d 4b3d ba90 6f3d
00000100: 43cd 98b9 de27 4d3c c2c0 cdbd 18d1 b03d
00000110: 1631 38bd c107 c43d e3e5 9b3d 2afb 0dbd

layer_stack.11.weight f4 [72, 72, 1, 1]
-0.10398883 0.11801669 0.10731278 0.10508363 -0.01593624 -0.072561085 0.123441614 0.049885876
-0.048083935 -0.07462732 -0.0062161097 0.10087293 0.04595403 0.15301044 -0.084050894 0.07967859
-0.07709512 -0.11113542 0.013281888 0.061583742 -0.04627638 0.06734179 -0.07037649 0.047264885
-0.07156595 -0.059836738 0.082356006 0.0042633517 -0.083473824 0.019912207 0.054704994 -0.11020418
0.05483313 -0.031756382 -0.03218835 0.13319787 -0.028343504 0.02553698 -0.09723605 -0.030344969
-0.067485936 0.030543044 -0.0820428 -0.07476098 0.092385516 0.017786074 0.079583295 -0.06970216
-0.0340003 -0.077079974 -0.050417528 -0.024533333 -0.062201027 0.033541325 0.05218624 0.011170908
-0.08176995 0.10831785 0.04570007 0.08544849 0.07777991 -0.017380029 -0.019676633 -0.08147905
0.021568125 -0.06004804 0.06503613 0.028328788 0.041054245 -0.07152848 -0.020362498 -0.016227953
-0.07871235 -0.06514361 -0.10283783 -0.025850188 0.024443403 -0.0065234522 -0.11481233 0.07718354
-0.12023216 -0.11702633 0.06223541 -0.107667826 -0.041350003 0.05538301 -0.008591611 0.0154574765
-0.061375763 -0.10422037 0.03295355 -0.07844246 0.031143686 0.042203587 -0.015466507 -0.017875561
0.044130865 -0.085860215 -0.026930338 -0.05470037 -0.04639365 0.033160273 0.066958874 0.04871247
0.051453523 0.009664328 -0.055320863 0.11053959 -0.02259805 0.028217494 -0.011922238 -0.09502686
0.008249671 -0.09435041 -0.11088424 -0.023856843 0.11110317 0.050813753 -0.102822155 0.0358091
0.039912295 0.050371252 0.06666079 -0.03129373 -0.09426293 -0.006671734 0.09719608 0.10810659
0.0075697824 0.04000798 -0.020790717 0.032442242 -0.06866319 -0.09097966 -0.1136262 -0.07372447
-0.08692117 0.11456284 -0.0528353 -0.0378733 -0.023025533 -0.01040276 -0.10506691 -0.08222578
0.08544225 0.05845518 -0.049156632 0.016835338 -0.06535403 0.02319955 -0.050245948 0.038517203
-0.06677147 0.07085365 0.10577621 -0.06644726 0.059573743 0.0143391695 0.053045098 0.10606947
-0.07596353 -0.037713084 -0.085653454 0.022617232 0.08400302 0.05829956 -0.08732241 -0.05736734
-0.07133383 -0.022001417 -0.031004507 -0.09987803 -0.056860298 -0.028901089 0.015263137 -0.04695048
-0.018941391 0.011622565 -0.0052985214 0.09688334 0.042665735 -0.103748046 0.065260515 0.0811626
0.020402005 -0.07659465 0.073132716 -0.07573071 -0.03321751 0.07709664 0.11348991 0.013078154
0.012983999 -0.11630629 0.014030748 0.06672609 -0.013824127 0.025222063 0.08236349 -0.046066374
0.02994727 -0.0031319116 -0.027781082 0.04955927 -0.10783317 0.0047865007 0.10114928 0.010336955
-0.11965306 -0.05223115 0.0054902397 0.08741091 -0.049852174 0.0058616046 -0.047133796 -0.03487072
0.0027122702 -0.047227938 -0.07013821 -0.08233878 -0.09136086 0.05469905 -0.094107665 -0.11646385
-0.10800921 -0.111993626 0.089113034 -0.05987591 0.07063382 0.086211026 0.050851263 0.06713257
0.076096036 0.05120218 0.036753748 -0.054707307 -0.09717411 0.0033786693 0.07746788 -0.034576844
-0.0039631166 -0.08346025 -0.018246021 -0.08710407 0.04742905 -0.07453053 0.03656681 0.09659015
0.011622927 0.00556102 -0.115429915 0.07111268 -0.109642215 -0.07086921 0.0309 -0.016212815
00000000: 18f8 d4bd bcb2 f13d cec6 db3d 1636 d73d
00000010: b88c 82bc e89a 94bd f5ce fc3d 2255 4c3d
00000020: a9f3 44bd 35d6 98bd 82b0 cbbb 7796 ce3d
00000030: 4b3a 3c3d c5ae 1c3e e022 acbd 872e a33d
00000040: 0ce4 9dbd f89a e3bd 479c 593c 3c3f 7c3d
00000050: 4d8c 3dbd 7eea 893d 8d21 90bd d398 413d
00000060: 2b91 92bd 5e17 75bd 44aa a83d 96b3 8b3b
00000070: 53f4 aabd ed1e a33c 5812 603d bbb2 e1bd
00000080: b498 603d fb12 02bd eed7 03bd 0665 083e
00000090: a330 e8bc ee32 d13c b223 c7bd 0396 f8bc
000000a0: 1136 8abd 6835 fa3c 0e06 a8bd 491c 99bd
000000b0: 9e34 bd3d 1ab4 913c 91fc a23d 02c0 8ebd
000000c0: e643 0bbd 1bdc 9dbd 9c82 4ebd 21fa c8bc
000000d0: 81c6 7ebd a162 093d 3dc1 553d 2f06 373c
000000e0: 0177 a7bd c0d5 dd3d ff2f 3b3d 9eff ae3d
000000f0: 134b 9f3d 9060 8ebc e430 a1bc 7dde a6bd
00000100: a3af b03c eff4 75bd aa31 853d c611 e83c
00000110: 7f28 283d 867d 92bd 41cf a6bc 7cf0 84bc
00000120: f133 a1bd 036a 85bd a49c d2bd c6c3 d3bc
00000130: 883d c83c afc2 d5bb ba22 ebbd 6712 9e3d
00000140: 473c f6bd 80ab efbd 8fea 7e3d f380 dcbd
00000150: 9f5e 29bd 4cd9 623d d4c3 0cbc 5b41 7d3c
00000160: 2765 7bbd 7d71 d5bd 4dfa 063d 71a6 a0bd
00000170: 0b21 ff3c abdd 2c3d 3b67 7dbc c56f 92bc
00000180: 91c2 343d 7bd7 afbd 039d dcbc 7f0d 60bd
00000190: 4507 3ebd 11d3 073d bc21 893d ba86 473d
000001a0: eec0 523d 2157 1e3c 2198 62bd 9562 e23d
000001b0: 8c1f b9bc 6028 e73c 7e55 43bc 719d c2bd
000001c0: a129 073c ca3a c1bd 4717 e3bd 6d6f c3bc
000001d0: 0f8a e33d 1522 503d 6c94 d2bd 90ac 123d
000001e0: 137b 233d 1652 4e3d 7485 883d db2d 00bd
000001f0: ec0c c1bd 909e dabb bd0e c73d fd66 dd3d
00000200: f00b f83b 68df 233d 4b51 aabc 28e2 043d
00000210: 499f 8cbd 8b53 babd dab4 e8bd dbfc 96bd
00000220: ba03 b2bd ec9f ea3d d469 58bd 0921 1bbd
00000230: 0ba0 bcbc 5670 2abc 522d d7bd fd65 a8bd
00000240: 59fc ae3d b36e 6f3d 7758 49bd 43ea 893c
00000250: 55d8 85bd fc0c be3c b2ce 4dbd 37c4 1d3d
00000260: 7bbf 88bd b81b 913d 33a1 d83d 8015 88bd
00000270: 9903 743d d6ee 6a3c d145 593d f33a d93d
00000280: c492 9bbd 0979 1abd 146b afbd c647 b93c
00000290: c609 ac3d 85cb 6e3d 17d6 b2bd 04fa 6abd
000002a0: 7917 92bd 513c b4bc 2afd fdbc da8c ccbd
000002b0: 58e6 68bd fac1 ecbc 3d12 7a3c 264f 40bd
000002c0: fa2a 9bbc 926c 3e3c 389f adbb c66a c63d
000002d0: 44c2 2e3d db79 d4bd 4ea7 853d 9438 a63d
000002e0: 1b22 a73c a8dd 9cbd 9bc6 953d b418 9bbd
000002f0: 150f 08bd d8e4 9d3d 666d e83d c145 563c
00000300: d7ba 543c fe31 eebd 39e1 653c b0a7 883d
00000310: 977e 62bc 809e ce3c 30ae a83d 18b0 3cbd
00000320: fa53 f53c c240 4dbb 2795 e3bc a9fe 4a3d
00000330: a3d7 dcbd 14d8 9c3b 5b27 cf3d 555c 293c
00000340: aa0c f5bd 55f0 55bd 78e7 b33b 7e04 b33d
00000350: cb31 4cbd b412 c03b 5e0f 41bd 9ad4 0ebd
00000360: 58c0 313b 1572 41bd 9fa4 8fbd 3ca1 a8bd
00000370: 671b bbbd 1c0c 603d 85bb c0bd 9984 eebd
00000380: ef33 ddbd ea5c e5bd e580 b63d 7140 75bd
00000390: 77a8 903d 688f b03d 6a49 503d cd7c 893d
000003a0: 3dd8 9b3d 61b9 513d 198b 163d c514 60bd
000003b0: 3803 c7bd aa6c 5d3b 7ba7 9e3d 73a0 0dbd
000003c0: 08dd 81bb 35ed aabd ae78 95bc 9e63 b2bd
000003d0: f744 423d 76a3 98bd 14c7 153d 0ed1 c53d
000003e0: 176e 3e3c 3839 b63b 8566 ecbd 86a3 913d
000003f0: 198c e0bd e023 91bd ff21 fd3c bdd0 84bc

layer_stack.11.bias f4 [72]
-0.042864382 0.07803322 -0.008733314 -0.07653701 -0.011152131 -0.025476396 -0.11189492 0.11259332
0.09605973 -0.110699825 -0.039216455 0.02870577 0.0073811742 0.116645865 0.077650234 -0.026169987
0.10535493 0.11259906 0.11970762 -0.041928545 0.009963908 0.04057997 -0.07677984 0.094043046
-0.05035078 -0.11660931 0.08557998 -0.08145393 -0.10947207 -0.054218277 0.002649925 -0.06205165
-0.08003584 -0.0809075 -0.10110747 -0.026587967 -0.0600505 -0.09996776 -0.07361637 0.110797636
0.016520718 -0.08170376 -0.02474161 0.080446266 0.005004066 -0.056838118 0.120475896 0.023952154
0.056047622 0.047748268 0.103199884 -0.058592852 -0.11044802 -0.04918483 -0.05349637 -0.08474766
-0.09106572 -0.11314622 -0.054257825 0.052500747 -0.115065 -0.059397317 -0.029633244 0.0152936485
0.085021004 -0.06106929 0.0202386 0.11263814 0.04944021 0.059587404 -0.09489159 -0.07481527
00000000: 9092 2fbd e1cf 9f3d 2d16 0fbc 70bf 9cbd
00000010: 6db7 36bc e0b3 d0bc 2a29 e5bd 5497 e63d
00000020: f7ba c43d 97b6 e2bd 6fa1 20bd 5d28 eb3c
00000030: c7dd f13b 07e4 ee3d 1607 9f3d 7162 d6bc
00000040: 53c4 d73d 569a e63d 4529 f53d 44bd 2bbd
00000050: a93f 233c 2f37 263d c03e 9dbd a499 c03d
00000060: 9f3c 4ebd ddd0 eebd 8e44 af3d 51d1 a6bd
00000070: e532 e0bd fc13 5ebd 5daa 2d3b df29 7ebd
00000080: d5e9 a3bd d5b2 a5bd 6f11 cfbd 02cf d9bc
00000090: 83f7 75bd e6bb ccbd 2ec4 96bd dfe9 e23d
000000a0: 7556 873c 4d54 a7bd ebae cabc 03c1 a43d
000000b0: 26f9 a33b 16cf 68bd 11bc f63d 4f37 c43c
000000c0: 3192 653d b093 433d 765a d33d 0fff 6fbd
000000d0: 9232 e2bd 0876 49bd 021f 5bbd 2e90 adbd
000000e0: aa80 babd 35b9 e7bd 743d 5ebd 060b 573d
000000f0: 33a7 ebbd 9a4a 73bd 6bc1 f2bc 3692 7a3c
00000100: 7e1f ae3d cb23 7abd 6ccb a53c d3ae e63d
00000110: d181 4a3d ec11 743d 8656 c2bd c038 99bd

layer_stack.13.weight f4 [96, 72, 1, 1]
-0.03534423 -0.016493846 -0.08398472 -0.06415131 0.0800532 0.0389363 -0.0074206265 0.041288387
0.074345 0.03420825 0.09310002 0.0050396267 0.093413875 -0.003388008 0.0024396754 0.055754147
0.07661241 0.1094593 -0.04029855 -0.05040306 0.022851795 0.13145915 -0.020746775 0.00219717
-0.112823166 0.07469625 -0.03346846 -0.04985043 -0.08344292 0.06498297 0.054939274 0.010736929
0.034393705 0.08644272 -0.02115512 0.10063289 0.069827616 -0.009027661 -0.08852042 -0.11514837
-0.0033687914 0.043942317 -0.063863695 0.092734486 0.07953121 0.11569335 -0.07637005 0.08635712
-0.027374687 0.07779365 0.06291161 0.054010835 0.046355594 0.12935638 -0.09999848 0.05687222
-0.054084446 0.05216422 -0.030744733 0.036385223 0.07833165 0.018658934 0.044529602 -0.10379454
-0.12912072 -0.021656012 -0.050234213 -0.07553315 0.09722893 0.11394052 -0.09321399 -0.11805558
-0.012797648 0.08072885 0.07682508 -0.084607705 -0.0956672 0.099909134 0.025225682 -0.0038799827
0.10612851 -0.0069657913 -0.019852415 -0.0053758007 0.10972224 0.09829237 -0.057299502 0.01453549
-0.07186519 0.11780412 0.05451538 0.104266524 0.0760817 0.024836052 -0.10714825 0.06258052
-0.042612877 0.049073152 0.11022877 0.10874472 0.0136254765 -0.00474819 -0.06544729 0.019725986
0.10591183 -0.027951125 -0.11880125 0.017113259 0.06588634 -0.019321129 0.02902233 -0.04632987
0.051894385 0.09036453 0.06332685 -0.04689155 -0.042351216 0.017696485 0.0046653626 -0.1120869
-0.0813329 0.07921126 0.054872677 -0.10152954 -0.09738738 -0.06300584 0.026277374 0.13757618
-0.047208086 -0.012707868 -0.0033753023 0.10374346 -0.10337077 0.029276084 0.0536463 -0.122190684
-0.01252507 -0.005686177 -0.08692488 -0.06938617 -0.054812886 -0.03762494 -0.024412274 -0.07842755
0.02709456 -0.1097329 -0.01810952 -0.06318622 -0.019566583 -0.03310907 0.07094892 -0.040900122
-0.012951872 -0.022458827 -0.10272755 0.101644374 0.12129044 -0.05319755 -0.04293633 0.031070685
-0.05874627 0.089506365 -0.025630571 0.14312266 -0.001030576 0.030194763 -0.11465004 -0.08831769
0.0484339 0.009708919 0.04772914 -0.059039876 0.06080372 0.030780122 0.05187634 -0.11122274
-0.018530948 0.049286544 0.10119973 -0.09065954 -0.11776026 0.030695178 0.028167486 -0.08564124
-0.08866583 -0.052178867 -0.010474932 0.12504618 -0.030643094 -0.0060302564 -0.042328317 -0.00031511972
0.025115376 -0.051693503 0.002003049 0.052514613 0.0011239622 0.048337832 -0.055008035 -0.013178222
0.06640928 0.017893465 0.10470145 0.030367605 -0.023286778 0.11687668 0.05562806 -0.026309965
0.048714146 0.083270185 -0.044727568 -0.042528536 0.14176607 -0.11672447 -0.037923027 -0.012776904
-0.09870863 -0.056565065 -0.11422256 0.021753032 0.036265746 -0.113528706 -0.012948246 0.08942106
0.067558974 -0.048628405 0.099078566 -0.14183518 -0.10253733 0.031069508 0.115932554 0.118670925
0.06310444 0.045607734 0.0863052 0.030652534 0.056137677 -0.03527092 -0.004839948 -0.028029906
0.06246839 -0.030064598 0.10171299 0.108572446 0.07183826 0.044068947 -0.075020075 -0.035537977
-0.10057682 0.025134556 -0.066425964 0.11838751 -0.025951525 0.083080485 0.030963438 -0.10698596
00000000: 1cc5 10bd 1a1e 87bc 2e00 acbd c361 83bd
00000010: eff2 a33d ab7b 1f3d ba28 f3bb 031e 293d
00000020: 3142 983d f31d 0c3d 39ab be3d 7423 a53b
00000030: c64f bf3d 5809 5ebb f6e2 1f3b 765e 643d
00000040: f8e6 9c3d 332c e03d 1810 25bd 7073 4ebd
00000050: b033 bb3c 3a9d 063e 24f5 a9bc 65fe 0f3b
00000060: d50f e7bd 59fa 983d 3916 09bd f72f 4cbd
00000070: 1fe4 aabd cb15 853d 0108 613d f2e9 2f3c
00000080: 6ae0 0c3d e108 b13d 814d adbc 9e18 ce3d
00000090: c801 8f3d c1e8 13bc 324a b5bd e9d2 ebbd
000000a0: f1c6 5cbb dcfc 333d f8ca 82bd 94eb bd3d
000000b0: 42e1 a23d a3f0 ec3d e767 9cbd 00dc b03d
000000c0: e140 e0bc 4752 9f3d cdd7 803d 773a 5d3d
000000d0: 5ddf 3d3d 0076 043e 01cc ccbd d8f2 683d
000000e0: a787 5dbd 26aa 553d 61dc fbbc ac08 153d
000000f0: 586c a03d 9fda 983c ac64 363d 3b92 d4bd
00000100: 3938 04be f367 b1bc 64c2 4dbd 20b1 9abd
00000110: f61f c73d a659 e93d fae6 bebd 20c7 f1bd
00000120: 3aad 51bc 2b55 a53d 7856 9d3d ce46 adbd
00000130: 2aed c3bd 299d cc3d 17a6 ce3c 4f47 7ebb
00000140: e759 d93d 4b41 e4bb 88a1 a2bc 7c27 b0bb
00000150: 0eb6 e03d 834d c93d e2b2 6abd 4426 6e3c
00000160: 0f2e 93bd 4943 f13d 854b 5f3d b089 d53d
00000170: b9d0 9b3d fa74 cb3c 8b70 dbbd 372a 803d
00000180: d78a 2ebd ee00 493d 9fbf e13d 8db5 de3d
00000190: 643d 5f3c b496 9bbb 3b09 86bd 6498 a13c
000001a0: 4de8 d83d c2f9 e4bc 124e f3bd 1b31 8c3c
000001b0: 6bef 863d 5847 9ebc 3dc0 ed3c 64c4 3dbd
000001c0: 358f 543d 0a11 b93d 82b1 813d 5b11 40bd
000001d0: 7878 2dbd 38f8 903c e6df 983b d18d e5bd
000001e0: dd91 a6bd 8339 a23d 2cc2 603d b8ee cfbd
000001f0: 0973 c7bd 3509 81bd a643 d73c c5e0 0c3e
00000200: 445d 41bd a934 50bc 2d34 5dbb 7377 d43d
00000210: 0eb4 d3bd 66d4 ef3c 39bc 5b3d 1c3f fabd
00000220: f435 4dbc 1c53 babb ac05 b2bd 561a 8ebd
00000230: 7a83 60bd 9c1c 1abd 40fc c7bc a09e a0bd
00000240: 69f5 dd3c a5bb e0bd 6b5a 94bc c767 81bd
00000250: 194a a0bc 609d 07bd ab4d 913d e386 27bd
00000260: 1734 54bc 93fb b7bc d262 d2bd ed2a d03d
00000270: 1f67 f83d ade5 59bd 01de 2fbd f387 fe3c
00000280: ee9f 70bd 1d4f b73d 34f7 d1bc bf8e 123e
00000290: 6414 87ba 025b f73c a4cd eabd e8df b4bd
000002a0: a062 463d 2812 1f3c a17f 433d ccd3 71bd
000002b0: 520d 793d 9826 fc3c 497c 543d bfc8 e3bd
000002c0: 37ce 97bc b0e0 493d ce41 cf3d b5ab b9bd
000002d0: 4b2c f1bd 7474 fb3c 80bf e63c ad64 afbd
000002e0: 6e96 b5bd 82b9 55bd 0d9f 2bbc 1b0c 003e
000002f0: 3a07 fbbc 7599 c5bb 7560 2dbd a736 a5b9
00000300: c3be cd3c 91bc 53bd 9645 033b 9019 573d
00000310: ea51 933a e4fd 453d 1b50 61bd 78e9 57bc
00000320: 9701 883d 5195 923c b76d d63d 7cc5 f83c
00000330: eac3 bebc 0a5d ef3d 40da 633d ff87 d7bc
00000340: 7c88 473d 8f89 aa3d 4134 37bd 6732 2ebd
00000350: 202b 113e 3d0d efbd 2d55 1bbd 3856 51bc
00000360: c027 cabd c5b0 67bd 84ed e9bd 6a33 b23c
00000370: 648b 143d bd81 e8bd e124 54bc 6422 b73d
00000380: 5c5c 8a3d 942e 47bd b4e9 ca3d 3e3d 11be
00000390: 17ff d1bd 7b85 fe3c 0c6e ed3d be09 f33d
000003a0: e73c 813d 2dcf 3a3d c8c0 b03d 061b fb3c
000003b0: 9ff0 653d 3d78 10bd 6d98 9ebb f99e e5bc
000003c0: dbde 7f3d 084a f6bc e64e d03d 3b5b de3d
000003d0: f01f 933d a481 343d 20a4 99bd 4590 11bd
000003e0: 38fb cdbd fce6 cd3c 560a 88bd 2775 f23d
000003f0: 4b98 d4bc 1a26 aa3d 09a7 fd3c 741b dbbd

layer_stack.13.bias f4 [96]
-0.09705064 0.07370339 -0.10799659 0.025718493 -0.071337454 0.050949812 -0.068633504 -0.084154926
-0.009385798 0.003799351 0.09801225 0.110936254 0.006109786 -0.0062550893 -0.082102895 -0.021788204
-0.03291248 0.052500498 0.0992338 -0.058456976 0.118564636 0.07409649 -0.034956407 0.07502684
0.06825425 -0.10906078 -0.11750195 -0.018802064 -0.03809923 -0.03958663 0.080099836 -0.08751482
0.10071096 0.0033620333 0.0056826123 -0.018113071 0.111144766 -0.088221185 0.040220328 0.056756534
-0.047497567 0.069837004 0.10713648 0.09009399 -0.010276027 0.0147439595 0.107238136 0.046999745
0.000367008 0.055656627 0.049033765 -0.05892209 -0.077577464 0.045160856 0.078287855 -0.065578446
-0.020910932 -0.060195506 0.07613114 0.0382476 0.024463492 0.042379156 0.034331173 -0.025861599
0.10259424 -0.037806846 0.05562896 -0.04122635 0.06753356 -0.05724462 0.08420248 -0.04277569
-0.017561542 0.00073051214 -0.018570732 0.06897502 -0.09277661 0.096262164 0.038832042 -0.03457799
0.00565983 -0.036313612 0.111777954 0.12094861 -0.0995674 0.08095526 -0.10595363 -0.007027964
0.009037593 0.0807862 -0.067239895 -0.07460363 -0.06764322 0.07158636 -0.003994104 -0.080320165
00000000: 7cc2 c6bd cef1 963d 512d ddbd 97af d23c
00000010: 5f19 92bd c0b0 503d b98f 8cbd 6b59 acbd
00000020: e4c6 19bc 88fe 783b a6ba c83d 8c32 e33d
00000030: 9a34 c83b 7ef7 ccbb 9025 a8bd 2d7d b2bc
00000040: 3dcf 06bd c30a 573d 173b cb3d 9570 6fbd
00000050: 04d2 f23d e7bf 973d 732e 0fbd aca7 993d
00000060: e2c8 8b3d 425b dfbd dda4 f0bd c906 9abc
00000070: f00d 1cbd 9725 22bd 620b a43d f83a b3bd
00000080: 8c41 ce3d 8f55 5c3b 3535 ba3b dd61 94bc
00000090: de9f e33d 4fad b4bd 12be 243d 8a79 683d
000000a0: cf8c 42bd b406 8f3d 5f6a db3d 3383 b83d
000000b0: c85c 28bc a690 713c ab9f db3d ce82 403d
000000c0: fb6a c039 34f8 633d a1d7 483d 4a58 71bd
000000d0: efe0 9ebd 97fa 383d 6255 a03d fe4d 86bd
000000e0: 674d abbc 908f 76bd a5ea 9b3d 84a9 1c3d
000000f0: a967 c83c c495 2d3d d89e 0c3d b4db d3bc
00000100: ee1c d23d 5adb 1abd 31db 633d f6dc 28bd
00000110: 094f 8a3d 5679 6abd 5a72 ac3d 9035 2fbd
00000120: 39dd 8fbc d77f 3f3a a621 98bc c642 8d3d
00000130: aa01 bebd 1925 c53d 590e 1f3d a7a1 0dbd
00000140: 1876 b93b 95bd 14bd d7eb e43d e8b3 f73d
00000150: fee9 cbbd dfcb a53d 37fe d8bd d64a e6bb
00000160: 6a12 143c 3c73 a53d 12b5 89bd cac9 98bd
00000170: 8788 8abd df9b 923d f9e0 82bb e67e a4bd
