lotsaconvs/nets/deep.pt (torch, 795147 bytes, 14 tensors)

layer_stack.0.layer_stack.0.weight f4 [24, 1, 3, 3]
0.078737766 0.47379524 -0.22718436 -0.21545672 -0.2773846 -0.3280203 0.15219545 -0.0060164467
-0.025836429 0.09091161 -0.07523526 0.19968073 -0.3081326 0.2636487 -0.16557965 0.080094635
0.13944903 -0.31669185 -0.07324559 -0.23219404 -0.22495373 -0.30413324 -0.17810777 0.09585021
-0.28592682 0.0029433179 -0.23355074 -0.2441945 0.26679653 -0.059457205 0.118315294 -0.14908703
-0.2656862 -0.12216706 -0.03196441 -0.056643464 0.11052176 -0.1926388 -0.24144621 0.021701323
0.2887859 -0.19695549 -0.11590459 0.21942292 -0.06975299 -0.3058305 0.26574928 0.2561545
-0.023504348 -0.3049225 -0.13361976 -0.23611711 -0.15902984 0.18602069 0.22895373 0.019407412
-0.37014118 0.14290096 0.17392164 -0.2540253 -0.23932502 -0.26100415 0.24932069 -0.14569095
-0.09603834 -0.06697743 0.082235724 0.4197915 -0.103428 -0.2116586 0.13788821 0.048571914
-0.18951042 0.11069794 -0.21063381 -0.07920397 -0.06403379 -0.009317911 0.41006872 -0.34487018
0.18317607 0.37153375 -0.25853586 0.22680618 -0.27827805 -0.0061028204 -0.192936 0.17288437
-0.21911325 -0.06556464 -0.008767515 -0.21605949 0.09913502 0.09375074 0.44072285 -0.041667182
-0.140325 -0.18324265 0.056942023 -0.07330219 -0.19692557 -0.3023159 0.17659755 -0.015631907
0.038145486 0.17926657 -0.22995037 0.051391173 -0.2909534 -0.25774828 0.29230955 -0.28072187
0.09471039 0.16886757 0.19819534 -0.1772766 -0.111925766 0.16415232 -0.024587981 0.09132209
0.33517978 -0.21606739 -0.14342953 -0.1418699 -0.22372164 0.17647654 0.024419144 -0.23749048
0.09071098 0.033018086 0.09289785 0.20485288 -0.28374293 -0.052264135 -0.28205058 -0.02483416
-0.25450468 -0.10539212 -0.09928839 -0.2127678 0.24305369 -0.25300592 0.34028262 0.052349173
0.044479407 -0.22962876 0.057894357 -0.3485848 0.32899272 -0.0040897005 -0.03130951 0.21478076
-0.20484236 0.20783822 -0.018539816 -0.25290015 -0.19189657 -0.3651589 -0.06647581 -0.16691746
0.036619533 0.3233478 -0.05154385 0.1355616 0.023825798 -0.27470753 0.3758142 0.008512291
-0.06953123 -0.100729465 0.03429823 -0.17869069 0.07270652 0.082528576 0.22763298 -0.1709879
-0.14959207 0.21577112 -0.21248499 0.09696586 0.123983696 -0.16386631 -0.05809659 0.1331222
-0.057105068 -0.26067498 0.13736913 -0.087144256 -0.007042823 0.059362438 -0.057378504 0.16721727
-0.1730025 -0.34491128 -0.269542 0.25908443 -0.111022234 0.24450663 0.25705075 -0.36305064
-0.20372067 0.14053537 0.17564675 0.09407969 -0.03424194 -0.27830964 -0.23444745 -0.33277917
-0.113180816 0.07911424 0.14995039 -0.15745844 -0.0031055047 0.019883059 0.23439613 0.009880422
00000000: 4441 a13d 4a95 f23e 04a3 68be b0a0 5cbe
00000010: 5b05 8ebe 47f2 a7be 20d9 1b3e 9d25 c5bb
00000020: eba6 d3bc de2f ba3d f214 9abd 1b79 4c3e
00000030: 8ec3 9dbe f6fc 863e b68d 29be a808 a43d
00000040: bacb 0e3e 6f25 a2be c901 96bd 46c4 6dbe
00000050: 455a 66be 5ab7 9bbe e261 36be 1d4d c43d
00000060: 0065 92be aee4 403b ed27 6fbe 1f0e 7abe
00000070: 8e99 883e 6689 73bd 4a4f f23d 45aa 18be
00000080: 0608 88be b932 fabd 1ded 02bd fa02 68bd
00000090: 3c59 e23d 1b43 45be ad3d 77be f9c6 b13c
000000a0: bfdb 933e b3ae 49be 635f edbd 67b0 603e
000000b0: a8da 8ebd d195 9cbe 4a10 883e af26 833e
000000c0: 318c c0bc cd1e 9cbe 9ed3 08be afc8 71be
000000d0: b8d8 22be 357c 3e3e d972 6a3e 4bfc 9e3c
000000e0: 2583 bdbe a154 123e 8418 323e 9b0f 82be
000000f0: 9e11 75be 56a2 85be ec4d 7f3e 0230 15be
00000100: c0af c4bd 762b 89bd 346b a83d e9ee d63e
00000110: 0fd2 d3bd 08bd 58be 9132 0d3e 58f3 463d
00000120: 050f 42be 9ab5 e23d 64b0 57be b135 a2bd
00000130: 2624 83bd 27aa 18bc 87f4 d13e d392 b0be
00000140: 8292 3b3e ac39 be3e d05e 84be e13f 683e
00000150: 767a 8ebe 2bfa c7bb 0491 45be 9a08 313e
00000160: 395f 60be c146 86bd a0a5 0fbc b33e 5dbe
00000170: 4d07 cb3d 6300 c03d 6da6 e13e 35ab 2abd
00000180: 5bb1 0fbe f6a3 3bbe 0a3c 693d 751f 96bd
00000190: dba6 49be 26c9 9abe fdd5 343e 7c0e 80bc
000001a0: 713e 1c3d a891 373e 1c78 6bbe 8d7f 523d
000001b0: d8f7 94be 95f7 83be 99a9 953e c7ba 8fbe
000001c0: 85f7 c13d 9feb 2c3e b8f3 4a3e ff87 35be
000001d0: 5639 e5bd 8c17 283e bc6c c9bc 1307 bb3d
000001e0: af9c ab3e c540 5dbe 31df 12be 5846 11be
000001f0: 4917 65be 44b6 343e a80a c83c b430 73be
00000200: aec6 b93d f93d 073d 3a41 be3d f4c4 513e
00000210: c146 91be eb12 56bd ef68 90be 0271 cbbc
00000220: 704e 82be d3d7 d7bd b657 cbbd cddf 59be
00000230: 11e3 783e fe89 81be 8639 ae3e 166c 563d
00000240: 0a30 363d cd23 6bbe a222 6d3d b579 b2be
00000250: bc71 a83e e502 86bb 673e 00bd 7def 5b3e
00000260: 32c2 51be 8bd3 543e d0e0 97bc 217c 81be
00000270: 8980 44be 1bf6 babe 7824 88bd 69ec 2abe
00000280: 5dfe 153d d88d a53e a51f 53bd a9d0 0a3e
00000290: 522e c33c 77a6 8cbe b86a c03e 2377 0b3c
000002a0: 6466 8ebd 404b cebd 4d7c 0c3d b1fa 36be
000002b0: 28e7 943d be04 a93d 9f18 693e 7417 2fbe
000002c0: aa2e 19be 1bf3 5c3e aa95 59be 0996 c63d
000002d0: 2aeb fd3d 92cc 27be b1f6 6dbd 3051 083e
000002e0: 01e7 69bd 3177 85be 7eaa 0c3e b078 b2bd
000002f0: 7bc7 e6bb 0726 733d b905 6bbd 013b 2b3e
00000300: 9127 31be 3698 b0be 6901 8abe b7a6 843e
00000310: a05f e3bd f25f 7a3e 289c 833e c6e1 b9be
00000320: 279c 50be 81e8 0f3e bedc 333e daac c03d
00000330: 4741 0cbd 9a7e 8ebe fe12 70be 0862 aabe
00000340: 58cb e7bd a606 a23d 988c 193e c93c 21be
00000350: b985 4bbb cce1 a23c 8a05 703e 7ee1 213c

layer_stack.0.layer_stack.0.bias f4 [24]
-0.2956626 -0.22736128 0.033924058 0.32710436 -0.2650024 -0.3053366 0.25439635 -0.08893537
0.059781156 -0.09616866 0.17156768 -0.060968067 0.040688507 -0.32608876 -0.3078722 -0.32132217
-0.28359917 0.32006934 0.08302037 -0.05819097 0.32263798 0.13841462 0.19118461 -0.23842871
00000000: 1761 97be 65d1 68be f4f3 0a3d 397a a73e
00000010: 65ae 87be 1455 9cbe 3d40 823e bf23 b6bd
00000020: 16dd 743d 13f4 c4bd 70af 2f3e a7b9 79bd
00000030: fea8 263d 1bf5 a6be 6da1 9dbe 5784 a4be
00000040: e933 91be 21e0 a33e 9506 aa3d a859 6ebd
00000050: ce30 a53e 90bc 0d3e e6c5 433e a826 74be

layer_stack.0.layer_stack.2.weight f4 [24, 24, 3, 3]
-0.0035480324 -0.03150734 -0.041155968 -0.03953504 0.13257292 -0.023783859 -0.08946145 -0.106151395
0.08251092 0.0833842 -0.02465242 -0.032762 -0.080764085 0.024958234 0.011364129 -0.06519024
0.0027212033 0.010964807 0.046509963 -0.041697763 0.0043019988 0.025232846 -0.05264597 0.05443812
0.022226084 -0.05021229 0.037333727 -0.0021057995 -0.023187628 0.017007431 0.022305332 -0.045666426
-0.05743782 0.013217319 -0.0094987415 0.01361667 -0.19406216 -0.019425511 0.010789872 -0.00574732
-0.06234623 0.064229235 0.1651682 0.06087961 -0.22312932 -0.1558505 -0.10253801 -0.031992618
-0.09358747 -0.12333305 -0.13391382 -0.029907804 0.004239018 -0.095203824 -0.074255556 0.055451028
0.091139615 -0.10429223 -0.10736093 0.0630018 0.026577888 -0.12734607 -0.11081011 -0.11964019
0.0032502813 0.09477921 0.054076392 -0.22956398 -0.03991194 0.1300585 0.08952235 -0.1162019
-0.01491178 -0.006111926 -0.039670806 -0.15851898 0.10280421 0.052255493 -0.08222449 0.044269353
0.08559893 0.058155674 0.066162385 -0.056618378 -0.14089762 0.040296152 0.09859169 -0.03454827
-0.109839775 -0.10235419 -0.01113834 0.085514694 -0.011982717 -0.055585444 -0.029658996 -0.0046724794
0.050223086 0.007082415 -0.1261015 0.08776643 -0.009797913 0.031443927 0.044781454 -0.034562014
0.009075745 -0.072987415 0.04106845 0.012183009 0.10680709 0.109027125 0.0013140478 -0.061412364
-0.016267644 0.08223073 -0.10816303 -0.07582529 0.0050369864 -0.048061065 0.102383785 0.09920456
-0.07925736 -0.14579037 0.0018063257 0.035268627 -0.012791783 -0.08738293 -0.01722563 -0.0148840025
0.019262891 -0.06958789 -0.017027132 0.044910412 0.021378433 0.029160013 -0.0012819093 -0.028631499
0.0066348757 0.013239619 0.04961531 0.0021230085 0.11215068 0.069098756 -0.046753693 -0.092942744
0.044261415 0.046444196 0.06236525 -0.09545576 -0.013745329 0.002434346 -0.009503461 0.020552956
0.06997266 -0.12632807 0.04280628 0.09957714 -0.09893663 -0.07208853 0.13877985 0.02521157
-0.12854032 -0.0659442 -0.08313373 0.057934515 0.059755173 -0.18353102 -0.085641496 -0.003881455
0.17243546 -0.05692014 -0.07196931 0.058802564 -0.028193219 -0.0061619915 -0.046421386 -0.030801486
-0.14724965 -0.054663945 0.04440575 0.1623413 -0.058943365 -0.021477912 -0.0020946178 -0.0123696
0.002359134 -0.019791827 0.053328797 0.07308086 -0.030561144 -0.035547007 0.017210983 -0.030517856
-0.1921782 0.10753143 0.035618324 -0.088125266 -0.09158855 0.117562205 -0.0022972405 0.055547055
-0.008963907 -0.05506209 -0.08074688 -0.0053678444 -0.086962804 0.03141507 -0.03471004 0.0041482435
-0.04787185 0.037549265 0.016276142 -0.056298852 -0.074601814 -0.0976811 0.23188728 -0.00928148
-0.08036757 0.007885901 0.08397718 -0.051710267 0.062696524 -0.05735621 -0.00542035 0.026566023
0.023823192 -0.045119565 -0.02427672 0.05904407 0.031518668 0.022087933 -0.06438125 -0.01732147
-0.013726893 0.070416674 -0.0101553 -0.022796592 0.06128315 -0.040509444 -0.012577858 0.031608377
0.04329703 0.02854657 0.049570408 -0.046783607 0.008220648 0.0049990513 -0.04778209 -0.028225685
-0.02364248 0.004909762 0.01969645 -0.05987986 -0.057411768 0.036398374 0.07260061 0.047990076
00000000: 1b86 68bb d70d 01bd 2993 28bd 7eef 21bd
00000010: 32c1 073e 5ed6 c2bc 9137 b7bd e765 d9bd
00000020: 7cfb a83d 56c5 aa3d dff3 c9bc 7231 06bd
00000030: a467 a5bd 3675 cc3c 9d30 3a3c 7682 85bd
00000040: 3756 323b bca5 333c 3b81 3e3d 46cb 2abd
00000050: c8f7 8c3b 1db5 ce3c 4da3 57bd 82fa 5e3d
00000060: 7a13 b63c 67ab 4dbd 40eb 183d 7401 0abb
00000070: fbf3 bdbc 2b53 8b3c acb9 b63c b80c 3bbd
00000080: eb43 6bbd 748d 583c 9ca0 1bbc 7418 5f3c
00000090: 3bb8 46be 4022 9fbc 01c8 303c 0454 bcbb
000000a0: c35e 7fbd 9e8a 833d da21 293e e65c 793d
000000b0: 037c 64be 4697 1fbe 73ff d1bd b10a 03bd
000000c0: caaa bfbd 0a96 fcbd b420 09be 3601 f5bc
000000d0: 76e7 8a3b 39fa c2bd 4c13 98bd 9e20 633d
000000e0: 68a7 ba3d 2a97 d5bd 0ce0 dbbd 1607 813d
000000f0: dfb9 d93c 0267 02be 69f0 e2bd ea05 f5bd
00000100: ac02 553b 9a1b c23d 357f 5d3d d212 6bbe
00000110: b47a 23bd 0e2e 053e 7e57 b73d 43fb edbd
00000120: 8a50 74bc 8d46 c8bb db7d 22bd cd52 22be
00000130: 038b d23d db09 563d 5065 a8bd c853 353d
00000140: 7e4e af3d a534 6e3d 2580 873d ace8 67bd
00000150: 7747 10be 940d 253d 71ea c93d 7d82 0dbd
00000160: adf3 e0bd 139f d1bd 967d 36bc 5422 af3d
00000170: 2853 44bc 90ad 63bd 6cf7 f2bc 991b 99bb
00000180: b9b6 4d3d 9a13 e83b c020 01be e3be b33d
00000190: 6d87 20bc 59cb 003d c26c 373d e690 0dbd
000001a0: 6fb2 143c 6d7a 95bd 6437 283d 3e9b 473c
000001b0: adbd da3d 9d49 df3d 213c ac3a 888b 7bbd
000001c0: b943 85bc 9668 a83d 9484 ddbd 4a4a 9bbd
000001d0: 4e0d a53b aedb 44bd 97ae d13d c32b cb3d
000001e0: af51 a2bd 124a 15be 3cc2 ec3a d675 103d
000001f0: a094 51bc d2f5 b2bd c41c 8dbc 08dc 73bc
00000200: 36cd 9d3c 1884 8ebd 7c7c 8bbc fbf3 373d
00000210: d321 af3c fbe0 ee3c bd05 a8ba 9b8c eabc
00000220: 5f69 d93b fdea 583c 6c39 4b3d 2c22 0b3b
00000230: 41af e53d a683 8d3d cd80 3fbd c458 bebd
00000240: 754b 353d 453c 3e3d b472 7f3d 4f7e c3bd
00000250: 1734 61bc 8c89 1f3b 68b4 1bbc ac5e a83c
00000260: d34d 8f3d 255c 01be a355 2f3d 19ef cb3d
00000270: 4a9f cabd 27a3 93bd 4e1c 0e3e 7f88 ce3c
00000280: 13a0 03be c10d 87bd 0442 aabd be4c 6d3d
00000290: d7c1 743d 8eef 3bbe cf64 afbd 0260 7ebb
000002a0: ec92 303e 1825 69bd a564 93bd f5da 703d
000002b0: 77f5 e6bc 88ea c9bb 5a24 3ebd 6653 fcbc
000002c0: 9dc8 16be 4de7 5fbd cee2 353d cc3c 263e
000002d0: 996e 71bd 72f2 afbc db45 09bb dda9 4abc
000002e0: b39b 1a3b 7822 a2bc 4c6f 5a3d 6bab 953d
000002f0: 5d5b fabc bd99 11bd 0cfe 8c3c 9500 fabc
00000300: 5dca 44be 7039 dc3d 85e4 113d 057b b4bd
00000310: c792 bbbd 74c4 f03d 4d8d 16bb 4f85 633d
00000320: 5add 12bc c988 61bd 9f5e a5bd bee4 afbb
00000330: 8e19 b2bd 17ad 003d 1d2c 0ebd fded 873b
00000340: 4615 44bd 42cd 193d 8b55 853c a099 66bd
00000350: d6c8 98bd 070d c8bd dc73 6d3e 5911 18bc
00000360: c197 a4bd de33 013c 3afc ab3d 25ce 53bd
00000370: 0967 803d 58ee 6abd 319d b1bb fda0 d93c
00000380: db28 c33c 4bcf 38bd f9df c6bc 32d8 713d
00000390: b819 013d c1f1 b43c 51da 83bd c1e5 8dbc
000003a0: c3e6 60bc 9e36 903d 6a62 26bc ebbf babc
000003b0: 0a04 7b3d 3bed 25bd 5c13 4ebc c977 013d
000003c0: 3a58 313d 7fda e93c 570a 4b3d 2ba0 3fbd
000003d0: e6af 063c 15cf a33b 27b7 43bd 8d39 e7bc
000003e0: e0ad c1bc 12e2 a03b 735a a13c 9644 75bd
000003f0: 9a28 6bbd 7616 153d a1af 943d 3e91 443d

layer_stack.0.layer_stack.2.bias f4 [24]
-0.070684984 -0.052380938 -0.018780917 -0.03354457 0.013496756 -0.04199879 -0.049675733 0.014752291
0.059410706 -0.031673387 0.028573778 -0.052655946 0.047658816 -0.056278054 0.02716122 0.022243654
-0.04119573 0.049037967 -0.048717454 -0.0455855 -0.019643597 -0.020785606 -0.04010552 -0.062144306
00000000: 4ac3 90bd 658d 56bd 70da 99bc 0866 09bd
00000010: 7f21 5d3c ec06 2cbd c878 4bbd 98b3 713c
00000020: a458 733d f4bb 01bd 8e13 ea3c c3ad 57bd
00000030: e435 433d d183 66bd 3581 de3c 5338 b63c
00000040: dbbc 28bd 09dc 483d f48b 47bd dcb7 3abd
00000050: 9ceb a0bc 9346 aabc b045 24bd 078b 7ebd

layer_stack.1.layer_stack.0.weight f4 [48, 24, 3, 3]
-0.0100296335 0.023679987 0.07350526 0.08661801 -0.035481706 -0.007863547 -0.032177955 -0.013759247
-0.06605641 -0.0062383497 -0.038502816 -0.051191304 -0.019226152 -0.002354041 -0.021798735 -0.021849623
0.012315135 0.07048877 0.037410147 0.0060301605 -0.004641275 0.06489114 -0.06997828 0.047209583
0.09151482 -0.09832534 -0.058745462 0.050986316 -0.020219373 0.009604403 0.0065512867 -0.030324806
-0.010662126 0.026992604 -0.066994764 -0.00487613 0.06806238 0.05678219 -0.03510551 -0.01674107
-0.0049154237 -0.025989199 0.06681517 -0.018261356 -0.016061222 -0.002006544 -0.04359605 0.09128453
0.045496 -0.08913868 -0.026712248 0.019513424 -0.04601124 -0.032167826 -0.012899294 -0.07099221
-0.013397406 -0.048751153 -0.06835419 0.06198176 0.00102407 0.022029495 0.14618117 -0.018674025
-0.051254418 -0.015003432 0.0741938 -0.055368584 0.00979868 -0.0103121335 -0.09052583 0.10912805
-0.011566549 -0.109184906 -0.082701825 -0.026919317 -0.12245394 0.057990376 -0.048300385 -0.009524825
0.099786654 -0.017598398 -0.014279732 0.07851196 -0.0011414504 0.02721188 0.0073874323 0.025538806
-0.031532966 0.047832046 -0.06564834 -0.002580993 -0.018039819 -0.009005843 0.037378322 -0.073491454
0.04497798 -0.010682958 0.03144722 -0.06477638 0.019227616 0.08221319 0.017965062 0.0052283537
0.0033443556 -0.0010558828 -0.04798977 -0.09212612 -0.019602843 0.030017305 -0.011404446 0.0026971698
0.026026301 -0.0066072685 -0.0547561 0.0052498775 -0.0056927023 -0.016437287 -0.06527648 -0.050812777
-0.088217326 0.056922246 -0.0701739 -0.110370286 0.030129114 -0.10926865 -0.042437132 -0.06525012
0.021020135 0.039658174 -0.024218906 -0.024045607 -0.027960896 0.018753545 0.053808816 -0.010318998
-0.031404316 -0.021614663 -0.041358832 -0.08192872 -0.02486015 -0.019093249 -0.0076404694 0.04987114
0.0021581973 -0.004513268 -0.000556291 0.05783983 -0.03980205 0.012104422 0.08630078 -0.06488214
-0.06559777 -0.08260727 -0.048466116 0.002273116 -0.08492021 0.035694845 0.015366548 -0.0024726393
0.029452095 -0.06955822 0.05405922 -0.016911518 -0.06397716 0.0039969124 -0.09729442 -0.029041916
0.024837377 -0.008477825 0.08224649 -0.12532729 -0.042070806 -0.014338935 0.0440716 -0.09030599
0.015702322 0.06251168 0.012079571 0.01755987 0.038135108 -0.04539539 -0.004438186 -0.012801715
0.030578416 -0.035744406 -0.055927545 0.052205212 0.02651543 0.056768276 0.035876762 -0.0352402
0.07547505 -0.07086252 -0.06680272 -0.0073180217 -0.088703126 -0.022474954 -0.06273266 -0.08201221
0.011073067 -0.088030934 0.031062676 0.11307453 0.036030423 0.0053803544 0.16298564 0.070903964
0.020509304 -0.013843309 -0.022581179 0.05083074 -0.06487728 0.010699881 -0.10300802 -0.017565783
-0.10901307 -0.036590606 -0.0029293096 0.06595102 -0.038412105 0.008112432 0.094478615 -0.028395602
-0.037099276 0.020294927 -0.034298502 0.017037341 0.060615093 -0.1028982 -0.03473844 -0.04869745
0.046188157 0.0025076682 0.036062777 -0.05581139 -0.02834129 -0.05039876 0.014443107 0.012273713
0.08623621 0.086101234 -0.10920759 -0.045688093 0.02431181 -0.0148226805 -0.03871327 -0.030149965
-0.08931529 0.06496062 -0.06285416 -0.07048579 -0.022093942 0.05645276 -0.05262378 0.023419134
00000000: 5553 24bc 88fc c13c ed89 963d c964 b13d
00000010: 4455 11bd 1bd6 00bc 08cd 03bd 776e 61bc
00000020: 9548 87bd 126b ccbb 21b5 1dbd f9ad 51bd
00000030: 2a80 9dbc 4146 1abb 4393 b2bc fbfd b2bc
00000040: 6cc5 493c 6b5c 903d 623b 193d a798 c53b
00000050: d615 98bb a5e5 843d c650 8fbd d65e 413d
00000060: 1f6c bb3d cc5e c9bd 159f 70bd 07d7 503d
00000070: 19a3 a5bc c95b 1d3c 2dac d63b ba6b f8bc
00000080: 33b0 2ebc 981f dd3c 8d34 89bd f1c7 9fbb
00000090: 4a64 8b3d 7194 683d ccca 0fbd 9224 89bc
000000a0: 9011 a1bb 4de7 d4bc 64d6 883d d798 95bc
000000b0: d392 83bc 3980 03bb c691 32bd 62f3 ba3d
000000c0: 045a 3a3d 578e b6bd a5d3 dabc 9eda 9f3c
000000d0: 4876 3cbd 69c2 03bd 8f57 53bc 5d64 91bd
000000e0: cb80 5bbc 4aaf 47bd 48fd 8bbd 96e0 7d3d
000000f0: 163a 863a 3377 b43c 84b0 153e 45fa 98bc
00000100: 27f0 51bd f4d0 75bc ebf2 973d 2bca 62bd
00000110: a58a 203c 39f4 28bc 9b65 b9bd 877e df3d
00000120: 9f81 3dbc 569c dfbd 935f a9bd e685 dcbc
00000130: 22c9 fabd 5187 6d3d a0d6 45bd 030e 1cbc
00000140: f25c cc3d 842a 90bc 89f5 69bc e1ca a03d
00000150: b89c 95ba 73eb de3c 4612 f23b c236 d13c
00000160: b628 01bd 89eb 433d a372 86bd e125 29bb
00000170: 3ec8 93bc 3e8d 13bc 031a 193d b082 96bd
00000180: d53a 383d 9307 2fbc cdce 003d 7ba9 84bd
00000190: 3c83 9d3c 645f a83d 772b 933c 9c52 ab3b
000001a0: fa2c 5b3b 8c65 8aba ec90 44bd 9fac bcbd
000001b0: 2496 a0bc dae6 f53c b7d9 3abc 00c3 303b
000001c0: 1c35 d53c c981 d8bb ef47 60bd 2a07 ac3b
000001d0: d989 babb 7da7 86bc adaf 85bd 0f21 50bd
000001e0: 49ab b4bd 4d27 693d 55b7 8fbd d109 e2bd
000001f0: 55d1 f63c 3ec8 dfbd 8fd2 2dbd dba1 85bd
00000200: 6b32 ac3c 9c70 223d ba66 c6bc 4bfb c4bc
00000210: 400e e5bc 09a1 993c a266 5c3d 0411 29bc
00000220: d0a1 00bd 3c11 b1bc e167 29bd 3fca a7bd
00000230: 83a7 cbbc 7269 9cbc e75c fabb ae45 4c3d
00000240: 8b70 0d3b 09e4 93bb 0fd4 11ba 75e9 6c3d
00000250: 7907 23bd a051 463c 77be b03d ede0 84bd
00000260: 2058 86bd 002e a9bd 6884 46bd 8ff8 143b
00000270: a6ea adbd c234 123d f9c3 7b3c 010c 22bb
00000280: 8545 f13c 8a74 8ebd 336d 5d3d 068a 8abc
00000290: 7506 83bd 88f8 823b 4c42 c7bd 50e9 edbc
000002a0: c177 cb3c 93e6 0abc d970 a83d cc55 00be
000002b0: 7052 2cbd daed 6abc 6c84 343d 59f2 b8bd
000002c0: 28a2 803c 2006 803d 65e9 453c b7d9 8f3c
000002d0: 8f33 1c3d 84f0 39bd 346e 91bb 49be 51bc
000002e0: 967f fa3c ba68 12bd 4814 65bd 22d5 553d
000002f0: e336 d93c da85 683d 83f3 123d 0758 10bd
00000300: aa92 9a3d 5e20 91bd ddcf 88bd 04cc efbb
00000310: fca9 b5bd 651d b8bc fb79 80bd 04f6 a7bd
00000320: cf6b 353c 9049 b4bd 2777 fe3c 9f93 e73d
00000330: a394 133d af4d b03b b5e5 263e 1936 913d
00000340: 2103 a83c 0ccf 62bc 2afc b8bc e533 503d
00000350: 61de 84bd 8e4e 2f3c def5 d2bd 1ee6 8fbc
00000360: 3f42 dfbd 08e0 15bd a9f9 3fbb 5411 873d
00000370: 0356 1dbd 02ea 043c 017e c13d e59d e8bc
00000380: 69f5 17bd 8c41 a63c 967c 0cbd e591 8b3c
00000390: 8847 783d 4bbc d2bd e549 0ebd fa76 47bd
000003a0: cb2f 3d3d b157 243b 90b6 133d 7c9a 64bd
000003b0: fe2b e8bc ee6e 4ebd c8a2 6c3c af17 493c
000003c0: 9c9c b03d d855 b03d 3ba8 dfbd 7023 3bbd
000003d0: 9029 c73c d4da 72bc ce91 1ebd 0ffd f6bc
000003e0: efea b6bd 130a 853d afb9 80bd db5a 90bd
000003f0: 5bfe b4bc 023b 673d 088c 57bd 7cd9 bf3c

layer_stack.1.layer_stack.0.bias f4 [48]
0.020668318 0.008491288 0.018924957 0.025204444 0.044269532 -0.023588775 -0.03098102 -0.049311683
-0.014313213 -0.032419536 0.082941905 -0.010791537 0.0100271795 -0.04263499 0.038919255 0.035166975
-0.012935505 -0.055866733 -0.06733131 0.026724562 -0.02619563 -0.0049857125 0.046152532 0.008832975
-0.0397156 0.040009163 0.06273036 -0.0053202505 0.056778144 0.010814881 0.009111756 -0.024767114
-0.028313149 0.047246587 -0.061977748 -0.06091953 0.040811587 -0.058528837 0.009819369 -0.038692724
-0.027036106 -0.05809171 0.01881579 0.013618132 -0.0539405 0.05259412 0.021439562 0.02698102
00000000: 9b50 a93c 0b1f 0b3c 8308 9b3c 8d79 ce3c
00000010: f853 353d 3f3d c1bc e8cb fdbc 0cfb 49bd
00000020: f781 6abc 59ca 04bd 72dd a93d fdce 30bc
00000030: 0a49 243c 07a2 2ebd cc69 1f3d 3f0b 103d
00000040: 71ef 53bc 84d4 64bd ffe4 89bd 78ed da3c
00000050: 3898 d6bc 305f a3bb 700a 3d3d 2fb8 103c
00000060: d3ac 22bd a6e0 233d c678 803d 7f55 aebb
00000070: 3390 683d e630 313c 7a49 153c 67e4 cabc
00000080: faf0 e7bc a385 413d 61dc 7dbd c286 79bd
00000090: 0d2a 273d efbb 6fbd 6be1 203c 437c 1ebd
000000a0: d37a ddbc 93f1 6dbd 9223 9a3c 961e 5f3c
000000b0: b7f0 5cbd ef6c 573d 05a2 af3c 4d07 dd3c

layer_stack.1.layer_stack.2.weight f4 [48, 48, 3, 3]
-0.0012379648 -0.06778787 -0.040210053 -0.027978102 -0.044147793 -0.045985706 0.0013260836 -0.0649998
0.046387594 0.0015062935 0.0071461843 -0.032076754 -0.028052898 0.041298557 -0.036209885 -0.04718126
0.035874754 -0.03959256 -0.029783612 -0.014535965 0.026463823 -0.0032110556 0.045531128 0.057756398
-0.0037841187 0.025052957 -0.020725692 -0.0015828741 -0.005811124 -4.413466e-05 0.03371346 -0.056343753
-0.031112518 -0.0017522078 -0.033168368 -0.0026716106 -0.004234059 0.019881422 -0.027321154 -0.04962958
-0.046762057 -0.06929826 -0.057597093 -0.035558674 -0.03716666 -0.025278151 -0.10326665 -0.051392104
0.074307695 0.10430601 0.027171275 -0.01839767 0.079925165 0.010142133 0.004637286 -0.01970225
0.0052005737 0.08640904 0.04254453 -0.047557995 0.023927204 -0.026781628 0.0055124606 0.064910635
0.06499388 -0.040361676 -0.053994548 0.09095189 -0.1047658 0.07991589 8.348013e-05 -0.037003692
0.024444116 -0.017077455 -0.009006993 -0.0007710199 -0.05477825 -0.03826928 0.06884524 0.034435116
0.083275735 0.053189956 0.0018205419 -0.015251367 -0.050883044 -0.035965662 -0.055708747 -0.043774318
-0.006100234 0.006561444 -0.031546645 -0.021462008 -0.049710426 -0.041824233 -0.054401845 -0.022605795
-0.046012685 -0.0726095 -0.08455107 0.015677473 0.04545548 -0.025557945 0.04633685 0.059540182
0.0053998567 0.031360354 0.0019297801 0.011508761 0.03477523 -0.0047050035 0.034252968 0.03912937
-0.0023089887 0.010148784 0.027052598 0.080178335 -0.019683683 -0.0068678265 -0.050535813 -0.010317224
0.061202977 0.07665766 0.04896974 0.07927313 0.018397158 0.016225321 -0.019339334 -0.034621924
-0.0023064043 0.023061873 -0.025373826 -0.0022931604 -0.028334757 -0.008069104 0.0015569953 -0.045325495
-0.035093427 -0.056704435 -0.02280042 -0.0017328179 -0.04386956 -0.0003840505 -0.03751669 0.018919965
-0.008152038 -0.05356509 -0.06361425 0.016483424 -0.06768555 -0.016852675 -0.036529563 -0.04637202
-0.034220174 -0.07302891 -0.030598678 0.016594654 0.038245656 0.097881325 0.14159532 -0.024788415
-0.034699377 0.010522182 -0.052169327 -0.03000101 0.03404429 -0.075378895 0.026326742 0.01219797
-0.035611402 0.001269291 -0.033085663 0.008527448 0.04478849 -0.06611417 0.03672999 0.037490714
-0.036631417 0.033106994 0.054989126 -0.046172585 0.02118118 0.0013837208 0.08492891 0.07342038
0.08416575 0.002692168 -0.027106557 0.03497264 -0.024307441 0.037698805 -0.04364024 -0.031461816
-0.034550004 -0.03742055 -0.03856151 0.012755188 -0.018920263 -0.01784411 -0.039963007 0.046695
0.023855057 -0.10522158 -0.054241296 -0.06259093 -0.07411301 -0.05235166 -0.040438723 -0.06204831
-0.04784699 -0.09476946 -0.020851547 0.0013407734 -0.015101081 -0.040718745 -0.004887257 0.07044109
0.011958668 0.019090977 0.0006543618 -0.034355696 -0.02434241 -0.03270602 0.0042368635 0.025366846
0.03424903 -0.03318869 0.015279108 -0.019126937 -0.007496808 -0.043129988 0.0001448475 -0.018122127
-0.037576005 -0.04634676 -0.07011334 -0.06838926 -0.06491373 -0.11614155 -0.07249268 -0.091468334
0.008579833 -0.04091626 -0.07481246 -0.038439512 -0.0062218728 0.013290816 -0.011766489 -0.0029698352
0.035412002 -0.03307289 -0.01885974 0.02270326 -0.098699555 -0.016336123 -0.019052092 -0.014525433
00000000: 3543 a2ba 5ed4 8abd 4cb3 24bd 5532 e5bc
00000010: 51d4 34bd 825b 3cbd fbcf ad3a 9d1e 85bd
00000020: eb00 3e3d d36e c53a 8a2a ea3b ea62 03bd
00000030: 31cf e5bc ad28 293d d150 14bd 2341 41bd
00000040: 68f1 123d cf2b 22bd c3fc f3bc 4228 6ebc
00000050: a9ca d83c 9370 52bb d97e 3a3d f991 6c3d
00000060: fafe 77bb dc3b cd3c edc8 a9bc 7178 cfba
00000070: 3e6b bebb 3b1d 39b8 2017 0a3d b5c8 66bd
00000080: aedf febc 56aa e5ba 8edb 07bd 3016 2fbb
00000090: dcbd 8abb 5dde a23c 9dd0 dfbc 6348 4bbd
000000a0: 9289 3fbd 3fec 8dbd eeea 6bbd f9a5 11bd
000000b0: 113c 18bd 2014 cfbc 777d d3bd 8780 52bd
000000c0: a22e 983d 649e d53d 4b96 de3c b6b6 96bc
000000d0: ceaf a33d 302b 263c 60f4 973b 9d66 a1bc
000000e0: 9369 aa3b 39f7 b03d 2c43 2e3d 2ccc 42bd
000000f0: fc02 c43c 2565 dbbc dfa1 b43b deef 843d
00000100: 831b 853d 4952 25bd 6329 5dbd fc44 ba3d
00000110: 748f d6bd f1aa a33d 0e12 af38 2f91 17bd
00000120: 073f c83c 05e6 8bbc 1192 13bc 451e 4aba
00000130: 295f 60bd 40c0 1cbd bcfe 8c3d d60b 0d3d
00000140: 788c aa3d b6dd 593d 409f ee3a dfe0 79bc
00000150: bd6a 50bd bb50 13bd db2e 64bd b34c 33bd
00000160: 79e4 c7bb 6201 d73b 0e37 01bd 18d1 afbc
00000170: 299d 4bbd e34f 2bbd 78d4 5ebd ca2f b9bc
00000180: cc77 3cbd 4ab4 94bd 1d29 adbd 0b6e 803c
00000190: 872f 3a3d e55e d1bc b5cb 3d3d 68e0 733d
000001a0: 48f1 b03b b773 003d adf0 fc3a 3e8f 3c3c
000001b0: 7970 0e3d 6e2c 9abb d74c 0c3d 1e46 203d
000001c0: 6752 17bb 1647 263c 699d dd3c 8a34 a43d
000001d0: ad3f a1bc 810b e1bb a4fe 4ebd 9309 29bc
000001e0: f9af 7a3d b1fe 9c3d 7e94 483d f359 a23d
000001f0: a3b5 963c f7ea 843c 866d 9ebc b8cf 0dbd
00000200: 0b27 17bb 41ec bc3c c5dc cfbc d948 16bb
00000210: 4b1e e8bc 4634 04bc 1814 cc3a 3aa7 39bd
00000220: 20be 0fbd e942 68bd f2c7 babc b81f e3ba
00000230: 91b0 33bd 635a c9b9 1aab 19bd 0bfe 9a3c
00000240: 2090 05bc 1167 5bbd 3048 82bd 3f08 873c
00000250: b99e 8abd 9f0e 8abc 06a0 15bd 96f0 3dbd
00000260: 742a 0cbd 2e90 95bd 14aa fabc 83f1 873c
00000270: 7aa7 1c3d 0176 c83d 5dfe 103e 1311 cbbc
00000280: ef20 0ebd 3b65 2c3c 81af 55bd aec4 f5bc
00000290: 0772 0b3d 4060 9abd 2eab d73c ffd9 473c
000002a0: 43dd 11bd 575e a63a d584 07bd b6b6 0b3c
000002b0: 2374 373d de66 87bd 3072 163d dd8f 193d
000002c0: d30a 16bd 339b 073d 473c 613d 771f 3dbd
000002d0: 2784 ad3c f75d b53a 35ef ad3d 6d5d 963d
000002e0: 185f ac3d 166f 303b 920e debc 793f 0f3d
000002f0: 6620 c7bc 106a 1a3d 1cc0 32bd 1bde 00bd
00000300: 4e84 0dbd 4a46 19bd adf2 1dbd 23fb 503c
00000310: abfe 9abc d02d 92bc 40b0 23bd 4243 3f3d
00000320: ae6b c33c 697e d7bd 1f2c 5ebd ac2f 80bd
00000330: 90c8 97bd b26e 56bd 13a3 25bd 5e26 7ebd
00000340: 35fb 43bd 7e16 c2bd ddd0 aabc e4bc af3a
00000350: 866a 77bc b3c8 26bd 4825 a0bb 6b43 903d
00000360: 4aee 433c ae64 9c3c 7a89 2b3a 8fb8 0cbd
00000370: bc69 c7bc bff6 05bd 63d5 8a3b 22ce cf3c
00000380: b648 0c3d ddf0 07bd 3955 7a3c 18b0 9cbc
00000390: c9a7 f5bb 12a9 30bd 34e2 1739 db74 94bc
000003a0: 4ce9 19bd 1ad6 3dbd 9597 8fbd ab0f 8cbd
000003b0: 7df1 84bd 9fdb edbd 0b77 94bd c053 bbbd
000003c0: 6e92 0c3c cf97 27bd 4637 99bd c072 1dbd
000003d0: dae0 cbbb b9c1 593c 3bc8 40bc 91a1 42bb
000003e0: 2d0c 113d 7077 07bd be7f 9abc 30fc b93c
000003f0: fe22 cabd 55d3 85bc 2213 9cbc 15fc 6dbc

layer_stack.1.layer_stack.2.bias f4 [48]
0.050267562 0.041834645 0.039126363 0.015573905 0.01411769 -0.02819806 0.029857477 0.029097708
-9.6398224e-05 0.02910483 -0.025196908 0.0053051068 0.043777213 0.030160768 0.0032605955 0.02205719
-0.030164212 0.015913969 -0.013251707 -0.018757416 0.048718624 -0.01343817 -0.017789714 -0.003043581
-0.0036024244 -0.02751034 0.016227081 0.005655168 -0.030098936 0.029677782 0.022275595 0.0068882513
0.030971894 0.022353342 0.0311752 -0.017623026 0.023993917 0.049513947 0.03886877 0.04034043
-0.00052788976 0.013031521 -0.034566984 -0.041781172 0.024686247 -0.018485507 -0.017976139 -0.007338111
00000000: 5ce5 4d3d ce5a 2b3d f742 203d b129 7f3c
00000010: e24d 673c 9eff e6bc ab97 f43c 515e ee3c
00000020: 6729 cab8 416d ee3c bf69 cebc 76d6 ad3b
00000030: bc4f 333d b713 f73c b7af 553b 48b1 b43c
00000040: f01a f7bc 035e 823c b01d 59bc 27a9 99bc
00000050: 2e8d 473d c52b 5cbc bcbb 91bc d176 47bb
00000060: a716 6cbb 5d5d e1bc a8ee 843c fd4e b93b
00000070: 0b92 f6bc d21e f33c 4f7b b63c d7b6 e13b
00000080: c5b8 fd3c 5b1e b73c 2263 ff3c 2a5e 90bc
00000090: e48e c43c 23cf 4a3d dc34 1f3d 023c 253d
000000a0: 1562 0aba 2982 553c 1c96 0dbd bc22 2bbd
000000b0: d03a ca3c eb6e 97bc b242 93bc 8974 f0bb

layer_stack.2.layer_stack.0.weight f4 [72, 48, 3, 3]
0.024606973 -0.07854232 -0.0390278 0.10271302 -0.09872475 -0.075445704 0.034336135 -0.024530962
0.013560802 0.010822966 -0.05502254 0.0010812369 0.035810784 0.07011496 -0.04659733 -0.036874283
0.0625625 0.038771294 -0.0048750555 0.028025435 0.042275432 -0.016568344 0.0018227625 -0.021079015
-0.04698969 -0.010989546 -0.0077036284 -0.02487127 -0.060629524 -0.021500502 0.12956853 -0.0047804452
-0.032345824 -0.012964156 -0.024252255 -0.013221988 -0.048058398 0.051998675 -0.0054295724 -0.024781667
-0.012107931 -0.058934487 0.01276039 0.02328719 0.003931193 0.044388622 0.010102328 0.030920804
-0.00072173506 -0.00016388857 0.024555285 -0.0040561724 0.0039016635 0.002709645 0.030072825 -0.036287546
0.012080125 0.079967186 -0.015811035 -0.008803702 0.016281331 0.0029035953 -0.022035124 -0.034460198
-0.04458109 -0.06318164 -0.07332513 -0.050044335 0.012117868 -0.071439676 0.045631558 0.092023134
0.031064987 -0.0112773795 -0.048688293 -0.019281264 0.033669412 -0.0004980157 0.011547548 -0.03228202
0.055439085 -0.0743946 0.006482637 0.022456676 -0.03210742 -0.04850252 -0.04320154 -0.0011802737
0.0004254307 -0.0409549 0.0052075814 -0.03784771 0.030021004 0.0065062274 0.035717618 0.012074811
-0.015718961 0.00069855386 -0.05427946 0.021809189 -0.040219374 -0.043577526 0.052454866 0.04324844
-0.060778618 0.065874696 -0.040629372 -0.0063205166 0.034879133 0.027305681 -0.023232942 0.03128702
-0.06550356 -0.018929766 -0.032974847 0.008631528 -0.05476909 0.027262414 0.016465055 0.022368826
0.052929115 0.046483062 -0.025620133 -0.015577358 0.019497177 -0.0090324525 -0.047432404 -0.0790593
0.036144085 0.076993436 0.0013427846 -0.038541738 -0.051280715 -0.042462803 0.04537656 -0.03472993
0.03166974 0.07156001 0.05718463 -0.025513327 -0.003408199 0.036870174 -0.0069039403 0.015396604
-0.027337605 0.002172794 -0.020020453 -0.054707963 0.09531228 -0.0027177827 -0.025089135 -0.0056916676
0.001759262 -0.0018543758 0.025262678 0.013574773 0.07661972 -0.052585367 -0.04501493 0.050585233
-0.034870375 -0.03385702 -0.0172194 0.027418489 -0.008848104 -0.003977207 -0.03907996 -0.018600814
-0.0057507628 0.04017317 -0.04782549 0.014999353 -0.026839962 -0.057102382 0.0053315884 0.082063064
-0.0078316955 0.10918648 0.055925723 -0.0005232476 0.019874036 -0.025969967 -0.0022507163 -0.00056815275
-0.036520824 -0.012123008 0.0026775736 -0.025063602 0.08438366 -0.0006189679 0.028051106 -0.008846275
0.019456571 0.063463286 0.039649345 -0.023752842 -0.0727835 0.038215622 -0.04143279 0.017708736
-0.032093547 -0.008224514 -0.06248542 0.025156446 0.034431443 0.012263073 -0.0005141577 -0.00845295
0.024925765 -0.030877985 0.0471851 -0.040937595 0.03830948 -0.014673352 -0.006287377 0.05036644
0.022843173 0.059018042 0.007529317 0.011645836 0.03485822 -0.0775743 -0.016081573 -0.057844844
-0.021961816 0.00488782 0.030953998 -0.0439112 -0.02631042 -0.041818615 -0.030845912 0.012074694
0.019252265 -0.012985643 -0.04308098 -0.10331979 -0.08143681 -0.041466888 -0.08582357 -0.056289304
-0.057310406 -0.012848806 0.010383455 -0.048730742 0.028810117 0.036709264 0.044956002 0.0547587
0.017545192 -0.023436315 -0.00996348 0.030380823 -0.04295985 0.040225558 -0.004877124 -0.0799685
00000000: 9094 c93c ccda a0bd 9ddb 1fbd 345b d23d
00000010: 3430 cabd 4783 9abd 0ca4 0c3d 28f5 c8bc
00000020: 202e 5e3c cf52 313c 515f 61bd 4ab8 8d3a
00000030: 54ae 123d 6f98 8f3d d8dc 3ebd 7d09 17bd
00000040: c520 803d a6ce 1e3d eebe 9fbb 9995 e53c
00000050: 0129 2d3d 56ba 87bc c3e9 ee3a e6ad acbc
00000060: 4378 40bd 7f0d 34bc b86e fcbb d5be cbbc
00000070: aa56 78bd d221 b0bc 9dad 043e 48a5 9cbb
00000080: 0e7d 04bd 9d67 54bc aaac c6bc 0aa1 58bc
00000090: e2d8 44bd 90fc 543d 8eea b1bb ec02 cbbc
000000a0: 5860 46bc 4a65 71bd f410 513c c7c4 be3c
000000b0: 3dd1 803b d8d0 353d 3c84 253c a04d fd3c
000000c0: d232 3dba 81d9 2bb9 2a28 c93c a4e9 84bb
000000d0: 0db3 7f3b 4d94 313b 495b f63c 40a2 14bd
000000e0: b7eb 453c d6c5 a33d 2586 81bc 673d 10bc
000000f0: 6d60 853c 3f4a 3e3b 0183 b4bc 2326 0dbd
00000100: a99a 36bd 6065 81bd 7c2b 96bd 4afb 4cbd
00000110: 068a 463c f74e 92bd 28e8 3a3d a076 bc3d
00000120: 007c fe3c c2c4 38bc 606d 47bd bef3 9dbc
00000130: f0e8 093d 458d 02ba ed31 3d3c 273a 04bd
00000140: 1814 633d 325c 98bd 4d6c d43b 10f7 b73c
00000150: 1283 03bd 94aa 46bd 19f4 30bd 6ab3 9aba
00000160: 580c df39 53c0 27bd 5ca4 aa3b 3306 1bbd
00000170: 9cee f53c 3132 d53b a34c 123d 6ed5 453c
00000180: 0dc5 80bc 281f 373a 2454 5ebd 2fa9 b23c
00000190: 12bd 24bd 597e 32bd eada 563d 4725 313d
000001a0: 00f3 78bd 50e9 863d fc6a 26bd 561c cfbb
000001b0: 6cdd 0e3d 2ab0 df3c 0353 bebc d126 003d
000001c0: bb26 86bd 9912 9bbc a210 07bd 416b 0d3c
000001d0: 8e55 60bd 6d55 df3c b9e1 863c d43e b73c
000001e0: 33cc 583d 0665 3e3d 50e1 d1bc 2d38 7fbc
000001f0: 8bb8 9f3c dafc 13bc 7b48 42bd d8e9 a1bd
00000200: d20b 143d bcae 9d3d 6000 b03a f1dd 1dbd
00000210: ba0b 52bd 7aed 2dbd c6dc 393d f940 0ebd
00000220: 21b8 013d 0e8e 923d 6e3a 6a3d 5301 d1bc
00000230: 175c 5fbb 2e05 173d 733a e2bb 0a42 7c3c
00000240: 1df3 dfbc 6f65 0e3b ef01 a4bc 7515 60bd
00000250: 1633 c33d d41c 32bb bb87 cdbc 2b81 babb
00000260: 0a97 e63a 870e f3ba adf3 ce3c ba68 5e3c
00000270: cdea 9c3d c163 57bd 9361 38bd 7632 4f3d
00000280: 3dd4 0ebd a9ad 0abd b30f 8dbc bd9c e03c
00000290: a3f7 10bc 3b53 82bb 4f12 20bd bc60 98bc
000002a0: e570 bcbb 9f8c 243d a9e4 43bd d9bf 753c
000002b0: 7bdf dbbc 30e4 69bd 9bb4 ae3b ae10 a83d
000002c0: 8350 00bc 299d df3d 5f12 653d 8d2a 09ba
000002d0: e0ce a23c f8be d4bc c180 13bb 16f0 14ba
000002e0: dc96 15bd 959f 46bc 3b7a 2f3b 2f52 cdbc
000002f0: 57d1 ac3d 3c42 22ba 6fcb e53c f7ef 10bc
00000300: 6363 9f3c 0af9 813d 5a67 223d 5295 c2bc
00000310: 840f 95bd fc87 1c3d 6eb5 29bd e911 913c
00000320: 8674 03bd 1dc0 06bc b6f0 7fbd e414 ce3c
00000330: fc07 0d3d 0eeb 483c 8ac8 06ba 3e7e 0abc
00000340: 1e31 cc3c d4f3 fcbc 2a45 413d 2eae 27bd
00000350: 67ea 1c3d 8068 70bc 5706 cebb 0a4d 4e3d
00000360: 9b21 bb3c e7bc 713d 7db8 f63b 2dce 3e3c
00000370: 7ec7 0e3d 46df 9ebd 81bd 83bc b7ee 6cbd
00000380: 44e9 b3bc 022a a03b 3d93 fd3c 3bdc 33bd
00000390: f388 d7bc ff49 2bbd 91b0 fcbc f0d4 453c
000003a0: edb6 9d3c bcc1 54bc af75 30bd 5399 d3bd
000003b0: 58c8 a6bd 2fd9 29bd 45c4 afbd 9d8f 66bd
000003c0: 51be 6abd cc83 52bc 5e1f 2a3c e399 47bd
000003d0: 3203 ec3c 745c 163d c923 383d a94a 603d
000003e0: efba 8f3c 84fd bfbc dd3d 23bc 34e1 f83c
000003f0: abf6 2fbd 8ec3 243d 48d0 9fbb 86c6 a3bd

layer_stack.2.layer_stack.0.bias f4 [72]
-0.003504462 -0.0018907561 0.006319386 -0.05702441 -0.002392304 0.035391342 0.025456287 0.07398646
-0.018662414 -0.013249978 0.02746057 0.033396468 0.01386716 0.03105604 -0.008372736 -0.02601971
0.02095636 0.059276387 -0.03218426 0.0010129332 0.014086432 -0.045031976 0.0021307685 0.039659668
0.015844591 -0.03952683 0.01851673 0.009776848 -0.024129177 0.046336725 -0.0108481515 -0.0066498127
0.020427013 0.037250932 -0.017693775 -0.04361776 0.025963254 0.021293651 -0.0065137087 -0.011347096
0.029352602 -0.020307092 -0.0010128954 -0.028836388 -0.045575563 -0.0022838064 0.036855113 -0.029594067
0.018667147 0.020697005 0.00037036117 -0.014536407 -0.002763499 -0.0044735805 0.028878737 -0.010624078
-0.042663306 0.03241336 0.0174341 -0.038427345 0.014789998 0.01906506 0.03248354 0.019738788
0.009832115 0.024207845 -0.025928305 -0.023514828 0.016512591 -0.036363456 0.02050031 0.035970617
00000000: 1eab 65bb 3fd3 f7ba da12 cf3b 6e92 69bd
00000010: 33c8 1cbb 83f6 103d b489 d03c 3786 973d
00000020: ebe1 98bc 7016 59bc fdf4 e03c bcca 083d
00000030: 1633 633c 3d69 fe3c cd2d 09bc 4927 d5bc
00000040: acac ab3c cccb 723d a5d3 03bd 66c4 843a
00000050: c7ca 663c 7373 38bd 5da4 0b3b 2d72 223d
00000060: 84cc 813c e3e6 21bd 66b0 973c 132f 203c
00000070: 8daa c5bc 94cb 3d3d 72bc 31bc ace6 d9bb
00000080: 8d56 a73c 6f94 183d 89f2 90bc 89a8 32bd
00000090: e4b0 d43c 0670 ae3c f370 d5bb 2ce9 39bc
000000a0: de74 f03c 0f5b a6bc 21c3 84ba 4a3a ecbc
000000b0: 71ad 3abd eaab 15bb 63f5 163d 426f f2bc
000000c0: d8eb 983c c48c a93c 092d c239 1c2a 6ebc
000000d0: d21b 35bb 1d97 92bb 1a93 ec3c 9d10 2ebc
000000e0: b8bf 2ebd dfc3 043d f5d1 8e3c fe65 1dbd
000000f0: bf51 723c 542e 9c3c 760d 053d 3db3 a13c
00000100: e116 213c 884f c63c 9967 d4bc 2ba2 c0bc
00000110: 6a45 873c d9f1 14bd 44f0 a73c ed55 133d

layer_stack.2.layer_stack.2.weight f4 [72, 72, 3, 3]
-0.056061964 -0.013005704 0.005152861 0.0026608517 -0.06720792 0.0076594725 0.020849016 0.008263636
0.016835727 0.00902695 0.013351201 -0.04354721 -0.01163712 0.022507582 -0.033600833 0.00094384083
0.04780423 0.06385422 0.010689871 -0.04815699 0.015120229 -0.0019389295 -0.03028684 -0.027718281
0.03670974 0.02118577 0.0002422657 0.048118327 -0.02406053 0.0070301914 0.037255075 -0.072402366
-0.016957218 -0.019527197 -0.033803437 -0.09012583 0.00784027 -0.04690712 0.0024924981 0.0140458
0.045282245 -0.04228436 0.13302036 0.0074266945 -0.095528595 -0.04194207 -0.014994014 -0.041946944
-0.0317056 -0.046242274 -0.06471709 0.14266278 -0.021332609 0.053221 0.03158468 -0.04766905
-0.024507884 0.06857358 -0.06864297 0.012096275 -0.014947474 0.08834724 0.006106491 0.047959004
-0.04622085 -0.028375717 0.0030901844 0.031777885 0.039706666 0.059638053 0.052270424 -0.112265326
0.04344748 -0.00033618318 -0.022956593 0.013055901 -0.004267423 -0.04413182 -0.059977394 0.0011143031
-0.03581133 -0.024347106 -0.038185604 0.019964876 0.019747918 -0.0025099353 0.0055846297 -0.035194
-0.019333646 -0.010261044 -0.029205438 -0.045974884 -0.05282179 0.0017202679 -0.01426541 -0.030905835
-0.004304655 0.033631846 0.08262866 -0.045111295 -0.021498559 -0.021297643 0.009210454 -0.08017719
-0.035134256 -0.031584144 -0.03818135 0.0054501407 0.020175327 0.031179003 -0.04939223 -0.06857348
-0.042094316 -0.0325432 -0.07732854 0.011370401 0.0073444275 0.046333518 -0.012063979 0.01455474
-0.06716781 -0.0034559437 -0.095168665 -0.015202121 -0.002693145 -0.0137544405 0.033133466 0.024803646
0.0055776327 -0.013281264 -0.025431547 -0.035935923 0.027029928 0.003811556 0.013965703 0.04444104
-0.05352535 -0.07589786 -0.030899115 -0.006798602 -0.031930957 0.03186473 0.12446122 0.037512615
-0.029939467 0.032876175 -0.024266647 -0.10066782 -0.046096098 -0.069290444 -0.013982893 -0.074694954
0.010644722 -0.008751644 -0.048308842 -0.039670106 -0.0809159 -0.068566926 -0.034303613 -0.036485724
-0.03964375 0.0068535414 -0.001418287 -0.028469 -0.03864687 -0.029815758 -0.009638066 -0.024964057
0.0075643393 0.02701879 0.008761521 -0.0055198628 -0.07021467 -0.077317394 0.034313146 -0.012792822
-0.029879566 -0.03196336 0.008418422 -0.02177632 -0.027094422 -0.025576826 -0.045038845 -0.013937985
-0.04842796 -0.05393925 -0.040539682 -0.054728355 0.033912778 0.023755247 0.07513158 0.009584566
-0.09110194 -0.0053078374 -0.004108521 -0.054519452 0.032784503 -0.030780425 -0.049755566 -0.04135469
0.018514508 -0.01361566 -0.09666865 -0.09018104 -0.029111052 0.0010876866 0.013582361 0.052325748
-0.00037799362 -0.01150777 -0.03202352 -0.07320174 -0.0106772315 -0.0322275 0.032715753 -0.010322801
0.010954944 -0.020414125 -0.024413249 -0.0022417193 0.013636213 0.021881735 0.012272603 0.0320415
-0.057151604 -0.003702081 -0.020226251 -0.0077581946 0.031461794 -0.08565044 0.062073074 0.022223057
0.029827565 0.068930395 -0.012426518 -0.15913092 -0.072878495 0.011330815 -0.0057194727 -0.01849056
-0.018067243 -0.03565868 -0.063765936 -0.028369917 -0.043640982 -0.0648198 -0.031367127 -0.006055607
0.011102571 0.0035595812 -0.027679946 -0.03055529 0.07878344 0.046090767 0.024627037 0.022449465
00000000: 3ba1 65bd e015 55bc 55d9 a83b af61 2e3b
00000010: 4ea4 89bd 50fc fa3b 8ecb aa3c 3464 073c
00000020: 14eb 893c c6e5 133c ffbe 5a3c 8f5e 32bd
00000030: 9ea9 3ebc d261 b83c 07a1 09bd 166c 773a
00000040: 5ece 433d 00c6 823d 9224 2f3c 4440 45bd
00000050: d6ba 773c ae23 feba 1b1c f8bc 7311 e3bc
00000060: f45c 163d c88d ad3c b408 7e39 b917 453d
00000070: 971a c5bc 855d e63b c798 183d b147 94bd
00000080: dde9 8abc 80f7 9fbc 7975 0abd e493 b8bd
00000090: 7a74 003c ae21 40bd 2e59 233b 5b20 663c
000000a0: e079 393d 5d32 2dbd 7d36 083e a15b f33b
000000b0: 7fa4 c3bd 73cb 2bbd 74a9 75bc 8fd0 2bbd
000000c0: bbdd 01bd 8a68 3dbd 658a 84bd 3116 123e
000000d0: b9c1 aebc 43fe 593d f05e 013d 9f40 43bd
000000e0: c2c4 c8bc 4e70 8c3d af94 8cbd 742f 463c
000000f0: 40e6 74bc 66ef b43d f618 c83b a970 443d
00000100: 1352 3dbd 3174 e8bc b184 4a3b 8729 023d
00000110: 75a3 223d 0847 743d 8319 563d 5deb e5bd
00000120: fcf5 313d be41 b0b9 770f bcbc 6be8 553c
00000130: bdd5 8bbb 91c3 34bd dbaa 75bd cf0d 923a
00000140: e7ae 12bd 9573 c7bc 8268 1cbd 618d a33c
00000150: 63c6 a13c ba7d 24bb 45ff b63b 9527 10bd
00000160: 9861 9ebc f01d 28bc 3e40 efbc 2950 3cbd
00000170: a95b 58bd 9d7a e13a 77b9 69bc 3c2e fdbc
00000180: 100e 8dbb 8cc1 093d 3739 a93d 9fc6 38bd
00000190: bf1d b0bc 6578 aebc 72e7 163c f033 a4bd
000001a0: f0e8 0fbd 605e 01bd 0c64 1cbd 1897 b23b
000001b0: ba46 a53c 1c6b ff3c 824f 4abd 4170 8cbd
000001c0: 176b 2cbd 054c 05bd 6d5e 9ebd eb4a 3a3c
000001d0: 86a9 f03b 37c8 3d3d ffa7 45bc 0177 6e3c
000001e0: 478f 89bd 1d7d 62bb cae7 c2bd 5112 79bc
000001f0: 7a7f 30bb 4e5a 61bc f5b6 073d 0431 cb3c
00000200: 93c4 b63b a999 59bc d255 d0bc 8c31 13bd
00000210: de6d dd3c 4ccb 793b 67d0 643c cf07 363d
00000220: 663d 5bbd 5670 9bbd 2420 fdbc cfc6 debb
00000230: 09ca 02bd 9784 023d 86e5 fe3d d4a6 193d
00000240: 9d43 f5bc 2ba9 063d d9ca c6bc ee2a cebd
00000250: 43cf 3cbd 26e8 8dbd 8118 65bc abf9 98bd
00000260: 3367 2e3c 0e63 0fbc 7edf 45bd 1f7d 22bd
00000270: 3cb7 a5bd d16c 8cbd f281 0cbd 0e72 15bd
00000280: 7c61 22bd ac93 e03b d1e5 b9ba d237 e9bc
00000290: 2e4c 1ebd 2d40 f4bc fbe8 1dbc 6c81 ccbc
000002a0: 47de f73b 8256 dd3c 7c8c 0f3c f7df b4bb
000002b0: b5cc 8fbd 9558 9ebd f18b 0c3d fc98 51bc
000002c0: fec5 f4bc 03ec 02bd 6ced 093c 4164 b2bc
000002d0: 1ff5 ddbc 7e86 d1bc a77a 38bd 255c 64bc
000002e0: 665c 46bd 67ef 5cbd f00c 26bd d72a 60bd
000002f0: 20e8 0a3d 5d9a c23c 96de 993d 9508 1d3c
00000300: a793 babd 5eed adbb c6a0 86bb ca4f 5fbd
00000310: 0b49 063d 3b27 fcbc 7ecc 4bbd 8963 29bd
00000320: bdab 973c 3814 5fbc 37fa c5bd d6b0 b8bd
00000330: 4d7a eebc b590 8e3a 8d88 5e3c 8653 563d
00000340: 722d c6b9 168b 3cbc 182b 03bd cbea 95bd
00000350: 8eef 2ebc fc00 04bd f400 063d f720 29bc
00000360: 5e7c 333c 863b a7bc 4bfe c7bc cfe9 12bb
00000370: 6c6a 5f3c 5341 b33c 0713 493c f33d 033d
00000380: cd17 6abd 9d9e 72bb 86b1 a5bc 7438 febb
00000390: 15de 003d 7f69 afbd 5640 7e3d 210d b63c
000003a0: f058 f43c 612b 8d3d 9898 4bbc 37f3 22be
000003b0: 5241 95bd e2a4 393c 6a6a bbbb 8479 97bc
000003c0: c101 94bc d60e 12bd b797 82bd 0768 e8bc
000003d0: e3c0 32bd 3ec0 84bd d17a 00bd 1d6e c6bb
000003e0: 8fe7 353c dd47 693b 0ec1 e2bc 164f fabc
000003f0: 3659 a13d acc9 3c3d a4be c93c f1e7 b73c

layer_stack.2.layer_stack.2.bias f4 [72]
0.040043805 0.059129182 0.02373788 0.087383635 -0.023750572 -0.013458873 0.104473405 0.042057768
0.021758134 -0.035781443 0.063560985 -0.0064934273 0.030742668 -0.01712691 -0.02345773 0.031654514
0.010334856 0.0937435 0.01337021 0.0509081 -0.0075659775 0.010149667 -0.012533736 0.021256208
0.0013015209 0.00545725 0.032307617 -0.041124243 0.022551436 0.062690966 0.027080024 0.0098362
-0.010000252 0.002213663 0.021882059 0.03509207 0.11255936 0.04068027 0.054011945 0.03720834
0.102826186 0.036078572 0.07844057 0.035781946 0.003263677 0.077102415 0.13236912 0.019654676
0.0006957645 0.00034158365 0.036480695 0.05849132 0.057461623 0.036590837 -0.021532947 0.089017004
0.049716648 0.08280034 -0.006032255 0.14095877 0.0051374906 -0.046113122 0.01072615 0.041659635
-0.012903702 -0.030392596 -0.0056330883 0.015917558 0.044289246 0.0143849235 0.008453623 0.03943536
00000000: f904 243d 7131 723d f175 c23c 31f6 b23d
00000010: 8f90 c2bc 9b82 5cbc 27f6 d53d c444 2c3d
00000020: 1d3e b23c 908f 12bd 432c 823d d1c6 d4bb
00000030: 0cd8 fb3c bc4d 8cbc 6d2a c0bc 2aa8 013d
00000040: 8753 293c 98fc bf3d ba0e 5b3c 0385 503d
00000050: 05ec f7bb ca4a 263c 4d5a 4dbc 8021 ae3c
00000060: cb97 aa3a bbd2 b23b fe54 043d e571 28bd
00000070: cabd b83c 1f64 803d edd6 dd3c 0328 213c
00000080: 19d8 23bc 1a13 113b 0142 b33c b4bc 0f3d
00000090: 8685 e63d 5ba0 263d a13b 5d3d c667 183d
000000a0: 8996 d23d 20c7 133d 73a5 a03d 1790 123d
000000b0: 6ae3 553b dfe7 9d3d c58b 073e d802 a13c
000000c0: f763 363a 9516 b339 c86c 153d 9894 6f3d
000000d0: e15c 6b3d 46e0 153d dd65 b0bc 8c4e b63d
000000e0: afa3 4b3d 3a93 a93d 39aa c5bb 7f57 103e
000000f0: 6558 a83b 1de1 3cbd bcbc 2f3c 4ba3 2a3d
00000100: 0d6a 53bc e5f9 f8bc c595 b8bb 8a65 823c
00000110: a468 353d beae 6b3c 1181 0a3c f986 213d
