lotsaconvs/nets/googlenet1.pt (torch, 133803 bytes, 14 tensors)

layer_stack.0.b1.0.weight f4 [24, 1, 1, 1]
-0.025295138 -0.8543818 0.6496463 -0.8701873 0.2542038 0.337 0.6264813 0.4125389
0.559203 -0.028074265 -0.3449123 -0.74966145 0.20841527 -0.9297725 -0.31967103 0.3728267
-0.20881534 0.6974485 0.7120732 -0.0006597042 0.79600954 0.6573101 -0.45110035 0.040144682
00000000: c037 cfbc c4b8 5abf 384f 263f 98c4 5ebf
00000010: 0027 823e 448b ac3e 1461 203f 4c38 d33e
00000020: ee27 0f3f 00fc e5bc 5898 b0be d0e9 3fbf
00000030: d06a 553e 9205 6ebf ecab a3be 24e3 be3e
00000040: b0d3 55be fc8b 323f 6e4a 363f 00f0 2cba
00000050: 48c7 4b3f 7a45 283f a0f6 e6be c06e 243d

layer_stack.0.b1.0.bias f4 [24]
-0.782277 -0.8908576 0.6350908 -0.40952373 -0.42142367 0.7650856 0.9771601 0.35066676
0.36916375 0.2458837 0.5462644 0.75981784 -0.4909947 -0.046288013 -0.21727753 -0.76838386
-0.57787466 0.8811908 0.70111716 0.4415444 0.46768987 0.46428812 -0.9007307 0.14166224
00000000: 4e43 48bf 3e0f 64bf 5095 223f 18ad d1be
00000010: d8c4 d7be a6dc 433f 2a27 7a3f 988a b33e
00000020: 0803 bd3e f0c8 7b3e fcd7 0b3f 6c83 423f
00000030: a863 fbbe 8098 3dbd 007e 5ebe ceb4 44bf
00000040: 98ef 13bf b895 613f 6a7c 333f 1c12 e23e
00000050: 0c75 ef3e 2cb7 ed3e 4a96 66bf e80f 113e

layer_stack.0.b2.0.weight f4 [24, 1, 1, 1]
0.20110977 -0.90934145 -0.7592739 -0.8232647 0.37880778 0.7768997 0.70891356 -0.18335772
-0.88612115 0.05997491 0.5674424 0.43779278 -0.11785686 0.519469 -0.5532172 0.6109562
0.6092633 -0.8425007 0.40083575 0.055470467 -0.60345995 -0.3062619 0.12343824 -0.6338451
00000000: b8ef 4d3e 9aca 68bf c65f 42bf 7ac1 52bf
00000010: 18f3 c13e e6e2 463f 5c7b 353f 20c2 3bbe
00000020: d6d8 62bf 40a8 753d e843 113f 6026 e03e
00000030: f05e f1bd ecfb 043f a49f 0dbf a067 1c3f
00000040: aef8 1b3f 20ae 57bf 583a cd3e 0035 633d
00000050: 5a7c 1abf 5cce 9cbe 30cd fc3d ac43 22bf

layer_stack.0.b2.0.bias f4 [24]
0.9259505 0.877105 -0.33407748 -0.7644998 -0.037355304 0.22819495 -0.4942839 -0.004940748
0.49628198 0.60979795 0.11494255 -0.19181776 0.29393733 -0.20503414 -0.18308449 -0.13538587
-0.31401396 -0.46298194 0.8306618 0.39490402 0.3765782 0.52525234 -0.82003295 -0.94522524
00000000: 180b 6d3f f489 603f 340c abbe 42b6 43bf
00000010: e001 19bd f0ab 693e c812 fdbe 00e6 a1bb
00000020: ac18 fe3e b81b 1c3f 0067 eb3d e06b 44be
00000030: f47e 963e 78f4 51be 807a 3bbe 98a2 0abe
00000040: 70c6 a0be f80b edbe 40a6 543f dc30 ca3e
00000050: dcce c03e f076 063f aeed 51bf 48fa 71bf

layer_stack.0.b2.2.weight f4 [24, 24, 3, 3]
-0.050139662 -0.026468817 -0.054107115 0.010481253 0.028020553 0.01392974 -0.023488134 -0.013473958
0.025305398 0.046683908 0.054729156 -0.058603525 -0.06392838 -0.009810697 0.036391623 -0.017691612
0.027043827 0.043329604 0.0028707832 -0.066938974 -0.052110456 0.043807223 0.06335245 -0.01936394
0.036841333 0.03170085 0.0183919 0.014686823 0.038480446 0.007765427 0.0010573417 0.026529402
0.0015756637 -0.027949989 0.013386369 -0.050741576 -0.0619715 0.020013146 0.050597258 0.0057688206
0.043622263 -0.0081158765 0.03249813 -0.053885885 -0.0318791 -0.0102566 -0.011648372 0.008326896
0.043636933 -0.051422656 -0.027666211 -0.009006709 0.06325737 -0.055521145 0.01588346 0.016975187
0.03924875 -0.05390252 3.0398369e-06 -0.048853144 0.03349804 0.04534781 -0.028802276 0.027954139
-0.06766727 0.04630366 -0.0403848 -0.046130247 0.03205344 -0.003268078 0.040760577 0.034439966
0.06769486 0.002261214 -0.023737196 -0.016967047 -0.020034213 -0.019465595 0.0123556405 0.0045791715
-0.045911465 0.05305466 -0.052645616 -0.016317628 -0.01718593 0.050345384 0.0032589734 0.011751048
-0.04033535 0.011424407 -0.0044355616 -0.032735534 0.017701365 0.04340066 0.06652765 0.04119286
-0.017426215 0.021051243 -0.033869937 0.0061614662 -0.0024234727 -0.032265995 0.051897787 -0.047659528
0.029669523 0.024511404 -0.022614446 0.020930625 0.010511614 -0.022803292 0.020998344 0.022095807
0.021868177 -0.019922927 0.015708894 -0.06378737 0.043611653 -0.03571225 0.0072097406 -0.03588857
0.036445178 0.06083125 0.012740709 -0.050495118 0.009664893 -0.0554859 -0.011733808 -0.04077795
0.05182437 0.05286233 -0.047044903 0.018023245 -0.060620137 0.06699361 0.03455472 -0.06402222
-0.037866108 -0.056493066 -0.041148346 -0.042790063 -0.038960278 0.06030865 -0.04438886 0.038185813
0.0666434 0.04685629 -0.04282597 0.050417073 -0.018306617 -0.03167659 -0.0022415444 0.0120911
-0.009799268 -0.0149462 -0.030998781 -0.044484396 -0.047728717 0.02739498 0.004669182 0.005399771
-0.010021847 0.0319617 0.03706702 -0.06748948 -0.0017621517 -0.05316455 0.020242281 -0.06437225
0.044733927 -0.025994863 0.063154206 -0.023064658 -0.058082033 0.02827245 0.018117085 -0.00025797635
-0.047467172 0.039124317 0.050349638 -0.051263917 -0.061554123 0.04406438 -0.014359567 0.06139259
-0.022318609 0.053240396 0.0032042488 0.024704784 0.014727421 0.05890788 0.020285904 -0.025337543
0.05323889 -0.06393168 -0.0022950694 0.022393279 -0.036296953 -0.05095581 -0.017247573 0.024887882
0.063576266 0.06683378 0.027254418 0.037097454 0.06343508 0.016934037 -0.020420685 0.014830045
-0.037251085 -0.024306137 0.010066874 -0.0076305307 0.029598527 0.0059731603 0.026517875 -0.021242663
0.05676932 0.00063387305 -0.06734823 0.056299195 -0.025800787 0.022527635 -0.02486626 -0.03514815
-0.011835828 0.021358639 -0.003416866 -0.019730207 0.030881725 -0.022605736 0.021978453 0.0407464
-0.008029833 0.015804306 0.023791693 0.01846885 -0.041310374 -0.0005294457 0.0031755716 -0.0019391701
0.0236025 0.017279819 0.05264415 -0.0555989 -0.029900927 0.0462616 -0.059836883 0.06093146
-0.04788815 -0.065254755 -0.0058418885 -0.059661172 -0.044108883 0.018515684 0.053810723 -0.03338403
00000000: 3f5f 4dbd 22d5 d8bc 6c9f 5dbd 90b9 2b3c
00000010: 5c8b e53c 9039 643c 306a c0bc e0c1 5cbc
00000020: 444d cf3c a037 3f3d ae2b 603d 400a 70bd
00000030: e2ec 82bd 0cbd 20bc 620f 153d 00ee 90bc
00000040: 048b dd3c 627a 313d c023 3c3b 4d17 89bd
00000050: c671 55bd 346f 333d eebe 813d 20a1 9ebc
00000060: f0e6 163d c0d8 013d 9caa 963c 00a1 703c
00000070: ac9d 1d3d 2075 fe3b 8096 8a3a 3054 d93c
00000080: 8086 ce3a 60f7 e4bc 8052 5b3c 66d6 4fbd
00000090: d4d5 7dbd 9cf2 a33c 123f 4f3d 6008 bd3b
000000a0: 42ad 323d 74f8 04bc c21c 053d 72b7 5cbd
000000b0: a993 02bd 4c0b 28bc d0d8 3ebc 886d 083c
000000c0: a4bc 323d 90a0 52bd 40a4 e2bc e090 13bc
000000d0: 148d 813d 246a 63bd 081e 823c 8c0f 8b3c
000000e0: 4cc3 203d e4c8 5cbd 0000 4c36 3c1a 48bd
000000f0: 3e35 093d a0be 393d c0f2 ebbc 1400 e53c
00000100: 2395 8abd e8a8 3d3d 886a 25bd 12f3 3cbd
00000110: 784a 033d 402d 56bb 90f4 263d ec10 0d3d
00000120: 9aa3 8a3d e030 143b 8274 c2bc 7afe 8abc
00000130: ca1e a4bc 5076 9fbc 506f 4a3c e00c 963b
00000140: a90d 3cbd d84f 593d eea2 57bd 8cac 85bc
00000150: 82c9 8cbc f636 4e3d 8094 553b 7887 403c
00000160: ae36 25bd 702d 3b3c 3058 91bb b215 06bd
00000170: 7402 913c e4c4 313d a63f 883d d8b9 283d
00000180: 6cc1 8ebc a873 ac3c 34bb 0abd 20e6 c93b
00000190: 20d3 1ebb 5929 04bd c692 543d a336 43bd
000001a0: 800d f33c 24cc c83c ee41 b9bc b476 ab3c
000001b0: e838 2c3c f8cd babc b804 ac3c 4402 b53c
000001c0: e424 b33c 6835 a3bc f0af 803c f4a2 82bd
000001d0: 22a2 323d 0247 12bd b03f ec3b e5ff 12bd
000001e0: 8a47 153d 302a 793d 68be 503c f8d3 4ebd
000001f0: 8059 1e3c 2f45 63bd 283f 40bc c806 27bd
00000200: ca45 543d 2c86 583d 28b2 40bd 7ca5 933c
00000210: d24c 78bd f233 893d 4089 0d3d 151e 83bd
00000220: 7e19 1bbd 4665 67bd 2b8b 28bd a244 2fbd
00000230: d094 1fbd 3406 773d 18d1 35bd ba68 1c3d
00000240: 567c 883d 62ec 3f3d 496a 2fbd 2282 4e3d
00000250: c2f7 95bc 50bf 01bd e0e6 12bb c019 463c
00000260: 1c8d 20bc e8e0 74bc 28f1 fdbc 4535 36bd
00000270: 307f 43bd 706b e03c f0ff 983b 90f0 b03b
00000280: ac32 24bc 46ea 023d 96d3 173d ed37 8abd
00000290: 00f8 e6ba 12c3 59bd 24d3 a53c 99d5 83bd
000002a0: ec3a 373d 2ef3 d4bc fe56 813d 18f2 bcbc
000002b0: 6de7 6dbd a09b e73c 486a 943c 0041 87b9
000002c0: f06c 42bd d240 203d 6c3b 4e3d 1dfa 51bd
000002d0: 2d20 7cbd da7c 343d 6444 6bbc cc76 7b3d
000002e0: 84d5 b6bc 9a12 5a3d 60fe 513b b061 ca3c
000002f0: 484b 713c 6449 713d a02e a63c ae90 cfbc
00000300: 0611 5a3d 9dee 82bd e068 16bb 1c72 b73c
00000310: 1dac 14bd 0ab7 50bd c84a 8dbc ace1 cb3c
00000320: 4634 823d 26e0 883d a844 df3c 80f3 173d
00000330: 40ea 813d 40b9 8a3c 4849 a7bc b8f9 723c
00000340: 9894 18bd aa1d c7bc 88ef 243c 8809 fabb
00000350: 9c78 f23c 80ba c33b 043c d93c 1805 aebc
00000360: f286 683d 802a 263a deed 89bd fc99 663d
00000370: 2c5c d3bc e08b b83c 54b4 cbbc 82f7 0fbd
00000380: 10eb 41bc 50f8 ae3c 80ed 5fbb 3ea1 a1bc
00000390: acfb fc3c aa2f b9bc 280c b43c b2e5 263d
000003a0: 908f 03bc 0878 813c cce6 c23c fc4b 973c
000003b0: 1135 29bd 80ca 0aba 401d 503b c02b feba
000003c0: 085a c13c 688e 8d3c 64a1 573d acbb 63bd
000003d0: caf2 f4bc ce7c 3d3d 8517 75bd 4493 793d
000003e0: 5d26 44bd 49a4 85bd 506d bfbb 465f 74bd
000003f0: 84ab 34bd 34ae 973c a268 5c3d b1bd 08bd

layer_stack.0.b2.2.bias f4 [24]
0.019470938 0.006232783 0.03669048 -0.060289185 0.054862082 0.03498383 0.06322794 0.045876473
0.032053076 0.04324218 -0.04278917 0.031646863 -0.060395874 -0.015686993 0.060279712 0.043987773
-0.06783158 -0.028347436 -0.05422717 0.028880693 -0.0017096028 -0.04424562 0.017326042 -0.06424773
00000000: 8481 9f3c 603c cc3b c248 163d cbf1 76bd
00000010: 10b7 603d 344b 0f3d a67d 813d f8e8 3b3d
00000020: 164a 033d b61e 313d b243 2fbd 24a0 013d
00000030: aa61 77bd 0282 80bc dce7 763d 862c 343d
00000040: 49eb 8abd e238 e8bc 4f1d 5ebd 3497 ec3c
00000050: c014 e0ba e53a 35bd 58ef 8d3c 5094 83bd

layer_stack.0.b3.0.weight f4 [24, 1, 1, 1]
0.8505895 0.28923273 0.3453058 -0.5515547 -0.7704313 -0.12750924 0.9477546 -0.7393148
-0.2695043 -0.9022578 -0.59271455 0.13416457 0.073464155 -0.6056185 -0.60294735 0.41398633
0.74070466 0.5796617 -0.73162663 -0.3867365 -0.63451684 -0.65457916 -0.36955333 -0.026475668
00000000: 3cc0 593f 5016 943e eccb b03e b032 0dbf
00000010: fc3a 45bf c891 02be 0ca0 723f bc43 3dbf
00000020: 78fc 89be 5efa 66bf 24bc 17bf 7062 093e
00000030: 6074 963d d009 1bbf c25a 1abf 04f6 d33e
00000040: d29e 3d3f b664 143f e24b 3bbf 5402 c6be
00000050: b26f 22bf 8092 27bf 1836 bdbe 80e3 d8bc

layer_stack.0.b3.0.bias f4 [24]
-0.98483694 0.5640917 -0.20009565 0.51237154 -0.4524908 0.21487284 0.12784755 0.5135733
0.6485251 0.72031593 -0.45536852 0.08152771 -0.36492097 -0.9978312 -0.81084466 0.9347838
0.8397895 -0.016072989 0.775815 0.812037 -0.055018067 0.861292 0.79810023 -0.98648906
00000000: 461e 7cbf 5068 103f e0e5 4cbe c82a 033f
00000010: e0ac e7be a007 5c3e 78ea 023e 8a79 033f
00000020: be05 263f a066 383f 1026 e9be 00f8 a63d
00000030: ecd6 babe de71 7fbf 8493 4fbf fe4d 6f3f
00000040: 72fc 563f 80ab 83bc d09b 463f a8e1 4f3f
00000050: a05a 61bd a27d 5c3f 4c50 4c3f 8c8a 7cbf

layer_stack.0.b3.2.weight f4 [24, 24, 5, 5]
0.011182293 -0.025229473 -0.029345991 0.011679441 -0.0294503 -0.00047354773 0.009402998 -0.03531818
0.03963726 0.037102863 0.018384364 -0.039082587 0.0066650845 0.016160328 0.017543823 0.010605004
0.012385283 0.0148092285 0.013490144 0.032831736 0.024528831 0.013521627 -0.01303814 0.031666882
-0.020062009 -0.009942904 0.040671736 -0.024523862 -0.038706254 -0.037804198 0.035135992 0.001520779
-0.038550213 0.038641393 -0.0033856854 0.018338222 0.0012743808 -0.036417034 0.020562083 -0.0010537319
-0.03454946 -0.020955296 0.021400865 0.014562249 0.03185202 0.034745477 -0.006529182 -0.0072032064
-0.039575938 0.007895816 -0.019060217 -0.01318712 -0.036354646 -0.020598566 -0.038076144 -0.027983613
-0.009028494 0.027179524 -0.013077652 -0.035631876 -0.012440432 -0.014223391 -0.03375684 0.03985838
-0.039639566 -0.0097496975 0.01734373 0.011958174 -0.011258759 0.006669 -0.025713243 0.00045388937
0.017155636 -0.005076114 0.022865213 0.011394747 -0.03915683 0.007804569 -0.037533525 0.017444491
-0.028121762 -0.016845178 0.0005136505 -0.0058806837 0.025115699 -0.009676987 -0.034281563 -0.039465852
-0.0044091307 -0.03018501 0.005757615 -0.028360382 0.005639296 0.020451438 -0.032306254 0.038494565
0.026581988 0.002195958 -0.021948209 0.015322145 0.034038693 -0.030796418 0.017853878 -0.0077424757
-0.0033249632 -0.009485543 -0.0023692586 -0.01747129 -0.013409035 -0.026466373 -0.010810092 -0.011446539
0.034740932 -0.00089066476 0.036626324 0.0023620166 0.0338296 0.03960719 -0.026705587 -0.0058362074
0.01374061 -0.011619717 0.035030186 -0.024619574 -0.010002779 -0.010929594 0.039947055 0.03988663
-0.019712701 -0.0078033656 0.040300407 0.03067527 0.038444035 -0.006171208 -1.7788261e-05 -0.0040290393
0.03588683 -0.018731643 -0.003900271 0.018173885 0.036858283 -0.0111987945 0.013095126 -0.00302938
0.03966584 -0.010924295 -0.002597265 -0.00925402 0.017275006 0.031688847 -0.018754283 0.006311074
-0.010209002 -0.029604383 -0.03303856 0.017804492 -0.0372148 0.004600983 -0.0045341738 0.010575283
-0.015132455 -0.008488495 0.0013090447 0.03453593 -0.03682401 -0.022209449 -0.0033919103 0.006860446
-0.004394803 -0.034898773 -0.014987452 0.02243384 0.008909378 0.005932279 -0.0005579479 0.020183075
0.006711602 0.015310597 -0.03226565 0.0307035 0.029898353 0.02901493 -0.009789677 -0.032884926
0.031231955 -0.0007350072 -0.021203829 -0.029948153 -0.02312308 -0.032945238 -0.018926514 -0.032965306
0.0053315274 0.016573295 -0.0069293194 -0.031218112 0.03679832 -0.029810099 0.03242886 -0.004091751
0.040678315 -0.02142137 -0.027118288 -0.03865519 0.026220217 0.007253118 0.032347597 0.021330405
-0.040550992 -0.0086790025 0.027296238 0.018832754 0.023055486 0.027428865 0.023156598 0.023749068
0.031335182 0.03882701 0.030118003 -0.024457512 -0.007916171 0.012480687 -0.023922177 -0.022265285
0.029945463 0.026780285 0.024787642 -0.0031495802 -0.03610033 0.010062002 0.0036059208 0.0077687614
-0.03118845 0.039056443 0.01703712 -0.0033497065 -0.006109167 -0.007427238 0.029650226 -0.0146356
0.011007801 0.018646505 -0.0027268194 -0.004682027 0.0069117732 0.011527829 -0.0339115 0.030646645
0.009707827 0.0067870542 0.0006177202 0.039556563 -0.035954434 -0.007372137 0.004801411 0.035743907
00000000: f035 373c 0aae cebc 0167 f0bc 205b 3f3c
00000010: c141 f1bc 8046 f8b9 080f 1a3c cca9 10bd
00000020: ae5a 223d 2cf9 173d ce9a 963c 1015 20bd
00000030: c866 da3b aa62 843c 10b8 8f3c 9cc0 2d3c
00000040: a4eb 4a3c 68a2 723c c405 5d3c 927a 063d
00000050: b0f0 c83c d089 5d3c ec9d 55bc 22b5 013d
00000060: 1559 a4bc 90e7 22bc 6897 263d 44e6 c8bc
00000070: 738a 1ebd 93d8 1abd c2ea 0f3d e054 c73a
00000080: d4e6 1dbd 7046 1e3d 60e2 5dbb 0a3a 963c
00000090: 2009 a73a 072a 15bd d071 a83c 601d 8aba
000000a0: bc83 0dbd 71aa abbc de50 af3c 8096 6e3c
000000b0: 4477 023d 4651 0e3d c0f2 d5bb e008 ecbb
000000c0: 611a 22bd 745d 013c 2c24 9cbc ca0e 58bc
000000d0: 9ce8 14bd 53be a8bc bbf5 1bbd e43d e5bc
000000e0: 40ec 13bc 98a7 de3c a643 56bc bbf2 11bd
000000f0: f4d2 4bbc 3a09 69bc 9d44 0abd 8a42 233d
00000100: 195d 22bd 32bd 1fbc 7014 8e3c 38ec 433c
00000110: a876 38bc a087 da3b 94a4 d2bc 00f8 ed39
00000120: fa89 8c3c 8855 a6bb d44f bb3c 08b1 3a3c
00000130: ea62 20bd 78bd ff3b c1bc 19bd c0e7 8e3c
00000140: 9c5f e6bc e6fe 89bc 80a6 063a c0b2 c0bb
00000150: 70bf cd3c 3a8c 1ebc d36a 0cbd f2a6 21bd
00000160: 787a 90bb 8e46 f7bc 60aa bc3b 0854 e8bc
00000170: d8c9 b83b c689 a73c 9053 04bd 7aac 1d3d
00000180: 78c2 d93c 10ea 0f3b bbcc b3bc bc09 7b3c
00000190: 286c 0b3d c548 fcbc 4c42 923c 98b4 fdbb
000001a0: a0e7 59bb 4069 1bbc 9045 1bbb f31f 8fbc
000001b0: 92b1 5bbc 02d0 d8bc d01c 31bc 448a 3bbc
000001c0: 824c 0e3d 807b 69ba 7c05 163d 10cc 1a3b
000001d0: e890 0a3d 263b 223d adc5 dabc a83d bfbb
000001e0: 4c20 613c a060 3ebc d07b 0f3d fdae c9bc
000001f0: b2e2 23bc 0a12 33bc 869f 233d 2a60 233d
00000200: 887c a1bc 60b3 ffbb 0a12 253d b44a fb3c
00000210: 7e77 1d3d d837 cabb 0038 95b7 0806 84bb
00000220: 12fe 123d 1a73 99bc b09b 7fbb 66e1 943c
00000230: b6f8 163d 267b 37bc f08c 563c 9088 46bb
00000240: a678 223d d0fb 32bc e036 2abb 2c9e 17bc
00000250: 5084 8d3c 2acc 013d 95a2 99bc 20cd ce3b
00000260: a843 27bc e484 f2bc 7153 07bd bada 913c
00000270: 8c6e 18bd d8c3 963b 6893 94bb f443 2d3c
00000280: 1eee 77bc 5413 0bbc 4094 ab3a 8c75 0d3d
00000290: c6d4 16bd 97f0 b5bc d04a 5ebb 98cd e03b
000002a0: 4802 90bb 04f2 0ebd ee8d 75bc 2cc7 b73c
000002b0: a4f8 113c 9063 c23b 4043 12ba fa56 a53c
000002c0: 00ed db3b 4cd9 7a3c fc28 04bd e885 fb3c
000002d0: 64ed f43c b8b0 ed3c e264 20bc 58b2 06bd
000002e0: 28da ff3c 80ad 40ba a7b3 adbc d455 f5bc
000002f0: 9d6c bdbc 96f1 06bd c70b 9bbc a106 07bd
00000300: 18b4 ae3b b8c4 873c 580f e3bb 20bd ffbc
00000310: d6b9 163d 4f34 f4bc 20d4 043d 1814 86bb
00000320: 4e9e 263d de7b afbc 2c27 debc e854 1ebd
00000330: c8cb d63c 90ab ed3b ea7e 043d 1abd ae3c
00000340: cc18 26bd 6032 0ebc 5c9c df3c 2647 9a3c
00000350: dcde bc3c 80b2 e03c e8b2 bd3c 688d c23c
00000360: 5259 003d 1209 1f3d 08ba f63c 1f5b c8bc
00000370: d4b2 01bc cc7b 4c3c 71f8 c3bc b065 b6bc
00000380: 3050 f53c 5462 db3c 740f cb3c 3069 4ebb
00000390: f1dd 13bd 18db 243c 5051 6c3b 1891 fe3b
000003a0: ec7e ffbc a6f9 1f3d 6e91 8b3c c086 5bbb
000003b0: 682f c8bb 3060 f3bb 08e5 f23c 28ca 6fbc
000003c0: 105a 343c 8ec0 983c 70b4 32bb b06b 99bb
000003d0: 287c e23b 38df 3c3c c9e6 0abd ac0e fb3c
000003e0: 940d 1f3c f065 de3b 80ee 213a 1006 223d
000003f0: f544 13bd f891 f1bb 2855 9d3b 3468 123d

layer_stack.0.b3.2.bias f4 [24]
-0.0010078512 -0.032752052 0.017788183 -0.006736584 0.015596669 -0.017548237 -0.019925604 -0.007500563
-0.007523615 0.026228629 0.006600525 -0.018492527 -0.03289123 -0.024897352 -0.009411909 0.01253498
0.039415926 0.025409468 -0.0042235255 -0.010709858 -0.03169465 -0.025724437 -0.03594786 -0.00955582
00000000: e019 84ba 0427 06bd 86b8 913c 90be dcbb
00000010: 2c89 7f3c 52c1 8fbc 053b a3bc 48c7 f5bb
00000020: a888 f6bb 6cdd d63c 3849 d83b a47d 97bc
00000030: f4b8 06bd 88f5 cbbc 6834 1abc 845f 4d3c
00000040: 9872 213d 8427 d03c 8065 8abb 6678 2fbc
00000050: 40d2 01bd 0ebc d2bc 103e 13bd 0490 1cbc

layer_stack.0.b4.1.weight f4 [24, 1, 1, 1]
-0.82857466 0.12776458 -0.06691408 -0.27701688 -0.35924935 -0.72883105 0.37146962 -0.28522635
-0.45667565 0.325827 0.15695524 0.6683979 -0.64308345 -0.33059657 0.944263 -0.77707434
0.84645534 -0.09054935 0.1639725 0.79178905 0.21259618 -0.83990633 -0.96702516 0.81844175
00000000: 781d 54bf b8d4 023e 400a 89bd 28d5 8dbe
00000010: 88ef b7be ac94 3abf 4431 be3e 3009 92be
00000020: 64d1 e9be ccd2 a63e e0b8 203e 201c 2b3f
00000030: 1ea1 24bf f443 a9be 38bb 713f 58ee 46bf
00000040: 4cb1 583f f071 b9bd 68e8 273e b0b2 4a3f
00000050: d0b2 593e 1a04 57bf f68e 77bf 6685 513f

layer_stack.0.b4.1.bias f4 [24]
-0.5004066 -0.10774517 -0.47756243 0.10007894 -0.20664203 -0.5215688 0.93100524 -0.4979595
0.22372186 0.24403918 -0.5246029 -0.25703073 -0.79556036 0.3279028 0.23569095 -0.06761825
0.6765022 0.35694933 0.73245645 -0.23672962 -0.5524336 -0.5331944 0.8564732 -0.7660955
00000000: a61a 00bf 80a9 dcbd 1083 f4be 30f6 cc3d
00000010: f899 53be 8885 05bf 5c56 6e3f 8cf4 febe
00000020: 5817 653e 68e5 793e 604c 06bf 8899 83be
00000030: d8a9 4bbf e0e2 a73e f858 713e 707b 8abd
00000040: 402f 2d3f 10c2 b63e 4482 3b3f 4069 72be
00000050: 4a6c 0dbf 6e7f 08bf d441 5b3f d61e 44bf

layer_stack.3.weight f4 [128, 96]
0.02133748 0.075714216 -0.045995988 0.07425162 -0.04569491 -0.025478907 -0.0055291206 -0.059783675
0.04392463 0.020331316 -0.020533577 -0.083839126 0.056937963 -0.03119392 -0.0821913 0.047498733
-0.039949138 -0.021401152 -0.089800596 -0.008461513 0.04116112 0.058142975 0.0897899 0.04140681
0.029391542 -0.07688327 -0.09446776 -0.02910836 -0.024874903 -0.0047516227 -0.028812818 -0.058036044
0.06607711 -0.05833149 0.04825546 -0.09466229 -0.09513893 -0.025543682 0.059176013 0.10034934
0.015029572 -0.100283846 0.07501742 0.0152186155 0.0116921365 0.04946156 -0.06060852 0.026659727
0.06449287 -0.03169945 0.030517638 -0.050720446 0.0835716 -0.015287541 -0.10183998 0.09389044
0.024351105 -0.0082113 -0.0008942187 -0.05925263 0.0012429878 -0.029231839 -0.05176742 0.09000164
0.014346734 0.032121405 0.017492026 -0.046624012 0.06540516 -0.04808868 -0.088907816 0.058781147
-0.00018192083 0.08816591 -0.044748288 -0.050621286 0.092046306 -0.028871924 0.05160208 -0.08064188
-0.06296322 -0.058401737 -0.09883553 -0.093241416 -0.07867866 -0.0025088787 0.017479174 -0.002999492
0.007923603 0.04414113 -0.034630083 -0.049824473 -0.051678248 -0.04059197 -0.08584817 0.06157528
-0.051544864 0.081497476 0.0044260696 0.06218925 0.0662916 -0.09663893 0.0973949 0.0068269074
-0.019604169 -0.037465587 0.0040578023 0.037941888 -0.090406224 -0.099709146 0.07086027 -0.07949821
-0.027202077 0.085675105 -0.07202911 0.07649098 0.07871935 0.0363058 -0.019887231 -0.04574276
-0.009089619 -0.050474457 -0.005791165 -0.011206463 0.00659737 -0.016620569 0.06335315 -0.011042148
-0.046487134 -0.06799066 -0.059801877 -0.033612818 0.008898623 -0.055833228 0.09310974 -0.018876597
0.10075174 0.043866888 0.08209804 0.04645455 -0.018387213 -0.07099526 0.08895345 -0.018906824
-0.032353915 0.03890671 -0.07572536 -0.067917526 -0.057585653 -0.025023557 0.033891216 -0.010626622
-0.042312346 -0.021765195 0.08798817 -0.025933884 -0.0013534501 0.039586917 0.035622418 -0.10125645
0.08513887 -0.04157402 0.07135911 -0.04408149 -0.093681484 -0.08000386 0.065383 0.043690518
-0.099775374 -0.006044425 -0.0038136542 0.010972582 -0.049603585 0.013490573 0.044094995 0.007250458
-0.09672457 -0.07968944 -0.0107755065 0.09648514 -0.0133292675 0.030749395 -0.0542242 -0.08702362
0.0524296 -0.05020276 0.0418597 0.09239659 -0.05403228 -0.07213533 0.083718315 -0.052193034
-0.09253985 -0.0292546 0.046503484 0.05471897 -0.07301007 -0.07855751 -0.056608737 0.018692262
-0.011139728 -0.10039831 0.09846373 0.06068723 -0.038524695 0.068091124 0.09327309 0.08579719
-0.06718318 -0.028203249 -0.0065329447 0.059781194 0.044506595 -0.064760074 -0.09103008 -0.05117284
-0.07219364 -0.096577674 0.04044284 0.016537935 0.015640073 -0.08158213 0.04843703 -0.05655944
0.05647117 0.05869305 -0.07898857 0.062453166 0.0148911625 0.0620607 0.018531948 0.064350665
-0.022486366 -0.09146363 -0.07159719 0.098965615 0.010037079 -0.07321522 -0.009911522 -0.10073902
0.041556165 0.08950041 -0.020490445 -0.0140602365 0.052346945 -0.09357767 0.052014545 -0.025576137
-0.029052235 -0.05868801 -0.013362423 -0.075443536 0.009144649 -0.08124051 0.015826806 -0.00040014088
00000000: f0cb ae3c 0e10 9b3d 4a66 3cbd 3c11 983d
00000010: 962a 3bbd 24b9 d0bc a02d b5bb badf 74bd
00000020: 50ea 333d dc8d a63c 0836 a8bc d9b3 abbd
00000030: c837 693d 648a ffbc ea53 a8bd 088e 423d
00000040: b5a1 23bd 7851 afbc 60e9 b7bd 28a2 0abc
00000050: 9098 283d 5427 6e3d c4e3 b73d 309a 293d
00000060: 88c6 f03c fa74 9dbd 5078 c1bd a874 eebc
00000070: 74c6 cbbc 80b3 9bbb dc08 ecbc 34b7 6dbd
00000080: 7053 873d 00ed 6ebd 84a7 453d 4dde c1bd
00000090: 33d8 c2bd fc40 d1bc 8c62 723d f483 cd3d
000000a0: 983e 763c 9e61 cdbd bca2 993d 8057 793c
000000b0: 6090 3f3c 3498 4a3d a440 78bd 8065 da3c
000000c0: d614 843d 48d7 01bd 2000 fa3c 3ec0 4fbd
000000d0: 9627 ab3d 9878 7abc 7b91 d0bd a249 c03d
000000e0: f87b c73c b088 06bc 006a 6aba e3b2 72bd
000000f0: c0eb a23a 9c77 efbc 130a 54bd c852 b83d
00000100: 900e 6b3c bc91 033d 704b 8f3c d2f8 3ebd
00000110: 24f3 853d a3f8 44bd 4d15 b6bd 80c4 703d
00000120: 00c2 3eb9 5490 b43d fb49 37bd 4458 4fbd
00000130: c682 bc3d d084 ecbc b45c 533d 9227 a5bd
00000140: dcf2 80bd a936 6fbd 486a cabd 5bf5 bebd
00000150: 4722 a1bd 006c 24bb 7c30 8f3c 2093 44bb
00000160: 00d2 013c 54cd 343d 46d8 0dbd bf14 4cbd
00000170: 92ac 53bd c443 26bd 2ad1 afbd 5c36 7c3d
00000180: b520 53bd 26e8 a63d 9008 913b 28ba 7e3d
00000190: e4c3 873d a2ea c5bd fa76 c73d 40b4 df3b
000001a0: ec98 a0bc 8475 19bd 50f7 843b f468 1b3d
000001b0: e626 b9bd 4f34 ccbd 301f 913d f5cf a2bd
000001c0: e4d6 debc 6e76 af3d ff83 93bd 4ea7 9c3d
000001d0: 9c37 a13d 64b5 143d 8cea a2bc c35c 3bbd
000001e0: a0ec 14bc 4ebe 4ebd d0c3 bdbb 509b 37bc
000001f0: c02e d83b dc27 88bc 4cbf 813d 20ea 34bc
00000200: 4b69 3ebd b03e 8bbd d0f2 74bd 98ad 09bd
00000210: 88cb 113c 62b1 64bd 52b0 be3d 18a3 9abc
00000220: ee56 ce3d c4ad 333d 0423 a83d 2047 3e3d
00000230: c8a0 96bc f665 91bd 3a2d b63d 7ce2 9abc
00000240: 8a85 04bd a45c 1f3d e615 9bbd 5818 8bbd
00000250: efde 6bbd 34fe ccbc 84d1 0a3d 481b 2ebc
00000260: b64f 2dbd ec4c b2bc 2433 b43d 4c73 d4bc
00000270: 4066 b1ba e425 223d d0e8 113d 8b5f cfbd
00000280: 4a5d ae3d 8549 2abd ba24 923d cb8e 34bd
00000290: 14dc bfbd 10d9 a3bd 86e7 853d d4f4 323d
000002a0: 0857 ccbd 5010 c6bb 80ee 79bb 58c6 333c
000002b0: 212d 4bbd 9007 5d3c f49c 343d 4095 ed3b
000002c0: 8817 c6bd 3834 a3bd c08b 30bc 009a c53d
000002d0: 0063 5abc 28e6 fb3c 321a 5ebd 7139 b2bd
000002e0: 6cc0 563d 69a1 4dbd 1475 2b3d 6c3a bd3d
000002f0: f450 5dbd b0bb 93bd 8274 ab3d 5dc8 55bd
00000300: 8885 bdbd 58a7 efbc 707a 3e3d 0021 603d
00000310: 4e86 95bd c3e2 a0bd 90de 67bd 8420 993c
00000320: 6883 36bc a19d cdbd 5aa7 c93d 2c93 783d
00000330: 12cc 1dbd 5c73 8b3d f605 bf3d 70b6 af3d
00000340: 5697 89bd 800a e7bc 5012 d6bb 20dd 743d
00000350: 8c4c 363d eea0 84bd fb6d babd 9d9a 51bd
00000360: 42da 93bd 84ca c5bd 64a7 253d 907a 873c
00000370: 9c1f 803c 8814 a7bd e865 463d dfaa 67bd
00000380: 504e 673d 2068 703d c2c4 a1bd e4ce 7f3d
00000390: 10fa 733c 5c33 7e3d 50d0 973c 48ca 833d
000003a0: 5435 b8bc 4951 bbbd 8ca1 92bd 7cae ca3d
000003b0: 9072 243c dcf1 95bd f063 22bc 4250 cebd
000003c0: cc36 2a3d fe4b b73d 94db a7bc e85c 66bc
000003d0: c069 563d a6a5 bfbd 340d 553d 0c85 d1bc
000003e0: f4fe edbc d762 70bd 10ee 5abc 2482 9abd
000003f0: 70d3 153c 6d61 a6bd 38a7 813c 00ca d1b9

layer_stack.3.bias f4 [128]
0.10103774 -0.0991122 0.0900947 0.09493956 -0.052782647 -0.017714076 0.049178705 0.0530051
-0.0077460185 0.010867134 -0.07490199 -0.006639056 0.038065717 -0.021357179 -0.037737988 -0.016050495
0.07372925 0.101241484 0.07052301 0.09147464 -0.0020058006 -0.100990854 0.0785076 0.08008507
-0.07134487 0.096100405 -0.014897816 -0.0024775863 -0.07591584 0.04206577 -0.03664331 0.09878613
-0.097306 -0.007733114 -0.057865355 0.066606745 0.09747742 -0.07565099 -0.007223107 -0.05501297
0.018743277 -0.0031497255 0.08528133 0.020478494 0.06362578 0.062061027 -0.0030942261 -0.019479208
-0.051815927 0.017767675 0.08708742 0.025098935 0.10070464 -0.0379982 0.024768814 -0.037373096
0.03722982 0.036996126 0.057700545 -0.067123935 0.052398622 -0.04024001 -0.054661 0.04848969
-0.04336758 0.05055052 0.08311571 -0.0063208416 -0.07672426 -0.08838337 0.031930044 -0.047221776
-0.06666158 -0.051005647 0.0052231476 0.008838825 0.02038189 0.038775414 0.053221464 0.023303151
0.08867635 -0.029672652 0.082017094 -0.030459806 -0.040270682 -0.03253665 0.012286872 0.06752512
0.01566463 0.06265721 0.03108403 0.006524585 0.0024170205 0.002418436 -0.08743365 -0.08826443
-0.09110045 0.0005828738 -0.0057241246 -0.07566388 -0.06523664 0.08844416 0.04207383 0.077071175
0.09849009 -0.015204661 -0.00531514 0.026360348 -0.045734707 0.0883992 0.07524331 0.007851638
0.03671071 0.051938996 -0.0727793 -0.010774069 0.02100072 0.089386225 -0.091984496 -0.013641976
0.081263855 0.002955988 0.026155785 0.0737499 -0.039549462 -0.030060127 0.083576635 0.0417881
00000000: e0ec ce3d 56fb cabd 9283 b83d ac6f c23d
00000010: 9e32 58bd 1c1d 91bc 9c6f 493d e01b 593d
00000020: 50d2 fdbb 100c 323c 3766 99bd 708c d9bb
00000030: ccea 1b3d 40f5 aebc 2693 1abd 547c 83bc
00000040: 5cff 963d b257 cf3d 5e6e 903d 0e57 bb3d
00000050: c073 03bb 4bd4 cebd 98c8 a03d a403 a43d
00000060: 421d 92bd 4ad0 c43d f815 74bc 005f 22bb
00000070: c479 9bbd 284d 2c3d 4c17 16bd 6250 ca3d
00000080: 5e48 c7bd 1066 fdbb 3904 6dbd 1e69 883d
00000090: 3ea2 c73d e8ee 9abd d0af ecbb 4855 61bd
000000a0: 808b 993c a06b 4ebb faa7 ae3d 84c2 a73c
000000b0: 3c4e 823d b433 7e3d 80c8 4abb dc92 9fbc
000000c0: f03c 54bd 848d 913c e45a b23d 489c cd3c
000000d0: 3c3e ce3d 00a4 1bbd f8e7 ca3c 8814 19bd
000000e0: 4c7e 183d 4089 173d 6857 6c3d 4678 89bd
000000f0: f09f 563d b5d2 24bd 36e4 5fbd 209d 463d
00000100: 34a2 31bd 100e 4f3d 9238 aa3d 101f cfbb
00000110: 9c21 9dbd 5702 b5bd 14c9 023d 9f6b 41bd
00000120: de85 88bd 4ceb 50bd f026 ab3b b8d0 103c
00000130: ecf7 a63c f8d2 1e3d c0fe 593d 40e6 be3c
00000140: f29b b53d 1014 f3bc 94f8 a73d d886 f9bc
00000150: dff2 24bd 2645 05bd e04e 493c 9c4a 8a3d
00000160: 1c53 803c 6c52 803d f0a3 fe3c 30cc d53b
00000170: e066 1e3b a07e 1e3b 6a10 b3bd fbc3 b4bd
00000180: df92 babd 00cc 183a 7091 bbbb aaf5 9abd
00000190: ca9a 85bd 3622 b53d 9c55 2c3d 7ed7 9d3d
000001a0: 2cb5 c93d f81c 79bc a02a aebb a8f1 d73c
000001b0: 5154 3bbd a40a b53d 2a19 9a3d 28a4 003c
000001c0: f85d 163d fcbd 543d 500d 95bd b885 30bc
000001d0: b409 ac3c 2010 b73d 5e62 bcbd 9882 5fbc
000001e0: aa6d a63d 40b9 413b a844 d63c 300a 973d
000001f0: 9efe 21bd a840 f6bc 3a2a ab3d 002a 2b3d
