lotsaconvs/nets/googlenet.pt (torch, 768143 bytes, 26 tensors)

layer_stack.0.b1.0.weight f4 [12, 1, 1, 1]
0	0xbf5aaa9e	-0.8541659
1	0xbf07b742	-0.53014004
2	0x3b1425d8	0.0022605564
3	0x3dc0c400	0.09412384
4	0x3f410901	0.75404364
5	0xbf09f4a6	-0.5388893
6	0x3d4ed29b	0.050493818
7	0x3f3a899d	0.7286623
8	0x3ecfba89	0.40572003
9	0x3ed32ff0	0.4124751
10	0xbefc6b74	-0.4930073
11	0xbef01068	-0.46887517

layer_stack.0.b1.0.bias f4 [12]
0	0x3f35c3cf	0.71001905
1	0xbedc97a4	-0.43084443
2	0xbf6b034f	-0.91801924
3	0xbf1f90cc	-0.6233032
4	0xbee5ce0a	-0.44883758
5	0x3ed647d5	0.41851678
6	0x3e95cfc8	0.29260087
7	0x3cc047f5	0.023471812
8	0xbf557de6	-0.8339523
9	0x3f289362	0.6584989
10	0xbf63afb2	-0.88939965
11	0xbebf5878	-0.37372184

layer_stack.0.b2.0.weight f4 [12, 1, 1, 1]
0	0x3f230893	0.6368496
1	0x3f612b1d	0.8795641
2	0xbf5ed422	-0.8704244
3	0x3ed64d57	0.4185588
4	0x3f7ec4e4	0.9951918
5	0xbe886424	-0.266389
6	0x3f2554f1	0.64582735
7	0xbe979e90	-0.2961316
8	0x3f8600dd	1.0469013
9	0xbe98ef8c	-0.2987026
10	0x3f863125	1.0483748
11	0xbf7cf294	-0.98807645

layer_stack.0.b2.0.bias f4 [12]
0	0xbeb12afb	-0.34603104
1	0xbdc2e516	-0.09516351
2	0x3e02a1ae	0.12756988
3	0x3f0b49cd	0.54409486
4	0xbf1a8b83	-0.6036913
5	0xbf5dd8de	-0.8665904
6	0x3e9198e6	0.28436965
7	0xbda28980	-0.07936382
8	0x3df4328e	0.11923705
9	0x3d0985ae	0.033574753
10	0x3f6d5ae6	0.92716825
11	0x3e9f138b	0.31069598

layer_stack.0.b2.2.weight f4 [12, 12, 3, 3]
0	0xbd6200ca	-0.055176534
1	0xbd01e808	-0.031715423
2	0xbdc89d8a	-0.09795673
3	0xbd5c172f	-0.053733047
4	0x3c384f93	0.011249441
5	0x3da604a7	0.08106356
6	0x3c3c7afb	0.01150393
7	0xbd7db9bf	-0.06194472
8	0x3db66fa9	0.08908016
9	0xbd0ed763	-0.034873378
10	0xbdac2c0a	-0.08406837
11	0xba7fcc2d	-0.00097579026
12	0xbd728278	-0.059206456
13	0x3be8f9d0	0.007109858
14	0x3d8ca0f0	0.06866634
15	0xbd8756d7	-0.0660836
16	0xbd9d37e1	-0.07676674
17	0x3d8f8a74	0.0700883
18	0xbdb4a5fa	-0.0882072
19	0x3dac8cec	0.08425316
20	0xbc0dea3c	-0.008661803
21	0xbcca4edf	-0.024695812
22	0xbd7f37d5	-0.062309105
23	0xbcca8e01	-0.024725916
24	0xbd25fdaa	-0.040525116
25	0xbcbd9129	-0.023140507
26	0x3d6dc66c	0.058050558
27	0x3cbdb2e0	0.023156583
28	0x3da59bb9	0.08086342
29	0xbcc56bbd	-0.024099225
30	0xbc784734	-0.015153695
31	0xbdb3287e	-0.08747958
32	0xbc47025f	-0.012146561
33	0x3db9827f	0.09058093
34	0xbbee1c2d	-0.0072665424
35	0x3d219ced	0.039456297
36	0xbd866b48	-0.06563431
37	0x3cb5e948	0.022205964
38	0x3c1dcb87	0.009631044
39	0x3c1f3105	0.009716277
40	0x3d9cfe06	0.076656386
41	0x3da718d2	0.08159031
42	0xbd9e70db	-0.07736369
43	0xbd771a74	-0.060327962
44	0x3d440fef	0.047866758
45	0x3cd5cee0	0.026099622
46	0xbd2336cb	-0.039847177
47	0xbd671eb9	-0.056425784
48	0xbd5a724b	-0.053331655
49	0xbda101c2	-0.078616634
50	0x3d4c72c2	0.04991413
51	0x3db5bb05	0.08873562
52	0xbdc0f2c4	-0.09421304
53	0x3cc9ba64	0.02462501
54	0x3cdae54b	0.026720664
55	0xbd2b03e5	-0.04175176
56	0x3bac12d8	0.00525127
57	0x3d9d3b76	0.07677357
58	0x3ca2c7f4	0.019870736
59	0xbca70c94	-0.02039174
60	0x3d2ae176	0.041718923
61	0x3bf98929	0.0076152277
62	0xbd9ad4bf	-0.07560109
63	0x3db3eb1b	0.08785077
64	0xbd3f87de	-0.046760432
65	0xbd40c3d0	-0.04706174
66	0x3ab49780	0.0013778061
67	0xbdc2843a	-0.094978765
68	0xbdafbcc0	-0.08580923
69	0xbd43dc9c	-0.04781781
70	0x3d641b9a	0.055690385
71	0xbd7905a8	-0.06079641
72	0x3d4442b1	0.047915164
73	0x3c3e4390	0.011612788
74	0x3c8c5e4c	0.017134808
75	0xbcf093fe	-0.029367443
76	0xbdb06633	-0.08613243
77	0xbdd71a20	-0.1050303
78	0x3d86ca55	0.065815605
79	0xbd882801	-0.06648255
80	0xbdc31a05	-0.09526447
81	0x3c9fbb44	0.019498475
82	0xbdaa07cc	-0.083022684
83	0xbd5d05bb	-0.053960543
84	0x3d9e0637	0.07716029
85	0x3d84824e	0.06470166
86	0xbdb4ecc3	-0.08834221
87	0x3d259a86	0.04043057
88	0x3dc3c79d	0.095595576
89	0xbcd208f3	-0.025639033
90	0x3c6760b7	0.01412218
91	0x3d69856e	0.057012014
92	0xbd016470	-0.031589925
93	0xbd8a4c13	-0.06752791
94	0xbb3a2200	-0.0028401613
95	0xbd9b8bae	-0.07595001
96	0xbc3cc9fb	-0.011522765
97	0xbcb48b35	-0.022039035
98	0x3c1fadb3	0.009746003
99	0xbd728fe6	-0.059219263
100	0x3d6680e7	0.056275275
101	0xbd2d1477	-0.042255845
102	0xbd7e0abb	-0.062021952
103	0xbd2f0b71	-0.04273552
104	0x3cb5fd8d	0.022215629
105	0x3d46e94c	0.048562333
106	0x3dc0f966	0.09422569
107	0x3d0784a7	0.03308549
108	0xbe167bf4	-0.14695722
109	0xbd57c461	-0.052677516
110	0xbda299c9	-0.079394884
111	0x3e08964f	0.13338588
112	0x3def8f96	0.11697309
113	0x3df79f51	0.12090934
114	0x3d44fc27	0.048092034
115	0x3db943dd	0.09046147
116	0x3d5da1d0	0.054109395
117	0xbe40a42f	-0.18812631
118	0xbe12bd31	-0.14329983
119	0xbe3ae508	-0.18251431
120	0x3e1f6145	0.15564449
121	0x3d6f1e91	0.05837876
122	0x3ce489df	0.027897773
123	0x3da5a88a	0.08088787
124	0xbcad031a	-0.021119643
125	0xbb06924a	-0.0020533972
126	0xbd6789f6	-0.056528054
127	0xbd4629c2	-0.048379667
128	0xbd467d21	-0.048459176
129	0xbdc23c06	-0.09484105
130	0xbd0a3c55	-0.033748943
131	0xbd134593	-0.035955023
132	0x3d0ea2e1	0.034823302
133	0xbda9a021	-0.08282495
134	0xbd40f7b4	-0.047111228
135	0x3d3a1168	0.045426756
136	0xbce1a351	-0.027543696
137	0xbd39b3c5	-0.045337457
138	0x3dec19af	0.11528336
139	0x3cf4f930	0.029903978
140	0x3d11791b	0.035515886
141	0xbd639529	-0.055562172
142	0xbd69e320	-0.05710137
143	0x3c9d8754	0.019229569
144	0xbd46d4b6	-0.0485427
145	0xbdb30e19	-0.08742923
146	0xbcfcdd2e	-0.030867185
147	0x3d391201	0.045183185
148	0x3d69b556	0.0570577
149	0x3cc8bb6c	0.024503432
150	0x3d902d23	0.07039859
151	0xbc51ec09	-0.012812623
152	0x3df4d02e	0.119537696
153	0x3da98255	0.08276812
154	0x3c6c6548	0.014428444
155	0x3db344fb	0.08753391
156	0xbdb30bdd	-0.08742497
157	0x3cd800d0	0.026367575
158	0x3d231d62	0.039822944
159	0x3d1c2aea	0.038126864
160	0xbd80d991	-0.062914975
161	0x3d0274ba	0.0318496
162	0xbd96052e	-0.07325207
163	0xbe388e3a	-0.18023005
164	0xbdc6c7aa	-0.09706052
165	0x3da6dba1	0.0814736
166	0x3dfb06fb	0.12257191
167	0x3d8b7136	0.06808703
168	0x3d056efd	0.03257655
169	0x3a96cee1	0.0011505747
170	0xbc351657	-0.0110526895
171	0x3d91ed07	0.071252875
172	0x3d09da2e	0.033655338
173	0xba8b4800	-0.0010626316
174	0xbdc4a75a	-0.09602232
175	0xbda961c2	-0.08270599
176	0xbdb3caaa	-0.087788895
177	0x3d06deea	0.03292743
178	0x3b4b3b60	0.0031010732
179	0x3c5d9868	0.013525106
180	0xbe09f4bb	-0.13472264
181	0xbdddbf81	-0.10827542
182	0xbdedd0d0	-0.116120934
183	0x3e13137b	0.143629
184	0x3de0da66	0.10979156
185	0x3e03380b	0.12814347
186	0x3d2659e0	0.040613055
187	0x3dd7ac7e	0.10530947
188	0x3d2befcd	0.04197674
189	0x3cd9e13e	0.026596662
190	0x3d3a3151	0.045457188
191	0x3abaa7cf	0.0014240685
192	0x3d54cfaa	0.051955856
193	0xba77628a	-0.0009436986
194	0x3ce54e82	0.027991537
195	0xbc88ce80	-0.01670003
196	0xbceb89d5	-0.028752247
197	0x3d1398d3	0.036034416
198	0xbdfd5750	-0.12370169
199	0xbe01c22e	-0.1267173
200	0xbe3892f0	-0.18024802
201	0x3cadc0bf	0.021210073
202	0x3e1e123f	0.15436648
203	0x3dcde534	0.10053483
204	0xbc91927b	-0.017770043
205	0x3ce45a27	0.02787502
206	0x3d89b4c6	0.06723933
207	0x3d14c30e	0.03631883
208	0xbcc8347a	-0.024439085
209	0x3d823024	0.06356838
210	0xbda181a6	-0.078860566
211	0xbc8b9a58	-0.01704137
212	0xbdb16cf3	-0.086633585
213	0xbd7c3e09	-0.0615826
214	0x3c2f334a	0.010693381
215	0x3d70acc8	0.058758527
216	0x3df7afd2	0.12094082
217	0xbd3dbf2d	-0.046324898
218	0x3d2c7128	0.0421001
219	0x3dd2532c	0.1026977
220	0xbd87b75d	-0.06626771
221	0xbc9b88f0	-0.018986195
222	0xbc99b14c	-0.0187613
223	0xbc92f096	-0.017936986
224	0xbdb22f07	-0.08700376
225	0x3d9ef70e	0.07761966
226	0xbdd5b46c	-0.10434803
227	0x3c985970	0.018597335
228	0x3d8452f0	0.064611316
229	0xbcdd5cf2	-0.027021859
230	0x3d562e90	0.0522905
231	0x3d89c72c	0.06727442
232	0x3d171a57	0.036890354
233	0x3cb89f32	0.022536848
234	0x3d3e422b	0.04644982
235	0x3d789523	0.060689103
236	0xbc8ede1e	-0.017439898
237	0xbd58cffa	-0.052932717
238	0xbdb81341	-0.089880474
239	0xbd9196c8	-0.07108837
240	0xbd80802b	-0.06274446
241	0x3dc1814f	0.09448492
242	0x3d940373	0.072272204
243	0xbce617a5	-0.028087446
244	0x3c0bc18d	0.008530033
245	0xbd987f51	-0.07446159
246	0x3db8b1c4	0.09018281
247	0xbd55e01a	-0.052215673
248	0xbda75e62	-0.08172299
249	0x3dda3123	0.10653903
250	0xbdbb61ef	-0.09149539
251	0xbd41e7eb	-0.047340315
252	0x3dbfc4bf	0.09363698
253	0xbccb63b4	-0.024827816
254	0xbd8c6e3a	-0.068569615
255	0x3d5db65a	0.054128982

layer_stack.0.b2.2.bias f4 [12]
0	0x3d560a56	0.05225595
1	0xbd25f13f	-0.040513273
2	0xbca172c4	-0.019708045
3	0x3dba7eb6	0.091061994
4	0xbaa5ffcd	-0.0012664736
5	0x3d2e96ba	0.042624213
6	0x3c9347ce	0.017978575
7	0x3d51b3dd	0.05119692
8	0x3c1d70c8	0.009609409
9	0x3a976d99	0.0011553048
10	0x3c425359	0.011860692
11	0x3db0e350	0.086371064

layer_stack.0.b3.0.weight f4 [12, 1, 1, 1]
0	0x3f743c0f	0.9540414
1	0xbf683070	-0.9069891
2	0xbeb7eb46	-0.35921687
3	0x3f93adc2	1.1537402
4	0xbe62e5c8	-0.22157967
5	0x3c4c32b3	0.0124632595
6	0xbe77e7a0	-0.24209452
7	0xbf121136	-0.5705751
8	0xbe5b7d98	-0.21434629
9	0x3f83b9e7	1.0291108
10	0xbf21a422	-0.6314107
11	0x3f918a6c	1.1370368

layer_stack.0.b3.0.bias f4 [12]
0	0x3ef3e7e4	0.47637856
1	0x3ecd086b	0.40045485
2	0x3f55b205	0.8347476
3	0x3ef80f35	0.48449102
4	0x3d23ae9b	0.03996144
5	0x3f1ac524	0.6045706
6	0xbf284986	-0.6573719
7	0xbc0c7000	-0.008571625
8	0xbf0863ce	-0.5327729
9	0x3e98e826	0.29864615
10	0x3d1fafa5	0.038985867
11	0x3f5669a6	0.83754957

layer_stack.0.b3.2.weight f4 [12, 12, 5, 5]
0	0xbdf7adff	-0.12093734
1	0x3dd5bb58	0.104361236
2	0x3d9a5b9a	0.07537003
3	0xbd48a1f2	-0.048982568
4	0x398fdb3c	0.00027438428
5	0xbdf6dc5e	-0.120537505
6	0x3dcf3a86	0.10118584
7	0x3d9edc63	0.07756879
8	0xbd4c597c	-0.049890026
9	0xbaaa298e	-0.0012982355
10	0xbdf54b02	-0.11977197
11	0x3d8cafa4	0.06869438
12	0x3d4f05b1	0.050542537
13	0xbd70ed94	-0.058820322
14	0xbd935de4	-0.071956426
15	0xbdab2efb	-0.0835857
16	0x3db2b8a7	0.08726626
17	0x3d9e23c4	0.077216655
18	0xbd455e32	-0.048185535
19	0xbd850e24	-0.06496838
20	0xbdffe645	-0.12495092
21	0x3cddf545	0.027094493
22	0x3dfeafd8	0.12435883
23	0xbcc3aa38	-0.023884878
24	0xbd59fd5d	-0.05322014
25	0x3d7673c6	0.060169004
26	0x3d61dd5c	0.055142745
27	0x3c4c0282	0.01245177
28	0xbc2c731d	-0.010525492
29	0xbd023a4c	-0.031793877
30	0xbd11c8d3	-0.03559191
31	0xbd03aa6c	-0.03214495
32	0x3be96e99	0.00712378
33	0xbc648a26	-0.013948953
34	0x3a4b22cc	0.00077490206
35	0xbd12ead8	-0.035868496
36	0xbcf885b3	-0.03033719
37	0x3c48043e	0.012208043
38	0x3d11ffde	0.035644405
39	0x3d05884a	0.03260068
40	0x3d7a4ba8	0.061107308
41	0x3cd79417	0.026315732
42	0x3d6b0467	0.057377245
43	0x3d6f9ade	0.058497302
44	0xbc9e5ee4	-0.019332357
45	0x3ca816d0	0.02051869
46	0x3c78cd2d	0.0151856365
47	0x3c659c56	0.014014324
48	0xbcb7be00	-0.022429466
49	0x3d34beb4	0.04412718
50	0x3d199e31	0.03750438
51	0x3d688283	0.05676509
52	0x3d2b1b3c	0.04177402
53	0x3d1504c9	0.036381517
54	0x3d274b49	0.040843282
55	0xbd09be57	-0.033628788
56	0x3d3c1f62	0.045928366
57	0x3d6c5f68	0.057708174
58	0x394ce5c5	0.00019540552
59	0x3b60e590	0.0034316517
60	0xbb3271b4	-0.0027228417
61	0x3d735be0	0.05941379
62	0xbd02d953	-0.031945538
63	0x3d4e0994	0.050302103
64	0xbd124e46	-0.03571918
65	0xbd1a341a	-0.037647344
66	0x3d2c56d4	0.042074993
67	0x3d8455bc	0.06461665
68	0x3d2866b6	0.041113578
69	0xbd492b69	-0.049113665
70	0xbc6ae315	-0.014336367
71	0x3b8738b8	0.0041266344
72	0x3cb07cea	0.021543939
73	0xbcffb1c3	-0.031212693
74	0x3cbe47b6	0.023227554
75	0xbe18eef2	-0.149349
76	0x3dc5f5a1	0.096659906
77	0x3ddd4c48	0.10805565
78	0xbde4c884	-0.11171058
79	0xbd15c3c0	-0.036563635
80	0xbe0fcc5e	-0.14042804
81	0x3d9e46a5	0.07728318
82	0x3d53747e	0.051624767
83	0xbdc2a989	-0.095049925
84	0xbcd9aba8	-0.02657111
85	0xbe38f481	-0.18062021
86	0x3e04edea	0.12981382
87	0x3e38de18	0.18053472
88	0xbd0f9e57	-0.035063114
89	0xbd5b52cc	-0.053545758
90	0xbe1d4468	-0.15358126
91	0x3d916c5b	0.07100745
92	0x3d626a8d	0.055277396
93	0xbd8c29f4	-0.068439394
94	0x3b94237e	0.0045208326
95	0xbd540e43	-0.051771414
96	0x3ddab181	0.106783874
97	0x3e0b0ccb	0.13579099
98	0xbd99b7cc	-0.075057596
99	0xbd359d42	-0.044339426
100	0x3d0d5ad0	0.034510434
101	0x3d547fb5	0.051879603
102	0xbd0d6e48	-0.034529
103	0xbd631b48	-0.05544594
104	0x3d318835	0.043342788
105	0xbccf7bef	-0.02532765
106	0x3ca19a80	0.019726992
107	0xbd1b09a5	-0.037850995
108	0x3d3a727b	0.045519333
109	0x3b8512f7	0.0040610987
110	0xbd63bd1f	-0.05560028
111	0x3d11142d	0.03541963
112	0x3d35165b	0.044210773
113	0x3d342570	0.043981016
114	0x3a81a6b4	0.00098916
115	0xbd10ba36	-0.035333835
116	0x3d444f5a	0.047927238
117	0xbd065dc2	-0.03280426
118	0x3ce5c0e8	0.028046086
119	0xbd5747f5	-0.052558858
120	0xbb7c99d1	-0.003854383
121	0xbc844e9c	-0.016150765
122	0xbbefda45	-0.007319721
123	0xbd007daf	-0.03136986
124	0xbd69f9bd	-0.057122935
125	0x3cf99067	0.030464364
126	0xbd3a2b9a	-0.045451738
127	0xbcf9d8d4	-0.0304989
128	0x3ccdc85d	0.025119955
129	0x3d4c0d73	0.049817514
130	0x3c9c6ba4	0.019094296
131	0x3c549cbc	0.0129768215
132	0x3d003474	0.031300023
133	0xbd44d6ad	-0.048056293
134	0x3d2b533b	0.04182742
135	0x3d5950c8	0.053055555
136	0x3ccdca2d	0.025120819
137	0x3c14fd0f	0.009093537
138	0xbcc8cafe	-0.024510857
139	0x3cf59fd6	0.029983442
140	0x3d304a3b	0.04303954
141	0x3c8396fb	0.016063204
142	0x3cda7cbf	0.026670812
143	0xbc23b86a	-0.009992698
144	0x3d797658	0.060903877
145	0x3cd3eefb	0.02587079
146	0xbd0a3308	-0.033740073
147	0x3bccef4d	0.006254113
148	0x3c94ff09	0.018188016
149	0x3d696ecb	0.056990426
150	0xbcec65d3	-0.028857147
151	0xbd1ffc00	-0.039058685
152	0x3baef8a0	0.005339697
153	0xbcaad9ec	-0.020855866
154	0xbd12f221	-0.035875443
155	0x3d258ff2	0.04042048
156	0x3d1876be	0.037222616
157	0x3d3bca98	0.045847505
158	0x3d09aada	0.033610202
159	0xbd68a921	-0.05680192
160	0xbc00e780	-0.007867694
161	0xbcd273d4	-0.025689997
162	0xbd282206	-0.041048072
163	0x3d58ebd4	0.05295928
164	0xbd05eb74	-0.03269525
165	0x3c8d4248	0.01724352
166	0x3d0abc86	0.033871196
167	0x3be1d100	0.00689137
168	0xba118dc0	-0.00055524334
169	0x3cd23bbc	0.02566325
170	0xbc07d40c	-0.008290302
171	0x3d60cffc	0.05488585
172	0x3d3d7d7e	0.046262257
173	0xbce640e1	-0.028107109
174	0x3aaa7640	0.0013005212
175	0xbc9135f0	-0.017725915
176	0xbd6a6f01	-0.057234768
177	0xbd0a0f38	-0.03370592
178	0x3bf2b000	0.0074062347
179	0x3d256afe	0.04038524
180	0x3d01b146	0.0316632
181	0x3b354fd0	0.002766598
182	0xbc19dadc	-0.009390559
183	0xbc03b6b4	-0.008039165
184	0xbd3d547d	-0.046223152
185	0xbc71f850	-0.014768675
186	0xbd025f1e	-0.031828992
187	0x3cac7c74	0.021055438
188	0xbc97b1dc	-0.018517427
189	0xbcb106aa	-0.021609623
190	0xbb473560	-0.0030396804
191	0xbd30cc40	-0.043163538
192	0x3c86bfc4	0.016448863
193	0x3cdb033c	0.02673494
194	0xbd4afe76	-0.04955908
195	0x3d30ac08	0.04313281
196	0x3ce3b380	0.027795553
197	0x3d3019ae	0.04299324
198	0xbd155470	-0.03645748
199	0xbce9b93b	-0.028530708
200	0xbad83140	-0.001649417
201	0xbd4defae	-0.050277404
202	0x3b241360	0.0025035962
203	0x3d564ea2	0.052321084
204	0xbca220ee	-0.019791093
205	0x3d31057e	0.04321813
206	0xbd309fb3	-0.04312105
207	0x3d627328	0.055285603
208	0xbc2dce48	-0.010608263
209	0x3cc2d5f4	0.023783661
210	0x3c081578	0.0083059
211	0x3c8f3784	0.017482527
212	0x3d5738d2	0.052544422
213	0x3d56fa76	0.052484952
214	0x3cec3e38	0.028838262
215	0xbc4b7b7c	-0.012419578
216	0xbcfe00b5	-0.031006197
217	0xb90b0300	-0.0001325719
218	0x3c821e94	0.015883721
219	0xba67ba80	-0.00088397413
220	0x3d536cc8	0.051617414
221	0xbd4f1f3e	-0.050566904
222	0x3d680610	0.056646407
223	0x3c126e78	0.008937471
224	0xbba649f0	-0.005074732
225	0xbe110c63	-0.14164881
226	0x3d3b86a2	0.045782693
227	0x3e0a75bb	0.13521473
228	0xbc383c53	-0.011244851
229	0x3c7c17c2	0.015386524
230	0xbe25e753	-0.16201524
231	0x3ddbc639	0.10731167
232	0x3cc98a84	0.024602182
233	0xbc88baff	-0.01669073
234	0xbd45854f	-0.048222836
235	0xbe17c6ee	-0.1482198
236	0x3dc17962	0.0944698
237	0x3e11bbf4	0.14231855
238	0xbd8ce542	-0.06879665
239	0xbdb92dd1	-0.09041942
240	0xbdd2b9df	-0.10289358
241	0x3dbe40e7	0.09289723
242	0x3d601628	0.05470863
243	0xba95632e	-0.0011397356
244	0xbdb3da51	-0.08781875
245	0xbdafcefa	-0.085843995
246	0x3d1e349c	0.03862439
247	0x3dc32375	0.09528247
248	0xbda79ff1	-0.08184803
249	0x3c31fae7	0.010863042
250	0xbb0f060e	-0.0021823677
251	0x3d236434	0.039890483
252	0x3d0bcaeb	0.034129065
253	0x3ca274de	0.019831117
254	0xbbba9b97	-0.0056948173
255	0x3d6ccac7	0.05781057

layer_stack.0.b3.2.bias f4 [12]
0	0xbd487d94	-0.048947886
1	0xbd296a71	-0.041361276
2	0xbc95c62e	-0.018282976
3	0x3cd17372	0.025567744
4	0x3c17d0d3	0.009266096
5	0x3cd7eba9	0.026357489
6	0x3ce959d3	0.028485214
7	0x3d4c31aa	0.04985205
8	0x3ba3491f	0.004983082
9	0xbcbfd957	-0.023419065
10	0xbc9ec9e6	-0.019383382
11	0xbc2b9003	-0.010471347

layer_stack.0.b4.1.weight f4 [12, 1, 1, 1]
0	0x3e889e9e	0.26683515
1	0xbf4af16a	-0.7927462
2	0xbf18b45e	-0.5965022
3	0x3dba1d00	0.090875626
4	0xbe30a0d8	-0.17248857
5	0xbf5ea85c	-0.86975646
6	0xbd3cf835	-0.046135146
7	0x3e1b3d60	0.15160131
8	0xbf6b308c	-0.9187095
9	0x3e5210cf	0.20514224
10	0xbe7207c3	-0.23635773
11	0xbe327330	-0.17426753

layer_stack.0.b4.1.bias f4 [12]
0	0xbdcdc7b2	-0.100478545
1	0x3f781c52	0.96918213
2	0xbf3f1f9e	-0.7465762
3	0x3f113531	0.5672179
4	0x3f2cf4f8	0.6756129
5	0x3e32fdce	0.17479631
6	0x3e0622a9	0.1309916
7	0x3f1ee0dd	0.62061864
8	0x3f344b9b	0.70427865
9	0xbe0186e6	-0.12649116
10	0x3f818ae9	1.0120517
11	0xbec57c08	-0.3857119

layer_stack.1.b1.0.weight f4 [64, 48, 1, 1]
0	0xbdd36408	-0.10321814
1	0xbd51595a	-0.051110603
2	0xbd7ad9be	-0.06124281
3	0xbdf64025	-0.12023953
4	0xbbd1d9aa	-0.0064041214
5	0xbda1c16b	-0.0789822
6	0xbc06b29d	-0.008221296
7	0x3d48e7df	0.049049255
8	0xbd2550ac	-0.040360138
9	0x3d66c349	0.056338582
10	0x3d9bbb4e	0.07604085
11	0xbc844408	-0.016145721
12	0x3e02fa61	0.12790824
13	0xbda0eece	-0.078580484
14	0xb9a95c45	-0.00032302938
15	0xbdfda8bc	-0.12385699
16	0xbe094ca4	-0.13408142
17	0x3dc8fa74	0.09813395
18	0xba01f626	-0.00049576384
19	0x3e04a260	0.12952566
20	0x3d16130a	0.03663925
21	0x3e04abcb	0.12956159
22	0xbd530cc2	-0.05152584
23	0x3e044509	0.1291696
24	0x3dd29b0a	0.102834776
25	0x3d906129	0.07049782
26	0x3d15433c	0.036441073
27	0x3d8ea75f	0.06965517
28	0xbdc66e7a	-0.096890405
29	0x3e017408	0.12641919
30	0xbd7f9f22	-0.06240762
31	0xbe10d356	-0.14143118
32	0x3dc88515	0.097910084
33	0xbe0e714c	-0.13910407
34	0x3c855fea	0.016281087
35	0x3c904f38	0.0176159
36	0xbdde7128	-0.108614266
37	0x3d1296ba	0.035788275
38	0xbd8b9641	-0.06815768
39	0xbdac1f15	-0.08404366
40	0xbc66f020	-0.014095336
41	0x3d5a7fa5	0.053344388
42	0xbcdf4469	-0.0272543
43	0xbc0b70d3	-0.008510786
44	0x3dd4ca67	0.10390168
45	0x3c6ebbb5	0.01457112
46	0xbcd54bd1	-0.026037129
47	0x3daa7c38	0.08324474
48	0xbdb864f6	-0.09003632
49	0xbd89b794	-0.06724468
50	0x3e123c53	0.14280824
51	0xbd103b5d	-0.035212863
52	0xbdd9066b	-0.10596927
53	0xbd46d9c9	-0.04854754
54	0x3e0f0e2a	0.13970247
55	0x3d908d17	0.07058161
56	0x3e0054ba	0.1253232
57	0x3cdab9b3	0.026699876
58	0xbd762ba8	-0.060100228
59	0xbdd1332e	-0.1021484
60	0x3ce906c8	0.028445616
61	0xbc05359d	-0.008130458
62	0x3da16ea6	0.07882433
63	0xbc33d010	-0.010974899
64	0x3d954d09	0.07290084
65	0x3ccdaebd	0.025107736
66	0xbda58eb8	-0.08083862
67	0x3de79459	0.11307592
68	0x3dcc42cf	0.0997368
69	0x3d3aa7fd	0.045570362
70	0x3d1c7ab9	0.038202975
71	0xbd7633c1	-0.06010795
72	0x3e17ae0f	0.14812492
73	0x3dfaf58b	0.12253865
74	0xbdd01d40	-0.10161829
75	0x3d2b2688	0.041784793
76	0xbd7c662d	-0.06162088
77	0x3db366be	0.08759831
78	0xbddfa683	-0.109204315
79	0xbe039633	-0.12850265
80	0xbb9e485d	-0.0048304037
81	0xbd952044	-0.07281545
82	0xbdcd184f	-0.10014402
83	0x3c2d39c0	0.010572851
84	0xbdb4a305	-0.08820156
85	0x3dfc9332	0.12332763
86	0xbd20c2c6	-0.03924825
87	0xbdf041d3	-0.11731305
88	0xbd8ad9a3	-0.06779792
89	0x3dc2a3de	0.095039114
90	0xbe100c69	-0.14067234
91	0xbd5ab07c	-0.053390965
92	0xbc339648	-0.010961123
93	0xbe058a38	-0.13041008
94	0xbb9659c1	-0.004588336
95	0xbdfd1adb	-0.12358638
96	0xbd5fb98f	-0.05462032
97	0x3d784458	0.060612053
98	0xbb0ba489	-0.0021307787
99	0x3d0d9e60	0.034574866
100	0x3da27171	0.079317935
101	0xbd5d7770	-0.054068983
102	0xbd3d28ce	-0.046181493
103	0x3e033f93	0.1281722
104	0xbe05450b	-0.13014619
105	0x3cb65ebb	0.022261968
106	0xbe01e903	-0.12686543
107	0xbc0892e0	-0.008335799
108	0xbdd8422e	-0.10559498
109	0xbdd806d6	-0.10548179
110	0xbd88984c	-0.06669673
111	0xbd9f33fc	-0.07773587
112	0x3cbeb334	0.02327881
113	0xbb963a51	-0.0045845886
114	0x3c54aa1c	0.01298001
115	0x3dbe45a7	0.09290629
116	0xbd22189e	-0.039574258
117	0xbddb6eea	-0.107145146
118	0x3d8cb25e	0.06869958
119	0x3cc4f504	0.024042614
120	0x3c889db1	0.016676756
121	0xbd8145a2	-0.063121095
122	0xbd009fc1	-0.031402353
123	0xbd96340f	-0.07334148
124	0x3d8c6a7a	0.06856246
125	0x3d863524	0.065531045
126	0xbda2c39c	-0.07947466
127	0x3d123eed	0.035704542
128	0x3db769f4	0.08955756
129	0x3da13b6e	0.078726634
130	0xbdb1c53e	-0.08680199
131	0xbe0c1818	-0.13681066
132	0x3d91190a	0.07084854
133	0xbc9cc0b0	-0.01913485
134	0xbd628b16	-0.055308424
135	0x3ca6257a	0.020281542
136	0xbd3232ef	-0.043505605
137	0x3d6922cb	0.056917947
138	0xbe094199	-0.1340393
139	0x3bf9dffc	0.007625578
140	0xbe0ba90d	-0.13638707
141	0xbd803ce8	-0.06261617
142	0x3da5cbac	0.08095488
143	0xbddb1026	-0.106964394
144	0x3e101080	0.14068794
145	0x3d186fd4	0.037216023
146	0xbcab8840	-0.020938993
147	0xbdf54327	-0.11975699
148	0xbda9a242	-0.08282901
149	0xbe062572	-0.13100222
150	0xbd1fa06a	-0.038971342
151	0xbdfbab79	-0.12288565
152	0x3d96ae95	0.07357518
153	0x3e026e22	0.12737325
154	0xbc511f50	-0.012763813
155	0xbd8d067f	-0.06886005
156	0xbd193e08	-0.037412673
157	0xbe1b5b13	-0.15171461
158	0x3d0fe654	0.035131767
159	0xbd88e8ac	-0.06685004
160	0x3dadf44f	0.08493864
161	0xbd138bf3	-0.036022138
162	0xbdb67ec3	-0.08910897
163	0xbdd7a45c	-0.10529396
164	0xbb1fc8df	-0.0024381203
165	0x3af9841e	0.0019036566
166	0xbd943d45	-0.07238249
167	0x3be7515c	0.0070592593
168	0xbdec278c	-0.115309805
169	0x3e17444d	0.14772148
170	0x3dffb347	0.12485366
171	0xbc9943c9	-0.01870908
172	0x3ddf1539	0.1089272
173	0xbdfa0f92	-0.12210001
174	0x3db81411	0.08988202
175	0xbddbf2f3	-0.10739698
176	0xbc949c74	-0.018141009
177	0xbd3906bc	-0.045172438
178	0x3ded18fd	0.11577032
179	0xbd710eda	-0.058852054
180	0x3db007c6	0.08595233
181	0x3d66ebe6	0.056377314
182	0x3e0e417c	0.13892168
183	0x3c8e272a	0.01735266
184	0xbde892aa	-0.11356099
185	0x3db6b5b7	0.08921378
186	0xbc19544a	-0.009358475
187	0xbd8612fa	-0.06546588
188	0x3d4d883c	0.05017875
189	0x3d238d71	0.03992981
190	0x3dd29a87	0.1028338
191	0x3d69224c	0.056917474
192	0x3d04409b	0.032288175
193	0x3ded68d8	0.11592263
194	0x3da76d6e	0.08175169
195	0x3d8d6eae	0.06905876
196	0xbdeb3fa6	-0.11486749
197	0x3d252de2	0.04032696
198	0x3d156529	0.036473427
199	0xbcbb0f3c	-0.022834413
200	0xbdda2663	-0.10651853
201	0xbdaae443	-0.08344319
202	0x3ca3db28	0.020001963
203	0xbcf44588	-0.029818311
204	0xbe10a9c2	-0.14127257
205	0xbd996db8	-0.0749163
206	0x3dad2e45	0.08456091
207	0xbdeafe4c	-0.114742845
208	0xbdb5b1a3	-0.08871772
209	0xbe104108	-0.14087307
210	0x3d035b95	0.03206976
211	0x3dcdb606	0.10044484
212	0x3e0a0bf7	0.13481127
213	0x3de99821	0.114059694
214	0xbcf97ea0	-0.030455887
215	0xbe0f602d	-0.14001532
216	0xbde4cf65	-0.1117237
217	0x3d32f977	0.04369494
218	0xbd8a19dc	-0.067432135
219	0xbd125184	-0.03572227
220	0xbe0d01c5	-0.13770206
221	0xbd833639	-0.064068265
222	0xbcab1bdf	-0.020887313
223	0x3daafa68	0.083485425
224	0xbc1af761	-0.009458394
225	0xbda12854	-0.0786902
226	0x3e091b75	0.1338938
227	0x3d07d07e	0.033157818
228	0xbda7ebe9	-0.08199293
229	0x3d93cfda	0.07217379
230	0xbdb2b300	-0.08725548
231	0xbdc24686	-0.094861075
232	0xbd3cfc2f	-0.04613894
233	0x3deb1702	0.11478998
234	0xbd9392bb	-0.07205721
235	0x3c347f8f	0.01101674
236	0xbd9a2cf2	-0.07528104
237	0xbdeed713	-0.11662116
238	0xbc7e1d60	-0.015509933
239	0x3dc6e06c	0.09710774
240	0xbd6e6486	-0.058201335
241	0xbd024df6	-0.03181263
242	0x3da74436	0.08167307
243	0xbd88f033	-0.06686439
244	0xbdd177f1	-0.10227955
245	0x3db74bab	0.089499794
246	0xbdab1e67	-0.08355408
247	0xbcc67ab5	-0.024228433
248	0xbd18b391	-0.037280623
249	0xbde40574	-0.111338526
250	0xbe09a4f5	-0.13441832
251	0x3de01900	0.10942268
252	0xbde69c47	-0.11260276
253	0xbdff9286	-0.12479119
254	0xbdd2f3af	-0.10300385
255	0x3d982500	0.07428932

layer_stack.1.b1.0.bias f4 [64]
0	0x3db7b4b9	0.08970017
1	0xbc2f1cd9	-0.01068803
2	0x3de21b0d	0.11040316
3	0x3de08e59	0.10964651
4	0xbdcf4830	-0.101211905
5	0x3dbed02c	0.093170494
6	0xbdbaa9b3	-0.09114399
7	0x3e00da22	0.12583211
8	0xbd129f96	-0.035796724
9	0x3df7a69e	0.120923266
10	0x3dcf9d0a	0.10137375
11	0xbd744422	-0.05963529
12	0xbdd50b70	-0.10402572
13	0xbd17dac3	-0.03707386
14	0x3dd23960	0.1026485
15	0x3c8982c7	0.016785992
16	0xbc3e9795	-0.01163282
17	0x3d016dfe	0.031599037
18	0xbde3bbd3	-0.11119809
19	0xbdd7f8d4	-0.10545507
20	0x3df8ae52	0.12142624
21	0xbdbe88ed	-0.0930346
22	0xbdbbc36e	-0.09168135
23	0xbded14a2	-0.11576201
24	0xbe01f48c	-0.12690943
25	0xbd9aafed	-0.075530864
26	0xbe022715	-0.12710221
27	0xbe10d323	-0.14143042
28	0x3dd9b17d	0.10629556
29	0x3d6573eb	0.05601875
30	0xbda8ba74	-0.08238688
31	0xbd86f87c	-0.065903634
32	0xbdb6ae9f	-0.08920025
33	0xbd84148d	-0.06449232
34	0xbd79ff6b	-0.0610346
35	0xbe0ad9c1	-0.13559629
36	0x3cb6d834	0.02231989
37	0x3d8a05c0	0.06739378
38	0x3d5b7afd	0.053584088
39	0xbe037ec9	-0.12841333
40	0x3dcc462c	0.09974322
41	0x3d38bf7b	0.045104485
42	0xbd1e3ca4	-0.03863205
43	0x3e108223	0.14112143
44	0x3dbdceba	0.092679456
45	0xbda0e179	-0.078555055
46	0xbd1b1e2d	-0.037870575
47	0xbd2e0288	-0.042482883
48	0x3dae1195	0.08499447
49	0x3dfed359	0.12442655
50	0x3c95ccb5	0.018286088
51	0xbdb59fbc	-0.088683575
52	0x3dc17a5b	0.094471656
53	0x3df8d711	0.12150396
54	0x3d2b4491	0.041813437
55	0x3cb5a426	0.022172999
56	0x3cd6ade9	0.026205974
57	0xbdbb1936	-0.09135668
58	0xbdbebc4f	-0.09313261
59	0xbdb3d47f	-0.08780765
60	0xbde881a3	-0.11352851
61	0xbdba3e3d	-0.09093902
62	0x3d3cb916	0.04607495
63	0xbd5b5745	-0.053550024

layer_stack.1.b2.0.weight f4 [64, 48, 1, 1]
0	0xbd7972e0	-0.06090057
1	0xbd110f14	-0.03541477
2	0x3e002975	0.12515815
3	0xbdfc4ec9	-0.123197146
4	0x3da6a561	0.08137012
5	0xbc0cdbae	-0.008597298
6	0x3e05246f	0.1300218
7	0xbd69d182	-0.057084568
8	0x3cd41b9b	0.02589207
9	0x3e08f105	0.13373192
10	0xbd0ffd52	-0.035153694
11	0xbdf9bf51	-0.12194694
12	0x3de561a8	0.11200267
13	0xbdeeb394	-0.116553456
14	0xbd321db9	-0.043485377
15	0xbdc2fed7	-0.09521263
16	0x3da754fc	0.08170506
17	0x3dc81708	0.09770018
18	0x3ccd6baa	0.025075752
19	0x3d80e43b	0.062935315
20	0x3d230273	0.039797258
21	0x3e03cd65	0.1287132
22	0x3e093926	0.13400707
23	0x3e0f399c	0.1398682
24	0x3c8bd96e	0.017071452
25	0xbd8e57c2	-0.06950332
26	0x3d97b342	0.074072376
27	0x3da0627a	0.07831283
28	0x3e0360ad	0.12829848
29	0xbc227084	-0.009914521
30	0xbdaae674	-0.08344737
31	0x3e08e9d2	0.13370445
32	0xbdccf90e	-0.10008441
33	0x3d580a04	0.052743927
34	0x3c693ed4	0.014236171
35	0xbdf32fd3	-0.11874356
36	0x3d46048f	0.04834419
37	0x3e097576	0.13423714
38	0x3e05bb14	0.13059646
39	0x3dbf0f7e	0.09329127
40	0x3cda2754	0.026630081
41	0xbb1098cd	-0.0022063733
42	0xbdfefb08	-0.12450224
43	0x3d9b45d3	0.07581677
44	0x3dcf201a	0.10113545
45	0x3d950e88	0.07278162
46	0x3dfca318	0.12335795
47	0x3dac4bea	0.08412917
48	0x3c61680f	0.01375772
49	0x3b3a4f00	0.0028428435
50	0x3d8c1b2a	0.06841119
51	0xbdf26a80	-0.118367195
52	0x3ca34094	0.019928254
53	0xbcd2e37e	-0.025743242
54	0xbe09a44d	-0.13441582
55	0x3c75e488	0.015008099
56	0xbd8800f2	-0.06640805
57	0x3d20fed4	0.039305523
58	0xbcfef844	-0.031124242
59	0x3d05f68c	0.03270583
60	0xbd829fac	-0.06378111
61	0xbd7cd8f6	-0.061730348
62	0x3e149a82	0.14512065
63	0x3dabc2b2	0.083867446
64	0xbde946e9	-0.11390478
65	0x3bfd9c28	0.0077395625
66	0x3dd27e8e	0.10278045
67	0x3d05a5fa	0.03262899
68	0xbb30d6f2	-0.0026983586
69	0xbdf606cd	-0.12013016
70	0x3d534c4c	0.051586434
71	0xbce06462	-0.027391616
72	0x3d33cf32	0.04389877
73	0xbd8aaf28	-0.0677169
74	0x3d7b3b06	0.061335586
75	0x3dccc6f4	0.09998885
76	0xbca29b6a	-0.019849498
77	0xbd8880a0	-0.06665158
78	0xbac5d4ac	-0.0015093288
79	0x3e02dfe4	0.1278072
80	0x3db12167	0.08648949
81	0xbcd611f9	-0.026131617
82	0xbe06ed4c	-0.13176459
83	0xbd8c03b0	-0.06836641
84	0x3dace965	0.08442954
85	0xbd31170d	-0.043234874
86	0x3d53df84	0.051726833
87	0xbd96bd8b	-0.07360371
88	0x3d0190ad	0.031632114
89	0x3d243aeb	0.04009525
90	0x3db50f90	0.08840859
91	0xbc9f68ac	-0.019459091
92	0xbb4bf303	-0.0031120188
93	0xbd9947ab	-0.07484373
94	0xbcc2d1cf	-0.023781685
95	0x3cd293d8	0.025705263
96	0x3cdff8bd	0.027340287
97	0x3dc763c8	0.09735829
98	0x3d10966d	0.035299707
99	0xbc933f6f	-0.017974583
100	0xbddcd365	-0.10782508
101	0x3c4009fb	0.0117211295
102	0x3ca4d76e	0.020122256
103	0xbd1aa770	-0.037757337
104	0xbc9603f5	-0.018312434
105	0x3deb3398	0.1148445
106	0x3db4e6ae	0.08833061
107	0xbd73c066	-0.059509657
108	0x3c6f8740	0.014619648
109	0x3d4f8643	0.05066515
110	0x3d864c16	0.06557481
111	0xbcdcd89f	-0.026958762
112	0xbd9c00e2	-0.07617356
113	0x3c5c3b18	0.013441823
114	0xbc9568be	-0.018238422
115	0x3c75bbb0	0.0149983615
116	0x3df9a2d6	0.121892616
117	0xbd9d7a7c	-0.07689378
118	0xbd7aa5b1	-0.061193172
119	0x3e128d0b	0.14311616
120	0x3d7fbf8a	0.062438525
121	0x3e061568	0.13094103
122	0x3e08d065	0.13360746
123	0x3e1310ba	0.1436185
124	0x3df727fc	0.12068173
125	0x3d20c584	0.039250866
126	0x3d85bbe4	0.06529978
127	0xbe0416fe	-0.12899396
128	0x3d2cd1df	0.042192336
129	0x3d85f6ab	0.06541189
130	0xbdd80841	-0.10548449
131	0xbdcf2337	-0.101141386
132	0xbdc436ad	-0.09580741
133	0xbdcf426a	-0.10120089
134	0xbddfdb5a	-0.1093051
135	0xbdad3d41	-0.08458949
136	0x3e11e414	0.14247161
137	0xbdd23f05	-0.10265926
138	0x3d290839	0.041267607
139	0x3da1acc6	0.07894282
140	0x3de68ef2	0.112577334
141	0x3d1e5fd4	0.038665608
142	0x3b2aec27	0.00260807
143	0xbdab8f42	-0.08376934
144	0xbde6b3a8	-0.112647355
145	0x3c25fd00	0.010131121
146	0x3d627cad	0.05529468
147	0x3c03ed7a	0.008052224
148	0x3d05475e	0.032538764
149	0xbd14d855	-0.036339123
150	0xbe0f4135	-0.13989718
151	0xbd378cfe	-0.044812195
152	0x3d35241b	0.044223886
153	0x3d65646a	0.056003965
154	0x3d6d0208	0.057863265
155	0xbb13d700	-0.002255857
156	0x3da36d0f	0.07979786
157	0xbdd7fa43	-0.105457805
158	0x3d919214	0.0710794
159	0xbdc49ae1	-0.09599853
160	0x3dd10007	0.10205083
161	0x3dc8bb81	0.098013885
162	0x3d9fcd3c	0.07802817
163	0xbd4b32c2	-0.049608953
164	0xbd0ecacd	-0.034861375
165	0xbc8ecc1e	-0.017431315
166	0xbd8ca998	-0.06868285
167	0xbd5a17c1	-0.05324531
168	0x3e0b1e63	0.1358581
169	0xbd95fcc4	-0.07323602
170	0x3de03ece	0.10949479
171	0x3cf969bc	0.030445926
172	0xbd6b4a96	-0.057444178
173	0x3df4890e	0.119402036
174	0xbd2d9b13	-0.04238422
175	0xbddc6ff5	-0.107635416
176	0x3d372081	0.044708733
177	0xbde6df22	-0.11273028
178	0xbc525482	-0.012837531
179	0x3d680b2d	0.056651283
180	0x3c0bb92b	0.008528034
181	0x3c961ac2	0.018323306
182	0xbd63180c	-0.055442855
183	0x3da9cee6	0.08291416
184	0x3dfcee25	0.1235011
185	0x3dcf983e	0.1013646
186	0xbded5faf	-0.11590516
187	0x3cdd5920	0.027020037
188	0xbd26133c	-0.040545687
189	0x3d4f39c5	0.050592203
190	0x3e0117d6	0.12606749
191	0x3b4c0380	0.0031130016
192	0xbe0de544	-0.13856989
193	0xbddbdd2a	-0.10735543
194	0xbe1370d7	-0.14398514
195	0xbc9ad0aa	-0.018898327
196	0xbd34ac36	-0.044109546
197	0x3d765a39	0.060144637
198	0xbc85a5c7	-0.0163144
199	0xbdecfa11	-0.11571134
200	0xbde95949	-0.11393983
201	0x3e0f2831	0.13980176
202	0xbde12712	-0.1099378
203	0xbdbd88c7	-0.09254604
204	0xbe0b7f7e	-0.13622853
205	0xbd339c75	-0.04385038
206	0x3dfb3ad6	0.122670814
207	0xbd63f98e	-0.055657916
208	0x3d79ade3	0.060956847
209	0x3c20bacc	0.009810161
210	0x3d9ca39d	0.07648394
211	0xbdb65b6b	-0.08904155
212	0xbe000fd1	-0.12506033
213	0xbd44ad06	-0.04801657
214	0xbd32621d	-0.0435506
215	0x3d4f39ec	0.050592348
216	0x3dd79822	0.10527064
217	0x3cb1c6ac	0.02170118
218	0xbd9fb050	-0.07797301
219	0x3dc5c863	0.09657361
220	0xbd4f3983	-0.050591957
221	0xbd9548b2	-0.07289256
222	0x3da2347a	0.07920165
223	0xbd2f1557	-0.04274496
224	0x3d0b4327	0.03399959
225	0x3e1557a8	0.1458422
226	0xbda56b13	-0.080770634
227	0xbdefbb18	-0.11705607
228	0x3e1fb634	0.15596849
229	0x3db830b9	0.08993668
230	0x3ce56d00	0.028006077
231	0x3cfcf652	0.030879173
232	0x3d505d4c	0.050870225
233	0xbd9ea316	-0.0774595
234	0xbd8c720b	-0.068576895
235	0x3c1b0cd2	0.009463506
236	0x3e125954	0.14291888
237	0xbc284b51	-0.010271863
238	0x3cddece3	0.027090495
239	0x3dfb9c74	0.122857004
240	0xbd5c6eb9	-0.05381653
241	0xbe0da15d	-0.13831086
242	0x3e03869a	0.12844315
243	0xbdd3d0f7	-0.10342591
244	0xbd816f43	-0.063200496
245	0x3d7c5c07	0.0616112
246	0xbdf74eda	-0.120755866
247	0x3d92aa74	0.071614176
248	0x3d6513d5	0.055927116
249	0xbcd1cf60	-0.02561158
250	0xbd3da9a4	-0.04630436
251	0x3d8a24b4	0.06745282
252	0x3c9f548b	0.019449493
253	0x3ded0e91	0.11575044
254	0xbd951456	-0.072792694
255	0xbdc2777b	-0.09495445

layer_stack.1.b2.0.bias f4 [64]
0	0xbd7f1925	-0.06227984
1	0x3df8139d	0.12113116
2	0xbbba5b7c	-0.0056871753
3	0xbd4e0c22	-0.05030454
4	0xbdb16faa	-0.08663876
5	0xbd0fb4fa	-0.035084702
6	0x3d95b50e	0.07309924
7	0x3e0a0f30	0.13482356
8	0x3dd3b3a2	0.103369966
9	0xbd4b33f5	-0.049610097
10	0x3da5465e	0.08070062
11	0xbb8500e4	-0.004058944
12	0xbc8e1659	-0.01734464
13	0x3d96b4db	0.07358714
14	0xbdf19c05	-0.117973365
15	0x3d68029f	0.056643125
16	0x3c9ec8e1	0.019382896
17	0x3dd44998	0.103655994
18	0xbd56d670	-0.052450597
19	0x3d82d2ac	0.06387839
20	0xbc4dd48a	-0.01256288
21	0x3dbcf086	0.09225564
22	0xbc1c51ec	-0.009541016
23	0xbe03eca8	-0.12883246
24	0xbd830b4b	-0.06398638
25	0x3c091e95	0.008369108
26	0x3df1af29	0.11800987
27	0x3dc1892f	0.09449994
28	0xbdf83c98	-0.12120932
29	0x3e00e54f	0.12587474
30	0x3db00ce5	0.085962094
31	0xbb848855	-0.0040445724
32	0xbd63641d	-0.055515397
33	0x3d233a56	0.039850555
34	0x3ce5c61e	0.028048571
35	0x3e0307a4	0.12795883
36	0xbdaf3e4d	-0.08556805
37	0x3d68f38a	0.056872882
38	0x3dfa0a02	0.1220894
39	0x3d308f58	0.043105453
40	0x3de40dd0	0.11135447
41	0xbd87043e	-0.06592606
42	0xbdedefa0	-0.116179705
43	0xbe0d64d4	-0.13807994
44	0xbc353a52	-0.011061268
45	0xb98cf172	-0.00026882772
46	0x3d30dc75	0.043178994
47	0xbe098439	-0.13429345
48	0xbde4267e	-0.11140154
49	0x3d79dae9	0.060999785
50	0xbde78b30	-0.11305845
51	0xbe138a81	-0.14408304
52	0xbd943793	-0.072371624
53	0x3d21f84b	0.03954343
54	0xbca8f1b0	-0.020623058
55	0x3b8a9737	0.004229452
56	0x3d6f5f91	0.05844075
57	0x3e0cd193	0.13751821
58	0x3de4e8df	0.11177229
59	0x3dd6d7f8	0.104904115
60	0x3d884dc6	0.06655459
61	0x3d8144cd	0.06311951
62	0x3db09cf5	0.08623687
63	0xbdf31a96	-0.11870305

layer_stack.1.b2.2.weight f4 [64, 64, 3, 3]
0	0xbcaa973c	-0.020824067
1	0x3c18a61e	0.009316949
2	0xbced3d9d	-0.028960044
3	0x3cbc1969	0.022961335
4	0xbd0018a6	-0.031273507
5	0x3b1874f2	0.0023263064
6	0xbd14efc6	-0.03636148
7	0xbd1d7b13	-0.03844745
8	0xbd2eb864	-0.042656317
9	0xbc35aa28	-0.011087932
10	0x3d19321a	0.037401296
11	0x3bef339a	0.0072998526
12	0x3d2ef834	0.042717174
13	0xbd0abb0d	-0.03386979
14	0x3ba04545	0.00489107
15	0xbcea1dac	-0.028578602
16	0xbc10551e	-0.008809356
17	0x3ceedd17	0.029158158
18	0xbd14bc5a	-0.03631244
19	0x3c6468da	0.013941014
20	0xbd199b2a	-0.03750149
21	0xbbcb8e26	-0.006212014
22	0xbc9f8287	-0.01947142
23	0xbd102ba7	-0.03519788
24	0x3ca59d5b	0.020216634
25	0x3d00d755	0.031455357
26	0x3cf389b8	0.029728755
27	0xbd0fbcdb	-0.035092216
28	0xbd07ed26	-0.033185147
29	0x3a7aa065	0.0009560644
30	0xbca25896	-0.019817632
31	0x3cdea9c7	0.027180566
32	0x3cedd9d6	0.029034536
33	0x3c6af409	0.014340409
34	0xbc4587ba	-0.0120562855
35	0xbd115136	-0.03547784
36	0xbcbb6d88	-0.022879377
37	0xbd1c8c73	-0.03821988
38	0x3d143a83	0.036188614
39	0xbc48d66e	-0.012258155
40	0xbc9b828c	-0.018983148
41	0xbc6ea6e5	-0.014566158
42	0x3c9ec2d5	0.019380013
43	0x3c7217e2	0.014776202
44	0xbcc6d74d	-0.024272585
45	0xbc658245	-0.014008109
46	0x3ce14b03	0.027501589
47	0x3c3fa48a	0.011696944
48	0xbcae1223	-0.021248883
49	0xbd2d1b09	-0.04226211
50	0xbcc489be	-0.023991462
51	0x3ce5b0b6	0.028038364
52	0xbc89a2d7	-0.01680128
53	0xbca00d05	-0.019537458
54	0x3ca2f442	0.019891862
55	0x3cd5257e	0.026018854
56	0xbd2030d5	-0.03910907
57	0x3d04dabd	0.032435168
58	0xbbbea669	-0.0058181775
59	0xbd379d25	-0.0448276
60	0xb9e49a2d	-0.0004360242
61	0xbcbeba22	-0.023282114
62	0x3d08787e	0.033318035
63	0x3cc03c42	0.023466233
64	0x3b800adf	0.003907546
65	0xbcfea1aa	-0.031082947
66	0x3c9876e7	0.018611385
67	0xbcf4003c	-0.029785268
68	0x3c197bfd	0.00936794
69	0x3d343623	0.04399694
70	0xbce71154	-0.028206505
71	0x3d031e22	0.03201116
72	0x3d058818	0.032600492
73	0x3cb9139d	0.02259236
74	0x3c8eadc6	0.017416846
75	0xbc69cdb6	-0.014270237
76	0x3d13611a	0.035981275
77	0x3d08f069	0.033432398
78	0x3cfdc6ee	0.030978646
79	0x3a6c147d	0.00090057385
80	0x3cace19a	0.021103669
81	0x3d1e3dca	0.038633145
82	0xbc2d3b01	-0.01057315
83	0xbb8ad993	-0.0042373626
84	0xbd0423b1	-0.0322606
85	0xbcf45b8d	-0.029828811
86	0x3d08b2d4	0.03337367
87	0xbd14e2de	-0.03634917
88	0xbcc8c762	-0.024509136
89	0xbd1bdcdb	-0.03805242
90	0xbd0ab46d	-0.033863474
91	0xbc3eccac	-0.011645477
92	0x3bdd3675	0.0067508765
93	0x3c2f8f9d	0.010715392
94	0xbcd87b93	-0.026426112
95	0xbb8408d9	-0.004029375
96	0x3d02b1a3	0.03190769
97	0xbcb305be	-0.021853324
98	0x3c052cab	0.008128325
99	0xbd441f43	-0.047881376
100	0x3c6ed7b0	0.014577791
101	0x3c8d95c4	0.017283328
102	0xbcc8b454	-0.02450005
103	0xbce39c87	-0.027784599
104	0xbabf5681	-0.0014597924
105	0xbd016b3d	-0.03159641
106	0xbd33f612	-0.043935843
107	0x3ba0b00a	0.004903798
108	0x3d095d56	0.033536278
109	0xbbf51630	-0.0074794516
110	0xbb3be30b	-0.0028669264
111	0xbcf25db9	-0.029585706
112	0x3ca379ce	0.019955542
113	0xbd3aca33	-0.04560299
114	0xbc7c1f17	-0.015388272
115	0x3a077352	0.00051670254
116	0x3cf4c863	0.029880708
117	0x3d165f5f	0.036712047
118	0xbd2fd13c	-0.04292415
119	0x3aa747cd	0.0012762487
120	0x3cc0c6b8	0.023532256
121	0xbb1dc7bc	-0.002407535
122	0xbcad56ca	-0.021159548
123	0xbd2480a7	-0.040161755
124	0x3cbf9b9c	0.02338963
125	0xbaffa460	-0.0019503944
126	0xbc9e3f2d	-0.019317234
127	0x3cd0179d	0.025401885
128	0x3d150a07	0.036386516
129	0x3c342699	0.0109955305
130	0xbc127199	-0.008938217
131	0x3b537cfd	0.0032270544
132	0x3cfdb956	0.030972164
133	0x3bbf4d79	0.005838093
134	0xbd125240	-0.03572297
135	0xbc6da996	-0.0145057645
136	0xbd076677	-0.033056702
137	0xbc5ec040	-0.013595641
138	0x3cb6b6a2	0.022303883
139	0x3d098f93	0.03358419
140	0xbcc8c664	-0.024508663
141	0xbc9ad467	-0.01890011
142	0xbba0e0d8	-0.004909616
143	0x3789350a	1.635637e-05
144	0x3cecae23	0.028891629
145	0x3bd8677f	0.0066041346
146	0x3ca00e99	0.01953821
147	0xbc4094c8	-0.011754222
148	0x3cc7a8b3	0.024372434
149	0x3b1f948b	0.0024350013
150	0x3d03532e	0.03206175
151	0x3caf3949	0.02138962
152	0xbcbc0e96	-0.022956174
153	0xbc09ef2c	-0.008418839
154	0x3c110b07	0.008852727
155	0x3c206a13	0.009790915
156	0xba5d54b2	-0.00084431015
157	0xbc7ca750	-0.01542075
158	0x3d02b449	0.031910215
159	0x3c138147	0.00900299
160	0xbcb6f2ca	-0.022332568
161	0xbd2bdbf8	-0.041957825
162	0x3ccad802	0.024761204
163	0xbc123ec6	-0.008926099
164	0x3cc105af	0.02356228
165	0x3ccab0e4	0.024742551
166	0x3ca8ae5d	0.020590955
167	0xbd42ab8f	-0.047526892
168	0xbcc0edae	-0.023550835
169	0xbca8fad1	-0.020627411
170	0xbc1ee23a	-0.009697491
171	0xbc8fd32f	-0.017556755
172	0xbd28b437	-0.04118749
173	0x3d1fa672	0.038977094
174	0x39ffbd24	0.0004877831
175	0x3d046cd2	0.03233034
176	0x3ccecfbf	0.025245545
177	0xbb37d8b9	-0.002805276
178	0x3cedc723	0.02902562
179	0x3bbb3115	0.005712638
180	0xbd0587c9	-0.032600198
181	0xbcb5d50d	-0.022196317
182	0xbb8cf069	-0.00430112
183	0xbd09a941	-0.03360868
184	0x3c8742e8	0.016511396
185	0xbc89293e	-0.016743299
186	0x3cedf87f	0.029049156
187	0xbca0134e	-0.019540455
188	0xbce1dbb6	-0.027570587
189	0xbc854d09	-0.016272085
190	0xbc7e55fc	-0.01552343
191	0xbd1240d5	-0.03570636
192	0x3d2b6584	0.04184486
193	0x3c7b2213	0.015327948
194	0x3cb17820	0.021663725
195	0x3c894e88	0.01676108
196	0xbd140022	-0.03613294
197	0x3c920017	0.017822308
198	0x3c4b058c	0.012391459
199	0xbc00facd	-0.007872296
200	0x3ce4047f	0.027834175
201	0xbd1d6555	-0.038426716
202	0xbcc154ed	-0.023600066
203	0x3d06bafe	0.032893173
204	0x3be4dee3	0.006984578
205	0x3d01177d	0.03151654
206	0xba92021a	-0.0011139542
207	0x3c22ecf2	0.0099441875
208	0xbd0d7c8d	-0.03454261
209	0xbc6e6523	-0.01455048
210	0xbd0e6e44	-0.034773126
211	0xbb94140d	-0.004518992
212	0x3c935aa6	0.01798756
213	0xbd3398a1	-0.04384673
214	0x3cb7ce1f	0.022437153
215	0x3cd69453	0.026193773
216	0xb6939c94	-4.3991695e-06
217	0xbcb9db3a	-0.022687543
218	0xbd269ceb	-0.040676992
219	0x3cdcb3cf	0.026941208
220	0x3d142ee7	0.036177542
221	0x3b7bacd8	0.0038402583
222	0xbd1d8383	-0.038455497
223	0xbc3b6c02	-0.011439325
224	0x3ca5b3dd	0.020227367
225	0x3c41cc45	0.011828487
226	0x3c4eebbd	0.012629447
227	0xbc33de3a	-0.010978276
228	0x3c9d9123	0.019234246
229	0x3cc355ab	0.02384456
230	0x3cf6b865	0.030117223
231	0x3d27d9fc	0.04097937
232	0xbc4494b9	-0.011998349
233	0x3c8d00ab	0.017212233
234	0x3cfb7150	0.03069368
235	0xbcd3140b	-0.025766393
236	0x3c9cf3d1	0.01915923
237	0xbbee17e6	-0.0072660325
238	0x3b309392	0.0026943428
239	0xbd1e6458	-0.038669914
240	0xbd0d4879	-0.034492943
241	0xbcea2698	-0.028582856
242	0x3d1a67b9	0.037696574
243	0xbbc4936b	-0.005999019
244	0x3ce7e406	0.028306972
245	0xbc83c828	-0.016086653
246	0x3bd2b917	0.006430756
247	0xbc76dc7d	-0.015067217
248	0xbc1e2e87	-0.009654648
249	0x3cce6bb3	0.02519784
250	0x3d23dc4a	0.040005006
251	0xbd0e74fc	-0.034779534
252	0x3cb82ce5	0.022482345
253	0xbd2c55c3	-0.042073976
254	0xbd254310	-0.04034716
255	0xbd175b01	-0.036952022

layer_stack.1.b2.2.bias f4 [64]
0	0xbcf36f81	-0.029716255
1	0x3c71925a	0.014744366
2	0xbd1eaf7f	-0.038741585
3	0x3c89a297	0.016801162
4	0xbcfd9541	-0.030954959
5	0x3cc6fee9	0.024291473
6	0xbd18a5d6	-0.03726753
7	0x3cbb0a23	0.022831982
8	0x3c642364	0.013924453
9	0xbd17e9c1	-0.03708816
10	0x3cd89073	0.026436066
11	0xbc9faaa0	-0.01949054
12	0x3cdbdc6d	0.026838506
13	0xbd04c438	-0.03241369
14	0x3cd5d03e	0.026100274
15	0xbc50fc96	-0.012755534
16	0x3d049bf4	0.03237529
17	0x3ce2a928	0.02766855
18	0x3b06d2c3	0.00205724
19	0x3b01265f	0.001970671
20	0x3b41dffa	0.0029582963
21	0x3ca14cd7	0.01968996
22	0x3bbcba12	0.005759486
23	0x3c1251a7	0.0089306
24	0x3b9cd11b	0.0047856695
25	0xbcfcaea2	-0.03084499
26	0xbcba324f	-0.022729067
27	0x3cb3380f	0.021877317
28	0xbc1c08b5	-0.00952356
29	0xbd0533a9	-0.03251997
30	0x3cc28b46	0.023748051
31	0x3bf12a40	0.007359773
32	0x3c156dca	0.009120414
33	0x3b302009	0.0026874563
34	0x3c2e439e	0.010636238
35	0xbd0117a8	-0.0315167
36	0x3cbe258e	0.023211267
37	0xbd0d2d64	-0.034467116
38	0x3b933f0a	0.004493599
39	0xbc0a77cd	-0.008451414
40	0xbcb76a54	-0.022389568
41	0x3cad638a	0.021165628
42	0xbc6aad27	-0.014323509
43	0x3c93dd89	0.018049972
44	0xbb3e9153	-0.002907832
45	0xbc5e0cfc	-0.0135529
46	0x3cb0a20f	0.02156165
47	0x3ce31097	0.027717872
48	0x3cb730af	0.022362081
49	0x3ceb2ad3	0.028706944
50	0xbbcc2eaa	-0.0062311487
51	0x3d126a65	0.035745997
52	0xbd0b2b08	-0.033976585
53	0xbd049e6d	-0.03237765
54	0x3bd65fd1	0.006542184
55	0xbd02afba	-0.031905867
56	0xbc06ade8	-0.008220173
57	0x3c9dd216	0.019265216
58	0x3bff64fd	0.007794021
59	0xbd103572	-0.03520722
60	0xbc4366a2	-0.011926325
61	0xba22465e	-0.0006190295
62	0x3c01c8e0	0.0079214275
63	0x3cce678c	0.02519586

layer_stack.1.b3.0.weight f4 [64, 48, 1, 1]
0	0x3d1ea8fe	0.038735382
1	0x3dfad218	0.122471035
2	0xbcacde56	-0.021102112
3	0xbdd41e0a	-0.10357292
4	0xbdb2b473	-0.08725824
5	0xbdc6a893	-0.09700122
6	0x3d5ea64b	0.054357808
7	0x3defacd3	0.117028855
8	0xbdf0bf95	-0.117552914
9	0x3e1ef555	0.15523274
10	0xbe02da88	-0.12778676
11	0xba112a00	-0.00055375695
12	0x3de93186	0.11386399
13	0x3dc7a924	0.09749058
14	0x3d388690	0.045050204
15	0x39380a63	0.00017551477
16	0xbdf76872	-0.12080468
17	0xbcea99d4	-0.028637804
18	0xbb40df04	-0.0029429803
19	0x3c0d6a4e	0.008631302
20	0xbdb9157b	-0.090373
21	0xbd0ee689	-0.034887824
22	0x3d55422d	0.052065063
23	0xbd292f60	-0.041304946
24	0x3b93fd6e	0.004516295
25	0xbd979fc6	-0.07403521
26	0xbc1de8fa	-0.0096380655
27	0xbd1d8ff6	-0.03846737
28	0x3dc9cd1e	0.09853576
29	0x3d170312	0.036868162
30	0xbdd280f5	-0.10278503
31	0x3dfda7e6	0.1238554
32	0xbe09ce46	-0.13457593
33	0x3db165ec	0.08662018
34	0xbe0105d0	-0.12599874
35	0x3b98e06f	0.0046654264
36	0xbcc64864	-0.02420444
37	0xbd6e81a9	-0.058229122
38	0x3d471f08	0.048613578
39	0x3c37dc15	0.011221905
40	0x3dcad1bb	0.09903284
41	0x3c34c1be	0.01103252
42	0x3da0103d	0.07815597
43	0xbd0aa617	-0.033849802
44	0xbd223d56	-0.039609276
45	0xbe0e6e7b	-0.13909332
46	0x3dd8cdf8	0.105861604
47	0xbd98a012	-0.07452406
48	0xbd77fb3a	-0.060542323
49	0x3de2d390	0.110755086
50	0x3bedf532	0.0072618956
51	0xbd699ac0	-0.057032347
52	0x3d8bdd17	0.06829279
53	0xbd1fc6c6	-0.039007924
54	0xbcc7bccc	-0.024382018
55	0xbd778e5c	-0.0604385
56	0x3e020a22	0.12699178
57	0x3da0a9bd	0.07844875
58	0x3d6fe76c	0.05857031
59	0x3d95a5b0	0.07306993
60	0xbd5c86a2	-0.053839333
61	0x3d16201c	0.036651716
62	0x3e0cdb0c	0.13755435
63	0xbbbd59ba	-0.0057785185
64	0x3d414a3e	0.047189943
65	0xbd9af7f7	-0.07566827
66	0xbcbeea71	-0.02330515
67	0x3d876f7a	0.06613059
68	0x3d0e3098	0.03471431
69	0xbd863042	-0.06552173
70	0x3de02f64	0.10946539
71	0xbda0f51a	-0.078592494
72	0xbcae324c	-0.021264218
73	0x3bd5cf27	0.0065249386
74	0x3dc2bce6	0.09508686
75	0x3d4712f7	0.04860207
76	0xbe0d8a96	-0.13822398
77	0xbdbbb207	-0.091648154
78	0xbcf02406	-0.029314052
79	0xbe009b2a	-0.1255919
80	0x3d9b42f6	0.07581131
81	0x3c54f1ca	0.0129971
82	0x3de108ac	0.10987982
83	0xbcddcc01	-0.027074816
84	0x3e137c3f	0.14402865
85	0xbc2ff024	-0.010738406
86	0x3df49ca8	0.11943942
87	0xbd9e5f4e	-0.07733022
88	0xbe01d012	-0.12677029
89	0x3aa7171e	0.0012747978
90	0xbda01356	-0.07816188
91	0x3d09dcb9	0.033657763
92	0x3c4d89a9	0.012545028
93	0x3d37b886	0.04485371
94	0xbd5186e7	-0.051154044
95	0x3dff0d88	0.12453753
96	0x3d008cea	0.031384386
97	0xbdd835c2	-0.105571285
98	0xbcd73cbe	-0.026274081
99	0xbd62e93b	-0.055398207
100	0x3da92c0e	0.08260356
101	0xbca84f8c	-0.020545743
102	0x3df9cc49	0.121971674
103	0xbdd01716	-0.10160653
104	0xbdb9eb65	-0.09078101
105	0x3dd1a650	0.102368
106	0x3d32defc	0.043669686
107	0xbda05b7b	-0.078299485
108	0x3d28e137	0.041230407
109	0xbdbef43b	-0.09323927
110	0x3d8f6534	0.07001725
111	0x3dbd19a4	0.09233406
112	0xbd26e96f	-0.040749963
113	0xbde3515f	-0.11099505
114	0x3dbc2225	0.091862
115	0xbd31f2af	-0.04344433
116	0x3d8df643	0.06931736
117	0x3dc03137	0.09384387
118	0x3dbefebf	0.09325933
119	0x3de74dec	0.11294159
120	0xbdfb19b9	-0.122607656
121	0xbc8514aa	-0.016245205
122	0xbdaa0c73	-0.08303156
123	0x3d5ba9eb	0.053628843
124	0x3d2958cc	0.04134445
125	0xbdac195d	-0.08403275
126	0xbd721fcc	-0.059112355
127	0xbd8f7570	-0.07004821
128	0xbd4e5769	-0.05037633
129	0x3d922ab1	0.07137049
130	0xbe0d41c8	-0.13794625
131	0x3d685729	0.056723747
132	0x3e0ea6e5	0.13930853
133	0xbe135ef8	-0.14391696
134	0xbd6adc92	-0.05733926
135	0xbdeaafdd	-0.114593245
136	0xbbd36e91	-0.0064523895
137	0x3cec41d1	0.028839977
138	0x3b14c4d1	0.002270032
139	0x3d946214	0.072452694
140	0x3c0e4f9a	0.008685971
141	0x3dcd2ce9	0.100183316
142	0x3d5bcc50	0.053661644
143	0xbe13bc95	-0.14427407
144	0x3d0e2a5a	0.03470836
145	0xbc975160	-0.01847142
146	0x3c9d2150	0.019180924
147	0xbcd92af2	-0.026509736
148	0xbcb5f0e0	-0.022209585
149	0x3c9f63c4	0.019456752
150	0x3d054dd2	0.03254492
151	0xbd3897de	-0.045066707
152	0xbd6987f8	-0.057014436
153	0x3d40598b	0.046960395
154	0x3d802920	0.06257844
155	0x3ada7d00	0.0016669333
156	0xbd8fe6d6	-0.0702645
157	0xbe0fc729	-0.14040817
158	0x3ddd7fda	0.108154014
159	0x3df4ee02	0.11959459
160	0x3c559a74	0.013037313
161	0xbd011960	-0.03151834
162	0xbd76c5d7	-0.06024727
163	0x3d3024b5	0.043003757
164	0x3e0216bf	0.1270399
165	0xbcd8420d	-0.026398683
166	0x3a93f78c	0.0011288985
167	0xbde4894b	-0.11158999
168	0xbdb61cdd	-0.08892224
169	0xbe0280b3	-0.12744407
170	0xbdb07400	-0.08615875
171	0xbd94e31e	-0.07269882
172	0xbda41f5b	-0.08013793
173	0xbde3eab3	-0.1112875
174	0xbd0eecf1	-0.034893934
175	0xbcccd99d	-0.02500611
176	0xbd26e049	-0.04074124
177	0x3da9a54b	0.0828348
178	0xbd9db1b7	-0.07699912
179	0x3da70870	0.08155906
180	0xbd8614c2	-0.06546928
181	0x3deeb773	0.11656084
182	0x3d771008	0.060318023
183	0x3b017f1e	0.0019759606
184	0xbdd77aee	-0.10521494
185	0x3e139a8d	0.14414425
186	0x3d4f4d80	0.05061102
187	0x3e075248	0.13214982
188	0x3af461f9	0.0018644921
189	0xbdbf194a	-0.093309954
190	0xbdb1cacd	-0.08681259
191	0x3c20fb20	0.009825498
192	0x3e117a66	0.14206848
193	0x3de7ea04	0.11323932
194	0x3d682ba2	0.056682236
195	0xbc5ea61c	-0.013589408
196	0x3bae8ed5	0.0053270855
197	0x3da1b3c6	0.07895617
198	0xbddd2300	-0.10797691
199	0xbe156026	-0.14587459
200	0x3c90a9bc	0.01765906
201	0x3db692c1	0.0891471
202	0xbdc7657a	-0.09736152
203	0x3d1b6cb0	0.03794545
204	0xbdbd5071	-0.092438586
205	0x3ca48aaa	0.020085651
206	0x3d234a6a	0.03986589
207	0xbcdba021	-0.026809754
208	0x3c46f37a	0.01214301
209	0x3da64d12	0.08120169
210	0x3e2248e7	0.15848123
211	0x3dc306ab	0.09522756
212	0x3d989042	0.0744939
213	0x3d98f12b	0.07467874
214	0x3d88322c	0.066501945
215	0x3d87cb8a	0.06630619
216	0x3d78a913	0.060708117
217	0x3e125fdb	0.14294378
218	0xbda89a2d	-0.08232532
219	0xbcb80ad1	-0.022466095
220	0xbdfeb260	-0.12436366
221	0xbdf45833	-0.11930885
222	0x3df29829	0.118454285
223	0xbdbef11b	-0.09323331
224	0x3df20dd2	0.11819042
225	0xbde11bf6	-0.10991661
226	0x3d1f5bd1	0.038905922
227	0xbc782ee9	-0.015147903
228	0xbbf2a2b4	-0.0074046496
229	0x3dd62c9d	0.10457728
230	0x3d2f3634	0.0427763
231	0x3d648f51	0.05580074
232	0x3d17fcb1	0.03710622
233	0xb991cc0d	-0.00027808585
234	0xbc55017d	-0.013000843
235	0xbd34f2f5	-0.044177014
236	0xbe0d8c12	-0.13822964
237	0x3df72eaf	0.12069451
238	0xbdfdb38d	-0.12387762
239	0x3cf525c0	0.029925227
240	0x3cc7906a	0.024360854
241	0x3cfea358	0.031083748
242	0xbcc85a66	-0.024457168
243	0x3d373e53	0.04473717
244	0x3cbbe1c5	0.022934804
245	0x3e04a026	0.12951717
246	0xbe0c2810	-0.13687158
247	0xbc4fc842	-0.0126820225
248	0xbdbe725f	-0.09299158
249	0xbd4c1f10	-0.04983431
250	0xbd9a3977	-0.07530492
251	0x3d4a9f48	0.04946831
252	0x3d053ff0	0.03253168
253	0xbd512ca3	-0.05106796
254	0x3e0fba82	0.14035991
255	0x3d1403d1	0.036136452
