lotsaconvs/nets/minigoog.pt (torch, 768115 bytes, 26 tensors)

layer_stack.0.b1.0.weight f4 [12, 1, 1, 1]
00000000: ae91 26be 1c3e 1cbf 4ce8 c2be 7be2 273f
00000010: dc15 16be a2d4 06bf 921c de3e 27c3 073f
00000020: 2f45 753e 663d 89bc 4f91 0c3f 955b b0bd
-0.1626651 -0.6103227 -0.38067853 0.65579957 -0.14656776 -0.526682 0.43381172 0.53032154
0.23952173 -0.01675291 0.54909223 -0.08611218

layer_stack.0.b1.0.bias f4 [12]
00000000: c11b c43e 2813 3ebf fe9f 583f cf92 7f3f
00000010: 3943 383f f0af 88be 8f62 b8be 1f0b 85be
00000020: 5f58 ae3e 86c1 363f afb4 91bd 6afd 523e
0.38302425 -0.7424798 0.8461913 0.9983339 0.71977574 -0.2669673 -0.36012694 -0.25985047
0.34051797 0.71389043 -0.07114541 0.20604482

layer_stack.0.b2.0.weight f4 [12, 1, 1, 1]
00000000: ff42 533e e81b 28bf 21ad 0f3f 13a0 143f
00000010: 760b 5abf 2850 2ebf 000e 32bf 34d4 08bf
00000020: c00a fbbe 5627 c23d 5398 ba3e 3c24 70be
0.20631026 -0.6566758 0.5612355 0.58056754 -0.8517374 -0.6809106 -0.6955261 -0.53448796
-0.4903164 0.09480159 0.3644434 -0.23451322

layer_stack.0.b2.0.bias f4 [12]
00000000: 61b5 5fbf e583 063f a269 f0be dcdc 7e3f
00000010: 46e5 5ebf cf8b 643e 6c1a 3b3e 0cfb bcbe
00000020: 08a1 55bf 1de4 d23e ca10 5b3f 54a5 663f
-0.8738614 0.52545005 -0.4695559 0.99555755 -0.87068594 0.22318958 0.18271798 -0.36910284
-0.8344884 0.41189662 0.85572493 0.9009602

layer_stack.0.b2.2.weight f4 [12, 12, 3, 3]
00000000: 2449 20bd e84d 7a3d e2b9 aa3c 57ed 063d
00000010: 82ed c1bd 5be1 6fbd a2bc c5bd 3f84 613d
00000020: a0e5 8abd 2939 aabd da96 953d 422b e53c
00000030: 0ff7 5cbd c3a2 37bd 71ea a8bd 8b7c 993d
00000040: 1b94 d53c 3973 113d ccfe 9f3d bfc4 bcbd
00000050: 8101 803d 8ff8 debc 8316 c1bd fff4 70bd
00000060: 0784 a6bd 55e6 923d d623 9abd ca24 c6bd
00000070: 77e6 a03b 18ea adbd d999 923d f503 9e3d
00000080: 838e a83c 4c2e 823d c9a5 ae3c a947 2d3d
00000090: f839 39bd 800a d43a 552b 74bd 3743 ae3d
000000a0: e34b a93d e898 c4bd b664 793d 3004 1f3c
000000b0: 70c9 5ebc 9912 f73c 4e1c 77bd bfbb 5b3d
000000c0: 6f62 cb3c db96 8c3c 1336 3d3d a461 de3b
000000d0: ea72 883d e3ec a3bd b107 843c 0fae 9dbc
000000e0: 909e 46bd 643f 943d a328 4e3c ec6b 64bc
000000f0: 531c 6ebd 7916 b9bd 1365 293d b97a 853d
00000100: bece 8cbd 84f1 cebc 98f1 cf3c 6539 be3d
00000110: a353 a5bd e91d 953d ca1e 7dbd 50a4 1f3c
00000120: 7ff3 56bd 7c9e a53c bdbd 5bbd f143 90bd
00000130: 4016 bdba e106 a23d 6f73 b8bd 00a3 b63b
00000140: 4ab7 3f3d a26e 9fbd 44fb ba3d b66a 293d
00000150: d0f2 eb3c d218 a73c fb29 b1bc 288e f13c
00000160: 66d1 b13b 4b51 95bd 85e7 093c 80f8 42bd
00000170: 76b9 c2bd 3917 91bc 26c1 653b 7912 aeba
00000180: 575e 063c 66d6 113d e233 05bd 4675 103d
00000190: 6d22 6fbd e759 a5bd 7865 b6bc dec9 153d
000001a0: 1642 95bc 90ea 623d f7c3 a83d 815e 14bd
000001b0: d310 8fbd d049 1fbb d680 ae3d 94de abbd
000001c0: 29f3 863d 11a6 a3bd 6da6 323c e6cb a7bd
000001d0: f581 ac3d 5f16 2cbd 6d0e 6bbc 232e 483d
000001e0: 9463 013d 48ab 83bd 8d7b 79bd a104 a93c
000001f0: 13e3 61bd 4d2c c7bb 452b 6b3d ed42 0a3b
00000200: c261 77bd 9497 59bd ad5a 4cbd 84f2 cabc
00000210: fe8d 9fbc efae a4bb d4b9 c6bc f77c b1bd
00000220: 8e96 36bd c12f 733d 5f81 98bd 0610 8c3d
00000230: a2b9 08bd 5c19 c83c 9c74 6fbb adc2 ecbc
00000240: 9680 463d 5003 a5bd 6639 4e3d 6d4a 7dbd
00000250: 0e58 593d 44ca 3fbd 9ea3 a3bd bd74 3ebd
00000260: 2063 efbb 144e 543d b8d1 663c 545e b5bc
00000270: bf16 63bd a55c 03bd 079f c93c 8f75 6fbd
00000280: 76ab 0dbd 8611 c33d 13e9 ab3d cbec 1b3d
00000290: 62ef ccbb 684e a33c 744c 41bc 73f9 f7bc
000002a0: 4665 babd 535a a93d f266 3e3d 9b71 68bd
000002b0: 08f3 5cbd 5d09 1cbd ca94 373d cd24 c03d
000002c0: a0af cdbb 8af2 b6bd 82b5 45bd cf01 c5bd
000002d0: 813f ac3d 74b8 86bc 776a b63d aa23 28bd
000002e0: 4aac 34bd 567a 9cbd 5f7d 8abd 78cd e9bc
000002f0: 7d3d 98bd 2d8f c23d c412 e53c 5838 8f3d
00000300: a0f7 8bbd 87d1 993d 960a 2f3d 2dfd 013d
00000310: 76cd 4d3d ef82 abbd eaa2 80bd 1e06 1cbd
00000320: 99ae 8ebc 89d3 9abd 36b1 403d d783 143d
00000330: cda4 00bd fc4d 263d 4581 00bd 6db4 35bd
00000340: ccd3 a03d c739 e8bc 9d68 9e3d 5a07 5f3d
00000350: 0776 ad3d 1c21 be3d d120 8dbd 6d68 7abc
00000360: 91cd edbc 4322 7bbd 9380 04bd ae62 37bd
00000370: ae28 55bd 176f 473d da4d b8bd 2bc7 fabc
00000380: 5ba6 b23d e3a4 30bd 75e1 2bbc f8f0 1e3b
00000390: df2d 71bd 9f56 9b3d 1070 30bd e85c c33d
000003a0: 6d50 b0bd 70f9 793c c939 5ebd 9887 983d
000003b0: 9109 8dbd 52f6 2e3b fc22 77bd 4790 ef3c
000003c0: e691 61bd 02ab 803d 8ab4 32bd 47b1 56bd
000003d0: 8550 073b c1c5 75bd 35fa 1abd aee2 06bc
000003e0: 2d55 b93d e68e fabc 53c1 0f3d b217 4ebd
000003f0: 2c84 54bd 14d4 48bd a4b5 4cbd b00d edbb
-0.039132252 0.061109453 0.020840589 0.03294119 -0.09469129 -0.058564525 -0.096551195 0.05505776
-0.06782079 -0.08311684 0.07304163 0.027974728 -0.05394655 -0.044832956 -0.08247841 0.07494458
0.026071599 0.035510276 0.078122705 -0.09217214 0.06250287 -0.027218131 -0.09428122 -0.058827396
-0.08130651 0.071728386 -0.075263664 -0.09674986 0.004910286 -0.084919155 0.0715825 0.077155985
0.020575767 0.06356487 0.021319287 0.04230467 -0.0452213 0.0016177446 -0.059611637 0.08508914
0.08266427 -0.09599477 0.06088706 0.009705588 -0.013597831 0.030160235 -0.060329728 0.053645846
0.02482721 0.017161777 0.046194147 0.006786542 0.06662543 -0.08004167 0.016116949 -0.019248037
-0.04849106 0.07238653 0.012582931 -0.013941746 -0.05813248 -0.090374894 0.041356158 0.06517548
-0.068753704 -0.025261648 0.025383756 0.09288291 -0.08072593 0.072810955 -0.06179694 0.009743765
-0.05247831 0.020217173 -0.053647745 -0.07044209 -0.0014426187 0.07911468 -0.09006392 0.0055736303
0.046805657 -0.077847734 0.09129956 0.041361533 0.028802305 0.020397577 -0.021626463 0.02948673
0.0054265736 -0.07290896 0.008417015 -0.04760027 -0.0950803 -0.017711269 0.0035057752 -0.0013280652
0.008201203 0.035604857 -0.032520182 0.03526809 -0.05838244 -0.08073788 -0.022265181 0.03656947
-0.018219989 0.055399477 0.08240502 -0.03622294 -0.06985631 -0.002430547 0.08520667 -0.08392063
0.06589348 -0.07990659 0.010903937 -0.081931874 0.08423225 -0.042013522 -0.014346701 0.048872124
0.031589106 -0.06429154 -0.060908843 0.02063209 -0.055148195 -0.006078279 0.057414312 0.002109702
-0.060395963 -0.05312307 -0.049891163 -0.024773844 -0.019476887 -0.0050257365 -0.024258532 -0.08666413
-0.044577174 0.059371714 -0.074465506 0.06838994 -0.03338016 0.024426155 -0.003653801 -0.028901422
0.048462473 -0.080572724 0.05034771 -0.061838556 0.05306249 -0.046823755 -0.07990192 -0.04649805
-0.007305518 0.051832274 0.014088087 -0.022139706 -0.055441614 -0.032070775 0.024611963 -0.058461722
-0.034587346 0.09524827 0.08394065 0.03806762 -0.0062541226 0.019934848 -0.011798013 -0.030270314
-0.091013476 0.08269181 0.046484895 -0.056748968 -0.05394271 -0.038094867 0.04481963 0.09382019
-0.0062770396 -0.089329794 -0.048268802 -0.096194856 0.0841055 -0.016445376 0.08907025 -0.041049637
-0.04410962 -0.07640521 -0.06762194 -0.028540358 -0.07433603 0.09499965 0.02796305 0.069931686
-0.0683434 0.07510667 0.042734705 0.031735588 0.05024477 -0.08374583 -0.062810734 -0.03809177
-0.017417239 -0.075598784 0.047044 0.036258545 -0.031407166 0.040601715 -0.03137328 -0.04436152
0.07852897 -0.028347863 0.07734797 0.05445037 0.084697776 0.09283659 -0.06891025 -0.015283686
-0.029028686 -0.06131197 -0.03234918 -0.044771843 -0.05204075 0.048689928 -0.08999224 -0.030612549
0.08723136 -0.043126 -0.010490765 0.0024252515 -0.058881637 0.07584881 -0.04307562 0.09539205
-0.0860909 0.015257224 -0.054254327 0.074477375 -0.0688659 0.0026697111 -0.060336098 0.029243601
-0.05507078 0.06282617 -0.043629207 -0.05241516 0.0020647359 -0.060003046 -0.037836272 -0.008232756
0.09049449 -0.030585717 0.035096478 -0.050315566 -0.05188386 -0.04903038 -0.049977913 -0.0072342977

layer_stack.0.b2.2.bias f4 [12]
00000000: 3fbb 6bbc 4917 a13d f9cd 78bd 8f59 023d
00000010: 6195 92bd 7580 203b 9b89 22bd e0ef e2bc
00000020: 879f 563d ebcb a13d a8c9 1d3d be9c 313d
-0.014387905 0.078657694 -0.060743306 0.03182369 -0.07157398 0.002449063 -0.039682012 -0.027702272
0.05239823 0.079002224 0.038522393 0.04336237

layer_stack.0.b3.0.weight f4 [12, 1, 1, 1]
00000000: 3bf2 713f 2760 113f 0ed5 9f3c 4c28 b4be
00000010: c4f6 47bf ce36 1abf 547f 2ebf 5bc6 b13e
00000020: 62af 20bf f443 2cbf f093 aabe 6245 79bf
0.9451024 0.5678734 0.019510772 -0.35186994 -0.7811091 -0.60239875 -0.6816304 0.34721646
-0.6276761 -0.6729119 -0.33315992 -0.97371495

layer_stack.0.b3.0.bias f4 [12]
00000000: 9096 333f 33ee ee3e eb2a 7a3e 30a8 a7be
00000010: 101f 823e 50a7 08be 1b67 903e de49 08bf
00000020: ea3b 663f 9f6b 0a3f 63b3 503f 1d64 933e
0.70151615 0.46666107 0.24430434 -0.32745504 0.25414324 -0.13345075 0.28203663 -0.5323771
0.8993517 0.54070467 0.8152372 0.28787318

layer_stack.0.b3.2.weight f4 [12, 12, 5, 5]
00000000: 197d 8cbb 2ed5 50bb 52ce 73bd 3dda 91bb
00000010: 02ea 01bd 277c fc3b b2e7 35bc 2be8 81bd
00000020: e6ac 123d 62b5 18bd 86ec 39b9 4a8c 933c
00000030: 73a7 73bd f7ab c1bb 1e50 663c 0eba 663c
00000040: f803 3c3d feaf 0fbd 9979 213d 2070 2f3c
00000050: 989f 69bd a482 35bd 5dc6 62bd 721a db3c
00000060: fc09 44bd 0e4b e4bc 7500 14bd a6aa 313d
00000070: 7022 ecba 29d4 d73c 3758 1b3d 0236 7ebc
00000080: 8718 b9bc 1a84 153d d7c3 28bd 8940 a93c
00000090: ac82 603c d93b 933c 5b1b dc3c 33c0 10bd
000000a0: 38ad 7abd c5cc 37bd 3942 3d3c a4a5 dfbc
000000b0: 673e e83c 8acb 1a3d 3ef1 c7bc 71ba 9abb
000000c0: a3ad 533c a6d1 76bd cbf6 4f3d 83ac 643d
000000d0: e13c 01bd 6e62 b3bc 0d0c 60bd 1f9c 3a3d
000000e0: f713 d83c 4c57 f03c 4efc 2c3d 573d dfbc
000000f0: 14c0 c2bc d5bc 223c 21bb 363c 5af5 14bb
00000100: 84ad 2e3d 69bb 10bd fe93 803c a80f 1d3d
00000110: f421 0abd 1375 96bc 4ef7 613d 6f91 cf3c
00000120: 7763 d03c 9d0e 163d 803b 3d3d b2cf 85bc
00000130: f8c3 3b3c 40a4 c6bb 6071 d93a 4300 3dbd
00000140: 86e6 523d e0d3 ef3c 8481 c73c dac4 003d
00000150: c009 a53b 7907 21bd ec86 8b3c 562c 4b3d
00000160: 2d40 3abd d055 c03c 764b 143d 670f 42bd
00000170: 40ca 0d3a 6e41 073d 381a b5bc ab7e 52bd
00000180: 9057 b9bb 0005 ef3a ae64 41bd 9442 4dbc
00000190: 5bc4 693d 22cc 4abc b695 663d e531 3d3d
000001a0: 59cf edbc 93cc 3a3d 2872 db3c 060e b63c
000001b0: f265 43bd 7975 18bc 3380 68bd 9c40 e03c
000001c0: 4343 a83c 7e0b 14bd c4e1 8aba a79b db3c
000001d0: 8a8f 07bd af01 3bbc 873c 003d e387 47bd
000001e0: 40c4 29bd a942 283d 1738 62bd 740a bebc
000001f0: 370c 3c3c e02b 1fbd 2e44 b0bc 4679 81bc
00000200: 32c8 c4bc f4ef 4d3d 004e 09ba e8fc b73c
00000210: c2c8 96bc 88f7 a7bb 92b4 4f3d 2cee 513d
00000220: 4a0f 25bd da68 e9bc f0b2 85bb 2ef2 acbc
00000230: e830 263c e07e 453c 8ebc 4fbd 3ac4 65bd
00000240: e60d 593d 8819 0c3c f8d6 7dbc 7812 f43c
00000250: 2a29 193d aa4e 553d 5e3b 2a3d 6efb 55bd
00000260: 61ba dfbc 8e0c 97bc 0d30 60bd 2aa7 8abc
00000270: 7c39 5abd b3f8 fbbc bfbc d3bc 0d13 273c
00000280: a82d c23c 58b9 ea3c 974d cabc e5c1 9f3b
00000290: f742 9d3c 5ddd b2bc 7f85 1d3d 653d e83b
000002a0: f258 2fbd 7b76 9dbc 5b62 f03c d4a1 66bd
000002b0: 9471 a6bc 5642 bebb db9e 483d 80da 343c
000002c0: adc1 25bd 01d1 f23c 951e 3cbd 636d 4abd
000002d0: ebc7 85bb c0d8 133d a559 c9bc 7ab1 363c
000002e0: 2af9 193d 4eed 8d3c caa1 3cbd 7bf2 263c
000002f0: e07d cdbc 2b7c 393c e152 5cbd 56a0 a8bb
00000300: 36c2 bc3c aa86 82bd 029b a8bc c1c3 7bbc
00000310: f4c8 70bb 8078 7b3c d56c 43bd 4100 323d
00000320: ec40 0dbd b62a 003c e6ab b13c 2bd2 d23b
00000330: fa15 393d a975 50bb 2393 06bd 8e64 533a
00000340: 1d2d 9bbb 8f1c cebc 6484 4c3d 3f5f 9ebb
00000350: 5437 283c 1ef2 50bd 133d 743c 937c 023d
00000360: ff4d 1d3c 50dd fcbb 1f82 553d 481c e9bc
00000370: 03ef 0d3d 4a33 b6bc 9a0d 96bc b715 49bd
00000380: f876 af3c 9362 ec3c 0a14 253d c350 0e3d
00000390: d96b 9c3c 3431 a93c 418c 37bc 7be2 2a3d
000003a0: c897 0abd d5a8 08bd a8a0 b9bc 2970 f33b
000003b0: 52ae 1ebc c292 0d3d 7566 e7bc e48a 623a
000003c0: 1a05 a4bc a61d f23c 36a8 d8bb b724 41bd
000003d0: eccd 663d d790 023d 9dda 383c 9944 04bc
000003e0: ea46 683d 0e53 22bd c7dc 6a3c 32d2 f63c
000003f0: 941a 2b3d 756e 2e3c 8625 143b f7c2 5e3d
-0.0042873737 -0.0031865346 -0.059522934 -0.004451065 -0.031717308 0.00770523 -0.011102604 -0.06343111
0.03580942 -0.037282355 -0.00017731087 0.018011231 -0.059485864 -0.0059103924 0.014057187 0.014082445
0.045902222 -0.03507995 0.039422605 0.010707885 -0.057036966 -0.04431404 -0.055364955 0.026746009
-0.047861084 -0.02786782 -0.03613325 0.043375634 -0.0018015634 0.026346283 0.037925925 -0.015515806
-0.022594703 0.036502935 -0.041202392 0.020660656 0.01370303 0.017972874 0.026868513 -0.035339545
-0.06120035 -0.044873018 0.011551433 -0.027300663 0.028350068 0.037791766 -0.024407025 -0.0047219326
0.012919816 -0.06025853 0.05077247 0.055828582 -0.0315522 -0.02189752 -0.054698993 0.045559045
0.026376707 0.029338501 0.042232804 -0.027250929 -0.02377323 0.009932716 0.011153013 -0.0022729249
0.042645946 -0.03533498 0.015695568 0.03834501 -0.033723786 -0.018366372 0.05516749 0.025337903
0.025438054 0.03663503 0.04619932 -0.016334388 0.011460297 -0.0060620606 0.0016589575 -0.046142828
0.051489376 0.029275835 0.02435375 0.031437732 0.0050365627 -0.039313767 0.01703211 0.04960283
-0.04547136 0.023478419 0.036204778 -0.04737797 0.0005408861 0.033021383 -0.022107229 -0.05139033
-0.00565619 0.0018235743 -0.047215156 -0.0125280805 0.057072025 -0.012377771 0.05629512 0.04619016
-0.029029535 0.045605253 0.026787832 0.022223484 -0.047704645 -0.009305351 -0.056762885 0.027374558
0.020539885 -0.036143772 -0.0010595848 0.02680762 -0.033095874 -0.011413976 0.031307723 -0.048713576
-0.041446924 0.041079197 -0.055229273 -0.023198344 0.011477522 -0.0388602 -0.021516886 -0.015804898
-0.024021242 0.050277665 -0.0005237758 0.022459462 -0.018406276 -0.0051259436 0.050709315 0.05125253
-0.040297784 -0.02849238 -0.004080169 -0.021111574 0.010143496 0.012054175 -0.05071693 -0.05609534
0.05299177 0.008551009 -0.015493147 0.029793963 0.037392773 0.052076973 0.041560523 -0.052241735
-0.027310552 -0.018438604 -0.054733325 -0.016925413 -0.053277478 -0.030758237 -0.025846837 0.010197413
0.023703411 0.028652832 -0.0246952 0.004875409 0.01919697 -0.02183407 0.03845739 0.007087397
-0.042809434 -0.019221535 0.029343775 -0.056306675 -0.02031783 -0.0058062477 0.04897962 0.011038423
-0.040467907 0.029640676 -0.045927603 -0.049420726 -0.00408267 0.03609538 -0.024578879 0.011150712
0.037591137 0.01732507 -0.04605273 0.010189648 -0.025084436 0.011321108 -0.053789977 -0.0051460667
0.023041826 -0.063733414 -0.020581726 -0.015366496 -0.003674087 0.015348554 -0.047711212 0.043457273
-0.034485742 0.007822683 0.021688413 0.0064337454 0.045186974 -0.0031808412 -0.032855164 0.0008063995
-0.0047356025 -0.025160102 0.049930945 -0.0048331316 0.0102670975 -0.05101215 0.014907139 0.031857084
0.009601115 -0.007716812 0.052126046 -0.028455868 0.034651767 -0.022241253 -0.018317033 -0.049092975
0.021419033 0.028855598 0.040302314 0.03474499 0.019094395 0.020653345 -0.011202873 0.041719895
-0.033836156 -0.033364136 -0.022659615 0.007429142 -0.009685116 0.034563787 -0.028247098 0.0008641912
-0.020021964 0.029555153 -0.006611849 -0.047154155 0.056348726 0.03187641 0.01128259 -0.008072996
0.056708254 -0.03962999 0.014334864 0.030129526 0.041773394 0.010646452 0.0022605374 0.05438515

layer_stack.0.b3.2.bias f4 [12]
00000000: 5928 c03b c94b 333d 1856 48ba 66f2 ea3c
00000010: 2c1b 66bd f1fb 6f3c 9155 1abd c33f 113d
00000020: fbf0 193d a6c3 e7bc b83e 823b e1a7 babc
0.005864185 0.043773446 -0.00076422235 0.028680038 -0.056178257 0.01464747 -0.03767926 0.0354612
0.037583333 -0.028291535 0.003974762 -0.022785129

layer_stack.0.b4.1.weight f4 [12, 1, 1, 1]
00000000: 5805 3cbf e356 0f3f a708 043f e8f6 c2be
00000010: 2093 71bf c10c 39be 842b 0f3f fcf7 dfbe
00000020: dee8 5bbf c0fa 23bf 2c04 3cbf b07c ae3e
-0.73445654 0.55991954 0.515757 -0.38079 -0.9436512 -0.18071271 0.55925775 -0.43743885
-0.859022 -0.6405449 -0.73443866 0.34079504

layer_stack.0.b4.1.bias f4 [12]
00000000: 302a 66be eb55 f4be a2b5 1abf 5472 abbe
00000010: 79bc 693f c176 4d3f a40f 7e3d 4c36 52bf
00000020: 6bbf 623f fb1f 703f 94ea a13e b52b 7fbd
-0.22477031 -0.477218 -0.604334 -0.33485663 0.9130321 0.8025933 0.062026635 -0.821141
0.8857333 0.937988 0.3162428 -0.06229754

layer_stack.1.b1.0.weight f4 [64, 48, 1, 1]
00000000: c0d7 ccbc 3bfe 97bd 3a58 ffbb b7a6 9cbd
00000010: 79cb 9ebd c4af 663d 3247 2ebd 7c4f 0d3d
00000020: 38da a53d dff8 0ebe f223 b73d 3c98 093b
00000030: 3d7f 253c e913 073e ec08 6fbd e08b 843c
00000040: 3c89 c63d 2851 913c 3484 b5bc f926 ff3a
00000050: f3cd c83d f4eb 033d ec0b a3bd 4860 3bbd
00000060: ddb4 8cbd d9e2 c43c 7c5e 823d edd0 d5bd
00000070: 193a 5dbd 5d25 bcbd 035c 093e 0ce0 0bbe
00000080: b291 4fbd 21cd 10be 59af b13d e845 8839
00000090: 4c1f 6c3d c9dd a0bd b64c 5abd a221 c43d
000000a0: c34a a4bd fbcf fb3b f89a 6dbc 343b cdbc
000000b0: 4296 bb3d 7c34 fb3d 570d a5bd 3859 86bd
000000c0: 1571 5dbc 2cea aa3d c687 ccbd d454 f1bd
000000d0: 54f3 623d 6641 b6bd 1aca 06be efb0 27bc
000000e0: 55dd e5bc b2fb ee3d 1976 633d 25c5 e03d
000000f0: 2c1b c93d 9f0d 313c 5b64 abbd 18ea 843d
00000100: db83 253d 8b04 c7bc af76 e13c 78c6 ba3d
00000110: e57a b53d 0d3b 6b3d d93c b2bd 6906 763d
00000120: 5d16 3b3c 9826 393d f789 ff3d ed9d c73d
00000130: 5b85 acbd dc1f de3c 4726 163d 2ed1 b33d
00000140: 26f3 d33a 54b8 96bd 60df 57bd 4676 c43d
00000150: d004 ab3d ea14 673d 21f1 2dbc 2c62 91bd
00000160: f305 083d 80ea ccbc 2d69 04bd f054 0f3d
00000170: 809f abbc b296 99bc f0f7 1dbd 7906 2bbd
00000180: 9de6 e8bb 3a57 8fbd e265 be3d e1a4 703d
00000190: ee16 86bd eabb d23d 7bad 96bb 9824 53bd
000001a0: 57ca f03c 6e1c 53bd 0775 073d 0b8d 1abc
000001b0: 939f 0b3d 29f2 0f3e e660 183d 6cf2 7c3b
000001c0: f435 7dbc a1fb 983d 7ba4 163d ce2a b33d
000001d0: 7503 c63c 5da2 f6bd 1deb d73d 2bf4 9d3c
000001e0: e462 1a3c 72a6 193d def2 babd b0ed efbd
000001f0: 555f 60bd e07e 05be a73a 3fbc a50c 543d
00000200: 8f7d 53bd 8a97 d73d cc4c 4dbd b537 85bd
00000210: dc2c b1bc 0c5e bfbd d253 5bbd b0a1 823c
00000220: be62 38bd 142b d93d b9b6 5a3d 4c06 fa3d
00000230: f64e 74bd 3cc4 cebd fde9 6b3d 7df8 eb3b
00000240: f721 fc3d 00d6 5cba 0eb2 c839 82d2 0d3e
00000250: d2ca 6dbd f198 93bd 23ec df3d 949d e4bd
00000260: fd8d 3cbd 7a6b c43d b061 6d3b c212 0abd
00000270: 8d2d efbd 8935 f6bd 3f35 f7bd a6c8 bb3d
00000280: b428 98bd d7d1 86bd 0410 24bd 468d 8a3d
00000290: ad8d e03b 94c3 6b3d 913d 5ebd 60fc 5a3d
000002a0: 092f 08be 1ac3 02be 142b d9bb 1d4e 3a3d
000002b0: 89f0 343c 4241 98bd 3fe6 e13a 99fd 7b3d
000002c0: e92f 6d3d 5080 b93c 9d3b 033d 76dc aebd
000002d0: 4d4b c1bd 6018 bb3c 8344 953c 0c13 f8bd
000002e0: dd7b e43d f162 2f3d 1419 40bd a029 863c
000002f0: 1025 fcbd 284c ee3d 7e33 0f3e bc1d debd
00000300: e3f5 87bd 5859 a83c 821b b1bd d533 113c
00000310: 8390 3ebd 2e6c 96bd d448 bb3d 1fde b0bc
00000320: 21e3 d7bd 8796 95ba 640c b73c b296 5cbd
00000330: fef9 d9bc 952a 13be db9b 123e 27ad e2bd
00000340: da2b c2bd cd5c e63d bcca dc3d bda3 c9bd
00000350: a8a5 5a3d fbaf 8e3d 3cbb b0bd b2cf 0fbd
00000360: cfa4 99bd 8ee9 f03d 76d9 5c3d 514d 8e3d
00000370: 031f 143d beb2 cfbc 37b8 e7bd ffad 8fbd
00000380: e14e dabd 8c2f e23b 1181 52bd 5b3a b23c
00000390: ce8d 59bd 7f93 0c3e 25ff 15be fc0e d83d
000003a0: 00dd 6f3c 1da4 313c a5fe 34bc 4154 0cbe
000003b0: 4e98 0b3e 32c5 fe3d 081e b63d 4078 ddbd
000003c0: db3b 42bd 80a9 823c 6825 a5bd d601 b73d
000003d0: 652b 073e 9290 96bd 67c7 16bd 040d 81bd
000003e0: 6bae 53bd 01e3 efbd 5c78 10be cf1e 003e
000003f0: 0a1c e6bc e2ae cb3d 9328 d4bd 527c 0fbd
-0.025005221 -0.074215375 -0.0077925 -0.07648986 -0.07753653 0.056319967 -0.042548366 0.03449963
0.080982625 -0.13962124 0.08942403 0.002099528 0.010101137 0.13191189 -0.058358118 0.016179979
0.09694144 0.017738894 -0.022157766 0.0019466571 0.09804907 0.032207444 -0.07961258 -0.045746118
-0.068704344 0.02403395 0.06365678 -0.1044024 -0.054010484 -0.09186814 0.13414006 -0.13659686
-0.050676055 -0.1414075 0.08676023 0.00025992026 0.057647035 -0.07854802 -0.053295814 0.095767274
-0.08022072 0.0076847053 -0.014502279 -0.025052644 0.09159519 0.1226587 -0.08059185 -0.06559986
-0.01351573 0.08345446 -0.09986834 -0.11783758 0.055407837 -0.088991925 -0.13163033 -0.010235055
-0.02805964 0.11669101 0.05553255 0.10975102 0.09819636 0.01080647 -0.08368751 0.06489962
0.04040895 -0.024294158 0.027522413 0.09119886 0.08861331 0.057429362 -0.08703012 0.060064707
0.011418906 0.04520282 0.124774866 0.09746919 -0.08423873 0.027114801 0.036657598 0.08780132
0.0016170486 -0.073593765 -0.05270326 0.09592871 0.08350527 0.05641643 -0.010616572 -0.07098803
0.0332088 -0.025014162 -0.032326866 0.034993112 -0.020950079 -0.018748615 -0.03856653 -0.04175422
-0.0071075694 -0.06999059 0.09296776 0.05875099 -0.06547342 0.10289748 -0.004598317 -0.05154857
0.029393358 -0.051540785 0.03307059 -0.009433041 0.03408773 0.1405722 0.037201785 0.0038596643
-0.015454758 0.074698694 0.036777955 0.08748399 0.02417157 -0.12042687 0.10542891 0.019281467
0.009422991 0.03751225 -0.091283545 -0.11715257 -0.054778416 -0.1303668 -0.011671699 0.05176987
-0.051633414 0.10526951 -0.050122067 -0.06504766 -0.021627836 -0.0934411 -0.053546734 0.01594624
-0.045016043 0.106039196 0.053396914 0.12208232 -0.059645616 -0.100960225 0.057596195 0.007201253
0.12311166 -0.00084242225 0.00038279634 0.13849834 -0.058054753 -0.07206906 0.109337114 -0.11162868
-0.046033848 0.09590812 0.0036221556 -0.033709295 -0.1167861 -0.1202193 -0.12070703 0.0916913
-0.074296385 -0.065829925 -0.040054336 0.06765227 0.0068528266 0.057559565 -0.054257933 0.05346334
-0.13299192 -0.12769738 -0.0066274498 0.04548465 0.011043676 -0.07434322 0.0017234756 0.061521146
0.05790702 0.022644192 0.032039274 -0.08538143 -0.094381906 0.022838771 0.018221145 -0.12113008
0.111564375 0.042818967 -0.046898916 0.01637727 -0.123117566 0.116356194 0.13984486 -0.10845515
-0.06638696 0.020550415 -0.08647825 0.008862455 -0.046524536 -0.073448524 0.0914475 -0.02159029
-0.10541368 -0.0011412658 0.022344775 -0.05385465 -0.026608463 -0.14371713 0.14317267 -0.110681824
-0.0948102 0.11248169 0.10780856 -0.09845684 0.05338064 0.06967159 -0.08629462 -0.035110183
-0.07502138 0.11763297 0.053918324 0.06948341 0.036162388 -0.025353786 -0.11314433 -0.07015609
-0.10659576 0.0069026407 -0.05139262 0.021756342 -0.05311375 0.1372814 -0.14648111 0.10549733
0.014640093 0.01084235 -0.01104704 -0.13704015 0.13632318 0.12439956 0.08892447 -0.108139515
-0.047420364 0.015949965 -0.08063775 0.08935897 0.13200147 -0.07351793 -0.03681126 -0.06301311
-0.05168001 -0.117132194 -0.14108413 0.12511753 -0.028089542 0.099454656 -0.103593014 -0.03503067

layer_stack.1.b1.0.bias f4 [64]
00000000: 1a8d a8bd 058e c03d c56a fbbd 26cf e7bd
00000010: 2ce8 2c3d 2b1e 7a3d 1137 a03d cf33 f7bd
00000020: 0136 26bd 11aa 753c dc3c 953b 6a81 acbd
00000030: 3714 ffbd f2d2 d03d 7ec1 63bd 3f81 7ebc
00000040: f709 413d 5245 bf3d c931 043d 9fa9 25bd
00000050: c08e c63d 4828 e83c 099b 5d3b 27b1 cc3d
00000060: ab59 513c 647a d5bd 1629 bf3d dd8d a43c
00000070: edb6 d63d 06f2 f5bd 13b1 a83c e74f 223b
00000080: 8d5c f23d 24fe 0f3d 6648 0bbe c1a1 67bd
00000090: 033e e53d 67ad 11bb 0b1d d03c eda4 da3c
000000a0: 5186 8cbd 78be dbbd 42e1 12be ebce 153d
000000b0: 91e4 743c 7535 363c 6113 88bd ced0 e43d
000000c0: c73f 07be 8871 b7bd f79a 1cbd 2cf5 d1bd
000000d0: deaa 0e3e a82a e0bd 116d 06be a32b a43d
000000e0: e610 f73d 23e8 c1bc 61f7 0abe fcdc 87bd
000000f0: 0010 3b3c 2a3b 09be 3ceb c13d 21f9 893d
-0.08230038 0.09402088 -0.12276224 -0.11318807 0.042213604 0.061063927 0.07823003 -0.120704286
-0.040578846 0.01499416 0.004554374 -0.08423121 -0.124550276 0.101964846 -0.05560445 -0.015533744
0.047128644 0.09339394 0.03227404 -0.040444966 0.09695196 0.02833952 0.0033814332 0.09994727
0.012777726 -0.10423735 0.093340084 0.020087177 0.10484109 -0.12009053 0.020592248 0.0024766864
0.11834059 0.035154477 -0.13601837 -0.056550745 0.111934684 -0.00222286 0.025404474 0.02668997
-0.06861556 -0.107296884 -0.14343742 0.036574285 0.014947073 0.011121144 -0.06644321 0.11172639
-0.13207923 -0.08957201 -0.038233723 -0.10251841 0.13932368 -0.10945636 -0.13127543 0.080161355
0.1206377 -0.023670262 -0.1357093 -0.06633946 0.011417389 -0.13401476 0.094686955 0.06736971

layer_stack.1.b2.0.weight f4 [64, 48, 1, 1]
00000000: 1d90 3a3d ba72 28bd 9eb5 fd3a 0fc2 f73c
00000010: 382c f53d 18a3 893c cacb f33d 43d4 f13d
00000020: 4f55 febd 201d 303d 3b20 f7bd d2da d43d
00000030: 1b1d 9cbd 9fe3 a63d 5e27 0cbd 7f53 803d
00000040: 8ff8 0c3e ca28 04be 38ef e53d c30e 90bb
00000050: 4768 91bc ab23 e73b fd10 e0bc b2bf b7bd
00000060: e005 69bd 02a5 91ba ed16 44bd dfb4 bbbb
00000070: aba7 7d3d 336b d4bd 4f08 51bd bb97 65bd
00000080: 1054 af3d 6499 ccbb 3e84 413c 1fe4 97bd
00000090: 002d 84bd e576 9dbc 8456 42bd c0bc 893d
000000a0: a62b 8cbd a5bf ca3d 0c9c 863d 9085 1dbc
000000b0: d35b 1a3c 137c 2bbc 2ea3 053d 1f9e 3e3b
000000c0: 844b f13d e887 02be c854 c33d fb9a 2c3c
000000d0: 217b 86bd 027f 9b3d 98f4 333d 18d1 8e3c
000000e0: fea0 863d efc9 b23d 7ad7 03be d6e9 52bd
000000f0: b84e 053e 061c b6bd a879 643d d6e3 b23d
00000100: 6505 d4bd 5936 253d dcc1 27bd 79ee dc3d
00000110: 84db 0e3e d3f0 3d3d d1b5 0bbe b817 853d
00000120: bcaf ff3d 5493 b33d ca8b ab3a 58ba 883d
00000130: 4c2f 04be 254b acbd 95fa a03d 14e8 a53d
00000140: a8a2 a23d edf3 a6bd 5652 d3bd 373e d3bd
00000150: 2059 77bc f4d1 00be cb67 a03c 686b 143d
00000160: 93ad 0f3e 5be9 0ebe 84a3 e4bc 8037 90bc
00000170: f69f ca3d d07a 2cbd d950 6abd 5489 23bd
00000180: f63c 6bbd bcb2 06be 7577 4dbd 7072 033e
00000190: 91af b83d ce10 943d 220c 863d 6db5 dfbd
000001a0: 2e4a ebbd 1467 0ebe f45a babd 582c ccbd
000001b0: 2e82 b7bc 6e30 083e 5585 c13c 4182 673d
000001c0: 9e4e ddbc e9a3 95bd 3f15 123d 9267 403d
000001d0: 0bb6 973d 4aee 08be 7e4d 3a3d 19eb db3d
000001e0: def8 cebd b9b9 d7bd 8b88 10be 4699 153d
000001f0: a652 b9bd fc55 9a3d f5f7 8b3d ae46 443d
00000200: 7154 d13d 2147 b63d 5900 0f3e 98ab 15bd
00000210: 6adc 003e 6f7d e53b 0b7d 13be e821 01bd
00000220: 8604 04be ddad b1bd d825 bd3d 9ca6 d4bc
00000230: 9981 b9bd 7958 2e3c d1d9 43bd 630a 47bc
00000240: 4f18 ae3d 8cde b0bd d2b0 683d d69b 9dbd
00000250: 207e 11bd 684b febd 3476 00be 2023 a63b
00000260: d186 88bd fa6a 0ebe 8bf9 82bd 8e5d 113e
00000270: 4f3d e4bd 4df3 32bd ac30 813d 107f abba
00000280: d302 ad3d 726c afbd ad12 cbbd 1732 f1bc
00000290: 828b 033d b934 cfbd 6423 313d 607a 8ebb
000002a0: c8b1 9b3d 2383 f13d e437 7c3d 2ad2 ac3c
000002b0: 8772 80bd eac8 49bd b327 dcbb 56c3 dbbd
000002c0: e39f 6d3d feae 39bd f778 f7bd ab37 7a3d
000002d0: 9fe2 dabd 8c43 abba 4890 8a3c 7cbf f0bc
000002e0: eb63 fb3c 10b1 7cbc d90a 7dbd a01c ea3b
000002f0: 5c5f 263d 0180 c4bd 25da 7d3d fc7b 85bd
00000300: bb5d 8abd 0c04 da3d be81 61bd 535c 203e
00000310: ce6b 12be 00be 3cbc ef2a e43d d462 833d
00000320: 0eca cebd 674f f73d 46fb 3ebc 23e5 993d
00000330: abb9 b83b 5235 26bd 1268 793d 23eb b43d
00000340: 0968 093e c453 8a3d 739e adbd dc38 83bd
00000350: 24a7 043e ec55 e7bd 1564 e3bc 4bf9 d9bd
00000360: f29f 293c dae1 9cbc 618d e93d be9d b63c
00000370: bbb6 593d 49ed f83d ae0e 08be d8b2 043e
00000380: bb5b e73b aaea 5abd ca50 d83d a16d e33d
00000390: 0046 c43c 606d e6bc 9c1e f83d 1033 f13d
000003a0: aada 9e3d b6c8 03bd 74a7 e5bd 605f d93c
000003b0: c008 2cbb fd39 eebd dcc2 033d c93c c03a
000003c0: 15d5 9e3c c46c debc da56 afbc 7123 403d
000003d0: b6dd 86bd f867 e6bd 4392 c1bd fe8c 8d3c
000003e0: 3e61 01be e718 993c 4e45 b0bd 5ff0 113d
000003f0: 0c33 db3d eb95 9abd ad9e 94bd 55bc a9bd
0.045547593 -0.041125037 0.0019356494 0.030243902 0.11971325 0.016801402 0.11904104 0.11808064
-0.12418615 0.042996526 -0.12066694 0.10393299 -0.07622739 0.08148884 -0.03421723 0.062659256
0.13766693 -0.12906185 0.11227268 -0.004396291 -0.017749919 0.0070538125 -0.02735185 -0.0897211
-0.05689037 -0.0011111798 -0.047873426 -0.0057283486 0.06192748 -0.10372009 -0.051033314 -0.056052905
0.085609555 -0.0062438715 0.011811314 -0.074165575 -0.064538956 -0.019221732 -0.04744579 0.06725454
-0.06844263 0.098998345 0.06572732 -0.009614363 0.009421307 -0.010466593 0.032626323 0.0029085947
0.117819816 -0.12747157 0.09537655 0.010534997 -0.06566454 0.07592584 0.043934435 0.017433688
0.065736756 0.08729922 -0.12875167 -0.051492535 0.1301831 -0.08892064 0.055780083 0.087348625
-0.103525914 0.040335033 -0.040956363 0.107876725 0.13950926 0.046372246 -0.13643576 0.064986646
0.124846905 0.08768335 0.0013087925 0.06676167 -0.12908667 -0.0841277 0.07860295 0.08100906
0.079411805 -0.08151994 -0.10318439 -0.10314601 -0.015096933 -0.12580091 0.019580742 0.036235243
0.14031057 -0.13956206 -0.027910002 -0.01760459 0.098937914 -0.04210931 -0.05720601 -0.03992589
-0.057431184 -0.13154119 -0.05016275 0.12836623 0.09017862 0.07229768 0.06545283 -0.10923276
-0.11488758 -0.13906509 -0.09099379 -0.099693954 -0.022400942 0.13299724 0.023623148 0.056520704
-0.027015027 -0.07306654 0.035664793 0.046973772 0.07407769 -0.1337215 0.04548406 0.10738201
-0.101060614 -0.10533471 -0.14114587 0.036523126 -0.09048967 0.075359315 0.068344034 0.047918968
0.10221184 0.089002855 0.13964976 -0.036540598 0.12584081 0.0070034782 -0.14403169 -0.031526476
-0.1289235 -0.0867574 0.09235734 -0.025958352 -0.09057922 0.010641211 -0.047815148 -0.0121484725
0.0850073 -0.086361974 0.056809254 -0.07695739 -0.035520673 -0.12416726 -0.12545091 0.005070105
-0.06666339 -0.13907996 -0.06395253 0.14195845 -0.11144506 -0.04368906 0.063081115 -0.0013084132
0.08447804 -0.08565606 -0.099156715 -0.02944283 0.032115467 -0.10117478 0.04324664 -0.0043480843
0.076022685 0.117925905 0.06157674 0.021096308 -0.06271844 -0.049263872 -0.0067185997 -0.10730617
0.058013808 -0.0453329 -0.12083619 0.061088245 -0.10687756 -0.0013066395 0.016914502 -0.029388182
0.030687293 -0.015423074 -0.061777923 0.0071445256 0.040618286 -0.09594727 0.061975617 -0.06517789
-0.06756159 0.10645303 -0.055055372 0.15660219 -0.14298937 -0.011519909 0.111410014 0.06415334
-0.100971326 0.12075692 -0.011656588 0.075144075 0.0056373677 -0.040578194 0.060890265 0.08833911
0.13418593 0.06754258 -0.084774874 -0.064073294 0.12954384 -0.11295685 -0.027757684 -0.10643252
0.010353075 -0.019150663 0.11403919 0.022292014 0.05315278 0.121546336 -0.1328685 0.12958848
0.0070604957 -0.05344645 0.10562284 0.111048944 0.02395916 -0.028128326 0.12115213 0.117773175
0.077565506 -0.032173835 -0.1121358 0.026534736 -0.0026250333 -0.11632154 0.032168254 0.0014666553
0.019388715 -0.027151473 -0.021403719 0.0469088 -0.06585257 -0.11250299 -0.09451725 0.017279144
-0.12634751 0.018688632 -0.08606969 0.035629626 0.10703096 -0.07548126 -0.072568275 -0.082878746

layer_stack.1.b2.0.bias f4 [64]
00000000: 45f9 dabd 91a3 9fbd 46a4 2abd 4b00 7a3b
00000010: ba97 253d 6dec 8d3d 9edd 73bd 78a5 453d
00000020: d183 9e3c f7c0 eebd b6cb 10be c743 3fbd
00000030: 349c 343c fedc 063e 2c1d 09bd badc fa3c
00000040: 848c 9bbc 5df1 05be c949 0b3e 73db 0e3e
00000050: 7a86 10bd 73a8 0fbd 8bed 06be c8bd 503c
00000060: 001a e1bd 6064 143e 778d 89bd dc1a bc3a
00000070: 4b69 cb3d 7329 03be dc8c 9ebd db3b ba3d
00000080: 5cce a73d e853 14be 69ff c63d a047 fd3d
00000090: b255 103c 7ad7 2f3b 2ddb 8fbd 8823 e9bd
000000a0: 892e dfbd 1e5e f43d 1c8e aabd 2bcb 063e
000000b0: 2d23 103e 3a5c d53d cf02 30bd 4353 fd3d
000000c0: 1a5c 8f3d cf99 51bd b1bc 553d 540e 47bd
000000d0: ca2f 053e 5528 a5bd 6afb fb3b 6363 ef3c
000000e0: 17db 07be bc7e 0abe 6642 0ebe c033 07be
000000f0: dfc8 c6bd 37a0 dfbd 0185 e4bd 404e e5bd
-0.10692076 -0.0779487 -0.04166057 0.0038147147 0.0404279 0.0692986 -0.059537522 0.048253506
0.019349964 -0.11657899 -0.1414021 -0.046695497 0.01102357 0.1317024 -0.033475086 0.030622829
-0.018987902 -0.13080354 0.13602366 0.139509 -0.035284497 -0.035072755 -0.13176553 0.01274056
-0.10991287 0.14491415 -0.067164354 0.0014351266 0.099321924 -0.1280878 -0.077417105 0.09093448
0.08193657 -0.14485133 0.09716684 0.12367177 0.008809494 0.0026831315 -0.07024226 -0.1138373
-0.10897548 0.11932014 -0.083278865 0.1316344 0.14075918 0.104179814 -0.04297143 0.123693965
0.06999989 -0.051172074 0.052181903 -0.04859765 0.13006511 -0.08064333 0.007689883 0.029222196
-0.1326717 -0.13524908 -0.13892516 -0.13203335 -0.09706282 -0.109192304 -0.11158181 -0.11196566

layer_stack.1.b2.2.weight f4 [64, 64, 3, 3]
00000000: a0dd f23c 3daf 8abc e364 bcbc 4b32 303c
00000010: 4245 803c 40a2 15bd 7263 22bd 593b 19bd
00000020: 9293 14bd b611 04bd 1733 fa3b 2171 a4bc
00000030: 75e7 a9bc edd0 1a3c 27cd 7eb9 1177 613c
00000040: aca5 d9bc a909 1f3c 235c 00bd 3fd3 423c
00000050: 3126 9bbc 0b7e 15bc d222 83bb 1027 513a
00000060: 0b07 023d 2431 23bd 3e63 06bd d2b7 97bc
00000070: 3d63 d43b 60ca 15bd 48bf 9fbc 83ad 04bd
00000080: f9e4 0bbd 9d2b ccbc 037d f3bc 96ca 913c
00000090: cd89 6f3c a42a 5abc 6c55 6dbc b159 0dbd
000000a0: 8a03 90bc bfbf c9bb 82d4 0bbd 96df ffbc
000000b0: e5bf f6bc 9f15 153d e2ea f93c 99b8 bd3c
000000c0: e316 483c 56d5 ef3b 6c56 f3bc d385 34bc
000000d0: 804e c1bc 42dd 13bc 4648 233d 02a7 95bc
000000e0: 831b 8cbc 378c 243d 9586 293d 6965 093d
000000f0: ef05 1dbd c490 05bd c38e 273d 82e7 4d3c
00000100: 8867 843c 5b10 583c c804 e2bc f28b 12bd
00000110: 2351 dcbc 2111 9f3c dc14 0b3b f186 9c3c
00000120: 99e9 ddbc 963b 093d 4b98 0f3d b827 0d3d
00000130: 91c8 91bc 42b2 273c cc1a dd3c bdc2 f43c
00000140: 6dc5 b33c 1554 2cbd 01b4 efbb 9cfc 913b
00000150: e0f3 0dbb 925e 003c c624 a93c 84d1 10bd
00000160: f6d1 a9bc bfd0 babb a63f 13bd d0d3 083d
00000170: e0f2 efbb a59f 813c fd9c 953c a78f 813c
00000180: 9e23 73ba d955 233c 94bf 3dbc 7276 ef3c
00000190: 6dfe 493c f0de cabc 34d0 c5bc b290 ae3c
000001a0: 803b cfbc 707d d2bb 7ee2 e1bc c866 26bd
000001b0: 7993 123d 4c01 253d a0c4 8b3c 00e7 233d
000001c0: 94b0 06bd 2db6 8c3c e11a 2b3c a1e7 a13c
000001d0: 86b3 093c 5ab9 edbc d485 6c3c 6454 1c3d
000001e0: d55d 9ebc e1f2 0b3d 0f52 f2bc 9741 0dbd
000001f0: 4d55 2dbd f506 8b3c 86e1 a63a 03a2 dabb
00000200: 6e2d adbc bb13 09bc fb52 09bd cb5a 56bc
00000210: e688 143c e7ce 1c3d 986e 99bc 616c f7bc
00000220: 3982 0d3d 53fd 07bd 836b f03c 522f cd3c
00000230: fc7f 7b3c 2c43 1cbc d55d 5fbc c574 01bc
00000240: 5aec 1abc 3259 5fbc 61cb 213d 6317 24bd
00000250: c697 18bd 303a aebc f14f 033d 53db 27bd
00000260: ea70 a33c 31d8 23bd 96b8 d93c 55d4 be3c
00000270: d76e 37bc 181c 9dbb c4ed 3a3b 94db c03c
00000280: 403d 043d 4648 273d 25c0 0fbd 4c32 8f3b
00000290: c721 d43c 991b eabc e584 8dbc 5a65 feba
000002a0: d6d2 0e3b 1499 7d3c 4aa9 0d3b 6e2b 70ba
000002b0: 27ac 333c 18cf d93c 1248 11bd d3d0 90bb
000002c0: 46cc cdbc fcda cdbc 8ec1 033d ecd9 20bb
000002d0: c204 b63c 7830 093d 8a6f ec3c 864b 26bd
000002e0: 19cd b93c c0db 9cbc 51b6 663c 9747 16bc
000002f0: 336a a2bc 1593 91bb e7a9 173d d980 bdbc
00000300: 9279 3f3b e9b6 8fbc e617 ac3c fde7 68bc
00000310: 9256 663c 20bb f53c 471f db3c cee7 b93b
00000320: f25e 413c 58cd 1d3c 8146 c63b 36a9 00bd
00000330: 7aef 963c 73cf a7bc c61a 13bc 4597 5bbc
00000340: 068a d23b 8eb3 f4ba f308 223d 1510 943c
00000350: c627 1e3d a86f b03c 9b8c 5d3c a2f9 e63c
00000360: 66ee 94bb 2429 04bd 4f49 4b3c da69 103c
00000370: ab12 b5bc 5bb9 843c 5b25 07bc 6b9e 01bd
00000380: 8251 8d3b 6d4e e33c 5c3e 203c e947 b93c
00000390: 7684 afbc 9451 343c 0ff2 29bc 0b00 643a
000003a0: 1b7f 0f3d 3624 5bbc 4126 38bc c67b 4bbb
000003b0: b978 26bd f310 15bd 636b 4bb9 585b 8fbc
000003c0: df6f 0bbd c497 b53c ffe4 5d3b 0b73 3cbc
000003d0: 41e7 c43c 3100 e438 0397 1c3d 63ae 283c
000003e0: a1f1 a13c 3d0d 5d3a 0881 143d bbcf c9bc
000003f0: 60f9 e43c 7ed8 3e3c 2149 03bd 43dc 04bd
0.029646695 -0.016929263 -0.022997325 0.010754178 0.015658025 -0.036531687 -0.03964562 -0.037410114
-0.036273547 -0.032243453 0.007635485 -0.020073475 -0.02074025 0.009449226 -0.00024299753 0.013761298
-0.026568256 0.009706893 -0.03133787 0.011891185 -0.01893911 -0.009124289 -0.0040019536 0.0007978538
0.031744998 -0.039841786 -0.03280949 -0.01852027 0.0064815567 -0.036569953 -0.01950039 -0.032392036
-0.034153912 -0.02492314 -0.029722696 0.017796796 0.014620257 -0.01331583 -0.014485698 -0.034509365
-0.017579813 -0.006156891 -0.03413821 -0.031234544 -0.0301208 0.036397573 0.030507509 0.023159312
0.012212488 0.007319133 -0.029704295 -0.011018234 -0.023597002 -0.00902492 0.039863847 -0.018268112
-0.017102962 0.04017278 0.041388113 0.033543978 -0.038335737 -0.032608762 0.040907633 0.012567403
0.016162649 0.013187493 -0.02759017 -0.035777994 -0.026894158 0.019417347 0.002122215 0.019107314
-0.027088927 0.03350409 0.035057347 0.034461707 -0.017795833 0.010235371 0.026990317 0.029878015
0.021944726 -0.042072374 -0.0073151593 0.004455162 -0.0021660253 0.007835047 0.020647418 -0.03535606
-0.02073 -0.005701154 -0.03594937 0.033405125 -0.007322654 0.015823195 0.018263334 0.01581557
-0.0009275022 0.009969198 -0.01158132 0.029231284 0.012328726 -0.024764508 -0.02414713 0.02130923
-0.025296926 -0.0064236447 -0.02757382 -0.040625364 0.035785172 0.04028444 0.017061532 0.04001522
-0.03288324 0.017176712 0.01044342 0.01976377 0.008404618 -0.029019047 0.014436204 0.03816642
-0.019331852 0.034167174 -0.029580144 -0.03448638 -0.042317677 0.01697109 0.0012732006 -0.0066721453
-0.021139827 -0.0083665205 -0.033526402 -0.01308317 0.009065842 0.038283255 -0.018729493 -0.030203046
0.034548018 -0.033200573 0.02934814 0.025046978 0.015350338 -0.009537499 -0.013633211 -0.007901375
-0.009455765 -0.013632106 0.039500598 -0.040061366 -0.037254117 -0.02126798 0.03205866 -0.04098065
0.019951303 -0.040001098 0.026577275 0.023294607 -0.01119586 -0.004794609 0.0028523067 0.023542203
0.032284975 0.04084041 -0.035095353 0.0043700095 0.025895013 -0.028577613 -0.017275283 -0.0019408867
0.0021793148 0.015478391 0.0021615797 -0.0009161745 0.010966337 0.026588008 -0.035469122 -0.004419425
-0.02512182 -0.025128834 0.03216701 -0.0024543954 0.022219066 0.03349349 0.02886178 -0.04059937
0.022680806 -0.019147754 0.014081554 -0.009172342 -0.01982603 -0.0044425824 0.037027266 -0.023132728
0.0029216749 -0.017543273 0.02100749 -0.014215467 0.014058726 0.029996455 0.026748313 0.005673385
0.011802422 0.009631477 0.006050885 -0.031411372 0.018424738 -0.020484662 -0.008978551 -0.013402765
0.006425145 -0.0018669234 0.039559316 0.018074075 0.03861215 0.021537617 0.0135222925 0.028195206
-0.004545021 -0.032265797 0.012407615 0.0088142995 -0.022103628 0.016201666 -0.008248652 -0.03164522
0.004312695 0.027747357 0.009780493 0.022617297 -0.021425467 0.011005778 -0.010372653 0.0008697516
0.035033327 -0.013375333 -0.011239589 -0.0031049117 -0.040642474 -0.036393117 -0.00019399593 -0.01749961
-0.034042235 0.022167094 0.0033858416 -0.011502038 0.024036052 0.00010871923 0.038229953 0.010295483
0.019768538 0.00084324536 0.036255866 -0.024635186 0.027950943 0.011648295 -0.032052163 -0.03243662

layer_stack.1.b2.2.bias f4 [64]
00000000: 46a4 1f3d 52ff febc 8659 083d 7cc5 07bd
00000010: add9 20bd 83e0 703a 3b14 0a3d 59ad a13c
00000020: c63f 18bd 4447 543b 03af bbbc ec52 09bc
00000030: 4035 1fbd a6fb ef3c d6c3 c1ba c88b 143d
00000040: cd6d 1ebd 5674 b53c a176 ed3b b76f 083c
00000050: 8c1e eabc 849f a7bc 4143 3fba a93f 6c38
00000060: b815 c33c d911 a4bb be85 0fbc 46ab 8e3c
00000070: 3a7a 40ba e251 283d 6088 edbc 756b a9bc
00000080: 26ab c2bc 5605 1abc 6c38 aabc b497 453c
00000090: a3c6 553c ec89 12bd 0edd c8bc fd88 fbbc
000000a0: a0f6 0ebd e044 1e3d 50e5 1bbc 2ea3 113d
000000b0: bbf7 74bb 973e e43c 1d84 f4bc f1b5 213d
000000c0: 2535 16bd dc10 24bd 51b5 62bc ea0b 233d
000000d0: eb40 14bd b75f 9d3a eb6d 04bd d422 063d
000000e0: 0266 943c 7bdc 1bbc 4128 963b 97b4 06bd
000000f0: 830b 7bbc a5c5 14bd a2c4 1ebd f6ca 1b3d
0.038975023 -0.031127606 0.0332885 -0.03314732 -0.03927009 0.0009188728 0.0337107 0.019735979
-0.037170194 0.003239111 -0.0229106 -0.0083815865 -0.038869143 0.0292948 -0.0014783095 0.03626612
-0.038678933 0.0221502 0.0072468077 0.008327416 -0.028579019 -0.020461805 -0.00072960934 5.6326073e-05
0.023814067 -0.0050070104 -0.008759914 0.017415654 -0.0007342432 0.041093715 -0.028995693 -0.020681122
-0.02376325 -0.009400686 -0.020778857 0.012060095 0.013047847 -0.035776064 -0.02451947 -0.03070497
-0.03490317 0.038639903 -0.009515122 0.03555601 -0.0037379104 0.027861876 -0.029848153 0.039480153
-0.036671776 -0.04005514 -0.0138371745 0.039806284 -0.036194723 0.0012006675 -0.03233139 0.03274806
0.018115047 -0.009513016 0.0045824354 -0.032887068 -0.015322569 -0.0363213 -0.038761742 0.038035356

layer_stack.1.b3.0.weight f4 [64, 48, 1, 1]
00000000: ed56 093d 0824 633d ad30 07be a5ab 1cbd
00000010: 27bb 333d a8e7 9fbd ad0e 5ebd 0975 863c
00000020: 03d4 a83c 0816 a9bd f544 88bd 0169 27bb
00000030: 2425 303d 0ed9 9ebd 2bf3 d73c 8c07 aebd
00000040: 3a88 efbd a9a4 4d3d f240 cfbb 90d1 223c
00000050: 389c 6b3d aa89 ccbc ccb6 0a3e 9549 67bd
00000060: 31d4 f5bd f2be eb3d 2714 973c 115c 4fbd
00000070: 1ac9 023e b4f5 6d3d f3da c83d 4856 863d
00000080: b750 a63c b079 57bd e7ef 0ebe facf 463c
00000090: 8bf4 fcbd 0c7d f13d 9808 6dbc c06c 513b
000000a0: 5b85 eebc 5fd8 11be 3ff5 f0bd c462 d03d
000000b0: d588 133e 6e34 95bb 1997 12bd 2f13 0cbe
000000c0: 71ed 1bbd 2859 9fbc 5020 043b b72f 5d3c
000000d0: 59f0 72bd 04c4 7c3d 1a2a d33d d305 6a3d
000000e0: 1e09 13be b6bd 02be 2fa0 d9bc b7c4 053e
000000f0: 513e 0bbe 59b7 d73c 90fd 98bd 7f2a 40bd
00000100: 725e 2f3d 7a2c 213d d357 e13d e46d 9a3d
00000110: b720 60bd 5154 e4bd b972 dd3d d0d1 b9bd
00000120: 663c eb3d 388b a1bd 94fb 0d3e 23dd dbbb
00000130: 040d fb3c 9d14 b4bd 8366 7bbd 1a70 e93d
00000140: 941f c63d fce4 743d 56ab c7bb 914d fc3d
00000150: a32c cbbd d4cb 17be 4013 08bd bc5a 15bd
00000160: a0ec f6bd 2aa6 8b3d 0b0d 03bc 0001 f63a
00000170: 8102 e83d d1ad 1ebd 3e1c 35bd 207c 023e
00000180: c079 693d ecd9 71bd fcca dcbc f52f 5ebd
00000190: 87ba 2d3d 2cdb 02be fe92 fe3c d389 143e
000001a0: 2a89 d03d b0a4 0fbe af8c 6fbd 5a4d a03d
000001b0: fa1c babd 57a5 e53d a96b 843c 3cec 933c
000001c0: f8d6 e73d 53a0 993d 9876 92bd fd4a c33c
000001d0: 56bd d6bc 1014 513c b6a6 b63d 4021 7bbd
000001e0: 3c38 c4bc 64fa 3fbd 7234 8c3d 2df5 0fbe
000001f0: c822 1abd b3b4 03be ace5 84bd 28c8 0fbe
00000200: 2d9e 3e3c 7411 15bd c12f 5b3d 383a b03c
00000210: 6bed 8abd 7865 343d 0990 103e 1cee ec3d
00000220: d276 31bd b2b7 0c3e 65a0 67bb 0040 87b7
00000230: f2f0 aebd 7173 67bd 7687 b0bd 5561 aabd
00000240: de43 3fbc f024 f5bd 7496 e73d cef1 7e3d
00000250: 08c7 81bd da6b 26bd c04b ec3c e8b9 923c
00000260: a0b6 d5bd 2ed8 b23d 7f54 00be fd70 63bd
00000270: 3fb6 5d3d 5778 d43d 2e38 e33d c9d4 d9bd
00000280: f3c2 cdbd 71d5 99bc 8a5b c33d bfa9 00be
00000290: 5d72 b5bd 32ba 72bd 1c8b f5bc 1839 e63d
000002a0: 5d34 eb3d 9634 33bc 4baa a0bd c943 90bd
000002b0: 1038 0a3e cd26 c8bd 00bb 8a3c 648f 903d
000002c0: ad2c 18bd 0440 553d 0286 0dbe 5f94 9e3d
000002d0: fb00 89bd b265 09be f25c 13be 98f8 063e
000002e0: eb64 87bd 9bb1 9c3d 5b62 3cbd c0b6 7ebd
000002f0: 8a10 033d 63dd 76bd 0191 d13d 96b5 a4bc
00000300: 6ea0 dbbd 807f c33c 307d bfbd 4528 603c
00000310: 97b2 41bd 6811 79bd 877b b83d af83 d53d
00000320: 787c 8fbd d53c cfbc f707 ce3d de39 d73d
00000330: cbd3 5f3d b96c 13bd e106 6dbd 6d6f 103c
00000340: c4d7 f03d ef32 f53d 05b9 c9bd a5c4 ce3d
00000350: 0608 803d 69ca 9fbd aa09 89bc 89d2 01be
00000360: 1c40 023e dbe8 e83d 84b7 d439 1973 043d
00000370: fcc2 0d3d b679 9abd 4813 843d 7ace 90bd
00000380: 5090 243d 1390 0ebe 0bec 04be 084f 793d
00000390: 2086 8bbc 2d82 b6bc 9e34 0fbd 00e8 f5bc
000003a0: 97d6 d5bd f417 233d 7f26 7d3c 1c48 133d
000003b0: a506 2fbd 9353 b23d 2f1b 79bb caa1 853d
000003c0: 6bbd a73d 0062 91bd 72b1 d03d f1e0 cebd
000003d0: ed4d 71bd 7f91 a9bd 0bfd 3c3d 1800 0b3e
000003e0: 9f1f 63bd 3df1 d7bc 0679 96bc 2714 fcbd
000003f0: cc26 cabd 93b8 ce3c 03b1 0cbd df55 df3d
0.033530165 0.055454284 -0.13202162 -0.03824963 0.043879654 -0.07807857 -0.054213215 0.016413229
0.020608908 -0.08256155 -0.066537775 -0.0025544765 0.04300417 -0.07756244 0.026361069 -0.08497533
-0.11695905 0.05020586 -0.0063248808 0.009937659 0.05752203 -0.024967987 0.13546294 -0.056466658
-0.12003363 0.11511029 0.018442227 -0.05062491 0.12772027 0.05809565 0.09807386 0.065594256
0.02030216 -0.052606285 -0.13958703 0.012134546 -0.1235133 0.11791429 -0.014467381 0.003195569
-0.029116323 -0.14242695 -0.11765527 0.10175088 0.14407666 -0.0045533692 -0.03578863 -0.13679193
-0.03806824 -0.019451693 0.0020160861 0.013500146 -0.059311245 0.061710373 0.103107646 0.05713446
-0.14358947 -0.12767681 -0.02656564 0.13063322 -0.1359799 0.026332544 -0.07470238 -0.046915527
0.04281468 0.039349057 0.11003079 0.07540491 -0.0547187 -0.111488946 0.10812897 -0.09073222
0.114861295 -0.07887882 0.138655 -0.006709711 0.030645855 -0.08792994 -0.06137706 0.11398335
0.09673992 0.05978869 -0.006093423 0.12319482 -0.09920623 -0.14823848 -0.033221483 -0.036463484
-0.120568514 0.06818803 -0.007998715 0.0018768609 0.113286026 -0.038739983 -0.044216387 0.12742662
0.057000875 -0.059045717 -0.02695226 -0.054244954 0.042414214 -0.1277892 0.03107595 0.14505701
0.10182412 -0.14027667 -0.058483776 0.07827254 -0.09087558 0.11213177 0.016164618 0.018056981
0.11320299 0.075012825 -0.07151526 0.023839468 -0.02621333 0.012761131 0.08918516 -0.061311007
-0.023952596 -0.04686965 0.06845941 -0.14058371 -0.037630826 -0.128619 -0.06489119 -0.14041197
0.011634392 -0.036393598 0.05351234 0.021512136 -0.06783565 0.04404208 0.14117445 0.11568853
-0.043326207 0.13741949 -0.0035343405 -1.6123056e-05 -0.085420504 -0.056506578 -0.08619587 -0.08319346
-0.011673896 -0.11969936 0.113079935 0.06224232 -0.0633679 -0.0406302 0.028844714 0.017910913
-0.104352236 0.08732639 -0.12532233 -0.055527676 0.05412888 0.103745155 0.110947 -0.10636289
-0.10046949 -0.018778535 0.09538944 -0.12564753 -0.08859704 -0.0592596 -0.02997356 0.112413585
0.11484597 -0.01093783 -0.07844981 -0.07044179 0.13497949 -0.09773026 0.016934872 0.070585996
-0.03715198 0.052063003 -0.13820651 0.07743143 -0.0668964 -0.134177 -0.14390925 0.13180768
-0.066110454 0.07651063 -0.045992237 -0.062186003 0.031998195 -0.060269725 0.102327354 -0.020106118
-0.10723959 0.023864508 -0.093500495 0.013681476 -0.047289457 -0.060807616 0.09007936 0.10425507
-0.070061624 -0.025297562 0.10060113 0.10509084 0.05464534 -0.035992358 -0.05786789 0.0088156285
0.11759904 0.119726054 -0.09849743 0.10096101 0.0625153 -0.078022785 -0.016728241 -0.12677969
0.12719768 0.11372539 0.0004057252 0.03233633 0.03460978 -0.07542746 0.0644899 -0.07070632
0.04017669 -0.13922147 -0.12980668 0.060866386 -0.01703173 -0.02227887 -0.03496229 -0.030017853
-0.104413204 0.039817765 0.015451073 0.03595744 -0.042730946 0.08707347 -0.0038010587 0.065249994
0.081904255 -0.0709877 0.10190095 -0.10101498 -0.058912206 -0.08279704 0.046139758 0.13574255
-0.055450078 -0.026360149 -0.018368255 -0.12308531 -0.09870681 0.025234496 -0.0343485 0.109050505

layer_stack.1.b3.0.bias f4 [64]
00000000: f8e7 bebd c3a7 903d 8dee 09be 2596 6f3d
00000010: 8614 0e3e 855e c43d 6a22 8a3c 842f 373d
00000020: 61a0 953c 44a4 c5bc 2a98 c13d 83db f5bb
00000030: 0a43 0cbe fd1d d33b 5f83 723d 8425 a9bd
00000040: feeb df3d eb4a 003e 9790 cabd 6862 9cbc
00000050: 9bad 03be aaf3 f33d c516 bfbc e1ee 09bd
00000060: a84e 573d 0060 043e 3ceb 853d 897d 04be
00000070: b23b 113e 42c6 d2bd 61f3 55bc bf23 0cbe
00000080: 44dd bdbd a9bb d43d 23fc 0d3e 2ab9 a73d
00000090: f4cf 0fbe 23ac 21bd 2230 e8bd 3aa8 72bc
000000a0: 9077 95bd 7b7b a63d a3cc 243d a35f e13d
000000b0: 3ee7 11be 3de4 d33d 9ac2 c23d d7c6 d0bc
000000c0: e058 94bd 277d 80bd 75a4 9b3d 4ac2 b03c
000000d0: 3548 d73d 731e 01be f56a 4d3d fca8 7a3d
000000e0: ab02 603d e515 eebd 7d9d 4bbd 4b58 a33d
000000f0: cb88 833d 7b89 dcbd f748 913d d0cd 9ebd
-0.09321588 0.07063248 -0.13469906 0.0584928 0.13875017 0.09588341 0.016862113 0.04472305
0.018264951 -0.02412618 0.09452851 -0.0075029745 -0.13697448 0.006442784 0.059207316 -0.08259109
0.10933684 0.12528579 -0.098908596 -0.019089893 -0.12859194 0.119117096 -0.023326287 -0.03367508
0.052565247 0.12927246 0.06539008 -0.12938513 0.14182928 -0.10291721 -0.013058514 -0.13685511
-0.09270719 0.10387356 0.13865714 0.08189614 -0.14044172 -0.039470803 -0.113373056 -0.014810616
-0.07298195 0.08129021 0.04023422 0.110045694 -0.14248368 0.10346267 0.095097736 -0.02548544
-0.07243514 -0.06273871 0.07599727 0.02157702 0.10511819 -0.12609272 0.05015083 0.061196312
0.054690044 -0.1162527 -0.04971074 0.07975825 0.064225756 -0.1076841 0.07093995 -0.07754099
