lotsaconvs/nets/minigoog2.pt (torch, 768143 bytes, 26 tensors)

layer_stack.0.b1.0.weight f4 [12, 1, 1, 1]
000000 05 35 00 3f bc 4f f5 be 44 fa 00 be 9a 2e d3 be
       0.500809 -0.47912395 -0.12595469 -0.41246492
000010 64 8d a3 3c f2 55 4e 3f 5f ac b0 3e d0 c7 9e 3e
       0.019964881 0.8059989 0.3450651 0.3101182
000020 44 78 36 bf 17 74 47 3e 65 43 1a bf ea cb 40 bf
       -0.7127726 0.19477879 -0.60259086 -0.7531115

layer_stack.0.b1.0.bias f4 [12]
000000 73 14 4f bf 27 27 ea 3e 87 79 4b 3f 6f 20 2a 3f
       -0.8089058 0.45732996 0.7948231 0.6645574
000010 32 a2 4f be 24 b8 a2 3e 7c 27 2f 3f 12 38 b0 be
       -0.20276716 0.31781113 0.68419623 -0.34417778
000020 78 81 41 be 02 34 5d bf b0 04 6f 3f 05 29 3f 3f
       -0.18897045 -0.8640748 0.9336653 0.74671966

layer_stack.0.b2.0.weight f4 [12, 1, 1, 1]
000000 01 5f c0 3d b2 6d 00 bf 01 55 30 3f 1c 55 de be
       0.093931206 -0.5016738 0.68879706 -0.43424308
000010 d7 d4 c7 be 68 4a 04 be 60 72 21 bf e2 ad 5e bf
       -0.3902957 -0.12919009 -0.6306515 -0.86984074
000020 7a ed 6d 3f 9b be 9b 3e 22 a4 63 3f 1e 62 2d 3d
       0.92940485 0.30418858 0.8892232 0.0423299

layer_stack.0.b2.0.bias f4 [12]
000000 90 ac 64 bf 01 93 95 3d f2 d5 75 bf ec 07 58 bf
       -0.8932581 0.073034294 -0.9602958 -0.8438709
000010 29 32 2e 3f 64 35 8a be 34 e9 5e bf a4 c3 aa be
       0.6804529 -0.2699386 -0.8707459 -0.33352387
000020 32 70 14 3f 1e e9 aa be ed a6 75 3f a0 4e 52 3f
       0.57983696 -0.3338098 0.95957834 0.8215122

layer_stack.0.b2.2.weight f4 [12, 12, 3, 3]
000000 19 04 8e 3d b4 b9 c4 bd 9e cb 8c bb 80 76 b2 3d
       0.06934375 -0.096057326 -0.004296734 0.08714008
000010 40 5b 4f 3d 14 f1 6e bd c3 85 1f 3c 81 01 1e 3c
       0.050624132 -0.05833538 0.009736481 0.009643913
000020 b2 4d d8 bc 72 c1 9b 3d 0f 5f 46 bd b6 65 23 3d
       -0.026404236 0.07605256 -0.0484305 0.03989192
000030 e9 38 05 bc c6 69 99 bc 24 b0 b4 3d 04 ab dc bc
       -0.008131244 -0.018727195 0.08822659 -0.026937015
000040 b1 c4 b4 bc a5 a8 c8 bc bb 6b 8c 3d 83 b3 17 bd
       -0.022066446 -0.024494478 0.068564855 -0.03703643
000050 bc 0c 92 bd 22 12 31 3d ea 93 75 3d 72 1a b6 bd
       -0.07131335 0.043230183 0.059955515 -0.08891763
000060 12 87 eb 3d 21 75 b0 3b c3 f4 ab 39 33 f3 9a bd
       0.11500372 0.0053850566 0.00032798023 -0.07565918
000070 ed eb 05 3d 76 02 05 bd 71 66 2f 3d 48 9f 45 3b
       0.0326957 -0.03247305 0.042822305 0.0030154753
000080 e1 14 a4 bd 40 26 d3 bc 52 bb 84 3d 0d 18 15 bd
       -0.08011795 -0.025775075 0.06481041 -0.03639989
000090 b8 60 a8 3d 35 3b 69 3d 37 32 0c bd 09 9b cd 3c
       0.08221573 0.05694123 -0.034227576 0.02509834
0000a0 a5 8b 3b 3c 63 f2 84 3d f9 13 84 3b 89 73 b5 bb
       0.011446868 0.06491544 0.0040307012 -0.0055374545
0000b0 d8 de 0c bd 34 57 4a bd ba 37 91 3d 94 78 82 bc
       -0.034392208 -0.04939957 0.07090707 -0.015926637
0000c0 4c 17 3d 3d 73 a4 d3 3c 28 94 a6 3d d8 07 96 bb
       0.046164796 0.025835251 0.08133727 -0.0045785718
0000d0 25 17 01 bc ea 6d da bb e2 d0 0a bd 66 5c 26 bd
       -0.007879053 -0.006665935 -0.033890612 -0.04061546
0000e0 98 c9 d3 3c 37 83 8d bd 79 73 c2 3d 27 97 54 bd
       0.025852963 -0.06909793 0.09494681 -0.051901963
0000f0 48 c0 7a 3d 49 5a 08 3d 8c 3a 2e bd 5c 3f 5d 3d
       0.06121853 0.033289228 -0.042536303 0.054015502
000100 57 16 d5 bc 53 0c c9 3c 88 d7 ea bc 26 63 0d 3c
       -0.026011629 0.02454201 -0.028667226 0.008629596
000110 eb 80 e8 bc f9 97 7f 3d cb d1 94 3d 93 2c 94 bd
       -0.028381785 0.06240079 0.07266577 -0.07235064
000120 26 c6 35 3d 8b 86 ec bb 8b c3 6d bd e2 fb 99 3c
       0.044378422 -0.007218187 -0.058047812 0.018796865
000130 70 be 24 bd 67 50 4e bd cd 7e e0 3d 07 1a 56 3d
       -0.040220678 -0.050369646 0.10961685 0.052270915
000140 39 99 72 3d 2e 44 ab 3d e5 7a c4 bd c3 dd d3 3c
       0.059228156 0.083626136 -0.09593753 0.02586258
000150 8f 16 9b 3d 18 e3 31 3d b0 a2 3e 3b 50 7d cf 3d
       0.07572662 0.043429464 0.0029088669 0.10131323
000160 27 4a bf 3d 25 fb 30 bd a9 c2 1b bd 7b 2f 71 bd
       0.09340315 -0.04320826 -0.03802744 -0.05888317
000170 49 0b c8 bd 72 83 07 bd f4 e7 6d bd 13 fc c7 bd
       -0.097677775 -0.03308434 -0.058082536 -0.09764876
000180 98 fb 06 3d 53 51 b0 bc 10 34 97 bd 2d 9c ef 3c
       0.032954782 -0.021523153 -0.07382977 0.029249275
000190 cd d9 93 3d 87 c9 c1 3d c1 3b 86 3d 3e 25 37 3c
       0.072192766 0.094622664 0.06554366 0.011178313
0001a0 35 f8 89 3c 05 d4 f7 3b 69 b3 a5 bd 68 55 87 bd
       0.016841987 0.0075631165 -0.080908604 -0.06608087
0001b0 51 f8 c1 bb 41 8c c8 3d a0 31 c5 3d 93 5b aa bd
       -0.005919494 0.09792376 0.09628606 -0.08318248
0001c0 57 c9 c7 3c 64 68 40 bd 87 1b ae 3c c3 45 07 3d
       0.024387999 -0.046974555 0.02125336 0.033025514
0001d0 6c 5f 74 bd 52 a2 e7 bb 80 b3 fc 3b e2 c6 75 3d
       -0.059661314 -0.0070689106 0.0077118278 0.060004123
0001e0 a9 b8 8c 3d ed 45 8a 3d cf 32 c2 3d fd 27 74 3d
       0.06871159 0.067516185 0.09482347 0.05960845
0001f0 f8 2e b2 bd 25 9f 6e bd b9 66 6b 3d 60 6d 84 bd
       -0.08700365 -0.05825724 0.05747101 -0.06466174
000200 f1 5b 4a 3c e8 97 80 bd 11 8a bc bd c9 7e fa bc
       0.012351022 -0.06278974 -0.092060216 -0.030578034
000210 c6 8f 7d bd 61 4a a4 bc d4 0a 32 3c 50 89 8e 3d
       -0.06190469 -0.020054998 0.010866839 0.06959784
000220 d9 75 44 bc aa d0 94 3d 29 b0 b2 3c d8 12 c2 3c
       -0.011990988 0.07266362 0.021812515 0.023690626
000230 3f aa 63 bd 59 5b 49 bd 5b b2 18 bd ed 8f 2b bd
       -0.05558228 -0.04915938 -0.037279468 -0.041885305
000240 9b 07 45 3d 05 87 55 bd f9 b4 50 3d 69 71 32 3d
       0.048102956 -0.052130718 0.05095384 0.043565188
000250 5e 48 73 3d 56 46 69 bc 8e 6d c2 bd d5 dc 30 bd
       0.059395187 -0.014237961 -0.09493552 -0.04317935
000260 37 14 ac 3d 98 3e 36 3d c8 13 59 3d 5e b3 4e 3d
       0.08402293 0.044493288 0.05299738 0.050464027
000270 a1 88 01 3d 9a e5 ba 3d d8 e0 87 3d 91 30 82 3d
       0.03162444 0.09125824 0.066346824 0.063569196
000280 db 11 74 bd 17 b2 ba 3d 81 09 4a 3d 34 e1 8e 3d
       -0.05958734 0.09115999 0.04932547 0.06976548
000290 7a 37 82 bd a5 c2 ac bd ae c2 35 3c 99 8a 93 bd
       -0.063582376 -0.08435563 0.011093779 -0.0720417
0002a0 48 4a 40 bd af a0 a9 3d 48 0e 35 bd 50 4d 54 bd
       -0.04694584 0.08282601 -0.044203073 -0.051831543
0002b0 ba c9 31 3d 0d ef 37 bc 5b 40 af 3d 9d d6 92 bd
       0.043405272 -0.011226428 0.08557197 -0.071698405
0002c0 16 d3 83 bd c7 d0 85 3d 2b 71 10 3d 27 18 21 3d
       -0.06436746 0.06533962 0.035264175 0.039329674
0002d0 42 65 00 3d 2f cd e1 3d 09 9b c2 3d da 0d 11 3d
       0.031346567 0.11025464 0.09502227 0.0354136
0002e0 3b 96 ac bd 3d 31 1b 3d a9 74 89 3d 19 1d 9a bd
       -0.08427092 0.037888754 0.06711704 -0.07525081
0002f0 a7 6a 67 3c 63 b4 3e 3c 2b c0 af 3c 26 3f c5 3d
       0.014124549 0.011639687 0.021453938 0.09631185
000300 41 37 95 bd 09 31 cc 3b 09 ba 4d 3d fb a7 8b 3d
       -0.072859295 0.0062314314 0.050226245 0.06819149
000310 94 9f 20 3d e0 68 39 bd ab 0e b1 bc c9 5e b2 3d
       0.039214686 -0.045266032 -0.02161344 0.08709485
000320 07 66 49 bd 58 7c 9f bd fd 44 6d 3d b7 70 6d bc
       -0.049169566 -0.077873886 0.05792712 -0.014492205
000330 33 cc 94 bd 42 0c 1b 3c ff c8 f2 bd d2 17 64 bd
       -0.072655104 0.009463372 -0.11854743 -0.05568678
000340 60 6d 54 bd 19 4b ac 3d d3 54 a9 3b ad f0 05 bd
       -0.05186212 0.08412761 0.0051675825 -0.03270023
000350 24 8e c7 bc c6 5d 86 3d 1d 9a 63 bc 34 2d 66 3d
       -0.02435977 0.065608546 -0.013891724 0.056195453
000360 27 f1 e8 bc c2 55 be 3d 2c 51 6b 3d 67 1c 12 3c
       -0.028435303 0.09293701 0.05745046 0.008917904
000370 09 cb 75 3d 31 57 b6 bd 0e 4e c9 3c 83 8f 20 3d
       0.060008083 -0.08903349 0.024573352 0.039199363
000380 d6 97 5e bd 1b da e9 bc b2 f4 e5 bc 53 b4 1c 3d
       -0.05434402 -0.028546384 -0.028070781 0.038257908
000390 cd bb 5d 3d ae 9a 3b 3d 48 50 ec 3c 09 31 8c bd
       0.05413418 0.04580181 0.028846875 -0.0684529
0003a0 eb 28 41 bb 2f 98 5a 3c ac 41 64 3b ea 9a ac 3d
       -0.0029473852 0.013341947 0.0034829183 0.08427985
0003b0 36 a0 fd 3d ea 28 2b bd 84 7c b9 bd 91 d6 13 3d
       0.123840734 -0.041787066 -0.090569526 0.0360933
0003c0 60 24 96 bd 1b 3e 8c bd 20 fb 04 3a de ba 7f bd
       -0.07331157 -0.06847783 0.0005072821 -0.06243407
0003d0 eb 2c 93 bc c4 b6 02 bd 60 fc b9 bd 70 2a a8 3c
       -0.017965754 -0.03191258 -0.0908134 0.020528048
0003e0 62 11 86 3c 72 d7 cf 3a 4f c1 f2 3b 39 df 60 3d
       0.01636571 0.0015857054 0.007408298 0.05490038
0003f0 b1 be 0a bd 64 d5 61 bd 4d c5 12 bd 9e c8 8b 3d
       -0.033873264 -0.055135146 -0.035832692 0.06825374

layer_stack.0.b2.2.bias f4 [12]
000000 66 d3 a2 3d 46 83 3d bd a2 78 94 bc 5f 9c ad bd
       0.07950477 -0.04626777 -0.018123928 -0.08477091
000010 b3 31 00 bd 19 b8 31 bd 6c 5b 9e 3c 34 64 94 3d
       -0.031297397 -0.04338846 0.019330703 0.07245675
000020 a9 d1 25 3d 73 5b 8d bd 82 04 01 3d 98 7d 1a 3d
       0.04048315 -0.06902208 0.03149844 0.03771743

layer_stack.0.b3.0.weight f4 [12, 1, 1, 1]
000000 f9 e7 8a 3e c2 97 12 3f c4 6b ac 3d 6e 3f 09 bf
       0.27130106 0.57262814 0.08418992 -0.5361241
000010 e0 e1 13 bf fa 58 1c bf 58 b2 6e bf 26 cc 0e bf
       -0.5776653 -0.6107327 -0.9324088 -0.55780256
000020 1c 11 a7 be 74 74 06 3e 18 68 64 be 64 99 b6 3e
       -0.3263024 0.13130361 -0.22305334 0.35663903

layer_stack.0.b3.0.bias f4 [12]
000000 15 a8 f6 be c0 59 0a bf 86 cc d3 be 76 47 02 3e
       -0.4817511 -0.540432 -0.41366976 0.12722573
000010 0a 1f 9f 3e 46 b0 73 bf c9 0a 34 3f 58 32 3c be
       0.31078368 -0.95190847 0.70328957 -0.1837858
000020 47 e5 71 3f 43 1b d6 bd 28 9c 12 bf ba 8c 08 bf
       0.94490474 -0.104544185 -0.57269526 -0.5333973

layer_stack.0.b3.2.weight f4 [12, 12, 5, 5]
000000 5b 7a 0a 3d 6e dd 13 bd c5 ec f6 bc 30 61 ff bc
       0.033808094 -0.036099844 -0.030142197 -0.031174272
000010 37 82 94 bc ac e6 3c 3d 75 d6 53 bd a0 06 37 bb
       -0.018128498 0.046118423 -0.051718194 -0.0027927533
000020 43 7a 47 3d 71 3b cf 3c ba eb be 3c ce d1 26 bd
       0.048700582 0.025296899 0.023305763 -0.04072743
000030 0c 4a 35 3c bb e6 85 bc 70 3f a0 bb 15 19 1c bd
       0.011065017 -0.016345372 -0.004890375 -0.038109858
000040 52 8b c8 bc 1e 7e 37 3c cb c7 3f bd e6 ee 96 3c
       -0.024480496 0.011199502 -0.046821397 0.018424463
000050 9b 37 15 bd 5f 2f e3 3c e8 23 d3 bb f3 bc 1b bd
       -0.036429983 0.02773255 -0.0064434893 -0.038021993
000060 75 42 56 bc 0d 9d 03 bd 46 f7 1e bd 96 03 83 3d
       -0.013077368 -0.032132197 -0.038810037 0.06397168
000070 b9 c3 f3 3b 3f 2f 5f 3c b4 21 3f bc 0b d4 04 bd
       0.0074391034 0.013622104 -0.01166575 -0.032428782
000080 32 6c 2e 3c 09 77 ff bb 55 92 68 bc 6d 5e 6c bc
       0.010645913 -0.0077961725 -0.0141950445 -0.01442681
000090 95 bf 15 bd ba 0e dc 3c e5 b4 05 3c 8f 2b 74 3c
       -0.03655966 0.02686249 0.008160804 0.014902963
0000a0 13 3d 2f bd 31 12 58 bc e0 0b af 3b f6 bf 63 3d
       -0.042782854 -0.013187931 0.005341992 0.05560299
0000b0 87 23 fe 3b ae 9b 8c bc bf 22 f2 3c fd 93 6a bb
       0.0077557 -0.017164078 0.029557584 -0.0035793774
0000c0 fe ff 67 bc 2e 59 22 bd 0d fb b9 bb 55 bb 95 bb
       -0.014160154 -0.03963583 -0.0056756795 -0.004569451
0000d0 57 b1 7b 3c e0 ca 3c 3d 99 e1 69 3c f8 c3 d2 3c
       0.015362105 0.046091914 0.014274978 0.02572821
0000e0 bd 23 1a bc 39 8c 38 bd e7 66 a7 bc 8e 2b 7e 3c
       -0.009407935 -0.0450556 -0.02043481 0.015513314
0000f0 4d bf 93 bc 0d b8 f1 bb 7f 53 08 3c 07 ff d6 3c
       -0.018035555 -0.007376677 0.008320688 0.026244653
000100 b8 f6 2e 3d 15 a2 5e 3d f0 21 db ba e5 7a 0f 3d
       0.042715758 0.054353792 -0.0016718488 0.03502931
000110 8a 89 37 bd e2 e5 64 bd 01 87 43 3d f6 d5 25 3d
       -0.0448089 -0.055883296 0.04773617 0.040487252
000120 71 3d 08 bd b1 eb a2 bb a9 b1 c5 3b 1a c5 09 3d
       -0.03326172 -0.0049719443 0.0060331416 0.033635236
000130 5f 78 2c 3d 63 af bc 3c a2 de 17 3d e3 16 54 3d
       0.042106982 0.02303285 0.037077554 0.05177964
000140 71 ce 70 bc ae 57 bd bc b1 29 5d bd 40 11 1e 3d
       -0.014697657 -0.023113098 -0.05399484 0.03859067
000150 ba 94 69 bb ac 27 f4 bc fc 63 70 bc 20 c2 c2 bc
       -0.0035641626 -0.029804073 -0.014672276 -0.023774207
000160 19 fd 17 3d dd 88 20 bd 42 2d 6a 3d 9f 3b a2 3c
       0.037106607 -0.039193023 0.057172067 0.01980382
000170 2b 90 63 3d 1d 45 47 3d 8e b7 be b7 51 2a 10 3d
       0.05555741 0.048649896 -2.273524e-05 0.035196606
000180 9d 87 5a 3d f0 e9 9a bc 2e 90 76 ba ad 8d 1e bd
       0.053351987 -0.018910378 -0.000940564 -0.03870933
000190 ee 5a 12 bd 9d 0e 4a bd 9a 22 3d bd 53 ff 4e 3d
       -0.03573125 -0.049330343 -0.046175577 0.050536465
0001a0 9f b0 32 3d 6e 8f 45 bd f8 77 5f 3d 86 5b 1d 3d
       0.04362547 -0.04823249 0.05455777 0.03841736
0001b0 d3 d5 30 3d 67 4f f5 3c a5 0d 26 bd a6 9f 0d 3c
       0.04317267 0.029945089 -0.040540356 0.00864402
0001c0 94 4b ad 3b 8f 1a 6a 3d 22 02 09 3d 27 49 27 bd
       0.0052885506 0.057154234 0.0334493 -0.040841248
0001d0 16 c8 3c 3d 5b 32 8e 3b 87 d8 9f 3c e5 65 4a 3c
       0.046089254 0.004339499 0.019512428 0.012353395
0001e0 e2 03 15 bc ec 57 1c 3d a4 0b 59 3d 11 45 00 bd
       -0.009095164 0.038169786 0.052989617 -0.031315867
0001f0 1a 12 46 bd 2f 18 40 bc 4e 0e 24 bc 17 cc 03 3d
       -0.048357107 -0.011724516 -0.010013176 0.032177057
000200 c0 96 d0 3c 2f 4e 24 bd 4b f0 9f 3a da f9 ae 3c
       0.025462508 -0.040113624 0.001220235 0.021359373
000210 a8 ab d8 3b e5 94 49 bc 22 c3 55 3c c6 d5 3d bd
       0.00661226 -0.012303566 0.013047012 -0.04634645
000220 3b d2 19 3c 2f 33 3b 3d 8a 78 06 3c 10 48 5b 3d
       0.009388502 0.04570311 0.00820745 0.05353552
000230 0c 77 53 bc f9 f8 fc bb 24 f2 1f 3c 50 c1 ae bc
       -0.012906801 -0.0077201095 0.009762321 -0.021332413
000240 d7 0c e7 bc f8 2f cb bb 58 52 fe bc 3b d4 fb bc
       -0.028204365 -0.0062007867 -0.031045124 -0.030740848
000250 98 58 3d 3d 8d 23 20 3d 72 a8 90 3c a6 a3 71 bc
       0.046227068 0.039096404 0.017658446 -0.0147484895
000260 f6 ab 13 bd c1 0c 76 3a 6b ab 2d 3c 47 ab 6b 3d
       -0.036052667 0.0009386056 0.010599951 0.05753639
000270 61 71 be bc 33 79 3f 3d 8a 50 10 3d 79 c9 54 3d
       -0.023247423 0.046746444 0.035233058 0.05194995
000280 ed fe 93 bc 1c e3 89 bc 84 9e 2b 3d 22 d5 7f bc
       -0.018065894 -0.016831927 0.04189922 -0.01561478
000290 cf 92 2e 3d 09 8a 94 3b 05 7f 85 bc 7c 20 46 3d
       0.042620476 0.0045330566 -0.01629592 0.048370823
0002a0 2a 28 a9 3a de 2f e4 3b 07 6e 72 bb 0e 45 23 3c
       0.0012905647 0.006963714 -0.003699185 0.009965194
0002b0 e9 c7 0c bd 49 2d ac bc 8e b0 d5 bc d7 41 93 3c
       -0.034370337 -0.021017687 -0.026085164 0.01797573
0002c0 09 49 f9 bc 6f 44 5d bd 0d 0d 33 bc 9b 42 c9 3c
       -0.030430334 -0.05402034 -0.0109284045 0.024567893
0002d0 b4 5c a6 bc d9 cd f1 bc 8e e9 69 3c 26 27 1e bd
       -0.020307876 -0.029517101 0.014276875 -0.038611554
0002e0 61 6e b7 3b 42 83 ab 39 2d a6 5b bd 46 df 4d 3c
       0.005597875 0.00032713456 -0.053625274 0.01256544
0002f0 56 a3 da 3c 4e 59 8f 39 1f 5a 2b bd ba 18 59 bd
       0.026689213 0.00027341623 -0.041833993 -0.053002097
000300 99 18 b8 bc d7 26 1d 3d a9 9f a7 bc b1 cd 29 3d
       -0.022472667 0.03836712 -0.020461874 0.04145593
000310 2d 58 57 3b 2e 87 68 3d 8b 3a 5b 3d f0 d6 21 bd
       0.0032858953 0.056769542 0.053522628 -0.03951162
000320 09 0d 0f ba 21 c4 49 3d da d3 65 bd 8f e0 9f 3c
       -0.00054569595 0.04925931 -0.05611024 0.019516258
000330 b8 b4 6a 3d df 7d 40 3d cb de 69 3d d7 ea 39 bd
       0.057301253 0.04699504 0.057097238 -0.045389976
000340 88 bf 65 3d 14 a6 4c bd 71 39 e8 bb ee 10 9b 3b
       0.05609086 -0.049963072 -0.0070869257 0.004732243
000350 4a 26 2a 3d 9b 11 37 bd ec e8 36 3d 16 e8 66 3d
       0.04154042 -0.044694524 0.044655725 0.05637368
000360 e4 0e 22 bc ec eb 2d bd 3b 9f 78 bc 47 eb 7b bb
       -0.0098912455 -0.04246132 -0.015174682 -0.0038439797
000370 47 9b 85 3c d7 22 bf bb a1 4d 55 bd 11 83 09 bb
       0.016309394 -0.0058330107 -0.052075986 -0.0020982663
000380 0e 64 13 3d ca 7c 4e 3c 3d 20 94 bb 81 03 b7 bc
       0.03598409 0.012602994 -0.0045204447 -0.022340538
000390 c0 50 fa bc 0c d8 5e bd 8a cc c5 bc da 95 34 3d
       -0.030556083 -0.054405257 -0.024145383 0.044088222
0003a0 33 c3 cc 3c e4 37 d5 3c 06 ad 2b bd 77 b7 ab 3b
       0.024995422 0.026027627 -0.041913055 0.0052403766
0003b0 32 0c 09 bd 20 29 35 3b 7b bc 45 3d 5e bd 67 bd
       -0.033458896 0.002764292 0.048275452 -0.05657708
0003c0 61 cc 83 3c 2b ef 5a 3d ad 99 64 3d f2 d4 8b ba
       0.016088666 0.053450745 0.05581062 -0.0010668321
0003d0 a5 36 01 3b 30 cd 76 b9 dd ec 06 bc 6e 2c de 3c
       0.0019716409 -0.00023536826 -0.008235184 0.027120795
0003e0 26 bb 2b 3c 80 7d bb 3c b4 22 07 3d 98 2c ac bc
       0.010481631 0.022886992 0.03299208 -0.021017358
0003f0 bc f2 60 3d 6d 94 01 bd 9d fb 64 3c 09 7e 34 3a
       0.05491899 -0.03163569 0.013976005 0.0006885236

layer_stack.0.b3.2.bias f4 [12]
000000 44 e1 f5 3c 68 1e 42 bc 3f 91 4e 3d 58 91 9a bb
       0.030014642 -0.01184807 0.050431486 -0.0047170334
000010 cc 3c d9 bc 2b d1 1d 3d 47 28 03 bd 01 7e cc bc
       -0.026518248 0.038529556 -0.032020833 -0.024962427
000020 5e cb 23 3c 2e 79 01 3d aa 5d 81 bc a1 86 a2 3b
       0.009997217 0.031609707 -0.015791733 0.0049598967

layer_stack.0.b4.1.weight f4 [12, 1, 1, 1]
000000 4c e9 c6 be e0 8d 12 3f b5 68 4f be d8 05 c5 be
       -0.38849866 0.57247734 -0.20254786 -0.3848102
000010 96 9d 71 bf b2 4d 2a bf 0c 36 2d 3e f9 6c 62 be
       -0.9438108 -0.66524804 0.16915148 -0.22111882
000020 d4 68 c2 be d4 f4 52 3f ad e7 63 3f 88 c5 a7 be
       -0.37970603 0.8240483 0.89025384 -0.32767892

layer_stack.0.b4.1.bias f4 [12]
000000 2a 46 19 bf f2 59 d2 be e7 18 bc 3e 78 29 7c 3e
       -0.59872687 -0.41084248 0.3673775 0.24625194
000010 4c 64 fc be 9a 90 f6 3e 66 46 98 3e 28 68 24 3f
       -0.4929527 0.48157197 0.2974121 0.6422143
000020 22 f3 07 bf c8 6a a6 3e 45 85 86 3d c8 f7 7e 3f
       -0.53105366 0.32503343 0.06568388 0.99596834

layer_stack.1.b1.0.weight f4 [64, 48, 1, 1]
000000 91 be b9 39 2a b9 cd 3d 23 0a 92 bb a0 5e 59 bd
       0.00035427933 0.10045083 -0.004456775 -0.053068757
000010 72 05 46 3d 66 e9 e3 3c 5e cf 5d 3c f4 96 73 3c
       0.048345037 0.027821254 0.01353821 0.014867533
000020 f0 14 06 3e dd 2b 05 be ba 0e 24 3d dc 56 aa bd
       0.13093925 -0.13005014 0.040053107 -0.08317348
000030 0b 6a e5 3d 15 e4 06 bc cf e5 27 3d 10 46 d0 3d
       0.11201867 -0.00823309 0.040990647 0.10169613
000040 26 b9 07 bc 9b 4b f0 3d d0 d3 10 be 44 5b 12 be
       -0.008283889 0.117331706 -0.141433 -0.14292628
000050 99 31 f2 3b bd ce 0a be a7 e6 cc bd ff a8 19 bd
       0.0073911664 -0.13555427 -0.10004931 -0.037514683
000060 fd b8 11 3e fd 67 b0 3c e3 ec 28 bd 0f 6d 0d bd
       0.14230724 0.02153396 -0.041241538 -0.034527835
000070 9b 9d 5a bd f0 3e f9 bc 8d 18 f8 bd e2 60 19 3d
       -0.05337296 -0.030425519 -0.12114058 0.03744591
000080 a7 49 78 bc 16 2a 1e bd 71 cf 4a 3d 0b dc ed bc
       -0.015154279 -0.038614355 0.049514238 -0.029035589
000090 b5 5a 89 3d bb bd bf bd 2a fb 0c 3e 97 86 02 be
       0.06706754 -0.0936236 0.13767686 -0.12746654
0000a0 09 89 1d bd b4 29 fa bd c5 f1 b1 3d 51 58 ec 3c
       -0.038460765 -0.122149855 0.08688692 0.028850706
0000b0 ef 77 8a 3c 1c de e8 bd a9 43 80 bb 26 88 ec bd
       0.016902892 -0.11370489 -0.0039143157 -0.11549406
0000c0 b2 09 8b 3d 6d 25 ab bd 14 99 f9 bd d9 93 bc 3c
       0.067889586 -0.08356748 -0.121874005 0.023019718
0000d0 40 c1 02 be bc c5 a1 3d dd 9e 3c 3d f6 bd 81 3d
       -0.12769032 0.07899043 0.04604994 0.0633506
0000e0 2e fa af bd 44 6d 30 3d 59 2d d3 3c 76 37 06 3d
       -0.0859264 0.043072954 0.02577846 0.032767735
0000f0 44 b7 27 bd 36 0f ab 3c 9f 52 90 bd f2 e9 eb 3d
       -0.04094626 0.020881277 -0.07047009 0.11519231
000100 34 40 9a bc 9f a6 bf 3d eb 3c d6 3d 24 11 9e bc
       -0.018829443 0.09357952 0.10460838 -0.019295283
000110 0e 51 0d bd b8 d9 c9 bd 49 e9 58 bd e4 df 19 3d
       -0.034501128 -0.0985598 -0.052956853 0.037567034
000120 ba cc 40 bd 95 65 c4 bd f6 0b 89 bc 79 9b c0 bd
       -0.047070242 -0.09589688 -0.016729336 -0.09404654
000130 b1 bd f4 3d 4c 70 c5 3d f3 7c 9e 3d 22 5c f6 3d
       0.11950243 0.096405596 0.07738676 0.12029292
000140 c1 5b 36 3d 5b 7c c7 3d 47 02 d2 bd 97 4b 0c bc
       0.044521097 0.09740516 -0.102543406 -0.008562944
000150 ea 2d e0 bb 39 be 50 3d 4b 92 8b bd 6a 36 8a bd
       -0.006841411 0.05096266 -0.068150125 -0.0674866
000160 13 f8 81 bd 58 d0 bd 3d 16 1d 76 3d 78 5e 10 be
       -0.063461445 0.09268254 0.060086332 -0.14098537
000170 41 2d b7 3b af c1 0d bd 73 6f b4 3d 6a 79 b5 bd
       0.0055901115 -0.03460854 0.0881032 -0.088610485
000180 25 3f 11 3e 33 bf 38 3d 92 05 d5 bd 7d 83 a8 bd
       0.14184244 0.045104217 -0.10401453 -0.082282044
000190 5f d5 6b bd 9e d9 d1 bd 66 08 37 bd 11 f0 03 3e
       -0.057576533 -0.10246585 -0.044685744 0.12884547
0001a0 7c fd be bb 6e b9 74 39 5c 03 28 bc 91 1e 52 bb
       -0.0058285575 0.00023338731 -0.010254707 -0.0032061676
0001b0 8d 39 b0 bd d5 44 8f bd 6a 3d 07 bd c0 d0 d2 bc
       -0.08604727 -0.069955505 -0.033017553 -0.025734305
0001c0 d4 f8 88 bd 13 94 b2 bd 9c 00 52 3c ba a1 0c 3e
       -0.06688085 -0.08719649 0.012817528 0.13733569
0001d0 08 d3 2b bc f2 9e 46 bd 24 68 fb bd 57 f4 59 bd
       -0.0104873255 -0.048491426 -0.122757226 -0.053211536
0001e0 a3 52 d8 bd 0a 6e a6 bc 3a d2 dd 3d 56 88 a8 bd
       -0.10562637 -0.020316143 0.10831113 -0.08229129
0001f0 57 fd da bd 3f f1 00 bd 1c e9 31 bd 7f 0d 66 bd
       -0.10692852 -0.03148007 -0.0434352 -0.056165215
000200 7b 21 b6 bd c9 f3 da 3d 1d cc 01 bd d7 e3 59 3c
       -0.08893105 0.106910296 -0.0316888 0.01329895
000210 7e 4d 4d 3d 55 88 cb 3d 96 eb 48 bc 93 50 80 3d
       0.05012273 0.09938113 -0.012263199 0.06265368
000220 36 98 09 3d 57 12 b0 3d be 38 a0 3c 0d af 08 3e
       0.033592425 0.08597248 0.019558307 0.13348027
000230 03 cc 12 be c0 53 dc bd 9d 3f b0 bc 46 4e 98 bd
       -0.14335637 -0.107581615 -0.021514708 -0.074368045
000240 a5 07 b7 3c 6a 5e a3 3d 86 8f ad bd a7 e4 ea bd
       0.022342512 0.079769924 -0.084746405 -0.11469393
000250 66 d8 f5 3c ae 0f 4f bd 9e 48 89 bd 59 a2 d8 bc
       0.030010413 -0.050552063 -0.06703304 -0.0264446
000260 2f 13 09 3e 6b b6 6a bd b4 6f 22 bd df 8f 05 3e
       0.13386224 -0.057302874 -0.03965731 0.13043164
000270 22 83 cc 3d 4b e7 e0 3d 74 01 8c 3d 50 0e 67 bd
       0.09985949 0.10981616 0.06836215 -0.056410134
000280 d9 48 e1 3d bb 27 a3 bd 01 6f af bd e3 6d 25 bd
       0.11000223 -0.07966562 -0.08566094 -0.040388
000290 6c e6 0a bd aa ad 9f bd 6e f6 0c 3d 87 23 23 3b
       -0.033911154 -0.07796796 0.0344147 0.0024893002
0002a0 3a bf d8 3c 83 20 25 bd 94 b0 ee bd 1e 94 b6 3d
       0.026458371 -0.04031421 -0.11654773 0.0891497
0002b0 92 41 fd bd 91 fc 0f be a4 d6 a5 bd 17 8c e0 3c
       -0.12366022 -0.1406119 -0.0809758 0.02741055
0002c0 ba 11 53 bd 57 43 0f 3e f6 70 db bd 30 f5 ad bd
       -0.051530577 0.13990532 -0.10714905 -0.084940314
0002d0 7a 88 84 bd 53 f7 6b 3d 87 93 a2 3d 72 6a ff 3d
       -0.06471343 0.057608914 0.07938295 0.12471475
0002e0 cb 98 da bc a1 17 05 be f8 3f 8a 3d 22 3c 8c bd
       -0.026684185 -0.12997295 0.06750482 -0.06847407
0002f0 19 61 d1 3d 1e 6f ee 3d 0c 8f 21 bd 2a f1 e4 bd
       0.10223598 0.11642288 -0.03944306 -0.11178811
000300 83 c1 b0 bd 0b 23 0f bd d0 8b 10 3e d4 eb 2f bd
       -0.086306594 -0.03494553 0.14115834 -0.042949513
000310 dd 6c 5f 3c 55 28 04 3e b7 a0 cf bd 90 03 a1 bc
       0.013636795 0.1290601 -0.10138076 -0.019655019
000320 7f 4f a6 bd 20 91 72 bc 61 f6 11 be b3 af b8 bd
       -0.081206314 -0.014805108 -0.14254142 -0.09017887
000330 84 fd 7f bc 9f 06 95 bd dc b6 f1 bd ec 33 4b 3d
       -0.015624408 -0.072766535 -0.11802456 0.049610063
000340 27 e6 ba 3c f2 68 5c bd 27 8b c2 bd 56 26 f0 3c
       0.022814823 -0.05381102 -0.094991975 0.029315155
000350 43 a1 d0 bd 3d 3d 52 3d a7 aa f8 3d 7c 06 be bd
       -0.10187008 0.051327933 0.12141924 -0.092785805
000360 03 f3 e6 ba 14 8b 03 3c d4 14 01 3e 53 90 1b bb
       -0.001762003 0.008028764 0.12605602 -0.0023737147
000370 59 9e 3a bd e3 a6 e1 3d 20 85 07 be f0 07 f5 3d
       -0.04556117 0.11018159 -0.13234377 0.119644046
000380 2c 15 7c 3c b0 4c 70 3d 64 7c a0 bc 01 48 de 3d
       0.015385907 0.058666885 -0.019590564 0.108535774
000390 0d ac af 3c 4d d9 03 be 7d 4f 93 3d 1d c4 1d bd
       0.021444345 -0.12875862 0.071928956 -0.038517106
0003a0 72 8d b7 bd d4 b9 fe bd bc 70 85 bd ed 57 96 bd
       -0.089625254 -0.12437788 -0.06515643 -0.07340989
0003b0 32 c8 d5 bd d3 da 4d bc 50 40 36 bd f2 d5 b4 3d
       -0.10438575 -0.012564379 -0.044494927 0.08829869
0003c0 45 a8 f1 bc 58 b0 e5 3d 2b 28 fb bd a2 0c 9c 3d
       -0.029499182 0.112152755 -0.12263521 0.07619597
0003d0 10 92 be bd 4f 79 8d bd 19 eb 04 be d2 1f 76 3c
       -0.09305203 -0.069079034 -0.12980308 0.015022235
0003e0 a9 6e 57 3c d5 42 0e 3e 47 f2 3b bd 96 53 c5 bd
       0.013148942 0.13892682 -0.04588535 -0.096350834
0003f0 cb f2 ca 3d 48 1c 3c bd d5 c6 03 be e8 e8 fd 3d
       0.0990959 -0.04592541 -0.12868817 0.12397939

layer_stack.1.b1.0.bias f4 [64]
000000 fa 46 eb bd 1f 94 e5 3d aa b9 0d bd 3a b7 5c 3d
       -0.11488147 0.112098925 -0.03460089 0.053885676
000010 d4 d0 3e bd 27 74 ae bd 87 91 3b 3c 55 92 9b bd
       -0.046585873 -0.08518248 0.011448271 -0.0759627
000020 22 7b ec bd 07 07 d4 3c 4e fe e8 3d 9d f3 86 3c
       -0.11546923 0.025882257 0.1137663 0.016473586
000030 6a 0b ea 3d f8 6c 98 3d 13 ea de 3d 6a f6 92 bd
       0.11427958 0.07442659 0.1088449 -0.07175906
000040 fe 04 10 be 23 66 cc 3d f7 d9 d0 3d f2 ca 8b 3d
       -0.14064404 0.099804185 0.101978235 0.06825818
000050 52 6d 0b 3e 91 47 bb 3c d9 9a 42 3c c5 a6 10 be
       0.13615921 0.022861274 0.011877739 -0.14126118
000060 0c fb 8e bd ca 42 0d be ac f8 8c 3d f2 21 8a 3d
       -0.06981477 -0.1379501 0.06883368 0.06744756
000070 f0 2f 0d 3c ad b3 98 bd e3 fe 4a bd a5 10 b1 bd
       0.008617386 -0.074561454 -0.049559485 -0.08645753
000080 14 fe 91 bc 28 ca 98 bc 64 94 b1 3d 6b 6a c0 bd
       -0.01782135 -0.018651083 0.086708814 -0.093952976
000090 80 c2 5b 3d 6e 57 f2 bd 35 40 bb 3d 9c 7a 89 3d
       0.053652287 -0.11833082 0.09143106 0.06712839
0000a0 ae ae a9 bd 18 8d 8f 3d b5 f2 02 be 2f db 57 3c
       -0.08285271 0.07009333 -0.12787898 0.013174816
0000b0 da a2 0f be 9c fa 9e bd 06 4c f9 bb 18 dd 0b be
       -0.14026967 -0.07762644 -0.0076079397 -0.1365856
0000c0 bb 92 81 bd e3 c2 2e bc 7b ed 12 be b0 d8 ce 3d
       -0.06326815 -0.010666582 -0.14348404 0.100999236
0000d0 8f ef 87 3d 4b 16 c4 3c 85 cd 81 bd bf f1 f3 bd
       0.06637489 0.023936411 -0.06338028 -0.11911344
0000e0 18 b6 a3 bd 57 9d 87 3c cd b7 a0 3d 2d 8a 3d 3c
       -0.07993716 0.016554518 0.07847557 0.011568588
0000f0 bb e9 da bb 12 ad 3b 3b f4 a7 9a bd fc de 4a bd
       -0.006680695 0.0028637093 -0.07551566 -0.04952906

layer_stack.1.b2.0.weight f4 [64, 48, 1, 1]
000000 ad 83 97 bd 91 9b fb bd ad 03 7f bd e8 65 e3 bd
       -0.07398162 -0.12285531 -0.062259365 -0.111034214
000010 56 69 9e 3d 06 c9 c3 3d 3d f7 46 bd 18 e0 83 3d
       0.07734935 0.095598266 -0.04857563 0.06439227
000020 61 12 ff bd a9 18 73 bd 62 bc 5d bd c7 b3 e5 bc
       -0.124546774 -0.05934969 -0.054134734 -0.028039826
000030 b4 8d 8b bd 5a ad 0c 3e 15 9e c5 3d 0e 5d d7 3d
       -0.06814137 0.13738003 0.096492924 0.10515796
000040 dd 4f c9 bd 5b 2a f1 3d e5 3d f1 3d 64 33 89 3d
       -0.09829686 0.11775657 0.117793836 0.06699255
000050 a7 e2 9d 3c da ec b3 bd 81 87 f2 3d ae b0 2c bc
       0.019273115 -0.0878541 0.118422516 -0.010540171
000060 f0 45 d6 bd e1 77 fc 3d c4 5e 98 3d f5 0c 0e be
       -0.10462558 0.123275526 0.0743995 -0.1387213
000070 0f 93 9d bd 4f 4e 8a 3c 21 30 ee bd 8e f8 fc 3a
       -0.07694065 0.016883044 -0.116302736 0.0019300149
000080 39 38 9b bd 82 47 02 3e dd f9 98 3b 2e c9 62 bd
       -0.07579083 0.1272259 0.004668458 -0.05536764
000090 1b e9 7c bd 26 04 04 be 86 94 18 bd cf a4 83 3c
       -0.061745744 -0.12892208 -0.037251018 0.016069798
0000a0 55 6c 54 bd cb 66 b2 bd 96 b9 06 be b9 de c2 bc
       -0.051861126 -0.087110125 -0.13156733 -0.023787843
0000b0 82 e5 8f bc c4 ee 08 3d 04 d9 d0 3d 70 02 0f be
       -0.017565493 0.03343083 0.101976424 -0.13965774
0000c0 37 45 02 3d f4 66 0d be ac 48 e6 bb 8a bb ec bd
       0.03180429 -0.13808805 -0.007027706 -0.11559208
0000d0 2a d2 01 be d6 3e 04 be 19 0d db bd 42 16 06 be
       -0.12677827 -0.12914595 -0.106958576 -0.13094428
0000e0 80 3d 5a bd de 2f 86 3d 47 fa a8 bd bc 42 01 3e
       -0.053281307 0.06552099 -0.082508616 0.12623113
0000f0 0a 69 f5 3c 48 1a af bc 4f 11 19 bc 63 a6 92 bd
       0.029957313 -0.021374837 -0.009342506 -0.07160642
000100 05 ec 04 be ad 2f f2 bd 79 6e cd 3d 29 49 04 3e
       -0.1298066 -0.118255 0.100308366 0.12918533
000110 af b3 f4 bd bf f0 3f 3c 42 8f c8 3c 82 3f d1 3d
       -0.119483344 0.011715113 0.024482373 0.10217191
000120 ad 93 f6 bc 95 48 ce 3d a9 36 33 bc 8d c3 98 bd
       -0.030099714 0.10072438 -0.010938325 -0.07459173
000130 30 1e 0c be 3a d2 5b bc f0 f3 9e bd 58 a4 f4 bd
       -0.1368339 -0.013416821 -0.07761371 -0.119454086
000140 0a 85 0d 3d 02 45 40 3d 5d 69 0b 3e 87 e3 90 3d
       0.034550704 0.04694081 0.13614412 0.070746474
000150 62 23 ff 3c 44 d6 1d 3d d4 bc c5 bd 7f 3c 54 3c
       0.031144802 0.038534418 -0.09655157 0.0129538765
000160 f2 75 90 bd 83 10 79 3d 0e f2 e9 bc 0f 7b 77 3d
       -0.07053746 0.060806762 -0.028557803 0.060420092
000170 d0 e2 51 bd 81 92 86 3c 57 21 48 3c b0 fa fb bd
       -0.051241696 0.01642728 0.01221498 -0.12303674
000180 13 29 a8 bc c4 cf ff 3d 97 bb c9 3d 5e 24 dc 3a
       -0.020527398 0.124908 0.09850233 0.0016795506
000190 12 1c c4 3c ab a4 b0 bd 8a e4 e7 3c 34 71 f9 bd
       0.023939166 -0.08625158 0.028307218 -0.12179795
0001a0 a6 dc db 3d 30 80 c9 bd e2 50 80 bc da 61 0c 3e
       0.10735445 -0.09838903 -0.015663568 0.13709202
0001b0 57 d6 cf 3d f4 da e4 3c 8f 30 7b 3d e9 ad 90 3d
       0.10148304 0.027936436 0.061325606 0.07064421
0001c0 d1 a1 ab 3d 05 94 91 3d e6 53 43 bd 46 f3 3e bd
       0.083804734 0.071083106 -0.047687434 -0.046618722
0001d0 d6 2f 8a bc 5b 02 0d 3e 00 9c 9f bb 84 01 10 be
       -0.016868513 0.1377043 -0.0048708916 -0.14063078
0001e0 ef f9 c0 bd 6a dc 7f bd b0 95 89 3d 71 fb 2c bd
       -0.09422671 -0.062466063 0.06718004 -0.04223198
0001f0 3d 33 9f 3d 46 b4 06 3e ee 27 92 3d ae 59 3e 3c
       0.07773445 0.13154706 0.07136522 0.011618061
000200 9c d6 4f 3d 2f 7e 67 bd 9c 9b 8b 3d 15 6b c9 3d
       0.050741777 -0.056516822 0.068167895 0.098348774
000210 a8 de 5e 3d f5 df 00 be f3 b6 aa 3d 27 2a d6 bd
       0.05441156 -0.12585433 0.08335676 -0.10457259
000220 2a 55 21 3d be 07 14 be bc 4a 8f bd 57 1a be bd
       0.03938786 -0.14456078 -0.06996676 -0.09282368
000230 54 e1 80 3c 4c 7f 10 be 57 5d e4 3d 72 37 d8 3d
       0.015732445 -0.1411106 0.11150616 0.1055745
000240 1d 3f 97 bc 24 97 f4 3c 6f 06 9a 3d 97 91 df bd
       -0.018462712 0.029857226 0.07520758 -0.10916441
000250 da d1 7d b8 6c 36 46 bc 9e 2f 95 3d ac 76 13 be
       -6.051534e-05 -0.012097936 0.07284473 -0.14400738
000260 cf 97 a6 3d 4c 42 0e 3d 51 c7 a3 bd fa 1f 10 3b
       0.08134424 0.034731194 -0.07997001 0.0021991716
000270 15 1d 05 3d 35 a1 b3 bd ec 35 ae bc 48 12 0e be
       0.032498438 -0.08770982 -0.021265946 -0.13874161
000280 52 a5 2c bd 90 cf 00 3e a1 4d 07 3e 06 4e bc bb
       -0.04214985 0.12579179 0.13213207 -0.005746606
000290 41 fb ed bd 19 ad f7 3b 8a c4 a3 bd a5 70 be 3d
       -0.116201885 0.0075584766 -0.07996471 0.09298829
0002a0 fd 42 e4 bd db 28 12 be 2c 4c 07 bc ae dc 2a 3d
       -0.111455895 -0.14273398 -0.008257907 0.041714363
0002b0 bd 48 04 3e b6 d5 14 3d 44 46 df 3d 76 6d 5c bc
       0.12918372 0.036336623 0.10902074 -0.013453832
0002c0 c5 1b b5 3d 16 82 ac bd 4a 35 4b bc bb e5 18 bd
       0.08843187 -0.084232494 -0.012402842 -0.037328463
0002d0 d0 f2 7e 3d 9c 91 c8 bc 94 9f 31 bd e1 11 9e bc
       0.062243283 -0.024483494 -0.043365076 -0.019295635
0002e0 cd 16 5d bc aa fe 4c bd 77 86 0d be 58 3b af 3d
       -0.013494206 -0.050047554 -0.13820826 0.08556241
0002f0 54 76 bd bd 2a 71 b0 3d ac 1b d6 bd 03 f4 51 3b
       -0.09251085 0.08615334 -0.10454497 0.0032036311
000300 de 1f c3 3d b8 5c 81 3c 8a 15 31 3d 7f a7 f1 3d
       0.095275626 0.015791282 0.043233432 0.117995255
000310 39 f3 33 3d f4 30 6c 3d f1 65 b1 3d 17 36 d6 3d
       0.043933127 0.057663873 0.08662022 0.104595356
000320 e9 13 c0 bb 81 76 f4 bd de f2 e4 bd 93 30 02 3e
       -0.0058617485 -0.11936665 -0.11179136 0.12713842
000330 36 c8 0e 3c 8a a6 bf bd 81 1b 06 bd bc 24 f2 bb
       0.008714726 -0.09357937 -0.032741074 -0.007389633
000340 62 8a ba bd 16 be 6f bd dc 6a 9c bd 13 7c 4d bc
       -0.09108426 -0.05853089 -0.07637569 -0.012541789
000350 ba 85 0c be 2e 5d 99 3d f0 09 04 be b2 53 ac 3d
       -0.13722888 0.07488476 -0.12894416 0.08414401
000360 b3 77 08 3e b4 ef c8 bc c4 54 0c 3e 70 9c f5 3d
       0.13326912 -0.024528362 0.1370421 0.11992729
000370 c3 df 57 3d 07 6c 4b bb 18 ca 08 be dd c9 74 bb
       0.05270363 -0.003103973 -0.13358343 -0.0037351765
000380 27 42 5d 3d da cd 92 3d 69 c6 c5 3d b8 af 06 3e
       0.054018166 0.07168169 0.09656984 0.13152969
000390 d4 b5 fa bd ea a5 16 3d be f4 31 3d 8c f6 c4 3d
       -0.12241712 0.03677932 0.043446295 0.096173376
0003a0 0b 85 17 3d eb 62 8e bd f1 9b ca 3d 8c a6 cc 3d
       0.036992114 -0.06952461 0.09893025 0.09992704
0003b0 57 a4 91 bd e2 b7 91 3d fe c7 20 3d 5e de 35 3d
       -0.071114235 0.07115151 0.039253227 0.04440152
0003c0 72 f2 29 bd 08 a9 4f 3c 25 f9 bf 3d 50 95 f2 3c
       -0.04149098 0.0126745775 0.093736924 0.029612213
0003d0 42 59 99 bc 80 d0 de 3d b7 aa 47 bd 1b e0 40 bd
       -0.01871932 0.10879612 -0.04874679 -0.047088724
0003e0 ac 8b 05 be 6b 05 12 3d 9f 82 53 3d 70 91 91 bd
       -0.13041562 0.0356497 0.05163824 -0.07107818
0003f0 23 eb d0 3d 33 dd fd 3c 24 15 aa bc a7 c2 f1 3d
       0.10201099 0.030989265 -0.020762034 0.11804705

layer_stack.1.b2.0.bias f4 [64]
000000 d7 b1 05 be 65 06 b7 bd 44 69 ec 3c d9 7f 10 be
       -0.13056122 -0.089367665 0.028858788 -0.1411127
000010 96 b7 42 bd f2 f0 a8 bd f0 e3 53 bd 20 02 c0 3d
       -0.047538362 -0.08249082 -0.05173105 0.09375405
000020 24 90 d0 bd 1f cd ce 3c f2 7f 79 bd 8b 99 e5 3c
       -0.10183743 0.025244294 -0.060913034 0.028027317
000030 bf 8a c3 3d 7b cf f0 3d a6 73 03 be 7c 03 58 bd
       0.09547948 0.11758324 -0.12837085 -0.052737698
000040 a6 04 76 bd b8 43 6e 3d 7a fc 6b 3d 84 83 a1 3d
       -0.060063027 0.05817005 0.057613827 0.07886413
000050 c4 e4 d2 bd 96 a7 fc 3d f0 84 83 3c 56 a8 12 3d
       -0.1029754 0.12336652 0.0160546 0.03580507
000060 92 5e 0f 3d 52 9a 9e 3d 79 2b c9 3d 8f 33 ef bd
       0.0350023 0.07744278 0.09822745 -0.11679756
000070 79 47 6c bd 10 1b 6f 3b 9e 26 08 be ab 75 e6 3d
       -0.05768535 0.0036484636 -0.13295981 0.11252912
000080 ed 82 66 3d 8f 22 87 3d e8 97 05 be 35 9e ea bd
       0.056277204 0.065983884 -0.13046229 -0.11455957
000090 ed 91 61 3d 07 11 8c bc d9 ae ec 3d 10 2e b5 3d
       0.055070806 -0.017097963 0.11556787 0.08846676
0000a0 e9 c5 f6 bc 58 4f d6 bd 42 db 00 be 80 d4 ff 3c
       -0.030123668 -0.10464352 -0.1258364 0.031229258
0000b0 b1 5e b3 3d 35 61 f8 bc 91 d8 7c bd cb 79 be bb
       0.08758295 -0.03031979 -0.06172997 -0.0058128587
0000c0 45 ed c8 3c 71 f6 29 3d 30 fb db bd a5 52 ce bd
       0.024527201 0.04149479 -0.107412696 -0.10074357
0000d0 a9 9e 6d 3d b6 8a d6 bd e9 87 44 3d fb 1e 8d bd
       0.05801264 -0.10475676 0.047981177 -0.06890675
0000e0 73 91 e9 3d fe d6 f0 bd 59 8f 96 bd 8b b4 8f 3d
       0.11404695 -0.117597565 -0.0735156 0.07016858
0000f0 0c 0f b4 3d b6 da e1 bd d7 8d 60 bb b0 0c a3 bd
       0.087919325 -0.11028044 -0.003426423 -0.07961404

layer_stack.1.b2.2.weight f4 [64, 64, 3, 3]
000000 2c 18 02 3d ff 2b 2b 3d f2 d1 40 3c a6 e7 d0 bc
       0.031761333 0.041790005 0.011768805 -0.025501084
000010 ec 92 c0 ba 32 5c 23 bc 3c cc c9 bb 5d de 2c 3d
       -0.0014692224 -0.009970712 -0.00615838 0.04220425
000020 55 00 2b 3d 1e 7d e9 bc 8d 32 26 bd 4e ac 91 bb
       0.041748364 -0.028502043 -0.040575553 -0.004445589
000030 0c f2 ca 3c a5 35 e7 3c ce f3 df bb fe b9 15 bc
       0.02477362 0.028223822 -0.0068344837 -0.009138582
000040 06 bd d3 3b 76 14 59 bc 69 bd f8 3a 2d 4a ca bc
       0.0064617423 -0.013249507 0.0018977347 -0.024693573
000050 62 f0 6c 3c ad 3f 14 bd 26 46 17 3d ae 4e 26 bd
       0.014461609 -0.03619354 0.036932133 -0.04060238
000060 ad 10 23 3d 0b 66 6a bc 2d af cf 3b 1c 10 22 3d
       0.039810825 -0.0143065555 0.0063380213 0.039566144
000070 8a 5d 2b bc 56 52 05 3d 26 b1 a2 3c 14 d8 22 3d
       -0.010459313 0.032549225 0.019859862 0.03975685
000080 b8 8e dd bb 48 b5 54 3c 01 93 0b 3b ca 6a 76 3c
       -0.006761398 0.012982674 0.0021297338 0.015040109
000090 1f a2 e8 bc 71 65 56 3b c7 16 e7 3c e9 db 1b 3d
       -0.028397618 0.0032714272 0.028209103 0.03805152
0000a0 fd a6 4a 3c d1 f5 52 3c 4b 30 c8 3c 4d 88 ed 3c
       0.012368915 0.01287599 0.02443709 0.028995657
0000b0 36 7c 73 3c 96 4b ef 3c 2a e3 c8 bc 78 00 64 3c
       0.014861157 0.029210847 -0.024522383 0.013916127
0000c0 1e cc 0f 3d 8d 65 de bc fe 78 00 3d 24 c0 84 bc
       0.03510677 -0.027148033 0.031365387 -0.016204901
0000d0 4d 0e 92 3c 66 b5 dc ba dc bf 08 3c ff 50 0e 3d
       0.017829085 -0.0016838729 0.008346524 0.034745213
0000e0 1c d8 87 bc 03 e3 04 bd 0f 16 c1 3c 8c 71 bb bc
       -0.016582541 -0.032443058 0.023570089 -0.022881292
0000f0 0e 23 1b bd dd f8 d8 bc 10 b0 af 3c 03 60 6d bb
       -0.037875228 -0.026485855 0.021446258 -0.0036220558
000100 e3 84 9f bb 9e 4d bd bc a8 38 59 bb eb c0 16 b9
       -0.0048681363 -0.0231083 -0.0033145342 -0.00014376982
000110 97 66 1d bc dc 9a 86 3b 8c 92 ef 3c 28 c9 a8 bc
       -0.009606979 0.004107816 0.029244684 -0.020603731
000120 3b 8e 12 3d fa 53 18 bd 1d f8 10 3d 64 35 2b 3d
       0.035780173 -0.03718946 0.03539287 0.041798964
000130 e9 0a 71 3c 34 63 9d bb 2b e0 8e bc d3 b9 a3 bc
       0.014712074 -0.0048030857 -0.017440876 -0.019986069
000140 b4 74 1c bb 1a 36 09 3c f5 22 ff 3b b4 72 f9 3b
       -0.0023873271 0.008374715 0.0077861496 0.0076125506
000150 4b d8 a6 3c 0b c7 30 bc 99 5f 13 bd 5d f5 20 3d
       0.020366808 -0.010789643 -0.03597984 0.039296497
000160 7d f0 78 bc dd e0 2b 3c b9 a2 a0 bc 95 30 12 bd
       -0.015194056 0.010490623 -0.019608842 -0.035690863
000170 0f a9 3d 3c aa b1 2d ba 1f dc 0d bd ed b6 b0 3a
       0.011575951 -0.00066259 -0.034633752 0.001348225
000180 af f2 61 3c 54 41 07 bd 13 a6 18 bc 7e a2 b2 3c
       0.01379077 -0.033021286 -0.009316939 0.021805998
000190 b5 b6 f2 bc 69 63 8a bc e4 3c d8 3c e7 be 61 3c
       -0.029628137 -0.016893106 0.026396222 0.013778425
0001a0 71 7a 20 bd 1b 17 61 bc 7b 0d 17 3d db 30 95 3b
       -0.03917927 -0.013738419 0.03687809 0.004552943
0001b0 a3 94 a2 3b 4c 05 3e bb 8a 3f 4f bb 1f 6a 2b 3c
       0.0049615665 -0.0028994856 -0.0031623566 0.010462313
0001c0 e6 a0 89 3b 8e 99 a5 3b 89 d2 95 bb e3 23 0a 3d
       0.004200089 0.0050537055 -0.004572217 0.03372563
0001d0 59 5a 21 3d 2d 7f fb bc 79 ce e3 bb 45 9b 93 3c
       0.039392803 -0.03070029 -0.0069521037 0.018018374
0001e0 3d 88 a0 bc 01 55 97 bc 96 ae d6 3b f4 81 73 bc
       -0.019596213 -0.01847315 0.006551574 -0.014862526
0001f0 01 b9 27 3d 41 cd 02 bd a1 7b 0f bd ef ca a9 bc
       0.040947918 -0.031934027 -0.03503001 -0.02072665
000200 fc ce 25 bd 04 6e f9 bc 8c 99 02 bd a2 87 22 3c
       -0.0404806 -0.030447967 -0.031884715 0.009920033
000210 37 70 b5 3c e3 ac 29 bd 17 c9 3d 3c 4e 03 ac bb
       0.022148235 -0.041424643 0.011583588 -0.0052494174
000220 b7 29 01 bd 09 c8 9e 3a 8d 1b 10 3c 59 55 1d 3c
       -0.031533923 0.0012114058 0.008795631 0.009602868
000230 0a 94 3a 3c cd a3 0d 3d 65 74 84 bc 51 c1 ce bc
       0.011387834 0.03458004 -0.016168782 -0.025238665
000240 95 47 38 3c 20 6a 0e 3a 4b 72 12 3d b1 d0 db 3c
       0.011247535 0.0005432684 0.03575353 0.02683291
000250 d5 a6 93 ba 59 d7 86 bc f7 a2 e3 3a 7d 45 1b 3d
       -0.001126493 -0.016460108 0.0017367293 0.037908066
000260 44 39 46 bb fb 63 f9 bb 7c 1e ca 3c 0e 2f 2b bc
       -0.0030246535 -0.0076107956 0.02467274 -0.01044823
000270 97 5a 11 bd 6d 9f 36 bc 8e 21 29 3c 2d 52 8d bc
       -0.035486784 -0.0111464085 0.0103229415 -0.017251099
000280 ae 5a b6 3c 6f d0 06 3c 48 58 00 bd 97 f3 cd bc
       0.022260036 0.008228405 -0.03133419 -0.025140567
000290 57 e3 d5 bc 1f a7 db 3c ce b6 22 bd 5d 17 8f bc
       -0.02610938 0.026813088 -0.039725117 -0.017467195
0002a0 00 6b f6 3c 0f b8 06 3d c1 c5 82 bb 18 20 f0 bb
       0.030080318 0.032890376 -0.0039908593 -0.0073280446
0002b0 50 29 f6 bc 2f b8 11 3d a9 5d 30 3d a2 80 24 3d
       -0.030048996 0.03557604 0.04305807 0.040161736
0002c0 93 73 b2 3b 12 34 e2 3b 4d eb 19 3d 92 c8 8b 3c
       0.0054459064 0.00690318 0.037577916 0.017063413
0002d0 47 b1 d5 bb fa eb 80 3b f0 33 4e 35 8d 5d 8e bc
       -0.0065213772 0.0039343806 7.681656e-07 -0.017378593
0002e0 b5 2e 15 3b 66 60 cc bb 53 8b 00 bd e7 45 24 3d
       0.0022763435 -0.0062370775 -0.03138287 0.040105727
0002f0 41 80 25 bd eb c3 c7 bb 64 07 d3 bc 17 78 23 bc
       -0.040405516 -0.0060963533 -0.02576036 -0.009977362
000300 97 6e e1 3c a9 68 9c bb 27 5b 8c bc 7d 9d 04 bd
       0.027518554 -0.0047732187 -0.017133309 -0.032376755
000310 ed 2b ce 3c 69 55 59 bc ff 9c d3 bc 86 83 c7 bc
       0.02516743 -0.013264992 -0.025831698 -0.024354707
000320 e4 2b 61 3c ff 2f 8b bb c9 b8 1a bd c6 15 b4 bc
       0.0137433745 -0.004247665 -0.03777388 -0.021983039
000330 9e 41 98 bb d4 ca fb 3b 94 33 b4 bc 14 d3 17 3d
       -0.004646494 0.007684091 -0.02199725 0.037066534
000340 e6 f4 0d bd 02 d6 ba bc 04 f4 22 3d da 06 a0 bc
       -0.03465738 -0.022807125 0.039783493 -0.019534517
000350 5e 43 16 bc f7 cd 76 bc 7b 11 f3 bc 95 da ce 3c
       -0.009171335 -0.015063754 -0.029671421 0.025250712
000360 51 92 12 bd 0c 7a 18 3d c1 0b c1 bc 7e 6d fb bb
       -0.03578407 0.037225768 -0.023565175 -0.0076729646
000370 6c 82 d0 3b db 6a 95 3c f6 1c 1c 3d de 9f 1d bd
       0.0063632037 0.01823943 0.038113557 -0.03848254
000380 8e 39 3d 3c 82 ad 53 bb 65 64 20 3d 33 fe 81 3c
       0.011549367 -0.0032299464 0.039158244 0.015868282
000390 4c 55 f8 3c d6 ef e7 bc 08 58 0b bd 6b 8b 5a 3c
       0.03031411 -0.028312605 -0.0340195 0.013338904
0003a0 c4 63 1b bd 59 bd cb 3b 91 44 0c bd b3 c8 c6 bc
       -0.03793694 0.0062176404 -0.034245078 -0.024265623
0003b0 d1 97 6a 3c cb 55 fb 3c dc fc 17 bd d7 da 45 3c
       0.014318422 0.030680558 -0.03710638 0.012076101
0003c0 c0 eb 13 bd 9b 9b 3f bc 94 da 08 bd fe 4d 88 3c
       -0.0361135 -0.011694814 -0.033411577 0.016638752
0003d0 3c 6d 31 3c 57 b0 2d bc 71 13 38 3b 7c df 1c bd
       0.010829266 -0.010601125 0.002808776 -0.03829907
0003e0 53 fb 22 bd d1 3f 30 3c 12 b2 89 3c e5 6e 68 3c
       -0.039790463 0.0107574025 0.016808543 0.014186596
0003f0 d1 9b e6 bc 0f d2 5a 3b 59 f1 3d bc 46 2c 59 ba
       -0.02815047 0.0033389365 -0.011593186 -0.00082844903

layer_stack.1.b2.2.bias f4 [64]
000000 56 88 1b 3d 3b 5f b7 3c da 7c db 3c 64 88 a4 bb
       0.037971817 0.022384277 0.026792932 -0.005021142
000010 0c 68 d0 bc 9d 5a 0c 3d c8 41 d8 3b 26 f4 8f bc
       -0.025440238 0.034266103 0.0065996386 -0.017572474
000020 a7 4a 24 3d 43 4c 24 3c e7 e7 00 bd 7c ce cb bc
       0.040110257 0.010027948 -0.03147116 -0.024878733
000030 f8 2f 06 3d 2f c6 d0 3c 30 9d b4 3c 6f 4d 1c bb
       0.03276059 0.025485126 0.02204761 -0.0023849865
000040 3e 60 0b 3d 30 54 77 3c 5f 5e 2a 3b c1 ef 97 bc
       0.03402733 0.015095755 0.002599619 -0.01854694
000050 cf ec 23 3d 08 fa 00 3d 86 fe 32 bb c5 d1 47 3c
       0.04002076 0.03148845 -0.0027312352 0.012196009
000060 61 a1 a2 3c 7c cc 1c 3d 59 d0 e1 bb 0a a8 c0 3c
       0.019852342 0.03828095 -0.006891292 0.023517627
000070 90 c5 fc 3b 21 cd 2a bd fb 6d ed bc b8 1b 04 ba
       0.007713981 -0.041699532 -0.028983107 -0.0005039531
000080 ae 00 07 bd 7d 35 01 bd c4 53 1c bd b3 db 0e 3d
       -0.032959633 -0.03154515 -0.038165823 0.03487749
000090 93 93 d9 3c 59 63 05 3c 61 dd d8 3c b6 81 22 39
       0.026559627 0.008141362 0.02647275 0.00015497845
0000a0 ee b3 65 3c 4b a1 91 3c 48 da 9d 3c 84 f9 08 3d
       0.014019949 0.017777106 0.019269124 0.03344108
0000b0 dd d5 18 3d b2 98 4d 3c a2 af 0d 3c fb b1 81 3a
       0.03731333 0.012548612 0.008647831 0.0009894961
0000c0 25 e3 0b bd bb 87 46 bc 77 7a 69 bc 9d ea 62 3c
       -0.03415217 -0.012117322 -0.014250389 0.0138498815
0000d0 62 ca 0d 3d bc 5f b5 bb 46 79 5d bc c6 72 dc 3b
       0.034616835 -0.005535094 -0.013517683 0.0067275492
0000e0 6e d1 00 3c 91 8d 7e 3c eb 6e 83 3c 49 1d 08 3d
       0.007862432 0.015536682 0.0160441 0.033231054
0000f0 be 87 dc bc 8a 4a 04 bd 40 9c 28 3c 31 7e 81 bc
       -0.026920196 -0.03229765 0.010291159 -0.015807243
