lotsaconvs/nets/res_cifar100_6.pt (torch, 300259 bytes, 38 tensors)

layer_stack.0.weight f4 [48, 3, 3, 3]
0	0x3e472fcf	0.19451831
1	0x3e6ab1d1	0.22919394
2	0xbd8c738c	-0.06857976
3	0xbde72897	-0.11287039
4	0xbdaaa291	-0.08331788
5	0x3cb2aec3	0.021811849
6	0x3c8994dc	0.016794614
7	0xbe66ffb3	-0.22558479
8	0xbdfe8828	-0.124283135
9	0x3d8085fa	0.06275554
10	0x3d46e5fd	0.048559178
11	0xbd959a90	-0.07304871
12	0x3e271218	0.16315496
13	0x3e664b50	0.22489667
14	0x3e636ed1	0.22210242
15	0x3e112424	0.14173943
16	0x3e1fc27e	0.15601537
17	0xbb3a4362	-0.002842151
18	0xbde07707	-0.10960203
19	0xbe83a601	-0.25712588
20	0xbe28dc95	-0.16490395
21	0xbe5d866e	-0.21633312
22	0xbe9e32ef	-0.30898234
23	0xbe476c23	-0.19474845
24	0xbc3193f0	-0.010838494
25	0xbdcbda9c	-0.09953806
26	0xbdf30a1f	-0.11867165
27	0x3e1f583f	0.15561007
28	0x3e8f85a3	0.28031644
29	0xbf003a9e	-0.5008944
30	0xbefecc01	-0.49765018
31	0xba15864f	-0.00057039125
32	0x3edfb143	0.43689927
33	0x3ed2e978	0.41193748
34	0xbeed6d1b	-0.46372303
35	0xbd71988f	-0.05898338
36	0x3e4c2d8f	0.19939254
37	0x3ea6373d	0.32464018
38	0xbefb7213	-0.4911047
39	0xbeac3d06	-0.33640307
40	0x3e47424a	0.19458881
41	0x3f243bbe	0.6415366
42	0xbd0291c6	-0.0318773
43	0xbe63cbd6	-0.22245726
44	0x3e49304e	0.19647333
45	0xbd0e7a07	-0.034784343
46	0x3eb6c76e	0.35699028
47	0xbeaf3181	-0.34217456
48	0xbeacc670	-0.33745146
49	0xbd9d13af	-0.0766977
50	0x3eb7c596	0.35892934
51	0x3ebc43fb	0.36770615
52	0xbe34c598	-0.17653501
53	0xbe80b180	-0.25135422
54	0xbe64c101	-0.2233925
55	0x3cbe4514	0.023226298
56	0xbe297ab3	-0.16550712
57	0x3ddbc9f7	0.10731881
58	0x3e95ea1b	0.2928017
59	0x3e69880a	0.22805801
60	0xbe9af0ef	-0.30261943
61	0xbe225231	-0.15851666
62	0xbea7e249	-0.3278983
63	0xbd69f316	-0.05711659
64	0x3d9f0eea	0.077665165
65	0xbe0962c2	-0.1341658
66	0x3ead6627	0.33867
67	0x3f04643c	0.51715446
68	0x3e9ea35a	0.30984002
69	0xbdf0b654	-0.11753526
70	0x3e255d49	0.16148867
71	0xbe7f4ee7	-0.24932443
72	0xbe70947a	-0.2349414
73	0xbda81d74	-0.08208743
74	0x3c27453d	0.010209379
75	0x3ce46e84	0.02788473
76	0x3d866576	0.06562321
77	0xbe6bce8f	-0.23028015
78	0xbdf9c862	-0.12196423
79	0xbeb4dfd3	-0.35327014
80	0xbe3bd58a	-0.18343177
81	0x3d82a291	0.06378663
82	0x3e427cab	0.1899287
83	0x3e816643	0.25273332
84	0x3e1af9fd	0.15134425
85	0x3c3ccd42	0.011523547
86	0xbe3e92c6	-0.18610677
87	0xbc94c01c	-0.018158011
88	0x3de7aeef	0.11312663
89	0x3d8693cf	0.06571161
90	0x3e6bb6f4	0.2301901
91	0x3cc5e03a	0.024154771
92	0xbe0ded14	-0.1385997
93	0xbe965c0e	-0.29367107
94	0xbebdcd3e	-0.3707065
95	0xbe879d75	-0.26487318
96	0x3ddde301	0.10834313
97	0xbc79bce0	-0.015242785
98	0x3d1172b5	0.035509784
99	0x3e6b6a41	0.22989751
100	0x3e8d08e9	0.2754586
101	0x3cb6b862	0.022304717
102	0x3d9a615d	0.07538102
103	0x3c283e1c	0.010268714
104	0x3d840b42	0.0644746
105	0x3b9cd315	0.004785905
106	0x3d0d455f	0.034489986
107	0xbe1c4558	-0.15260828
108	0xbd7823bb	-0.06058095
109	0xbea3d14f	-0.31995627
110	0x3c9f1997	0.019421382
111	0x3e1fd710	0.15609384
112	0xbece1b76	-0.40255326
113	0xbe87dc07	-0.26535055
114	0x3cb662af	0.022263853
115	0xbcdf902a	-0.027290422
116	0xbcd5472a	-0.02603491
117	0x3e4f4340	0.20240498
118	0xbb7dbfdd	-0.0038719096
119	0x3e6eb130	0.23309779
120	0xbd966e08	-0.073452055
121	0x3dbb7840	0.09153795
122	0x3d86a5eb	0.06574615
123	0x3e2c9956	0.16855368
124	0x3e91d64c	0.28483808
125	0x3e52ee7a	0.20598784
126	0xbdaac400	-0.08338165
127	0xbddc3043	-0.10751393
128	0x3d977624	0.073955804
129	0x3e3b6e5a	0.18303815
130	0xbe4aa409	-0.19789137
131	0xbe247c3a	-0.16063014
132	0x3e30e648	0.17275345
133	0x3e8ed7f1	0.27899125
134	0x3d888070	0.066651225
135	0x3c813f58	0.015777275
136	0x3e2be508	0.16786587
137	0x3c9938dc	0.01870387
138	0xbe995a61	-0.29951766
139	0xbe16f0c6	-0.14740285
140	0xbea5c1a8	-0.3237431
141	0x3e87af29	0.26500824
142	0x3e1f98d2	0.1558564
143	0x3d4f3114	0.050583914
144	0xbe0ece6a	-0.13945928
145	0xbe53952c	-0.20662373
146	0xbe20ef80	-0.15716362
147	0xbd51e08b	-0.05123953
148	0xbe934aaa	-0.28767902
149	0xbeaf7b09	-0.34273556
150	0x3ec14230	0.3774581
151	0x3dd1aaa1	0.10237623
152	0x3e333ef5	0.17504485
153	0x3d711ee7	0.05886736
154	0x3c35fa21	0.011106999
155	0xbc835cc0	-0.016035438
156	0xbdb7ee85	-0.08981041
157	0xbe57c0ff	-0.21069716
158	0xbc093a30	-0.008375689
159	0x3e9a37fc	0.30120838
160	0x3e4991b4	0.19684488
161	0x3e01fbbf	0.1269369
162	0xbe235c57	-0.15953194
163	0x3efb89e9	0.49128655
164	0xbebff171	-0.37488893
165	0x3ecb77e9	0.39739922
166	0x3e756cae	0.2396724
167	0xbf1e5205	-0.618439
168	0xbdbcb63a	-0.092144445
169	0xbf658c54	-0.8966725
170	0x3f7a0e3a	0.9767796
171	0xbea8da3b	-0.32978997
172	0x3f291f28	0.66063166
173	0xbe391ce7	-0.18077432
174	0x3ec754dc	0.3893193
175	0x3d60b65a	0.054861404
176	0xbf18f251	-0.59744745
177	0x3d9e66e2	0.07734467
178	0xbf5a249a	-0.852121
179	0x3f510cd7	0.8166022
180	0xbec93220	-0.39296055
181	0x3ed9fb79	0.4257467
182	0xbd9381e2	-0.072025076
183	0x3e09eea5	0.13469942
184	0x3e9d592c	0.30732095
185	0xbeabcc42	-0.33554274
186	0xbc08edc6	-0.008357471
187	0xbf16b01a	-0.5886246
188	0x3f05355c	0.52034545
189	0x3eab3730	0.33440542
190	0xbe5b76c0	-0.21432018
191	0xbddf085a	-0.10890265
192	0xbc8ec0b4	-0.017425872
193	0xbf14740e	-0.57989585
194	0x3f09984b	0.53748006
195	0xbe779b81	-0.24180414
196	0x3edc6b3c	0.43050563
197	0xbdcadafc	-0.09905049
198	0x3e00a09d	0.12561269
199	0x3d2e1185	0.042497177
200	0xbde86946	-0.11348204
201	0x3df80240	0.12109804
202	0xbf139887	-0.57654613
203	0x3f078280	0.529335
204	0xbe713625	-0.23555811
205	0x3ede0792	0.4336515
206	0xbe50d431	-0.20393445
207	0x3e6b03ad	0.22950621
208	0xbdbce047	-0.09222465
209	0xbe565f18	-0.20934713
210	0xbcfebf98	-0.031097218
211	0xbf08fbaf	-0.5350904
212	0x3ecdffbe	0.40234178
213	0xbde9e3ca	-0.114204004
214	0x3f0a4171	0.54006106
215	0xbdca9594	-0.09891811
216	0xbf016c17	-0.50555557
217	0xbf0995d8	-0.5374427
218	0xbeb2f0ec	-0.34949434
219	0x3eb823d1	0.35964826
220	0xbd31acad	-0.043377567
221	0xbdac9c51	-0.084282525
222	0x3f0a164b	0.53940266
223	0x3eadbcd4	0.33933127
224	0x3e3bcf7e	0.1834087
225	0x3cf38ef9	0.02973126
226	0x3e9c18c6	0.3048765
227	0x3dfc318c	0.12314138
228	0x3db8eb97	0.0902931
229	0x3e8d0fb0	0.2755103
230	0xbdec2d50	-0.1153208
231	0xbf0f6abb	-0.5602223
232	0xbe5f8908	-0.21829617
233	0x3d9a4bc0	0.075339794
234	0x3ea4387a	0.32074338
235	0x3cf11c51	0.029432448
236	0x3e33cbb0	0.1755817
237	0xbe5278fc	-0.20553964
238	0xbe8c4037	-0.27392742
239	0xbdeb667a	-0.11494155
240	0xbe4c0ae5	-0.19926031
241	0xbe631b42	-0.22178367
242	0xbc67af4f	-0.014140918
243	0x3ac4c68a	0.0015012783
244	0xbe08b587	-0.13350497
245	0x3db84c4b	0.08998927
246	0xbd6640d7	-0.05621418
247	0xbd8d1686	-0.06889062
248	0x3d874c8e	0.066063985
249	0x3c5a009c	0.013305809
250	0xbdc969e2	-0.09834649
251	0xbb8cb30e	-0.004293806
252	0x3deef46c	0.116677135
253	0x3df2af90	0.11849892
254	0x3e3c5fea	0.18395963
255	0x3e4f36eb	0.20235793

layer_stack.0.bias f4 [48]
0	0x3d8ec50b	0.06971177
1	0xbd83fdff	-0.0644493
2	0xbd925880	-0.07145786
3	0xbd8a749b	-0.06760522
4	0xbd90db54	-0.070730835
5	0xbe0dacaf	-0.13835405
6	0xbda894de	-0.08231519
7	0x3d42a01e	0.04751598
8	0x3e22f8fa	0.1591529
9	0xbe0da3d5	-0.13832028
10	0xbe00abd1	-0.12565543
11	0xbe1ec79f	-0.15505837
12	0x3db74d55	0.08950297
13	0xbe42cbf1	-0.1902311
14	0x3dacbc2f	0.08434331
15	0x3de3d6b3	0.11124935
16	0xbe29d54f	-0.16585277
17	0x3dea3950	0.11436713
18	0xbda1af3f	-0.07894754
19	0xbdb36232	-0.08758964
20	0xbc9ec374	-0.019380309
21	0xbb800d12	-0.003907808
22	0xbda16965	-0.078814305
23	0x3d928f1f	0.071562044
24	0x3dd55d3c	0.10418174
25	0x3c867c4b	0.01641669
26	0x3d42e9ad	0.04758613
27	0x3d8dddbc	0.06927058
28	0xbdcd4a24	-0.10023907
29	0xbda634b9	-0.08115525
30	0xbe2612da	-0.16218129
31	0x3e30269c	0.17202228
32	0x3dfebed9	0.12438745
33	0x3bc55210	0.0060217455
34	0xbd7b964e	-0.06142264
35	0x3dea8e45	0.11452917
36	0xbe30a7f4	-0.17251569
37	0xbd5506e0	-0.05200851
38	0x3e16ca01	0.14725496
39	0x3e060a64	0.13089901
40	0x3d325386	0.043536685
41	0x3cf78432	0.030214403
42	0xbb008af8	-0.0019614082
43	0x3e08b294	0.13349372
44	0xbdd5a3e6	-0.10431652
45	0x3def3d67	0.116816334
46	0x3d41dd8c	0.047330424
47	0xbb85e4c3	-0.0040861084

layer_stack.1.weight f4 [48]
0	0x3f70aa67	0.94010013
1	0x3f64bdec	0.893523
2	0x3f7ca2d5	0.9868596
3	0x3f712346	0.9419445
4	0x3f801ab4	1.0008149
5	0x3f852e62	1.040478
6	0x3f833f02	1.0253603
7	0x3f64011b	0.89064187
8	0x3f75f311	0.96074015
9	0x3f5debff	0.86688226
10	0x3f75508d	0.95826036
11	0x3f844521	1.0333596
12	0x3f73a969	0.95180374
13	0x3f66fe0b	0.9023139
14	0x3f689aa0	0.9086094
15	0x3f7cfe6c	0.98825717
16	0x3f4c0d3f	0.7970771
17	0x3f6c7c7f	0.92377466
18	0x3f57daf9	0.843185
19	0x3f63e00f	0.8901376
20	0x3f62cf39	0.88597447
21	0x3f58ac5a	0.8463799
22	0x3fa21805	1.266358
23	0x3f889e57	1.0673321
24	0x3f5d706e	0.8649968
25	0x3f6af931	0.91786486
26	0x3f83ce6c	1.029737
27	0x3f62e292	0.8862697
28	0x3f64f255	0.8943227
29	0x3f69c9db	0.9132363
30	0x3f88f4fc	1.0699763
31	0x3fa6ff75	1.3046709
32	0x3f87dd55	1.061442
33	0x3f5b0df9	0.85568196
34	0x3f973e2e	1.1815851
35	0x3f65dd04	0.8979037
36	0x3f676420	0.90387154
37	0x3f6af285	0.91776305
38	0x3f76ad68	0.96358347
39	0x3f7fe4aa	0.9995829
40	0x3f6fa730	0.9361448
41	0x3f81eec5	1.0150992
42	0x3f887592	1.066088
43	0x3f8aac98	1.0833921
44	0x3f84ebdf	1.0384482
45	0x3f9085de	1.1290853
46	0x3f4bbb9d	0.7958315
47	0x3f6ba824	0.9205344

layer_stack.1.bias f4 [48]
0	0xbcf817e7	-0.030284835
1	0x3a8fe036	0.0010976854
2	0x3e0be86c	0.1366288
3	0x3d6ba78b	0.05753283
4	0x3c154ba8	0.009112276
5	0xbd16f687	-0.0368562
6	0xbdc525bf	-0.0962634
7	0x3e39c5b7	0.18141828
8	0x3d95727f	0.07297229
9	0xbdf5975f	-0.11991762
10	0xbe0902d5	-0.13379987
11	0x3e442bae	0.19157287
12	0xbaa48c8e	-0.0012554096
13	0x3d6e4448	0.058170587
14	0xbe051d4d	-0.12999459
15	0x3c29511f	0.010334282
16	0xbdf65ee6	-0.12029819
17	0xbda9c6ad	-0.082898475
18	0xbe1659b0	-0.1468265
19	0xbd89a912	-0.06721701
20	0xbda6d82a	-0.08146699
21	0xbdef37a9	-0.11680538
22	0xbdb5edf8	-0.088832796
23	0x3c6e8ace	0.014559461
24	0xbd875b0f	-0.06609165
25	0xbd289fd5	-0.041168053
26	0x3d8b54f5	0.06803314
27	0xbd8f50ce	-0.06997834
28	0x3cc1617e	0.023606058
29	0xbd94957c	-0.072550744
30	0xbd931e0c	-0.07183465
31	0xbe95856b	-0.29203352
32	0xbe314f97	-0.17315517
33	0xbe4d260a	-0.20034042
34	0xbdee892b	-0.116472565
35	0xbde4cf05	-0.11172298
36	0x3aef3ebc	0.0018252949
37	0x3d7a3ab6	0.061091147
38	0xbd45b65e	-0.048269622
39	0x3cde41cd	0.027130986
40	0xbc45b650	-0.0120673925
41	0x3c6b7e6c	0.014373403
42	0x3c062aeb	0.008188943
43	0xbdcd9092	-0.1003734
44	0x3c8285d5	0.015932957
45	0xbcb3b173	-0.0219352
46	0x3c8c395a	0.017117191
47	0x3d8c07b2	0.06837405

layer_stack.1.running_mean f4 [48]
0	0xbe436781	-0.19082452
1	0xbbdcb5c2	-0.0067355344
2	0xbeb4e6a2	-0.3533221
3	0x3e1a2766	0.15054092
4	0x3de0b2c1	0.109715946
5	0xbe9cfec5	-0.30663124
6	0xbdb29ced	-0.087213375
7	0x3e18b95d	0.1491446
8	0xbdc6950b	-0.096963964
9	0x3e551f50	0.20812726
10	0xbf03ebe5	-0.5153182
11	0xbe2b3caa	-0.1672236
12	0xbf13d7f2	-0.5775138
13	0x3e7322de	0.2374377
14	0x3ec4f456	0.38467664
15	0x3a4a210c	0.0007710613
16	0xbe9481d5	-0.29005304
17	0x3e91cc03	0.2847596
18	0x3e78e47e	0.24305913
19	0xbeea575e	-0.4576978
20	0x3cabfaf8	0.020993695
21	0x3ec31ac6	0.38106364
22	0x3d28101f	0.041031
23	0xbc30a19d	-0.010780719
24	0x3eb319ed	0.34980717
25	0xbe85d8aa	-0.26141864
26	0x3dac779f	0.084212534
27	0xbdf4fc99	-0.11962242
28	0xbece56d3	-0.40300617
29	0xbe906590	-0.28202486
30	0xbde98172	-0.11401643
31	0x3e06821a	0.13135567
32	0x3e91b572	0.28458744
33	0x3f1b1d3f	0.605915
34	0xbdb637a6	-0.08897333
35	0xbf36334e	-0.71172035
36	0xbdabab58	-0.083822906
37	0xbd44ccce	-0.04804688
38	0xbdbc0ebd	-0.091824986
39	0xbdc416cd	-0.095746614
40	0xbd920b9f	-0.07131123
41	0xbd1150de	-0.03547751
42	0xbdabc661	-0.08387447
43	0x3d9afb5a	0.07567473
44	0xbe8bd8bc	-0.27313793
45	0x3e4c7ab1	0.19968678
46	0xbd0aeb8f	-0.033916052
47	0x3db99bc2	0.090629116

layer_stack.1.running_var f4 [48]
0	0x3d6229ac	0.055215523
1	0x3c8526d0	0.016253859
2	0x3d9aeb85	0.07564453
3	0x3d269e5b	0.040678363
4	0x3d5a2362	0.0532564
5	0x3d869944	0.06572202
6	0x3d036a18	0.0320836
7	0x3cae89ad	0.021305883
8	0x3cf6ef7c	0.030143492
9	0x3d509fd4	0.050933674
10	0x3d3239b2	0.043512054
11	0x3d6cc0f5	0.057801206
12	0x3e0473ba	0.12934771
13	0x3d737398	0.05943641
14	0x3cd34c3c	0.025793187
15	0x3d966dc2	0.073451534
16	0x3c8f9942	0.017529134
17	0x3d4d3edb	0.05010877
18	0x3d2e6643	0.042577993
19	0x3d2e1b38	0.042506427
20	0x3d6f7e0e	0.058469824
21	0x3d223314	0.039599493
22	0x3e2260a3	0.15857176
23	0x3daf8d03	0.08571818
24	0x3d093ea8	0.03350702
25	0x3cffb8d3	0.03121606
26	0x3da27b89	0.07933719
27	0x3ce00df2	0.0273504
28	0x3cf19530	0.029490083
29	0x3d03f356	0.032214485
30	0x3c578b3b	0.013155754
31	0x3dd06bb4	0.10176793
32	0x3d7ade90	0.06124741
33	0x3dc0e207	0.09418111
34	0x3e002981	0.12515832
35	0x3e3497be	0.1763601
36	0x3ccbcd79	0.02487825
37	0x3cadec59	0.021230863
38	0x3d8d6b88	0.069052756
39	0x3d808645	0.0627561
40	0x3d87c174	0.06628695
41	0x3d38350b	0.04497246
42	0x3d4942a7	0.04913583
43	0x3cb97e54	0.022643246
44	0x3d390705	0.04517271
45	0x3d8893d9	0.06668825
46	0x3d39084f	0.04517394
47	0x3d42baef	0.047541555

layer_stack.4.layer_stack.0.weight f4 [32, 48, 1, 1]
0	0xbe465f68	-0.19372332
1	0x3e058593	0.13039236
2	0x3b7f4967	0.0038953663
3	0x3ceeee12	0.029166255
4	0x3e4c7cad	0.19969435
5	0x3d181c46	0.03713634
6	0x3e86c062	0.2631865
7	0x3dc052d2	0.09390797
8	0x3db12e3d	0.086513974
9	0xbd95277e	-0.07282923
10	0xbdd195b8	-0.10233635
11	0xbe354507	-0.17702113
12	0xbd7f3bbd	-0.06231283
13	0x3db735d0	0.08945811
14	0xbe1b91db	-0.15192358
15	0x3c5a79c1	0.013334692
16	0x3d850b3e	0.06496285
17	0xbe0dbdc4	-0.13841921
18	0xbbe1224f	-0.006870545
19	0xbdb9f835	-0.09080545
20	0x3dcb1ea5	0.09917954
21	0x3dfcce0a	0.12343986
22	0x3d15bfb7	0.036559787
23	0x3e3e23de	0.1856837
24	0xbd586d8d	-0.05283885
25	0xbe386002	-0.18005374
26	0x3da0f052	0.078583375
27	0xbe251031	-0.16119458
28	0xbe88bb53	-0.26705417
29	0x3d9cbbe6	0.07653026
30	0x3c9c014c	0.019043587
31	0xbd81aa53	-0.06331315
32	0x3cfe7221	0.03106028
33	0x3e15fbae	0.1464679
34	0xbdec175c	-0.11527893
35	0xbe5e0caf	-0.21684526
36	0xbe0021a9	-0.1251284
37	0x3d143ec3	0.036192667
38	0x3da4b94c	0.08043155
39	0xbe132036	-0.14367756
40	0xbd4c5c44	-0.04989268
41	0x3e1ffd47	0.15623961
42	0xbdb06e65	-0.08614806
43	0xbed6fc02	-0.41989142
44	0xbe01a1c8	-0.12659371
45	0xbe3e27db	-0.18569891
46	0xbdd17eed	-0.10229287
47	0x3d7c5c9d	0.06161176
48	0xbd1a3923	-0.037652146
49	0xbe15df6b	-0.14636008
50	0xbd9aac14	-0.075523525
51	0xbdcd7136	-0.10031359
52	0xbe12059e	-0.14259955
53	0xbe80d500	-0.25162506
54	0x3d6c739e	0.05772745
55	0x3e20c13b	0.15698712
56	0x3e1458ca	0.14486995
57	0x3e4c5bcd	0.19956894
58	0x3e836bc7	0.25668165
59	0x3c97d3f4	0.018533684
60	0x3e14b2a6	0.14521274
61	0x3e131db1	0.14366795
62	0xbd7c1d13	-0.061551165
63	0x3d2467c0	0.040138006
64	0xbe0dccce	-0.13847658
65	0xbe3b8824	-0.18313652
66	0xbdc55301	-0.09634972
67	0x3c98116c	0.018562995
68	0x3c7ca693	0.015420574
69	0xbd981783	-0.074263595
70	0x3d4b365b	0.049612384
71	0x3c2a0a2a	0.0103784
72	0x3dbe8a03	0.093036674
73	0xbe068987	-0.131384
74	0xbe1adb2e	-0.15122673
75	0x3deaef94	0.11471477
76	0x3dbb07c4	0.091323406
77	0xbe3c5ef5	-0.18395598
78	0x3e1db8e7	0.15402566
79	0xbe3f8526	-0.18703136
80	0xbd9d2eae	-0.07674919
81	0xbd484db1	-0.048902217
82	0xbe2f1d7d	-0.17101093
83	0x3e244e50	0.16045499
84	0xbbdf893a	-0.0068217786
85	0x3e203ffa	0.15649405
86	0x3e0b5402	0.13606265
87	0xbdc667ed	-0.09687791
88	0xbc13a40b	-0.009011279
89	0xbd0c9609	-0.034322772
90	0xbe3addd3	-0.18248682
91	0x3d60203e	0.05471825
92	0x3e190d83	0.1494656
93	0x3c8e0b2e	0.017339315
94	0x3e55efcb	0.20892255
95	0xbe88aa05	-0.26692215
96	0x3cb3f232	0.021966074
97	0xbcfea7ef	-0.031085936
98	0x3e23452a	0.15944353
99	0x3de226d3	0.110425614
100	0xbddcb797	-0.107772045
101	0xbcde17ec	-0.027111016
102	0x3e28e2ef	0.16492818
103	0x3dd3e117	0.10345667
104	0xbe48ffae	-0.19628784
105	0xbdb9b79e	-0.09068225
106	0xbe77a866	-0.24185333
107	0x3e88cf54	0.2672068
108	0xbe95bc19	-0.2924507
109	0xbdf2a87a	-0.118485406
110	0xbe114f02	-0.14190295
111	0xbde15ea6	-0.11004381
112	0x3cec1783	0.028819805
113	0x3cf62fb1	0.030052038
114	0xbdc1e55b	-0.09467574
115	0xbd026aeb	-0.031840246
116	0xbe9db4b7	-0.30801937
117	0x3c3c22de	0.011482922
118	0xbd4f71d9	-0.050645683
119	0xbe2dcfc9	-0.16973795
120	0x3defc07d	0.11706636
121	0x3d2ea2a9	0.042635594
122	0xbcdd3472	-0.027002547
123	0xbc48d574	-0.012257922
124	0x3e1cf6f2	0.15328577
125	0x3e82a741	0.2551823
126	0x3cfd9792	0.030956063
127	0xbc194285	-0.009354238
128	0x3ddab4ad	0.106789924
129	0xbce94c7d	-0.028478855
130	0xbdd2280f	-0.10261547
131	0x3e0a007b	0.13476746
132	0x3e007bb7	0.12547193
133	0x3e5ffea6	0.21874484
134	0x3d193882	0.037407406
135	0xbe33653e	-0.1751909
136	0xbe12d1c8	-0.14337838
137	0x3dd9a522	0.106272
138	0x3d21eec6	0.039534353
139	0x3ee383d7	0.44436523
140	0xbe537788	-0.20651066
141	0x3e7c6a7b	0.24649994
142	0xbdc6314e	-0.09677373
143	0xbe5352f9	-0.2063712
144	0x3d5afd62	0.0534643
145	0xbe5cb29f	-0.21552514
146	0xbbd48001	-0.006484986
147	0xbe178c34	-0.14799577
148	0x3da49d39	0.080378
149	0x3e8ec9e3	0.27888402
150	0xbec824b8	-0.39090514
151	0xbe3c4da6	-0.18388996
152	0xbc7fae54	-0.015605528
153	0xbd9809a2	-0.07423712
154	0x3cba1f0f	0.022719888
155	0x3d60c7da	0.054878093
156	0x3e2e85bf	0.17043208
157	0xbdd10108	-0.10205275
158	0xbe338c88	-0.17534077
159	0x3d2abc5a	0.041683532
160	0xbcf31a74	-0.0296757
161	0x3d9e7960	0.07737994
162	0xbe09e099	-0.13464583
163	0xbe208f34	-0.15679628
164	0xbdf02823	-0.117264055
165	0xbe694f99	-0.2278427
166	0x3dd40427	0.103523545
167	0xbde47d00	-0.11156654
168	0xbdafb1d4	-0.0857884
169	0x3986d023	0.00025713546
170	0xbdafd27a	-0.08585067
171	0xbdb13b0f	-0.08653843
172	0x3d2499aa	0.040185608
173	0xbe00f2a8	-0.12592566
174	0xbbdfd9e0	-0.0068313926
175	0x3ede8371	0.43459657
176	0xbdcea72e	-0.10090481
177	0xbd81289e	-0.06306575
178	0xbd6b8bd1	-0.057506386
179	0x3d621f6a	0.05520574
180	0xbc8fa2f6	-0.01753376
181	0xbdeb8a96	-0.115010425
182	0xbc4bbb2b	-0.012434761
183	0x3e2842ea	0.16431776
184	0xbd74f376	-0.059802495
185	0x3cb96480	0.02263093
186	0x3e3a5bbb	0.18199055
187	0xbde5fd37	-0.112299375
188	0x3b8e9dd2	0.0043523097
189	0x3d6a047c	0.057133183
190	0xbd564234	-0.05230923
191	0x3dcbc183	0.09949019
192	0x3d2ac039	0.041687224
193	0x3d4f63f4	0.050632432
194	0x3ea53d9f	0.32273576
195	0xbcda3ec7	-0.026641263
196	0x3e314cc4	0.1731444
197	0xbdc94d45	-0.09829191
198	0x3d992eb8	0.07479614
199	0x3d07241d	0.032993425
200	0xbe02c758	-0.12771356
201	0x3e0f7477	0.14009272
202	0x3de6eee1	0.11276031
203	0xbdd9c317	-0.106329136
204	0x3dfe9d4e	0.12432347
205	0xbd576d0b	-0.052594226
206	0xbdf3b050	-0.11898863
207	0x3e003eab	0.12523906
208	0x3ccbc749	0.0248753
209	0xbe051c39	-0.12999047
210	0xbd958769	-0.07301218
211	0x3e4dc305	0.20093925
212	0xbe8b15a0	-0.27164936
213	0x3db2f46c	0.08738026
214	0x3d8a18bc	0.06742999
215	0xbe210166	-0.1572319
216	0xbe2d6bdc	-0.16935676
217	0x3d10d245	0.03535678
218	0xbe4aef1c	-0.19817775
219	0x3dc1b984	0.094592124
220	0xbdd1a2d3	-0.102361344
221	0xbe0b6e50	-0.136163
222	0x3c27a251	0.01023157
223	0x3e98a334	0.29812014
224	0xbc4656dd	-0.012105671
225	0xbc2293f5	-0.009922971
226	0xbd9907eb	-0.07472213
227	0x3dc141c7	0.09436374
228	0xbe2651ef	-0.16242193
229	0x3c6c3aaf	0.014418288
230	0xbd6dba96	-0.05803927
231	0x3da14800	0.07875061
232	0x3e1348ec	0.14383286
233	0x3d9f63e3	0.07782724
234	0x3e8072fa	0.2508772
235	0xbcbc3d69	-0.022978501
236	0x3df1a41d	0.1179888
237	0x3ddd846e	0.108162746
238	0xbea7ee35	-0.32798925
239	0xbdb9d36a	-0.09073527
240	0x3d46004e	0.048340134
241	0xbe1161d2	-0.14197472
242	0xbe0d4ae4	-0.137981
243	0x3e64716d	0.22308894
244	0xbce7286a	-0.028217513
245	0x3d9c6513	0.07636466
246	0xbe7bc7cd	-0.24587937
247	0xbe0ebbb1	-0.13938786
248	0xbd26ca4b	-0.040720265
249	0x3d242e83	0.04008342
250	0x3af6bad0	0.0018823985
251	0x3db49513	0.08817496
252	0x3ddb9792	0.10722269
253	0x3dd31561	0.10306812
254	0x3dcd4dc1	0.10024596
255	0xbe75c2c6	-0.24000081

layer_stack.4.layer_stack.0.bias f4 [32]
0	0xbe139d28	-0.14415419
1	0x3df7295b	0.12068435
2	0xbdde08b8	-0.10841507
3	0xbdd292bf	-0.10281896
4	0x3de4b49e	0.111672625
5	0xbd0ddfbf	-0.03463721
6	0x3c955e85	0.018233547
7	0x3e0f3a78	0.13987148
8	0x3cc508b3	0.024052
9	0xbe10dca3	-0.14146666
10	0x3ca60852	0.02026764
11	0xbd326ccf	-0.0435608
12	0x3c4ee3f5	0.012627591
13	0x3e135742	0.14388755
14	0xbd9cc047	-0.076538615
15	0xbd93ed23	-0.072229646
16	0x3dbc59e4	0.09196833
17	0x3dd4669a	0.10371132
18	0xbd9ab183	-0.07553389
19	0xbd5c89c5	-0.053842325
20	0x3d03f399	0.032214735
21	0xbe0d1a6b	-0.13779609
22	0xbd2f857e	-0.042851917
23	0xbc291499	-0.010319852
24	0xbdbd6a79	-0.09248824
25	0x3cb5ed43	0.022207862
26	0xbe102da0	-0.14079905
27	0x3cd8f136	0.026482206
28	0xbdf1ec4b	-0.118126474
29	0xbd0b7745	-0.03404929
30	0xbb1955fb	-0.0023397196
31	0xbd98759a	-0.07444306

layer_stack.4.layer_stack.1.weight f4 [32]
0	0x3f655831	0.89587694
1	0x3f767675	0.962745
2	0x3f685baa	0.9076487
3	0x3f703bd3	0.93841285
4	0x3f60f4e3	0.8787367
5	0x3f881010	1.0629902
6	0x3f723233	0.9460785
7	0x3f7d4477	0.98932594
8	0x3f7d01ad	0.9883068
9	0x3f8e8fbd	1.1137615
10	0x3fab859d	1.340015
11	0x3f80416c	1.0019965
12	0x3f7d0863	0.9884092
13	0x3f81755d	1.0113941
14	0x3f720671	0.9454108
15	0x3f79325b	0.9734246
16	0x3f72a05e	0.9477595
17	0x3f90d45e	1.1314809
18	0x3f6f27b3	0.9341995
19	0x3f7d3bb7	0.9891924
20	0x3f62fd5f	0.88667864
21	0x3f837947	1.0271386
22	0x3f714657	0.94247955
23	0x3f82f67a	1.0231469
24	0x3f8d5ca7	1.10439
25	0x3f60a09b	0.87745064
26	0x3f76c5c7	0.96395534
27	0x3f6fec18	0.93719625
28	0x3faab063	1.3335079
29	0x3f778b0e	0.96696556
30	0x3f698bdc	0.91229033
31	0x3f885397	1.065051

layer_stack.4.layer_stack.1.bias f4 [32]
0	0x3d4ad1d7	0.049516525
1	0x3aadbcad	0.0013255082
2	0x3d1806ba	0.03711579
3	0x3e350a41	0.17679693
4	0x3cf53be4	0.029935785
5	0xbdd4bfc9	-0.103881426
6	0x3dcb61f2	0.09930791
7	0xbdd32914	-0.103105694
8	0xbdcac8d9	-0.0990159
9	0x3d9f7473	0.07785883
10	0xbe102df2	-0.14080027
11	0xbdb2103c	-0.08694503
12	0x3c8f5a39	0.017499076
13	0xbb003db0	-0.0019568019
14	0x3d934c82	0.07192327
15	0xbdad88c5	-0.08473352
16	0xbdb63e4d	-0.08898602
17	0x3dd8e44d	0.1059042
18	0x3d5dbf16	0.054137312
19	0xbe005f3c	-0.12536329
20	0xbba84f22	-0.0051363865
21	0xbdb70856	-0.08937137
22	0x3d52b52f	0.05144232
23	0x3d2c79a7	0.042108204
24	0xbc2a9e94	-0.0104137845
25	0x3c5c2df9	0.013438695
26	0x3d1b71d7	0.037950363
27	0xbdc41bb0	-0.095755935
28	0x3da925b2	0.08259143
29	0xbd782894	-0.060585573
30	0xbdac84e7	-0.084237866
31	0x3e2a4c20	0.16630602

layer_stack.4.layer_stack.1.running_mean f4 [32]
0	0xbf1ed75a	-0.6204735
1	0xbcd30c7a	-0.025762785
2	0x3a3ec2d9	0.00072769594
3	0xbf3e8aaa	-0.74430335
4	0x3edde73d	0.43340483
5	0xbe0477bd	-0.12936302
6	0x3e864d54	0.26230872
7	0x3f81d58b	1.0143293
8	0xbdf8ca30	-0.12147939
9	0xbfa898f4	-1.3171678
10	0xbf527118	-0.8220382
11	0xbf22bee6	-0.6357254
12	0xbd3c01c4	-0.04590012
13	0xbf5f09de	-0.8712443
14	0xbf58188f	-0.84412473
15	0xbe9d03e9	-0.30667046
16	0xbd132ee3	-0.035933387
17	0xbf0f7a5e	-0.5604609
18	0xbeb4b5b2	-0.35294873
19	0x3ddf6a23	0.10908916
20	0x3e6042e3	0.21900515
21	0x3f96a69f	1.1769599
22	0xbf99de82	-1.2021029
23	0xbede31e5	-0.43397442
24	0xbf9301b1	-1.1484891
25	0x3f47535a	0.7786156
26	0xbf32d332	-0.6985351
27	0xbe1cba05	-0.15305336
28	0xbf97bdbe	-1.185478
29	0x3e356042	0.177125
30	0x3fdd6df6	1.7299182
31	0xbf9086e7	-1.1291169

layer_stack.4.layer_stack.1.running_var f4 [32]
0	0x3f35954e	0.70930946
1	0x3ee83576	0.45353287
2	0x3f2c30ee	0.6726216
3	0x3f4d7fb0	0.8027296
4	0x3f0ab5dc	0.54183745
5	0x3fb5e6f7	1.421111
6	0x3f4f27cc	0.809201
7	0x3f61156d	0.8792332
8	0x3f070c65	0.5275329
9	0x3f320083	0.6953203
10	0x3fcc536e	1.5962961
11	0x3f348c97	0.70527023
12	0x3f6af954	0.91786695
13	0x3f2c842b	0.6738917
14	0x3f3e3185	0.7429431
15	0x3ecc1cc2	0.3986569
16	0x3ef269e5	0.47346416
17	0x3f673884	0.9032061
18	0x3f26881b	0.6505143
19	0x3f205991	0.6263667
20	0x3f4ff961	0.81239897
21	0x3f413294	0.754678
22	0x3f0ca7cb	0.5494353
23	0x3f277086	0.6540607
24	0x3f8c4643	1.0958942
25	0x3ed797c5	0.42107978
26	0x3f02cc1e	0.5109271
27	0x3f5638aa	0.8368021
28	0x3fc3bc06	1.5291755
29	0x3f1165cc	0.56795955
30	0x3f5e768c	0.8689964
31	0x3f7277fe	0.94714344

layer_stack.4.layer_stack.3.weight f4 [32, 32, 3, 3]
0	0x3d4b7fd0	0.04968244
1	0xbd8dea60	-0.06929469
2	0xbdba1428	-0.09085876
3	0xbdf7fb66	-0.12108497
4	0x3d21a1c8	0.039460927
5	0x3ab9a994	0.0014164918
6	0xbe25e715	-0.16201432
7	0xbd369d82	-0.044583805
8	0xbd2b762e	-0.04186075
9	0x3c663d41	0.01405269
10	0x3c58ce2a	0.013232747
11	0xbcd9f6e3	-0.026606983
12	0xbda64758	-0.081190765
13	0xbe149d3a	-0.14513102
14	0xbe32f121	-0.17474796
15	0xbcdf94f7	-0.027292712
16	0xbc356264	-0.011070821
17	0xbb834e29	-0.00400712
18	0xbdfe749a	-0.12424584
19	0xbe02038f	-0.1269667
20	0x3c5ee980	0.013605475
21	0x3d21c14c	0.039490983
22	0xbe25c65f	-0.16188954
23	0xbdf6bbcc	-0.12047538
24	0x3e5be518	0.21474111
25	0x3dcbe444	0.099556476
26	0x3e07efe7	0.13275109
27	0x3e0dc821	0.13845874
28	0x3dc5c584	0.09656814
29	0x3e4d018c	0.20020121
30	0x3cda7a36	0.026669603
31	0x3d9e9247	0.07742744
32	0x3dc5c675	0.09656993
33	0x3dc75995	0.09733883
34	0xbde23da4	-0.11046913
35	0x3d782b1c	0.060587987
36	0xbd67c503	-0.05658437
37	0x3c952b1f	0.018209038
38	0xbb3b63a3	-0.0028593324
39	0xbd114b62	-0.03547228
40	0xbddeaf92	-0.10873331
41	0x3df520ff	0.11969184
42	0xbd47e24e	-0.048799805
43	0xbdd5990e	-0.104295835
44	0xbde31ec3	-0.11089852
45	0xbdc5fbf1	-0.09667195
46	0xbd9e8314	-0.07739845
47	0xbc2d1c9e	-0.010565905
48	0xbd6b3b06	-0.057429336
49	0xbcde6bd1	-0.02715102
50	0xbd74b6a1	-0.05974448
51	0x3d25e527	0.04050174
52	0x3d4515ff	0.04811668
53	0x3e06e2bd	0.13172431
54	0x3df86a8b	0.121296965
55	0x3cdfb114	0.027306117
56	0x3d09c2d2	0.03363306
57	0x3cd223b5	0.025651792
58	0x3ca6d235	0.020363906
59	0xbe050c6b	-0.12993018
60	0x3cdb5892	0.026775632
61	0x3de29c3c	0.110649556
62	0xbe0b4441	-0.13600256
63	0xbd828507	-0.06373029
64	0xbccd6d38	-0.025076494
65	0x3c85e3ee	0.016344037
66	0xbde3d237	-0.1112408
67	0xbdba08fe	-0.090837464
68	0xbd773c03	-0.060359966
69	0xbdb724d1	-0.08942569
70	0xbe08f028	-0.13372862
71	0x3c8d3717	0.017238183
72	0x3d107b21	0.035273675
73	0xbd8920a8	-0.06695682
74	0x3b9c0f2a	0.00476255
75	0xbcea69ad	-0.028614843
76	0xba4dfc5e	-0.0007857735
77	0x3d78e812	0.060768194
78	0x39465806	0.00018915543
79	0x3c7adbd3	0.015311199
80	0xbd78057b	-0.0605521
81	0xbc9ab8c5	-0.018886933
82	0x3df751f7	0.120761804
83	0x3e016a08	0.12638104
84	0x3d4cb06c	0.049972937
85	0xbdcb5a8f	-0.09929382
86	0xbd3001d5	-0.042970497
87	0xbc4c6420	-0.012475044
88	0x3d1b6c71	0.037945215
89	0x3d823e03	0.06359484
90	0x3dfa4afe	0.12221335
91	0xbd6f14cc	-0.058369443
92	0xbe27c990	-0.16385484
93	0x3d831e75	0.064022936
94	0x3c4257b2	0.0118617285
95	0xbdfcb975	-0.123400606
96	0x3da2c286	0.07947259
97	0x3d0935b0	0.033498466
98	0xbcb32720	-0.021869242
99	0x3da118a9	0.07866032
100	0x3e0b849a	0.13624802
101	0xbc76bd55	-0.015059789
102	0xbcdd0dfb	-0.026984205
103	0x3e05b890	0.13058686
104	0xbb96d4ca	-0.004603003
105	0xbcbe839e	-0.02325612
106	0x3d5a6d8c	0.05332713
107	0x3d3a1b35	0.045436103
108	0x3e50e22c	0.20398778
109	0x3d468333	0.048464965
110	0x3d14ebbf	0.036357637
111	0x3ccc1ed8	0.024917051
112	0xbe0a8578	-0.13527477
113	0xbdd7bf5a	-0.10534544
114	0x3e58a2d0	0.21155858
115	0x3e3d3584	0.18477446
116	0x3d990121	0.074709184
117	0xbbf0075d	-0.0073250965
118	0x3ccde88d	0.025135303
119	0xbd2763c4	-0.04086663
120	0xbd754085	-0.059875984
121	0xbdaae491	-0.08344377
122	0xbcab7787	-0.020931019
123	0xbdab3612	-0.083599225
124	0xbc3fe7d9	-0.011712992
125	0xbc48c155	-0.012253125
126	0x3bd0623a	0.006359366
127	0xbd15e24e	-0.036592774
128	0xbbf26db6	-0.0073983325
129	0xbe204150	-0.15649915
130	0xbdfc2084	-0.12310889
131	0xba95beee	-0.0011424699
132	0xbd834a10	-0.06410611
133	0xbd8a18a4	-0.06742981
134	0xbdaf8ee6	-0.085721776
135	0x3d0250b8	0.03181526
136	0xbd15686c	-0.036476538
137	0x3ddbcce1	0.10732437
138	0x3dcfb79c	0.101424426
139	0x3c7d06a5	0.015443479
140	0xbb8a3983	-0.0042182817
141	0x3d769585	0.060201187
142	0x3cff16fa	0.031138886
143	0x3b90e4f3	0.004421824
144	0xbdf6ac72	-0.1204461
145	0xbd30c5ed	-0.043157507
146	0xbd3068ed	-0.043068815
147	0x3cac886d	0.021061147
148	0xbbdb5866	-0.0066938875
149	0xbddf0c61	-0.10891033
150	0x3da23f36	0.07922213
151	0xbca82c13	-0.020528829
152	0xbcf8695c	-0.030323677
153	0x3b8b6734	0.004254246
154	0xbd7fbfe1	-0.06243885
155	0x3cc53d9e	0.024077233
156	0xbde64c83	-0.11245062
157	0xbdb7188d	-0.089402296
158	0x3c0cd3f0	0.008595452
159	0x3e107f52	0.14111069
160	0x3da6a32b	0.081365906
161	0x3ccff498	0.025385186
162	0x3d275c2d	0.04085939
163	0x3d4f2216	0.050569616
164	0x3c554204	0.013016228
165	0x3b856eda	0.0040720524
166	0xbd3e3c62	-0.046444304
167	0xbc6a6622	-0.014306577
168	0xbe00dcde	-0.12584254
169	0xbdacf1ed	-0.08444581
170	0x3ce5e745	0.02806438
171	0xb796172c	-1.7892184e-05
172	0xbd5c27f3	-0.053749036
173	0x3c0f24d3	0.008736807
174	0x3d0f4390	0.034976542
175	0xbcc9e58e	-0.024645593
176	0x3d5799d8	0.05263695
177	0xbcb8d668	-0.022563174
178	0x3cbdca9d	0.023167903
179	0xbdf0b66d	-0.11753545
180	0xbc812bff	-0.01576805
181	0xbda88429	-0.082283325
182	0xbc390bdd	-0.011294332
183	0xbd88cb6a	-0.06679423
184	0x3d0e6760	0.034766555
185	0xbcd99370	-0.026559561
186	0x3d2df395	0.042468626
187	0x3e791e35	0.2432793
188	0x3e2cd3b8	0.1687764
189	0xbd8ff7c6	-0.07029681
190	0xbe386c0a	-0.18009964
191	0xbc8c3dae	-0.017119255
192	0x3bf782d7	0.007553439
193	0xbdab7b21	-0.08373094
194	0xbd819d04	-0.063287765
195	0xbcc39c5e	-0.023878273
196	0xbd828317	-0.0637266
197	0xbd90fe04	-0.070797
198	0x3dc2ebc6	0.095176265
199	0x3d9a962a	0.07548173
200	0x3cc268fb	0.0237317
201	0xbd51ddd2	-0.051236935
202	0x3df1b28b	0.118016325
203	0xbba3f51b	-0.005003584
204	0xbd808f7c	-0.062773675
205	0x3c87a70c	0.016559146
206	0xbd1b4aec	-0.037913248
207	0x3c2bc588	0.010484107
208	0x3daf5283	0.0856066
209	0xbc8c0023	-0.017089909
210	0xbe0c8840	-0.1372385
211	0xbd331951	-0.043725315
212	0xbda02640	-0.078197956
213	0xbe16d5c7	-0.14729987
214	0xbd6c0837	-0.05762502
215	0xbe127def	-0.14305852
216	0x3d699230	0.05702418
217	0x3d180886	0.037117504
218	0xbc82198d	-0.015881324
219	0xbd8290ab	-0.063752495
220	0xbdbd13c2	-0.09232284
221	0xbcd60f2e	-0.026130285
222	0xbd2d0435	-0.04224034
223	0xbd12c55b	-0.035832744
224	0x3d11eaf8	0.035624474
225	0xbd0b5bbb	-0.034023028
226	0xbdbc7008	-0.09201056
227	0xbc197732	-0.009366797
228	0xbc97bc1e	-0.018522318
229	0xbd9796f9	-0.074018426
230	0xbc087a44	-0.008329932
231	0x3be09f35	0.0068549165
232	0xbdd332dc	-0.10312435
233	0xbd3aa77e	-0.04556989
234	0x3ce3d421	0.027811112
235	0x3d0552b1	0.032549564
236	0x3d47cda5	0.048780102
237	0x3ce8d4f7	0.028421862
238	0x3d5b0b61	0.05347765
239	0xbd9f1d64	-0.07769278
240	0xbd5f9237	-0.0545828
241	0xbd72c9c2	-0.059274442
242	0xbbc78106	-0.006088379
243	0xbdaa038a	-0.08301456
244	0x3c192f8f	0.009349718
245	0xbd999ad3	-0.075002335
246	0x3d008d96	0.031385027
247	0x3d2080b7	0.039185252
248	0xbcda185e	-0.026622947
249	0xbdae1e1c	-0.08501837
250	0xbd1569f6	-0.036478005
251	0x3d240f92	0.04005391
252	0x3e07d49c	0.13264698
253	0x3af3749c	0.0018574181
254	0xbe4434d3	-0.19160776
255	0x3ce80f9c	0.028327756

layer_stack.4.layer_stack.3.bias f4 [32]
0	0xbccf98b6	-0.025341373
1	0xbcbcea75	-0.023061017
2	0xbbf0a0c7	-0.007343385
3	0x3d358810	0.044319212
4	0x3d6ab280	0.057299137
5	0x3b99b592	0.0046908343
6	0x3b159a3f	0.0022827534
7	0x3c4f9251	0.012669162
8	0xbb85e1fc	-0.0040857773
9	0xbce0fc0d	-0.027463937
10	0x3d05eaa8	0.03269449
11	0xbd3d60ef	-0.04623502
12	0xbd6d18a6	-0.057884835
13	0x3d4e9f47	0.050444867
14	0xbd6c02a4	-0.057619706
15	0xbcf3f9f1	-0.029782267
16	0x3c3bdf5f	0.01146683
17	0x3d2352a0	0.03987372
18	0xbd457b27	-0.04821315
19	0xbc7bf10f	-0.015377297
20	0x3cc168f2	0.023609612
21	0xbd4ff2dd	-0.05076872
22	0x3c0b6e34	0.008510161
23	0xbd67d1ea	-0.056596674
24	0x3bf81b12	0.0075715864
25	0x3bd1b116	0.006399284
26	0xbd2c2954	-0.0420316
27	0x3d635434	0.055500224
28	0x3c93154a	0.017954487
29	0x3d270e8f	0.04078537
30	0x3c202f5c	0.009776916
31	0x3d4606f9	0.048346493

layer_stack.4.layer_stack.4.weight f4 [32]
0	0x3f78cfed	0.9719227
1	0x3f892c02	1.0716555
2	0x3f8e8289	1.1133586
3	0x3f78a736	0.97130144
4	0x3f6c588d	0.9232262
5	0x3f7c9beb	0.9867541
6	0x3f85c8b2	1.0451872
7	0x3f791da3	0.9731085
8	0x3f7a8bab	0.97869366
9	0x3f81ceb9	1.0141212
10	0x3f6ef2bd	0.9333914
11	0x3f72e7ba	0.94884837
12	0x3f75728d	0.95877916
13	0x3f8a551f	1.0807227
14	0x3f8508cd	1.0393311
15	0x3f81735c	1.011333
16	0x3f761c67	0.9613709
17	0x3f84c7b6	1.0373447
18	0x3f86a3eb	1.0518774
19	0x3f863139	1.0483772
20	0x3f6a6c9e	0.91571987
21	0x3f83ab24	1.0286603
22	0x3f853561	1.0406915
23	0x3f709fed	0.9399403
24	0x3f80e128	1.0068712
25	0x3f784229	0.9697595
26	0x3f85d58c	1.0455794
27	0x3f7b9267	0.9827027
28	0x3f7057d5	0.9388402
29	0x3f6f79a3	0.9354498
30	0x3f84b4dd	1.0367695
31	0x3f77557e	0.96614826

layer_stack.4.layer_stack.4.bias f4 [32]
0	0x3d879887	0.06620889
1	0x3d93fd02	0.07225992
2	0x3ca04a71	0.019566746
3	0x3d3ab7cd	0.045585442
4	0x3e08f07f	0.13372992
5	0x3d80cf4d	0.062895395
6	0x3e1fa723	0.15591101
7	0x3e71869b	0.23586504
8	0xbdc0b05b	-0.09408637
9	0xbd1aa539	-0.037755225
10	0x3e09bde8	0.1345135
11	0x3ddef511	0.108865865
12	0x3e4665de	0.19374797
13	0xbcf8770e	-0.030330207
14	0x3e0f6b46	0.14005765
15	0xbda44553	-0.08021035
16	0x3e2643e3	0.16236834
17	0x3e52e4b5	0.20595057
18	0xbc60452e	-0.013688369
19	0x3daad253	0.083408974
20	0x3da216a7	0.07914477
21	0x3e3f3252	0.1867154
22	0x3dc3af73	0.09554949
23	0xbc42ffd5	-0.011901815
24	0x3dd834d1	0.10556949
25	0x3e34ac91	0.17643954
26	0x3e1541ca	0.14575878
27	0x3c7c572b	0.015401642
28	0x3ddd958e	0.10819541
29	0x3e521610	0.20516229
30	0x3e38471f	0.1799588
31	0x3d187a13	0.037225794

layer_stack.4.layer_stack.4.running_mean f4 [32]
0	0xbfa8ca6c	-1.3186774
1	0xbfec9bad	-1.8485008
2	0xbfe2482f	-1.7678279
3	0x3eb5a8dd	0.35480395
4	0xbf7f157a	-0.99642146
5	0xbe08daa9	-0.13364662
6	0x3f4ca8b5	0.79944927
7	0xc00d3479	-2.2063277
8	0xbeb3b375	-0.35097852
9	0xbef214f1	-0.47281602
10	0xbf346457	-0.70465606
11	0xbfa8948f	-1.3170336
12	0x3f2ad78f	0.66735166
13	0x3f2b983d	0.6702917
14	0xbf0f014e	-0.55861366
15	0xbf7a89f9	-0.9786678
16	0x3fb80694	1.4377007
17	0xbeedd65c	-0.46452606
18	0xbd2f43c0	-0.04278922
19	0xbeffece1	-0.49985412
20	0xbfbfe418	-1.4991484
21	0xbf314f91	-0.69262034
22	0xbf47f75a	-0.78111804
23	0x3e36b9b1	0.17844273
24	0xbfe0ea0b	-1.7571424
25	0xbf47e229	-0.7807947
26	0xbdc84c1b	-0.09780141
27	0x3fb7f149	1.4370509
28	0x3ef4c768	0.47808385
29	0xbf411068	-0.7541566
30	0xbe49addb	-0.19695227
31	0x3f9053af	1.1275538

layer_stack.4.layer_stack.4.running_var f4 [32]
0	0x3f618084	0.88086724
1	0x3f9a8952	1.2073157
2	0x4025f276	2.5929236
3	0x3f6b3864	0.9188292
4	0x3fb6f236	1.4292667
5	0x3f6f328a	0.9343649
6	0x3fb61c45	1.4227377
7	0x3f8e21d7	1.1104077
8	0x3f44b8c5	0.76844436
9	0x3f4630b6	0.77418077
10	0x3f720690	0.94541264
11	0x3f411bd1	0.7543307
12	0x3f8b6dd1	1.0892888
13	0x3fa9a3ff	1.3253173
14	0x3fa9b994	1.3259759
15	0x3f623faa	0.88378394
16	0x3f8de3aa	1.1085103
17	0x3fae2433	1.3604797
18	0x3fbbbf91	1.4667836
19	0x3fbe42e9	1.4864169
20	0x3f842f4a	1.0326931
21	0x3f7fe7be	0.99962986
22	0x3fa6dad8	1.3035536
23	0x3f7fcb55	0.99919635
24	0x3f97d97d	1.1863247
25	0x3f930b68	1.1487856
26	0x3f9b171a	1.2116425
27	0x3f87ac74	1.0599504
28	0x3f77236d	0.9653843
29	0x3f867183	1.0503391
30	0x3f84681b	1.034427
31	0x3f6703fe	0.90240467

layer_stack.4.layer_stack.6.weight f4 [48, 32, 1, 1]
0	0x3d5c716c	0.053819105
1	0xbaa3253c	-0.001244701
2	0x3d9cdb42	0.076590076
3	0xbdf6109d	-0.120148875
4	0x3ebc1033	0.3673111
5	0x3d7b21e4	0.061311617
6	0xbdaef21a	-0.08542271
7	0xbe0795d4	-0.13240749
8	0x3d88f987	0.066882186
9	0xbd4b6f4e	-0.049666695
10	0x3df41728	0.11918479
11	0x3b68b946	0.0035510822
12	0x3b947c6b	0.0045314333
13	0xbe5cb1d1	-0.21552207
14	0xbdc5f783	-0.0966635
15	0xbdac924a	-0.0842634
16	0xbd1a6b8b	-0.037700217
17	0xbdd258bb	-0.1027083
18	0xbe57ee36	-0.21086964
19	0x3d0a9de0	0.033841968
20	0x3d9a7c32	0.075432196
21	0xbe116316	-0.14197955
22	0xbe4d1023	-0.20025687
23	0xbd971742	-0.07377483
24	0xbdac7a35	-0.08421747
25	0xbdc74c8e	-0.097313985
26	0x3e7312f1	0.23737694
27	0xbe7cad75	-0.24675544
28	0x3e002980	0.12515831
29	0x3e6c38ce	0.23068544
30	0x3e13785f	0.14401387
31	0xbe2ce714	-0.16885024
32	0xbdc07bd1	-0.09398616
33	0x3db187d7	0.086684875
34	0x3e3dcf39	0.1853608
35	0xbde90da9	-0.113795586
36	0x3da5aabf	0.08089208
37	0x3d739852	0.059471436
38	0xbe26c08e	-0.16284391
39	0x3b0fe239	0.0021954908
40	0xbe33544a	-0.17512622
41	0xbcd2720e	-0.025689151
42	0xbc9e65af	-0.019335596
43	0xbd0b155c	-0.033955917
44	0x3e939037	0.28820965
45	0xbde90590	-0.11378014
46	0xbe4ab391	-0.19795062
47	0x3c577428	0.013150252
48	0xbe2a2021	-0.16613819
49	0x3e399944	0.18124872
50	0xbca43163	-0.02004308
51	0xbe86c137	-0.26319286
52	0x3e819457	0.25308487
53	0xbe0b532d	-0.13605948
54	0xbdc1e974	-0.09468356
55	0x3aa51cb2	0.0012597053
56	0x3d10ffca	0.03540019
57	0x3e81f2cc	0.25380552
58	0x3e4e3d65	0.20140608
59	0xbcde11ed	-0.027108157
60	0xbd6f23bb	-0.058383685
61	0xbd8d05f8	-0.06885904
62	0xbdc3e254	-0.09564653
63	0xbe348868	-0.1763016
64	0xbdb58310	-0.08862889
65	0x3c92bf67	0.017913533
66	0x3dd75a06	0.105152175
67	0xbe200752	-0.15627792
68	0x3dc50d4c	0.09621677
69	0xbe5bf0f1	-0.2147863
70	0x3bdfb81e	0.0068273684
71	0xbe513426	-0.2043005
72	0x3e63a2fe	0.22230145
73	0xbe4ba08e	-0.19885466
74	0x3e7a5316	0.24445757
75	0x3df482f0	0.11939037
76	0x3d4d731e	0.050158612
77	0xbe6839b2	-0.22678259
78	0xbd00ea58	-0.031473488
79	0xbe57077c	-0.20998949
80	0xbc2b4d2c	-0.010455411
81	0x3e0cffef	0.13769506
82	0xbdc012f5	-0.09378616
83	0x3dc8914a	0.09793337
84	0xbe41063c	-0.18850034
85	0x3dd83ab9	0.105580755
86	0xbe1dcb1c	-0.15409511
87	0xbe0369c2	-0.12833312
88	0xbe4e93f0	-0.20173621
89	0xbd9f8541	-0.07789088
90	0xbbfc5b6e	-0.007701329
91	0x3ca14156	0.019684475
92	0x3e0ef899	0.1396202
93	0x3e18dd78	0.14928234
94	0xbe0acc5e	-0.13554522
95	0xbe4554d9	-0.19270648
96	0x3de4dd7c	0.11175057
97	0x3bc37ca3	0.0059657856
98	0x3eb1e11f	0.34742066
99	0x3db95afa	0.090505555
100	0x3d6ae7bf	0.057349917
101	0x3b003411	0.0019562284
102	0xbc82c4ee	-0.015963044
103	0x3e301f82	0.1719952
104	0xbe4f5902	-0.20248798
105	0xbc63e712	-0.013910072
106	0x3e350584	0.17677885
107	0xbd84fffb	-0.06494137
108	0x3ca81048	0.020515576
109	0xbe20b2b0	-0.15693164
110	0xbe3e60c3	-0.18591599
111	0xbdfff446	-0.12497763
112	0x3dae512d	0.08511577
113	0xbdfacfb3	-0.12246647
114	0xbe76d56a	-0.24104849
115	0xbe02e867	-0.12783967
116	0x3d97bf7e	0.07409571
117	0xbe17e396	-0.14832911
118	0xbd443582	-0.04790259
119	0xbd97bc2f	-0.0740894
120	0xbd2df759	-0.042472217
121	0xbdd9cb35	-0.10634462
122	0xbe0a54b2	-0.13508871
123	0xbe04c7a0	-0.12966776
124	0x3d9d3ecb	0.076779924
125	0x3da27f8c	0.07934484
126	0xbe358692	-0.17727116
127	0x3d115943	0.035485517
128	0xbe729a1e	-0.23691604
129	0xbdc3aa52	-0.095539704
130	0x3d5979cd	0.053094674
131	0x3db0410f	0.08606159
132	0xbda52bf4	-0.08065024
133	0x3d9243e0	0.071418524
134	0xbe042eb4	-0.12908441
135	0xbd3a3c04	-0.04546739
136	0x3e18d40b	0.14924638
137	0x3c9fc96b	0.019505223
138	0x3dbda170	0.092593074
139	0x3e1801ec	0.14844483
140	0xbdbbd341	-0.09171153
141	0x3cfb6513	0.030687844
142	0x3cab77f6	0.020931225
143	0xbca2ccec	-0.019873105
144	0xbda8e97a	-0.08247657
145	0xbe15e104	-0.14636618
146	0x3db2d411	0.08731855
147	0xbe4aaf91	-0.19793536
148	0xbd1b6080	-0.037933826
149	0xbd9e6316	-0.07733743
150	0x3e09b50e	0.13447973
151	0xbe43d10b	-0.19122712
152	0x3e81c649	0.25346592
153	0xbe4c5c56	-0.19957098
154	0x3d062e05	0.03275873
155	0xbc6297a7	-0.013830102
156	0x3d02799c	0.031854257
157	0x3e47c74e	0.19509622
158	0x3e899dc1	0.2687817
159	0xbdf38cb9	-0.11892075
160	0x3e30a425	0.17250116
161	0xbe3c6194	-0.18396598
162	0xbe007a8d	-0.1254675
163	0x3e19217d	0.14954181
164	0xbda98703	-0.082777046
165	0x3d37590a	0.04476265
166	0xbda7443f	-0.08167314
167	0xbe1ce787	-0.15322696
168	0xbe1ca634	-0.15297776
169	0xbd109ada	-0.035303928
170	0x3c0f9c36	0.008765271
171	0x3ea8ad2a	0.32944614
172	0xbe3784f8	-0.17921817
173	0xbe1b7b00	-0.1518364
174	0xbe0ce6dc	-0.13759941
175	0x3cb2f295	0.021844188
176	0x3cd4ad58	0.025961563
177	0xbda2d104	-0.07950023
178	0x3e6a610c	0.22888583
179	0x3cad7be5	0.021177242
180	0x3df509a2	0.11964728
181	0xbe239eb1	-0.15978505
182	0xbe290f71	-0.16509797
183	0xbda0361c	-0.078228205
184	0xbe66bfb8	-0.22534072
185	0xbdb70a48	-0.08937508
186	0x3e6c55d4	0.23079616
187	0xbdb46bf7	-0.08809655
188	0xbdd2ea65	-0.102986135
189	0x3c23d384	0.00999916
190	0xbe4900a4	-0.1962915
191	0xbc3a8a6f	-0.011385544
192	0x3cfbb7fc	0.030727379
193	0x3eb689db	0.3565205
194	0x3e7c3442	0.2462931
195	0xbd6bc56d	-0.057561327
196	0x3d300dd8	0.042981952
197	0xbe5360a8	-0.2064234
198	0xbd2ac7c6	-0.041694425
199	0xbda7e475	-0.081978716
200	0xbe0ec83a	-0.13943568
201	0xbd772ca0	-0.060345292
202	0x3d644c2a	0.0557367
203	0xbcfa3f28	-0.030547693
204	0xbe3f6082	-0.18689159
205	0x3b0ddd8b	0.0021646942
206	0x3c9bde1d	0.01902681
207	0xbcbf1914	-0.023327388
208	0xbe7923db	-0.24330084
209	0xbd4d12a2	-0.050066598
210	0xbd90d53f	-0.070719235
211	0x3dd0d39d	0.10196612
212	0xbd41f4ba	-0.04735253
213	0x3d79135d	0.060809482
214	0x3e0283d2	0.12745598
215	0xbe2625f6	-0.16225418
216	0x3dd1d9c5	0.10246614
217	0xbe30346a	-0.17207494
218	0x3e44ba0d	0.19211598
219	0xbd9a6dcf	-0.075404756
220	0xbe378b77	-0.17924295
221	0x3e3d0137	0.18457495
222	0xbdfa6e32	-0.12228049
223	0xbe2c2710	-0.16811776
224	0xbd2083ed	-0.039188314
225	0x3e12a7d5	0.14321835
226	0xbe3b5085	-0.18292435
227	0x3d9bef30	0.07613981
228	0x3e00c2d4	0.12574321
229	0xbe60f048	-0.2196666
230	0xbdd034e2	-0.101663366
231	0x3d688856	0.056770645
232	0xbe1495df	-0.14510296
233	0xbd187f8f	-0.037231024
234	0xbd5814a1	-0.05275405
235	0x3dab33d6	0.08359496
236	0xbdc3fc39	-0.09569592
237	0xbe679b97	-0.22617947
238	0xbd83437a	-0.064093545
239	0xbe292e70	-0.16521621
240	0xbe5ee271	-0.21766068
241	0xbcf8c64e	-0.030367997
242	0x3e5c96ad	0.21541853
243	0x3c914e5e	0.017737564
244	0x3e64fcd6	0.22362074
245	0x3ed1992d	0.40937176
246	0xbc429f81	-0.011878849
247	0x3c64e2a5	0.013970052
248	0xbe486398	-0.19569242
249	0xbd2119ad	-0.039331127
250	0xbe114294	-0.14185554
251	0xbd9ae80d	-0.075637914
252	0x3e480a8a	0.1953527
253	0x3d9a4971	0.07533539
254	0x3e1eedcd	0.15520401
255	0xbc93226c	-0.01796075

layer_stack.4.layer_stack.6.bias f4 [48]
0	0xbd48558c	-0.04890971
1	0x3c13bf24	0.009017739
2	0xbe09e5ca	-0.13466564
3	0xbcde088b	-0.027103683
4	0x3c50b89e	0.012739329
5	0xbd1ca7b1	-0.03824586
6	0xbd7102c6	-0.058840536
7	0xbd95dae6	-0.07317142
8	0x3d320ae8	0.043467432
9	0x3e2610c4	0.16217333
10	0xbd33f450	-0.043934166
11	0x3df512d2	0.1196648
12	0xbe252d47	-0.16130553
13	0xbd5a7cfa	-0.053341843
14	0x3dec4249	0.115360804
15	0x3de1904c	0.110138506
16	0x3e343c43	0.17601113
17	0x3b1f05d0	0.002426494
18	0xbe2a3146	-0.16620359
19	0x3d7ea3b6	0.062167846
20	0x3e0e418e	0.13892195
21	0x3e198147	0.14990722
22	0x3bd5ccc0	0.0065246522
23	0xbe255a3f	-0.16147707
24	0x3d1ba84e	0.038002305
25	0xbd4832b1	-0.048876468
26	0x3dedad74	0.11605349
27	0xbdc5c0fe	-0.09655951
28	0xbd2bbe01	-0.04192925
29	0xbdeb76b0	-0.11497247
30	0xbe08632e	-0.13319084
31	0xbe273e74	-0.16332418
32	0xbb9cb532	-0.0047823424
33	0x3e039432	0.12849501
34	0xbc154083	-0.009109619
35	0xbdb9c34b	-0.09070452
36	0x3e2514f2	0.16121271
37	0x3dddc970	0.10829437
38	0x3b6b5de2	0.0035914113
39	0xbe02b33a	-0.12763682
40	0xbe083909	-0.13303007
41	0xbb2e5c4e	-0.002660531
42	0xbcc4702b	-0.023979267
43	0x3db4cba9	0.088279076
44	0xbd504963	-0.050851237
45	0x3db04172	0.08606233
46	0x3cba621b	0.022751858
47	0xbb56a0a6	-0.0032749563

layer_stack.4.layer_stack.7.weight f4 [48]
0	0x3f854949	1.041299
1	0x3f855a08	1.04181
2	0x3f82dbea	1.0223362
3	0x3f81c40c	1.0137954
4	0x3f832654	1.0246072
5	0x3f81f073	1.0151504
6	0x3f8735ac	1.0563254
7	0x3f83c141	1.0293351
8	0x3f8416cd	1.0319458
9	0x3f86c427	1.0528611
10	0x3f848582	1.0353243
11	0x3f83cf7c	1.0297694
12	0x3f87bbf8	1.0604239
13	0x3f785b5e	0.97014415
14	0x3f7b4253	0.9814808
15	0x3f860eb0	1.0473232
16	0x3f816155	1.0107828
17	0x3f732da9	0.94991547
18	0x3f84df28	1.0380602
19	0x3f84f0fb	1.0386041
20	0x3f811064	1.0083127
21	0x3f825e16	1.0184963
22	0x3f80e398	1.0069456
23	0x3f8c2a4e	1.095041
24	0x3f755db9	0.95846134
25	0x3f80cd1b	1.0062593
26	0x3f7dd857	0.99158233
27	0x3f8d1115	1.1020838
28	0x3f801bb7	1.0008458
29	0x3f8a3909	1.0798656
30	0x3f7bb99c	0.9833009
31	0x3f89edec	1.0775733
32	0x3f767dc2	0.9628564
33	0x3f7d7862	0.99011815
34	0x3f8329f0	1.0247173
35	0x3f89150f	1.0709552
36	0x3f7eb568	0.99495554
37	0x3f7c584e	0.9857224
38	0x3f809ba2	1.0047495
39	0x3f831d16	1.0243251
40	0x3f7a5717	0.9778914
41	0x3f8a6d42	1.0814593
42	0x3f7856e0	0.9700756
43	0x3f8dfd38	1.1092901
44	0x3f8b9801	1.0905763
45	0x3f7fe347	0.9995617
46	0x3f8a0e82	1.0785677
47	0x3f85c8fa	1.0451958

layer_stack.4.layer_stack.7.bias f4 [48]
0	0xbcbf5eba	-0.023360599
1	0x3dc4d8a2	0.09611632
2	0x3c8235b1	0.015894743
3	0xbb623456	-0.0034516058
4	0xbd7b0be1	-0.061290625
5	0x3d61bf9a	0.055114366
6	0x3d1abb7e	0.037776463
7	0x3e009eaf	0.12560533
8	0x3dc46936	0.0959038
9	0x3d351c18	0.044216245
10	0x3d81887b	0.0632486
11	0x3c423f50	0.011855915
12	0x3d0bbb86	0.034114383
13	0x3d572468	0.052524954
14	0x3d1c3bb9	0.038142893
15	0xbcd2d02c	-0.02573403
16	0x3cfac06f	0.030609338
17	0xbc96736e	-0.018365588
18	0x3da004ca	0.078134134
19	0x3cd3807d	0.025818104
20	0xbca5238c	-0.020158552
21	0xbd5f66d7	-0.054541435
22	0x3d26bf69	0.040709887
23	0x3d60afd3	0.05485518
24	0xbd6238c0	-0.055229902
25	0x3d577998	0.052606195
26	0x3de5bb97	0.112174205
27	0x3dc67637	0.096905164
28	0x3d921b23	0.07134082
29	0x3c6b32d7	0.014355383
30	0xbd04c7d9	-0.032417152
31	0x3e0108cf	0.12601016
32	0xbcd3aa5c	-0.02583807
33	0xbbe2606b	-0.0069084666
34	0x3dad56e9	0.084638424
35	0x3d7f1779	0.062278245
36	0x3c842a00	0.016133308
37	0xbd13663e	-0.035986178
38	0x3d5ba632	0.053625293
39	0x3e11b823	0.14230399
40	0x3d2a041b	0.04150782
41	0x3d37bb7a	0.044856526
42	0xbd8cf988	-0.06883532
43	0x3d4b24d1	0.049595658
44	0x3bc8c973	0.0061275302
45	0xbd6811de	-0.056657664
46	0x3d8b1465	0.06790999
47	0x3dd35e13	0.103206776

layer_stack.4.layer_stack.7.running_mean f4 [48]
0	0xbe861dd2	-0.26194626
1	0xbe0518f7	-0.12997805
2	0xbf0434e8	-0.5164323
3	0xbeb12326	-0.3459713
4	0xbd06dfbf	-0.032928225
5	0xbf13a125	-0.5766776
6	0xbe84c5c1	-0.25932124
7	0xbe1de965	-0.15421064
8	0xbf54edc2	-0.8317529
9	0x3d08c48a	0.03339056
10	0xbf03ae01	-0.51437384
11	0xbd531720	-0.051535726
12	0x3c557740	0.01302892
13	0x3e087d62	0.1332908
14	0x3ef69bf6	0.48165864
15	0x3d27462d	0.04083841
16	0x3d8f7f02	0.07006647
17	0x3ecebda0	0.40379047
18	0xbf023bb3	-0.50872344
19	0xbe4e6b3c	-0.20158094
20	0x3eecc7de	0.46246237
21	0x3e10ab7b	0.14127915
22	0xbf1229f6	-0.5709528
23	0xbf375146	-0.7160839
24	0x3ebf4b62	0.373622
25	0x3d8d8cc1	0.06911612
26	0x3eb21f20	0.34789371
27	0xbf50aaff	-0.8151092
28	0xbea1cdf1	-0.31602433
29	0xbdbe5b62	-0.09294774
30	0xbd881380	-0.06644344
31	0xbf9c153d	-1.2193981
32	0x3f0e1531	0.55501086
33	0xbdd6e6b6	-0.10493223
34	0xbe21cba6	-0.15800342
35	0xbf5435ab	-0.8289439
36	0x3cbda0c5	0.02314795
37	0xbdc9b3e1	-0.09848762
38	0xbe6f8604	-0.23390967
39	0xbe06f779	-0.13180341
40	0xbe4f33a7	-0.20234548
41	0x3f1199bc	0.56875205
42	0xbd95f529	-0.07322151
43	0xbcc4fd3c	-0.024046533
44	0xbe8ad84e	-0.27118152
45	0x3e309a8d	0.17246456
46	0xbeab4690	-0.33452272
47	0xbe1fcb37	-0.15604864

layer_stack.4.layer_stack.7.running_var f4 [48]
0	0x3e942c28	0.2893994
1	0x3ea1c2f0	0.31594038
2	0x3e79ad0b	0.24382417
3	0x3e70eb6e	0.2352731
4	0x3e87dc05	0.2653505
5	0x3e733425	0.2375036
6	0x3e99f656	0.30070752
7	0x3ea9a3ad	0.33132687
8	0x3e81272e	0.25225204
9	0x3e932b1e	0.28743833
10	0x3e783b15	0.24241288
11	0x3ead17a1	0.3380709
12	0x3ea1a544	0.315714
13	0x3e5ebedd	0.21752496
14	0x3e4eb3d9	0.20185794
15	0x3e69628e	0.22791502
16	0x3e742cd5	0.23845227
17	0x3e71b13c	0.23602766
18	0x3e8b838d	0.27248803
19	0x3ea06ba8	0.31332135
20	0x3e8f90a4	0.2804004
21	0x3e7c9ce1	0.2466922
22	0x3ea4a807	0.32159445
23	0x3e922c7a	0.28549558
24	0x3e6ee342	0.2332888
25	0x3e539fff	0.20666502
26	0x3e8f9875	0.28046003
27	0x3ea9797b	0.33100495
28	0x3e7b0c32	0.24516371
29	0x3e9a36a5	0.30119815
30	0x3e991cae	0.29904693
31	0x3e78bf74	0.24291784
32	0x3e78dad8	0.24302232
33	0x3e572565	0.21010359
34	0x3e623df7	0.2209395
35	0x3e58e32c	0.21180409
36	0x3e65622d	0.22400732
37	0x3e8b8c15	0.27255312
38	0x3e767356	0.24067435
39	0x3eaae60a	0.3337863
40	0x3e5710a6	0.21002445
41	0x3e8c1b41	0.27364543
42	0x3e8cdf59	0.2751415
43	0x3e915f06	0.2839281
44	0x3e98cb0a	0.29842407
45	0x3e9a6d19	0.3016136
46	0x3e86c967	0.26325533
47	0x3e70b9c8	0.2350837
